Models/LSTM_Start-ups_32_2.pth (torch, 266824 bytes, 7 tensors)

embeddings.0.weight f4 [1172, 2]
00000000: 7bd9 3c40 65e1 d23f 1a4f 1640 8964 77c0
00000010: c50f 9a3e e5d7 afbf 8928 a2bf 9ced 3fc0
00000020: f742 b6bf 5ff7 ea3f 3b31 39bf da0d 40c0
00000030: 7214 04c0 1737 0fbd a44b 7fbf 1c3c 0340
00000040: 828d fa3f 5daf 3ebe fd0a 1b3f dd59 65bf
00000050: 1f5c 04c0 1c8a d33f 296d 833f 0856 d93f
00000060: fc35 0440 6f43 f3bc 4c63 bbbb 2d92 1240
00000070: e79b 94be 10a7 57bf 52ef 973e dd39 d23f
00000080: 40ad 16c0 ee5e 46bf e966 633e cea1 b03f
00000090: 541b 71bd fb58 02bf 5f1b 823f d690 1ebf
000000a0: e972 1ac0 5bb4 163f fcc1 d0bf aef5 ccbe
000000b0: dacf 0cc0 c77a 7040 17d3 a0bf 2630 10c0
000000c0: bb37 99bf 6613 45bf 46a6 173f 67a4 a93f
000000d0: e466 f5bf bf0e d13e 490a d4be 260f 98bf
000000e0: 0ef0 93bf 012c a2bf 7f3d 8a3f dc85 753f
000000f0: c0d3 adbf a715 fc3f 0f30 11c0 d425 093f
00000100: 5212 ac3f e097 8f3e 2b34 8940 5a17 da3f
00000110: 26fb 91bf 3978 10c0 358a cc3d 14d9 cc3f
00000120: 8981 66be 89a2 673f a6c6 ddbf ff2e 43bf
00000130: a82d a13f 9b99 10bf bd10 50c0 c6ab 74bf
00000140: ab70 5b3f fcf7 7bbf d3d5 94bf bf19 1f3e
00000150: 53d8 bc3f 62bd bfbe 01b7 0940 7648 9dbc
00000160: 5e2c d43f 930b 51bf 752b fdbf e16a ff3e
00000170: 38e6 42c0 d629 b5bf 7307 6f40 992c 8cbe
00000180: dfbe 40c0 d95a c3bd aef1 2a3f 93e0 b2be
00000190: 91d4 a63f 87fc d73e 7f0d df3e e449 803e
000001a0: 9fe9 a13e ec63 2a3f 2af4 bb3e 0043 8f3f
000001b0: 7479 44be 2af6 613f 83f0 39bd 4fbf 0dbf
000001c0: acdc e6bf 0f18 afbe 2936 3f3e 0449 a53f
000001d0: 1943 f93f f00e a23f 9152 833f d511 ca3e
000001e0: 4625 983e e82e d03e 9663 0c40 cd04 a43f
000001f0: a8c0 d83f e057 623f 5cc0 823f 97de c5bc
00000200: 1c90 2c40 4e94 2b40 8c46 d4bf 03a8 4abf
00000210: 344e 46be b164 4040 8c54 7c3e 0f2a c13f
00000220: a6be 71bf 487e e73e 6daa 5fc0 6cca 1e40
00000230: 0c2d 6e3a 1cf1 c63e 1164 b3bf 21b8 ac3f
00000240: 1062 c03d 2bfa 053f 5593 c93f 95da 583f
00000250: 2aae 583f a94a 34be f5a6 ecbe fcda 9a3e
00000260: d575 2d3e c75c 333f 6ab3 75bd 30f4 fe3f
00000270: c7bb 39c0 febc 643e 21b1 c2bf d91e d73e
00000280: d1a5 a9bf ca5d 913f 48ab fd3e 1aa5 1ac0
00000290: ed5b 003f 8f13 c8bf 8b31 c33d 2c7a c8bf
000002a0: a1f8 69bf 33eb a33f 032e 1740 fe21 7cbf
000002b0: c8be 80bf e3bf b43d b7ec b73f 46e3 e83f
000002c0: e2b2 d63e c63a 853f a928 08be 6b21 f2bd
000002d0: 5742 17bf c732 98bf 2f42 07c0 876e bbbe
000002e0: 86d7 a2bf 0c4d b1bf 2af9 4dc0 0134 c6be
000002f0: 9168 3840 fcbe ffbf ced9 153f 7b7c 983f
00000300: 5844 01be df32 20bd 53d5 0f40 3c1e 913e
00000310: 4063 e1bf df75 8a3f 6668 d4be faf8 e2bc
00000320: dc9f be3f 74d8 d83f 4c40 fbbf b844 37bf
00000330: b547 9b3f 2c7f ab3f 4158 1340 951c 9b3f
00000340: c031 0cc0 75bd 15c0 5903 b4be 9760 58bf
00000350: 8f04 483f 69bc 3e3f ad04 68bf 47dc 3fc0
00000360: 3232 a1be 0f85 0140 b9b3 9abf 873f d63f
00000370: ca0d c83e ffb9 cebd 2bf2 933f 9a89 0c40
00000380: d11a c83e 403a bf3f fef4 583e 0f27 41bf
00000390: 1024 1dbf 4d7a e6bf c770 4d3f 1fce 2640
000003a0: 6575 90bf e2f2 97bf b862 53c0 1389 0bc0
000003b0: ff24 4dbe 4df2 ad3e 8815 e0bd 1f58 b13f
000003c0: dc36 16c0 da87 d83d 6b31 8dbf 74ba ad3f
000003d0: 83b8 d1bf bef0 2d3f 51aa d6be f3f4 ce3f
000003e0: fef2 fa3f d117 62bf 9775 c83f 96da 683f
000003f0: f2f7 bf3f dc1e 423f 62dd 6d3e 0a2a 303f
2.950774 1.6475035 2.348578 -3.8655112 0.30090156 -1.3737761 -1.266862 -2.9988775
-1.4239186 1.8356742 -0.72340745 -3.0008454 -2.063748 -0.034964647 -0.99724793 2.0505438
1.9574435 -0.18621583 0.6056364 -0.89590245 -2.0681226 1.6526523 1.0267688 1.697938
2.065795 -0.02969524 -0.005718624 2.2901719 -0.29025194 -0.8423929 0.29674774 1.6423908
-2.3543243 -0.774886 0.22207226 1.3799379 -0.058863953 -0.50917023 1.0164603 -0.6193975
-2.4132636 0.5886895 -1.6309199 -0.4003119 -2.2001863 3.7574937 -1.256442 -2.2529387
-1.1970133 -0.76982725 0.5923809 1.3253297 -1.9172025 0.40831563 -0.41414097 -1.1879623
-1.1557634 -1.2669679 1.0800017 0.9590738 -1.3580246 1.9694108 -2.2685583 0.53573346
1.3443091 0.2804556 4.287618 1.7038376 -1.140477 -2.2573378 0.099872984 1.6003747
-0.22510351 0.90482384 -1.7326248 -0.76243585 1.2592058 -0.56484383 -3.2510216 -0.95574605
0.8571879 -0.9842527 -1.1627754 0.15537165 1.4753517 -0.37449175 2.1517947 -0.019199591
1.657604 -0.81658286 -1.9778887 0.4988623 -3.0453014 -1.4153392 3.7348297 -0.27377775
-3.0116498 -0.09538812 0.66775024 -0.34936962 1.303362 0.4218485 0.43564984 0.25056374
0.3162355 0.6655872 0.3670972 1.1192322 -0.19186956 0.8826624 -0.045395385 -0.5537004
-1.8036094 -0.34198043 0.18673004 1.2912908 1.9473602 1.2660809 1.0259572 0.3946673
0.29715937 0.40660787 2.1935782 1.2813965 1.6933794 0.88415337 1.0214953 -0.02415399
2.6962957 2.6809268 -1.6584029 -0.79162616 -0.1936577 3.0061457 0.24641627 1.509096
-0.9443153 0.45213532 -3.494777 2.4811049 0.0009085692 0.38855827 -1.4014913 1.3493692
0.09393704 0.5233485 1.5748087 0.8470853 0.84640753 -0.17606606 -0.46221128 0.30245197
0.1693948 0.7006344 -0.059985556 1.991827 -2.902086 0.2233772 -1.5210305 0.42015722
-1.3253728 1.1356747 0.4954474 -2.416327 0.5014027 -1.5630969 0.09530934 -1.5662284
-0.91395 1.2806152 2.3621833 -0.9848937 -1.0058222 0.08825662 1.4369115 1.8194358
0.41933352 1.0408561 -0.1329676 -0.1182278 -0.590856 -1.1890496 -2.1134145 -0.36607763
-1.2722023 -1.3851638 -3.2183328 -0.3871155 2.8813822 -1.9980159 0.5853547 1.1912988
-0.12623727 -0.039111014 2.2473953 0.2834338 -1.7608414 1.0817221 -0.414859 -0.027706612
1.4892535 1.6941056 -1.9628997 -0.7158923 1.2131258 1.3398185 2.3022616 1.2118098
-2.1905365 -2.3396885 -0.35158804 -0.84522384 0.78131956 0.7450624 -0.90632135 -2.9978197
-0.31483608 2.0237463 -1.2086097 1.6738137 0.3907302 -0.1009407 1.1558279 2.1958985
0.3908296 1.4939651 0.21187207 -0.75450224 -0.6138315 -1.8006073 0.8025021 2.6063306
-1.1285826 -1.1870997 -3.3029003 -2.1802413 -0.20033644 0.33973923 -0.10941607 1.3855017
-2.3470984 0.10572787 -1.1030706 1.3572526 -1.6384434 0.6794547 -0.41926816 1.6168503
1.9605405 -0.8831759 1.5660886 0.90958536 1.4997542 0.7582834 0.23228982 0.68814147

layers.0.weight f4 [256, 64]
00000000: 1e5b 0b3e 4fac 42bf 009f bbbe d290 553d
00000010: d5e8 493e e163 c9bd 6287 47be f69c cebe
00000020: 3b46 133e f0b4 143f 2d71 333d bc0e c3be
00000030: 49c1 b4be 063d e4bd 6bb9 50be 32ae 7b3d
00000040: ebdf 66be d8d2 083e c983 d33e 0a18 acbe
00000050: 45e7 c9be a50d 8dbe 40c7 d3bd 4328 953e
00000060: 265a 023e ad40 db3e 6e73 883e ebd0 a1be
00000070: ce85 5cbe e2c1 6ebd cc12 9ebe 1e40 4fbc
00000080: 457f bdbd 7f1d 0cbe a077 9fbe 1813 c0be
00000090: ef11 e63e c632 043e 4ad7 e33e afdf 193e
000000a0: bbbc b13d 44be 09bf 0d7b 87be 88de 04be
000000b0: 5f8c 813d a0bc dcbe d982 3c3f 3e5a f6be
000000c0: 1ee1 0fbf 4545 bf3e bd0e 953e cb75 223e
000000d0: c597 e4bc a2fb 6d3e 0461 9ebd 346f 593e
000000e0: 1daa 58be 0026 4a3e bbe2 15be 1055 dcbd
000000f0: d558 59bf 3e8c 14bf 982f eabe dd23 f43e
00000100: fdf8 9bbd 2f18 623e 1a86 0dbf a2d5 123e
00000110: 8102 043e f712 c03e 7f0e 22be bff3 13bf
00000120: caec 4bbd e88b 9ebd a037 fabe 1101 ec3e
00000130: 5a7e 0f3e 1afd 873e 2ef9 c03b 2c9b 54bf
00000140: 7089 653e c71a fcbe 25df 5dbe ec37 7e3e
00000150: d726 083f 8d8a 05bd 8e0e 0a3e 99dd 703d
00000160: b1a5 99be d67a 123e 5704 393d b178 d23d
00000170: 0267 0d3f cbcd 7a3e 6979 d6bc e9f1 813e
00000180: 23bd 083f cb1a 3dbd bd3d a33e 5417 19bf
00000190: 8b65 003f f248 163f bfd1 4d3f d6a3 a93e
000001a0: 773c 9dbe 8bda 95be 491e 0f3e 7088 1abf
000001b0: 4482 973e 4ac9 863d c03a 14bf bd67 07bf
000001c0: ea1f fa3e 338e bf3d 72a6 4c3d f4b4 e2be
000001d0: 6196 1d3f 505e 04bf 7049 c3bd cabc 453e
000001e0: 334c ee3e 95f6 d2bd 184f b73e 05d5 43b9
000001f0: 9bd5 003e 4269 da3d 17b9 c4be d86e 203f
00000200: 0194 083f cc62 10bf 2b5c b53d 6d0e d83e
00000210: e123 8ebd bfe7 b1be df22 253d bfa7 ef3e
00000220: a1c8 bebe 0a38 5fbd c55e 83bd b997 1f3e
00000230: 8d3a 173f 2199 c53e aab3 2d3e c1d1 4dbe
00000240: 1d87 463d 462e aabd 0f79 b7be 8e14 13bf
00000250: 697d c93e 4a6d 70bf a3ec af3e fc59 2dbe
00000260: 4dca 2cbe 9e36 0cbe 430f 71bd 0740 0f3e
00000270: a07d b33d 0286 cc3e 702c 7ebd 7934 6abe
00000280: 6158 e73e 7e9f b2be 41c2 31bf 2b35 c5bd
00000290: 4362 53be f054 023f d8c2 783e b7b0 3a3e
000002a0: f810 d43c d233 ccbd 1529 9f3e dcc9 6fbf
000002b0: 3158 3b3f b029 e3be 88aa 8ebc 1932 193e
000002c0: 4d35 253e 6dca a7be b9dd 603b dc7d fcbd
000002d0: a834 183f c579 ff3c a984 363e 5975 2a3e
000002e0: c369 f93e ad8e 7bbe d404 673d 047d e63e
000002f0: d766 ebbe 089e c23e 0d85 0b3f 9e84 053d
00000300: 1d03 243e ae66 863d 0c02 b2be cb6f ecbe
00000310: 5fa9 ea3c 65c5 b13e e32f d2bd ee17 4e3d
00000320: dcf8 913e d8f2 41be 95b1 ba3e 4197 943e
00000330: a5e1 a33e 490e 193d ab3d 333f daa0 f93d
00000340: e952 cc3e b0ec ddbc e2e5 04be 41f3 b23e
00000350: f422 9a3e 7d3e 44bd 1f58 85be ce22 ea3c
00000360: 792c 353f 4b34 ccbe 01dd 0d3e 59bf dabe
00000370: fba9 ea3e c74c de3c d1c2 543e 7238 ce3e
00000380: e5ae febe b948 25be 15b1 9ebe cc62 99be
00000390: 2198 7fbe aabe a73e d7e9 393e 776b a8bd
000003a0: e2da e93e f07b 84be 2c55 663f df60 1a3d
000003b0: 9c66 c03e 94f8 983e f195 cd3e 795c 2cbe
000003c0: 58e6 2fbe 4ec5 cb3c 2360 fc3e faab c23e
000003d0: e759 e03d fe7c 103e 9e61 033f a56a f03e
000003e0: 050b 89be 85f9 a83e d707 b53e 2346 08bf
000003f0: 8c7b 793d 4070 73bf b039 a1be db99 ef3e
0.13608977 -0.7604417 -0.36644745 0.052140065 0.19717725 -0.098335035 -0.19485238 -0.40354127
0.1438226 0.5808859 0.043809105 -0.3809718 -0.35303715 -0.11144452 -0.20383231 0.061445422
-0.22546355 0.1336168 0.41311482 -0.3361209 -0.39434257 -0.27549472 -0.10340738 0.2913228
0.12729701 0.4282278 0.26650566 -0.31604704 -0.21535417 -0.05829037 -0.30873716 -0.012649564
-0.0925279 -0.13683127 -0.31145954 -0.37514567 0.44935557 0.12909994 0.4450019 0.15026735
0.086785756 -0.5380595 -0.26461068 -0.12975514 0.06325602 -0.4311266 0.7363716 -0.48115724
-0.56202877 0.37357536 0.29112807 0.15865247 -0.0279044 0.23240522 -0.07733348 0.21233827
-0.21158643 0.19741058 -0.14637272 -0.10758412 -0.8490117 -0.5802649 -0.45739436 0.47683612
-0.0761585 0.22079538 -0.5528275 0.14339307 0.1289158 0.3751447 -0.15825842 -0.577938
-0.049786367 -0.07741529 -0.48870564 0.46094564 0.14013043 0.2656029 0.0058890795 -0.83049273
0.2241571 -0.4923918 -0.21667154 0.2482602 0.53184265 -0.032602835 0.13482115 0.058805082
-0.30009225 0.1430467 0.045170154 0.10276926 0.552353 0.24492566 -0.02618094 0.25379875
0.534136 -0.04616813 0.3188304 -0.5980122 0.5015494 0.58705056 0.8039817 0.3313281
-0.30710194 -0.29268298 0.13976397 -0.6036444 0.29591572 0.065813616 -0.57902145 -0.5289267
0.48852473 0.09353294 0.049963422 -0.4427868 0.61557585 -0.5170641 -0.095354915 0.19310299
0.4654251 -0.10300938 0.3580253 -0.00018676005 0.12581484 0.106646076 -0.38422462 0.62669134
0.53350836 -0.5640075 0.0885547 0.42198506 -0.06940437 -0.3474712 0.04031646 0.46807668
-0.37262443 -0.054496802 -0.0641456 0.15585221 0.59073716 0.3859339 0.16963068 -0.20099546
0.048468698 -0.08309607 -0.35834548 -0.5745324 0.39353493 -0.9391676 0.34360227 -0.16928858
-0.16874047 -0.1369271 -0.058852445 0.13989268 0.087641954 0.3994599 -0.062054098 -0.22871579
0.45184615 -0.34887308 -0.6943703 -0.096292816 -0.20642953 0.50910854 0.24293077 0.18231474
0.025886998 -0.099708214 0.3108603 -0.9366739 0.73181444 -0.44367743 -0.0174153 0.14960517
0.16133614 -0.32771626 0.0034311845 -0.12328693 0.5945535 0.031185994 0.17824043 0.16646327
0.48713502 -0.24566145 0.05640109 0.45017254 -0.45976898 0.38011193 0.54499894 0.032597177
0.16016813 0.06562553 -0.34767187 -0.4617904 0.028645216 0.34720913 -0.1026304 0.05031579
0.28510177 -0.18940294 0.3646361 0.29021648 0.3200809 0.03736714 0.7001597 0.12188883
0.39907005 -0.0270904 -0.12978318 0.34951213 0.30104792 -0.047911156 -0.26043794 0.02858105
0.70770985 -0.39883646 0.13853838 -0.42724112 0.4583281 0.02713622 0.20777442 0.4027744
-0.4974281 -0.16141023 -0.30994478 -0.2995819 -0.24960376 0.32762653 0.18155609 -0.08223622
0.45674807 -0.25875807 0.8997371 0.03769004 0.37578285 0.2987715 0.4015346 -0.1683215
-0.17177713 0.024874356 0.49292096 0.38021833 0.109546475 0.1411018 0.51320827 0.46956363
-0.2676622 0.33002868 0.35357544 -0.5323202 0.06090884 -0.95093155 -0.31489325 0.4679707

layers.0.bias f4 [256]
00000000: cc79 443e 4a6b f4be eaba 23be e676 bfbe
00000010: 5320 923d 943d 1bbf f21a c63d 9540 40bb
00000020: ae08 e2bd e353 41be deb9 d93d 62cd 0ebf
00000030: 27e3 db3c f715 3dbe 27fa dabd bdcc a53c
00000040: 8216 bebe c005 53bd 9bca c63c a478 6f3c
00000050: 3268 e53d b82e 88be dbc4 d9bd a78a cebb
00000060: dbb1 12be db10 d7be 8332 b53d ed94 64be
00000070: 7a6f 3ebd 7c05 03bd 68f8 b7bd 95e9 abbd
00000080: 81c2 0ebe 37b9 7c3d be94 543e 6c4e b13d
00000090: fb54 1d3e 0b28 1d3e ed76 c33b 372f 8dbd
000000a0: 56c1 4bbe 06d2 a6bd cf31 acbe 4afa 87be
000000b0: 074e c63d 9a49 2d3e d94e dbbd 587c 013e
000000c0: 08af 893c f1b1 7abe eb3f a4bb 26be 88bd
000000d0: ee8c c9bd 531f d23d 8feb 163e df82 32be
000000e0: e458 573d 99c9 3ebe 9812 b23d ecd0 c93d
000000f0: c0ae cdbd d746 283d 1dc9 28bd 4807 6d3e
00000100: 0b7d 373d 0d36 57bc 28a0 84be 9ce2 9abd
00000110: 4d08 a2be 2c5c ac3e da54 033e 01e5 f63d
00000120: 37e4 f13d 7619 f33d fee3 a0bd 0eaf 9bbe
00000130: 3c45 f93d 7dc9 8b3e 433a 61bd 1f03 acba
00000140: e55a 41bd 28cc 08bd 2bef 52be bda8 c1bd
00000150: 09b7 413e ccab e9bd b041 36be f936 84be
00000160: f440 81be e459 9e3d 48f2 2d3c 8d0c 94be
00000170: cda6 6cbe f89a 2a3e 2694 ea3d 5b9c 18be
00000180: ea8a 9a3b 3fd0 783e 66da 073d 310e 16bd
00000190: 0b79 f7bd c9d9 36bd 6a9f 973c fb97 833e
000001a0: 8bc6 f63b 571c fa3d 0c2d 3b3e a5d2 173e
000001b0: c7c8 e4bd 9381 1cbd 7a43 dcbc addd dbbe
000001c0: 8ec4 023d 5474 a2be b73a 3ebe 2644 353e
000001d0: 154f 32be b95d 8ebc 7211 30be 1a32 a2bc
000001e0: 9150 9abb 6446 0dbe 5820 8bbc 6968 623e
000001f0: c815 cabe e8c5 dbbd 6c29 773d 15ab a63d
00000200: 6ca4 543d 9f80 24be c8ca 91bd d378 a8be
00000210: 9877 b3bd acf5 6ebe d032 c23d 5048 f13d
00000220: 167a 193c f19d 8dbe 3d9c 33bc b363 833c
00000230: fd29 e43d 63ed 583d 06be 81bc 0f00 c7bc
00000240: dbca 7b3e ac1e 953d 598a 05be 9277 173e
00000250: 9128 d4bd 69ac 49bd af80 31bb 0772 bcbd
00000260: f3a4 72bd 767f d2bd c127 41be 5e53 d03c
00000270: 9b22 333d f265 0e3e 8680 b4be b202 be3d
00000280: 5406 163e f980 c7bd 7143 093e 6a40 003a
00000290: f6a7 a8be 4827 3abe 5fc5 9abd bf1d 7fbd
000002a0: bb38 2abe 35fb 88bd 8635 82be 135c 40be
000002b0: fc13 cfbb 29a1 a9bd 0512 b33e c69a 173e
000002c0: feda 25be dee3 88bc 1e47 f7bd a01b b03c
000002d0: 35fc 613e eddd 06be e1fb 713e 9bd2 23be
000002e0: 8803 44be bd34 ae3b a7fc 8c3d dd40 e9bd
000002f0: 3819 94bd 8e27 14be ad43 5b3e 7026 0bbe
00000300: e294 cbbd ce06 283e 251a 9cbe 9a64 263e
00000310: e017 6ebe 103e 1f3e fe00 2e3e bc06 093e
00000320: a349 95be d38b 6ebd 6cfe 383e c6c7 10bd
00000330: 5f48 df3d fd3b aebd e95c 483e d2a4 103e
00000340: 41a3 9f3d db9e e13c 8353 523d 3287 633d
00000350: 4f73 9b3d 6796 00bd 7a9f 0bbe 7a68 1dbe
00000360: 9a2b 1d3d 69bc 5b3d aa61 d73d 7124 013c
00000370: e2b2 fabc 1e70 7f3e 59ab 5b3e 1e49 a83d
00000380: 5986 2e3d 7cc6 8ebe 9b1a 7bbe 90f9 3fbe
00000390: 2821 aabd f7e9 043d 729b 2f3d 2705 583e
000003a0: 9b3d d83c ca93 be3d d4e6 e9be 293e 983d
000003b0: 2239 c4bd fce8 85bd d2ef cd3d c2e7 4c3e
000003c0: 0829 9fbe 2e2d 0f3e abd1 153e 9116 81bd
000003d0: fd06 6dbb fb83 9a3e c19a b03e c4ff 9abd
000003e0: 76a6 813e 3931 513e 4f12 c43c 8615 bf3d
000003f0: 7c90 8c3c 9b9a ec3d 9ba5 6c3e de54 c53d
0.19187087 -0.47738105 -0.15989271 -0.373954 0.071350716 -0.60640836 0.09673108 -0.002933537
-0.11036812 -0.18879656 0.106311545 -0.5578214 0.026841713 -0.1846541 -0.10692244 0.020239228
-0.37126547 -0.051519156 0.024266532 0.014616165 0.11201514 -0.26598144 -0.1063325 -0.0063031497
-0.14325659 -0.42005047 0.08847525 -0.22322436 -0.04649303 -0.031987652 -0.089829266 -0.083941616
-0.13941385 0.061700072 0.20759866 0.08657536 0.15364449 0.15347306 0.005965105 -0.06893771
-0.1989797 -0.081455275 -0.3363175 -0.26558143 0.09682851 0.16922608 -0.10708398 0.1264509
0.016807094 -0.24481942 -0.0050125024 -0.06676893 -0.09841333 0.10259881 0.14738296 -0.17432736
0.052575007 -0.18631591 0.08694953 0.09854302 -0.100430965 0.041083183 -0.04120742 0.23147309
0.044796985 -0.013135445 -0.2590344 -0.075627536 -0.31646958 0.33664072 0.12825337 0.12055398
0.11811107 0.11870091 -0.07855986 -0.30406994 0.121714085 0.2730216 -0.054987203 -0.0013123489
-0.047205824 -0.033397824 -0.20599048 -0.094560124 0.18917479 -0.11409721 -0.17798495 -0.2582319
-0.25244868 0.07731989 0.010616846 -0.28915825 -0.23110504 0.16660678 0.11454038 -0.14903395
0.004716267 0.2429819 0.033167265 -0.036634628 -0.12083634 -0.04464129 0.018508632 0.2570189
0.0075309924 0.12212437 0.18278903 0.14826448 -0.11171108 -0.03820951 -0.026887644 -0.42942563
0.03192573 -0.31729376 -0.18577085 0.17701778 -0.1741298 -0.017378675 -0.17194155 -0.01979928
-0.0047093113 -0.13796383 -0.016983196 0.22110142 -0.39469743 -0.10731107 0.060342237 0.081381
0.051914617 -0.1606469 -0.071187556 -0.32904682 -0.08763045 -0.23335904 0.09482348 0.11781371
0.009367486 -0.27659562 -0.010962543 0.016038751 0.11140821 0.052960765 -0.01583768 -0.02429202
0.24589102 0.07281241 -0.13041057 0.14791706 -0.103593 -0.04923669 -0.0027084758 -0.092014365
-0.05923934 -0.102782175 -0.18862821 0.025430378 0.043734174 0.13906077 -0.35254306 0.09277858
0.14650851 -0.097413965 0.13404633 0.0004892411 -0.32940644 -0.18179047 -0.07557177 -0.062284227
-0.16623203 -0.06688539 -0.2543146 -0.18785124 -0.006319521 -0.08282692 0.34974685 0.14805135
-0.1619682 -0.016710218 -0.120741114 0.021497548 0.22068866 -0.13170595 0.2363124 -0.15998308
-0.19141972 0.0053163455 0.06884127 -0.11389325 -0.072313726 -0.14468214 0.21412535 -0.13588881
-0.099405065 0.16408846 -0.30488697 0.16249314 -0.23251295 0.15551019 0.16992566 0.13381475
-0.29157743 -0.058238816 0.18065804 -0.03534677 0.109024756 -0.085075356 0.19566692 0.14125374
0.0779481 0.027541569 0.051349174 0.055548854 0.07590353 -0.031393435 -0.13635054 -0.15371886
0.03837166 0.05364648 0.10516675 0.007882223 -0.030602876 0.24945113 0.21452083 0.08217071
0.042608593 -0.27885807 -0.24521868 -0.18747544 -0.08307105 0.03244969 0.042872854 0.21095715
0.026396563 0.09305532 -0.4568392 0.07433731 -0.0958121 -0.06538579 0.10055508 0.20010284
-0.31085992 0.13982078 0.14630763 -0.06303132 -0.0036167495 0.30178818 0.34493068 -0.07568315
0.25322312 0.20428933 0.023934511 0.09330277 0.01715874 0.11552926 0.23110048 0.09635328

layers.2.weight f4 [32, 256]
00000000: 1672 90bd 62e8 d73d f197 cd3e b44c 733e
00000010: 6ec5 d73e fe55 1e3e 093b ac3d c78d d43c
00000020: 85a8 1e3d 61c1 18be 5c8d a9be 52a6 37be
00000030: 148e d73d f467 033d 0c65 533e e006 113d
00000040: 1dcf 043f 8030 753c 0764 33be 7052 91be
00000050: 0016 c5be 549a f53e 633a c0be edf6 fe3d
00000060: 3ba9 7fbe 9d62 5cbe 69a2 c5bd dd9f b03d
00000070: 2db2 fabe 0b8e bcbe 1b73 0f3e f1fe ef3a
00000080: 6af7 bf3d 6cd7 c7bd 0a2f 583e 51f5 0b3e
00000090: 5a21 63be 1345 29be ea3f 5bbe fe2d 043e
000000a0: 4c42 efbc 9fa4 40be 462a 6f3e 0d8e d7bd
000000b0: e284 3bbf 67a4 883e a02e db3e d614 3b3e
000000c0: cfbb ae3e d798 90be 308b 3d3c 0ef5 5fbd
000000d0: 5105 4d3e 96b4 a73d faba 98bb 6e8e ee3d
000000e0: b34d 8bbe 5b44 193e f751 c0be 5aec b5be
000000f0: 1500 20bf d0b5 053e 5746 803c 034b 0ebe
00000100: dfa5 123f 362b aebd 2687 07bd ea24 7ebe
00000110: 87ce 5fbd a9ca 8b3e 6834 bdbd 74f1 0ebd
00000120: f559 21be 8c89 77be 5ce7 c93e 9692 19be
00000130: 539f c83d b1c6 983e 6dd6 4a3e 715c 83be
00000140: d75e 01bc 95e4 8a3c 092a 2fbf d94d 50be
00000150: 9bb2 88be 35cb 01bf 8d26 7dbc 65ab b9be
00000160: 3e63 853d df48 cebe 76e5 0cbe 40f8 09bf
00000170: 2e16 583e 5b45 98be 0348 12bf fbe3 043e
00000180: 0c72 19be 5812 a13e ce05 0d3e a722 e9be
00000190: fd00 9f3e eb61 85be 0f85 eabe abe9 7dbe
000001a0: 8452 8b3d 00c0 cc3b f89a 47be 2583 3a3e
000001b0: f51d c03c cd1c 47be a2c5 d3bd 2eca 863d
000001c0: 9b33 5dbf 289a 07bd d1b9 cb3e f4ae 59bd
000001d0: 2934 2f3e 801a 4fbe bd53 b13c ac9a 8b3d
000001e0: 7216 6cbe 4c3d b0be f8e8 f0bd db07 603e
000001f0: acbf b03e 5522 05bf ee03 a7be 6265 e5bc
00000200: dedf bf3d 9f65 1bbe 30d6 3b3e cc72 ba3c
00000210: d47c 4d3e 5a7f 9e3e b605 ae3e 8152 26be
00000220: a1d4 9fbe 6e6c 323e 2254 0fbe 6ba2 d1be
00000230: 0308 51be 3996 033f 2e69 1ebe a137 50bf
00000240: 5815 07bf 8769 bebe 9627 b4be 2e4b 6b3d
00000250: c6e4 9c3d f9f3 163e 5668 293e 0ffc ecbe
00000260: 340e 9a3c 5984 2bbe e3d1 d4bb 3cca 9d3b
00000270: 3942 1abe 25ee e63e 759b 20be 5f02 f13c
00000280: 784a 56be d913 003d b3d7 2b3e c1a3 7f3e
00000290: b3c8 c73e 3c62 543e 4153 44bd 9f13 98bb
000002a0: 593d 333e d685 6ebd c70e 52bb ea4e c5bd
000002b0: 9976 febd a0be 6abe 8178 243e 18cf 593e
000002c0: 45ff 843e 1d1d 033f f06d f7bd 02c0 6b3e
000002d0: c49a 03bf 0bf8 203d df04 67be 2be5 7ebf
000002e0: eb87 d83d df19 f13d d139 2a3e 1a77 02bc
000002f0: 8b29 1dbe ac82 7c3e af95 103e 8b01 6c3d
00000300: de3e 13be 2633 d5bd afd9 cbbc 5679 8ebc
00000310: 0555 8cbe ec8d a9bd f003 39bf 845d 85be
00000320: 4adb b13d f54c 0dbd cd6c 313e 2119 95be
00000330: 826e cc3c 9916 233e 3072 94bd c960 b4be
00000340: 3829 07bd ece6 9d3e 74c4 2cbe 6f34 79be
00000350: 93b2 31bc 0a24 d63d b707 e13d 19d9 a73e
00000360: 1355 3cbe f003 dcbd 09c7 033f a5c0 4b3d
00000370: 8d78 10bf 56b9 12be 9283 c6bd 0e9a 8dbe
00000380: 413b bcbe 0bb6 213e 6e0e 223f 8322 09bf
00000390: 1120 9a3e b12c a83d 2ffa e23d 81b2 de3d
000003a0: 3273 2dbe 182d 64be 7a5c b0be f2d4 ea3d
000003b0: 0eae 263e 8119 38be d5e5 3ebe 5415 59be
000003c0: e0e5 e2be 6385 ac3d 560c 813c e02b 17be
000003d0: 9a0d e03d d911 40bd cdff 5ebe 0c4b 0cbd
000003e0: 5f1c 013e 3aad 8d3e 6884 82bd 9900 f83d
000003f0: b863 2b3d 7cc3 0d3f 706c 1dbe 5925 ba3d
-0.0705301 0.105423704 0.40154985 0.23759729 0.42142814 0.15462491 0.084096976 0.025946511
0.03873493 -0.14917518 -0.3311566 -0.1793454 0.10525146 0.03208156 0.20644015 0.035406947
0.5187853 0.014965177 -0.17518626 -0.28383207 -0.38493347 0.47969306 -0.37544546 0.12449441
-0.249669 -0.21521993 -0.09650118 0.086242415 -0.48964062 -0.3682712 0.14008753 0.0018310231
0.09373362 -0.09757885 0.21111694 0.136678 -0.22180691 -0.16530256 -0.214111 0.1290817
-0.029206418 -0.18812798 0.2335597 -0.10525141 -0.7324964 0.2668793 0.4280901 0.18269667
0.34127662 -0.28241608 0.011568829 -0.05467706 0.2002156 0.08188741 -0.004660961 0.1164826
-0.27207717 0.14967482 -0.37562534 -0.35531884 -0.62500125 0.13057637 0.01565854 -0.13895802
0.5728435 -0.085043356 -0.033087872 -0.24818769 -0.05464032 0.27303055 -0.09238511 -0.034898236
-0.15756972 -0.24173564 0.39434326 -0.14997324 0.09796014 0.2983909 0.1980836 -0.25656465
-0.007896147 0.0169547 -0.68423516 -0.20342197 -0.26698765 -0.50700694 -0.015451086 -0.36263576
0.065130696 -0.4028997 -0.13759407 -0.53894424 0.21102211 -0.29740414 -0.5714113 0.12977593
-0.14984912 0.31459308 0.13771746 -0.4553425 0.31055441 -0.26051268 -0.4580464 -0.24796169
0.06802848 0.006248474 -0.1949271 0.1821409 0.023451785 -0.1944458 -0.1034043 0.065815315
-0.8640687 -0.033106 0.39790204 -0.053145364 0.17109741 -0.20224953 0.021646375 0.06816611
-0.23055437 -0.34421766 -0.11763185 0.21877997 0.34521234 -0.5200551 -0.32620186 -0.028002445
0.09368871 -0.15175484 0.18343425 0.022759818 0.2006715 0.30956537 0.33988732 -0.1624241
-0.3121691 0.17424175 -0.13996938 -0.40944228 -0.20413212 0.51401097 -0.1546981 -0.8133488
-0.5276694 -0.37189886 -0.35186452 0.057444744 0.076608226 0.14741506 0.16543707 -0.46286055
0.0188056 -0.16749705 -0.006494747 0.004815368 -0.15064324 0.45103565 -0.15684302 0.029420076
-0.20926845 0.03126893 0.16781501 0.24964811 0.3902031 0.20740598 -0.04793096 -0.004641011
0.17503871 -0.058233105 -0.0032052265 -0.09634192 -0.124249645 -0.2292428 0.16061594 0.21270406
0.25976005 0.512163 -0.12081516 0.23022464 -0.5140803 0.039299052 -0.22560452 -0.9956843
0.10572799 0.11772513 0.16623618 -0.007962966 -0.15347879 0.24659222 0.141196 0.05761866
-0.1437945 -0.104101464 -0.024884073 -0.017391842 -0.27408615 -0.082790226 -0.72271633 -0.2604791
0.08684404 -0.03449722 0.1732666 -0.29120734 0.024955038 0.15926589 -0.07248342 -0.3523009
-0.032998294 0.30840242 -0.16871816 -0.24336408 -0.010845798 0.10456093 0.109877996 0.3278282
-0.18391828 -0.107429385 0.5147558 0.049744267 -0.56433946 -0.14328513 -0.09693064 -0.27656597
-0.36763957 0.157921 0.6330327 -0.53568286 0.3010259 0.08211649 0.11082875 0.10873891
-0.16938475 -0.22282827 -0.34445554 0.11466397 0.16277334 -0.17978479 -0.18642361 -0.21199542
-0.44316006 0.08423879 0.015752953 -0.1476283 0.10940094 -0.04689202 -0.21777268 -0.034251258
0.12608479 0.27671224 -0.06372911 0.12109489 0.041843146 0.5537641 -0.15373397 0.09089155

layers.2.bias f4 [32]
00000000: 4d51 93bd 6ece 1dbd 58dd 59bd ad3a 1d3e
00000010: c7cb 763d 5ba2 053e 3fb7 e43d 397e 613e
00000020: 92ce 0f3e cb19 7c3e d7f9 013e 2e18 233e
00000030: 7d69 8b3e 1721 0b3d db6f 833d 77de 183d
00000040: ca6c 79bc e368 1abd 9a3b f53d 50d6 153e
00000050: 675f 663e ce3c 343e 5da5 533c caa4 21be
00000060: 68bf 313e 218b bf3c 8b4d 433e 3584 f13d
00000070: 47f8 be3d feff d73d 4a0a 073e a3da 74be
-0.07193241 -0.038526945 -0.053189605 0.15354414 0.06025293 0.13050215 0.11167764 0.22020806
0.14043644 0.24619214 0.12692963 0.15927193 0.2722892 0.033967104 0.06417819 0.037321534
-0.015223691 -0.037697684 0.11974259 0.14632535 0.2249733 0.1760132 0.012917844 -0.15785518
0.17358172 0.023381772 0.19072549 0.117927946 0.09324699 0.105468735 0.13187519 -0.23911528

layers.4.weight f4 [1172, 32]
00000000: ba04 1b3e 6f96 6c3e df34 1a3e 42fc d03e
00000010: 3dbf 883e 87d1 f9be 6061 9cbe 98d7 97be
00000020: 2bea c93d 91c7 15bf d071 623e 8010 083f
00000030: 74fb 3e3d 006f b03a bea8 743e 61ae 7d3d
00000040: 31ce 293e 7d48 da3d c724 27bd 30ce 5a3e
00000050: 4bac 0abf c02a b6be 9de5 08be e24e 3cbe
00000060: be53 8fbe 6f5e 2b3e 8e8b e0be e51f 3d3c
00000070: 115a 73bf de0e d4bc 5b05 6abe e95d 51bf
00000080: 97e9 7ebe 3834 f7be 491a 8cbd 48bd a83e
00000090: 092b 6a3d 0f9f 1abe 2c44 913e 6201 823e
000000a0: e2a7 1f3e 239e 8c3e b76d ddbd c9f2 a4be
000000b0: d44a a53d 59d6 e6be 1e65 adbe c703 2a3e
000000c0: a919 08bf d79e b6bd d44a fbbf 81de ac3e
000000d0: cecd 883e df5d 5e3e e02b 8abe d569 03be
000000e0: 1430 2cbc ac55 b03e 6849 873e 2561 7abe
000000f0: 9f54 f2be 2174 f5bd cb5c 5c3e 58dc 5bbf
00000100: 58d9 a9bc f4cb ff3d 1fd7 b13e 4e6d bc3e
00000110: e539 09bd b1aa 7a3e cd67 e93d 1c81 f0bd
00000120: cc8d 4ebf f04d dd3c 3b65 5e3d 401a e0bd
00000130: f2c9 6ebe c8cb a13e cd26 f9bd 476d 03be
00000140: d667 d43e a7bb b33d 1003 82bf 72ad db3d
00000150: d377 65be d6a4 293e 1888 c8bd 9607 623e
00000160: c72c f53d 3aab 0f3e c2be 36be 5e59 96bf
00000170: b6d7 a5bf 1b27 30bf 0101 2ebe d511 d2be
00000180: ef14 2a3f 24fc 523e 3353 e83e 2a4d 9ebd
00000190: 965f 413e e2dd bc3e 5916 4fbe 4206 9e3e
000001a0: 5ab8 853d ad1e 983e 5810 7f3d e0ef aa3e
000001b0: 7742 f43d 1a39 d1be e532 763e d9e1 df3e
000001c0: 95dc f5be 2c1a f5be 2a2a 08bf a986 8cbc
000001d0: 30e2 4c3e 710c bdbc 4351 243e f4eb 3ebe
000001e0: 3bf3 46be 9975 e2bd 8093 0dbf 7624 6ebe
000001f0: 040f 953e bef8 ba3b 4644 303e a589 533e
00000200: c0ca 9e3c b93d 87bf 567e 08bf 2522 77bd
00000210: 4f9c 13bc 6ab7 3d3e f8d1 2b3e 5724 6e3c
00000220: 6cc6 463e 0a13 383e 7d9e 3e3e 0ef4 0f3e
00000230: 0678 623e 4b54 0ebe a76f 3bbf c6eb 173e
00000240: c1a2 60bf bb8f 7b3e e23d e8be 1c71 083e
00000250: 453f 47be fb12 7abd bc32 613e d159 74be
00000260: b717 ef3d b336 3f3e e5d0 0e3c f4a8 c9bc
00000270: 997d fe3d cde9 633e 6d42 dd3d b005 9cbe
00000280: a509 aa3d 5cd9 703e eba5 113d df48 0bbf
00000290: d35e 34bf 8fc6 5b3e b54a f43e a68d ed3e
000002a0: 50d8 20bf ade0 6f3e f68d a5be 154d 813c
000002b0: f5a5 78be 5908 0abe 7dab 65bc 9b27 143e
000002c0: 8da0 00bf 6c38 063e 2a85 0f3d 5fad 48bf
000002d0: f930 ab3d f9f2 44bf fc32 8ebe 154f 58bf
000002e0: 405d 3a3d b3a4 8a3e 32aa a0bf 7b12 27bf
000002f0: 83b9 793d c34a f4bd 0d8b 6f3e 0af5 8e3d
00000300: 5c91 61be 62d2 903e a9c2 5f3e b390 5a3e
00000310: 553c 08bd be68 f0bd b34a e6be ae29 02bf
00000320: 48db 94bc 14aa 473e 575d eebe 3676 abbe
00000330: 7430 3bbc d1ed 9bbe c991 61be 98db 2cbe
00000340: 868b 24bf 227f 7d3b 0731 03bf 8094 843e
00000350: 489f d2be 56a1 203e ae17 1b3d 261d a73d
00000360: d9d7 223d 3585 d2be 4457 a0be 14f5 b83e
00000370: 7a12 d73e ef93 36bf 56f2 1c3e 5f5a 38bf
00000380: 946d ad3d 61cd 503e 5def e73d 423f b73d
00000390: 4efe 7fbf 9a17 533d e940 943d 7118 e33e
000003a0: 6479 b23e afb5 10bf d041 69bd 9cf7 0abf
000003b0: 9f3f 2cbd c13a 83be 8df9 ebbe f240 a03e
000003c0: e50c 42bf bb7e 29bc 40d2 37bf 1b19 73bf
000003d0: cd95 2bbf 2150 973e 9926 c73e 73be 22bf
000003e0: a1d1 143f 562a bcbe 0e2d 1abe a2ed a8be
000003f0: 5539 acbd 1f4e 95bf c7a8 04be bf55 95bf
0.15138522 0.23104261 0.15059231 0.40817457 0.26708403 -0.4879267 -0.3054304 -0.29656672
0.09859117 -0.5850764 0.22113729 0.53150177 0.046626523 0.0013460815 0.23892495 0.06193388
0.16582562 0.10658357 -0.040806558 0.21367717 -0.5416915 -0.3557949 -0.1336884 -0.18389466
-0.27993578 0.16735242 -0.43856472 0.011543249 -0.95059305 -0.025885995 -0.22853605 -0.8178392
-0.24893795 -0.48282027 -0.06840951 0.3295691 0.057169948 -0.15099739 0.28372324 0.2539168
0.15591386 0.274644 -0.10811942 -0.3221648 0.08070913 -0.4508541 -0.3386621 0.16603003
-0.53164154 -0.08917015 -1.9632211 0.33763507 0.26719517 0.21715496 -0.269866 -0.1283334
-0.01050951 0.34440362 0.26423192 -0.2445112 -0.47330186 -0.119850405 0.21519773 -0.8588309
-0.02073352 0.12490073 0.34734437 0.36802143 -0.03350248 0.24479176 0.113967516 -0.11743376
-0.80685115 0.027014703 0.05429576 -0.10942507 -0.23319224 0.31600785 -0.12165604 -0.12834655
0.4148547 0.08776026 -1.0157185 0.107264414 -0.2240899 0.16566786 -0.09791583 0.22073206
0.11971431 0.14030161 -0.17846206 -1.1746023 -1.2956455 -0.6880967 -0.1699257 -0.4102923
0.6643819 0.20603997 0.45375976 -0.077295616 0.1888412 0.36888033 -0.20223369 0.3086415
0.06529303 0.29710904 0.062271446 0.33386135 0.1192674 -0.40863878 0.24042852 0.43726996
-0.48019853 -0.4787153 -0.5318934 -0.017154055 0.20008159 -0.023077222 0.16046624 -0.18644696
-0.19428723 -0.11057586 -0.5530319 -0.23256096 0.2911302 0.005705922 0.17213544 0.20657976
0.019383788 -1.0565711 -0.53317773 -0.060335297 -0.009009435 0.18526998 0.16779315 0.014535031
0.1941163 0.17976013 0.18615146 0.14057943 0.22116098 -0.13899343 -0.7321724 0.14836034
-0.8774834 0.24566548 -0.45359713 0.13324398 -0.19457729 -0.061053257 0.2199201 -0.23862387
0.11674445 0.1867321 0.0087167965 -0.024616696 0.124262996 0.22257157 0.10803685 -0.3047309
0.08302621 0.23520416 0.035558622 -0.5440807 -0.7045719 0.21462463 0.47713247 0.46397132
-0.62830067 0.23425551 -0.3233487 0.015783826 -0.24282058 -0.13479747 -0.014017937 0.14468233
-0.5024498 0.1310746 0.035039105 -0.78389543 0.0835895 -0.76933247 -0.27773273 -0.8449567
0.045499086 0.2707878 -1.255194 -0.65262574 0.060967933 -0.11928322 0.23392887 0.06980331
-0.22028106 0.2828551 0.218516 0.21344261 -0.033260662 -0.11738728 -0.44978866 -0.5084485
-0.018170968 0.19498473 -0.46555588 -0.33488625 -0.011425126 -0.30454877 -0.22028269 -0.16880643
-0.64275396 0.0038680513 -0.51246685 0.25894547 -0.41137147 0.15686545 0.03786438 0.081598565
0.03975663 -0.41117254 -0.31316578 0.3612448 0.42006284 -0.7131948 0.15326819 -0.72012895
0.08468166 0.20390846 0.11324952 0.08947612 -0.99997413 0.05153618 0.07238943 0.44354585
0.3485824 -0.5652723 -0.05694753 -0.5428407 -0.04205286 -0.25630763 -0.4608883 0.3129955
-0.75800925 -0.010345156 -0.7180519 -0.9496018 -0.6702545 0.2955332 0.38896635 -0.6357185
0.5813237 -0.3675105 -0.1505625 -0.329938 -0.08409373 -1.1664466 -0.12955008 -1.1666793

layers.4.bias f4 [1172]
00000000: 456c 02bd b6ed 2c3e 93f2 9cbe f3ef c1bc
00000010: 22af 833d c367 f9bd 7a04 23be 1e49 60bc
00000020: d125 31bd a57c 03be 33da a3bd 2a27 a9bd
00000030: 0948 4cbc 131f 4b3d 1e30 603d ee2e a9bc
00000040: 9b61 e1bd 8a22 683e 5492 04bd 2c67 43be
00000050: 306e 923d 025c 23be a0ea 2b3d 1981 8bbe
00000060: 596f 833d 1566 1e3e 399d 3dbe b959 52be
00000070: bb7c 4abe aa1c 01be 0be5 3d3c e968 763c
00000080: b720 97be 9256 f93c 1457 4dbe 9cfb 9d3c
00000090: d2eb 49bd ad68 5bbd 8258 93be 739c 153d
000000a0: c6cb 9bbe 495e 16be 1ed4 32be 3018 84be
000000b0: 253f 06be ff8d 48be 20e1 5ebd 55cf f7bd
000000c0: 77b5 d6bd 6384 793d 16a8 613c affb 6cbe
000000d0: f211 47be 0553 293d ebb5 04be 1725 9d3d
000000e0: a114 423c 88b3 333d 2445 a5be 891f c9bd
000000f0: ac64 0ebe eb09 38be 95c7 5a3e 17ce 803e
00000100: a961 9bbe c6c7 b1be fb63 493d 9822 4cbd
00000110: 82ec ebbd b265 603e e9ee 3cbd dc9c 2f3e
00000120: c8e8 b8bc 822d 0abe c262 aa3d 23a9 91bd
00000130: 93ef b63b 7c73 233e cd42 173e c5a6 d73d
00000140: ff5c 20be 7879 d13c 8dc4 c2bc dc9c 823e
00000150: 0306 40be e7e9 103c f766 68bd b5ac 2fbb
00000160: 7e21 8b3d a095 51be d102 53be aec5 8abe
00000170: 867c 143d d3b8 07be b467 f9bd bcd5 7f3c
00000180: 201c 703c 4201 db3d 0b5e 81be a14d fdbd
00000190: c0f6 82be a638 1ebd 44de c5be ef81 ac3d
000001a0: 97c7 fc3d c177 0c3e c55d 563c 97d8 403d
000001b0: 9245 903e 0cf1 01be 2f28 43bd 6389 9ebe
000001c0: 3c16 5bbd b82e 4bbd 353c 5ebe e668 37be
000001d0: b887 e6bd 75e1 05bd c951 8ebe 71cb e23e
000001e0: f4f2 d1bc 2fb8 21bc f837 4e3d 3ac4 9bbe
000001f0: 8466 0f3d edcd 96bd 93b5 ac3b fee4 a8bd
00000200: fa86 05be 1ae2 7dbd bfd9 a7bd 69ed 96be
00000210: 5af8 84be 202c 51be 0fcb 6cbe d24f 8abe
00000220: cf3a 33bc d7fa d4bd 332d 873d 15e5 3fbe
00000230: fe84 ed3d 9e47 3f3e e23d 6fbe 2da7 b83c
00000240: 6253 94be 831e 1cbe 11e2 a23a 118a 2abe
00000250: 3893 53be f32c 95be 2dce 10be c7a7 78bd
00000260: 12f9 24be ee58 1dbe c600 23be 3869 4bbe
00000270: 1728 9abe 23ab 9cbd 991d 633d 2b5d 7abe
00000280: 6d41 aabd 0f1f 10bd 5881 7ebd 998c 68bd
00000290: 8c84 42be 44e2 2bbd 5f66 533d 58c4 7e3c
000002a0: 02a0 74bc 298b 24be b16b bcbe 11ab 14bd
000002b0: f55d 243e f4ed 463d 263c 35be 074b 4fbd
000002c0: 8b64 5ebe c57e aabe 2b19 9e3c ea0f ddbd
000002d0: 2791 473e 2660 993e 52a8 56be 1fbf 98bd
000002e0: c810 17be b1d9 a9be 7a1d d73a 5607 e03d
000002f0: 9a6b 8b3d bd8a 0f3b 292b e0be c8c2 ebbc
00000300: c3b1 a3be 9fbd c33c 146a de3d 58f4 7cbe
00000310: f2d2 b4be f3ad 8dbe 8000 86be cbc0 07be
00000320: 0c58 483e 52bb 3ebe 1caa 183c b769 94bd
00000330: 505f 853c 97a1 32be 8539 0f3e 9ed3 f2bd
00000340: e0db 04bc 9857 723d 8a0f 3bbe 2e56 903d
00000350: 82f4 853d 6069 83be e3fe 7cbc b27d 94be
00000360: cf63 f8bd 7d3c 863d ea44 ba3c 9218 65be
00000370: 85d5 ffbd f4a2 1fbe b289 33be f202 b2bc
00000380: 3b93 0fbe 9c55 8fbe f26d 40be 78b9 24be
00000390: b91c 97bd 10f1 15bd 955b 46be 90ff aabe
000003a0: 9940 e43d e8cc a0bd 6dfe 1cbe 69ca b3bb
000003b0: 685f 55bd a45b 05be eb10 b4bc b788 833d
000003c0: f505 a1be c22a d9bd 8e79 80bd e21b 03be
000003d0: 77b8 773e d626 95be a088 dcbc e6b6 dcbd
000003e0: f505 98bd 3442 b7be dc68 aebe cf1b 76bc
000003f0: fe8c 8cbe 78a0 79be 266c dabd e795 96be
-0.031841535 0.16887555 -0.3065382 -0.023673987 0.06429888 -0.12177994 -0.15919676 -0.0136893075
-0.043248955 -0.12840517 -0.080006026 -0.08259423 -0.012468346 0.04959018 0.054733388 -0.02065226
-0.11004945 0.22669426 -0.032366112 -0.19082326 0.07149923 -0.15953067 0.041971803 -0.2724693
0.06417722 0.15468629 -0.18517007 -0.20542039 -0.19774143 -0.1260859 0.011590253 0.015039661
-0.29517147 0.030436788 -0.20052749 0.019285016 -0.04929716 -0.053566623 -0.28778464 0.036526155
-0.30428904 -0.14684404 -0.17463729 -0.25799704 -0.13110025 -0.19585417 -0.054413915 -0.12100092
-0.104838304 0.06091727 0.013772985 -0.23142885 -0.1944044 0.04133894 -0.12960021 0.0767309
0.011845739 0.043872386 -0.32279313 -0.09820468 -0.13905591 -0.17972533 0.21365197 0.25157234
-0.30347946 -0.34722728 0.049167614 -0.04983768 -0.1151972 0.21913794 -0.04612628 0.17149681
-0.022571936 -0.13493922 0.08319618 -0.071123384 0.0055827587 0.15962023 0.14771576 0.10529856
-0.15660475 0.025570616 -0.023775363 0.255103 -0.18752293 0.008844829 -0.05673882 -0.0026805822
0.067934975 -0.20467234 -0.20606543 -0.27103943 0.036251567 -0.13254099 -0.12177983 0.015614923
0.014655143 0.10693599 -0.25267062 -0.12368322 -0.2557888 -0.038628243 -0.38646138 0.0842322
0.12342756 0.13717557 0.01308388 0.047081556 0.28178078 -0.12689608 -0.047645744 -0.30964193
-0.053488 -0.0496051 -0.21702655 -0.1791111 -0.11256355 -0.032685716 -0.27796772 0.44295838
-0.025628544 -0.009870573 0.050346345 -0.30423146 0.035009876 -0.07363496 0.005270669 -0.08246802
-0.1303977 -0.061983205 -0.08195829 -0.29478005 -0.25970727 -0.20426989 -0.23124336 -0.27014023
-0.010939314 -0.103994064 0.06600418 -0.18739732 0.11597632 0.18679664 -0.2336345 0.022540653
-0.28969866 -0.15246014 0.0012426992 -0.1665423 -0.20661628 -0.29135856 -0.1414115 -0.06070688
-0.16110638 -0.15365955 -0.15918264 -0.19864357 -0.3010871 -0.07649829 0.05544815 -0.24449603
-0.0831326 -0.03518587 -0.06213507 -0.05677471 -0.18995875 -0.04196383 0.0516113 0.015549742
-0.014930727 -0.1606871 -0.36800912 -0.036295954 0.16051467 0.048566774 -0.17698726 -0.05060866
-0.21718042 -0.33299842 0.01929911 -0.10794051 0.19488965 0.29956168 -0.20962647 -0.074583285
-0.14752495 -0.33173898 0.0016411983 0.10938899 0.06807633 0.0021902763 -0.4378293 -0.028779402
-0.3197156 0.02389413 0.108600765 -0.24702585 -0.35317189 -0.27671775 -0.26172256 -0.13257138
0.19564837 -0.18626145 0.009317901 -0.07246726 0.0162808 -0.17444454 0.13986786 -0.11856769
-0.008109063 0.059165567 -0.18267646 0.070476875 0.06540777 -0.25666332 -0.015441629 -0.29002148
-0.12128412 0.06554506 0.022737939 -0.22372654 -0.124918975 -0.15589505 -0.17532995 -0.02172992
-0.14021008 -0.27995002 -0.18791941 -0.16086376 -0.07378525 -0.03660685 -0.19370873 -0.33398104
0.111451335 -0.07851583 -0.1533143 -0.0054867757 -0.05209294 -0.1302324 -0.021980723 0.06422561
-0.31449857 -0.106038585 -0.06273185 -0.12803605 0.24191462 -0.29131192 -0.026920617 -0.107770726
-0.07423011 -0.35792696 -0.34064376 -0.0150212785 -0.27451319 -0.2437762 -0.10665159 -0.2941124
