Models/LSTM_Start-ups_2_16.pth (torch, 299720 bytes, 7 tensors)

embeddings.0.weight f4 [1172, 16]
00000000: a410 0f40 1040 ac3f 02d4 d63f 32ae debf
00000010: ff5e 18bf 5b80 a0bf d49e f5bd 0311 04c0
00000020: 9181 d5bf e92d 1140 823c 80bf d6de 02c0
00000030: ea9e e93e 3e03 e2bf 3000 20be af48 a23f
00000040: f115 e23f 57b7 49be b728 1fbf b27a 303f
00000050: 6b7b 66bf 9fd4 9a3f cd55 833f b88e fa3f
00000060: f003 ba3f e5ce a93f d0fe 1c3f 373c b03f
00000070: 00b6 34be 9b9a cb3c bf11 f8be d856 693f
00000080: a869 a3bf f3d6 e2bf 152e c03e 60c6 b33e
00000090: e341 933f 6871 a2bf 5ad8 57bf 7fcd 87bf
000000a0: 8fbd 75bf 9db8 0d3f 37e2 61bf c4af cbbe
000000b0: 2aa4 7dbf 9209 4d40 c8f6 98bf fee3 b2bd
000000c0: 63eb 00bf e759 21bf 089c 963e f83c 223f
000000d0: 0e5e 85be 2541 9f3f d031 8fbf 1d69 16bf
000000e0: 92b7 bbbf 3d1a 43bd 1ea9 a9bd 2429 0b3f
000000f0: 777a c2be c192 da3f 7fdf d2bf f75c df3f
00000100: 48db b23f 0981 3a3f 6860 1140 0d3e 363f
00000110: 9769 7f3f 9043 20bf d94b 8ebf 1bc0 ba3f
00000120: 6a9b e1be e992 723f 60df 80be 0637 d33e
00000130: a0c3 b03e 693b 6cbf ca12 15c0 1e25 423d
00000140: fb77 3f3f e29f 8f3e 2810 7e3d 70b4 7bbd
00000150: 24f2 0abf f3a8 9d3d 711a ef3d 2cab c63f
00000160: 6100 af3f 9d54 973e e554 debf 1837 8c3e
00000170: e45c dcbf 3082 0cc0 00bc f23e e630 db3f
00000180: b81f f3bf f19d 39bf e29e ae3e f7d5 b33d
00000190: 9fdb 893e f976 afbe b8ab 47bd 9409 7abf
000001a0: 5df5 43bf 73df 03be f398 dabd 547d a23f
000001b0: eefe 123f 4622 283f da04 94bd cab6 3a3e
000001c0: f425 05c0 4bfc c1be f21c d9bf 9216 7c3f
000001d0: c74b fa3f d10a 10bf 8130 ffbd 8bd4 cd3e
000001e0: e7b5 b1bf f7cd 1cbe cf7b 19bf d971 3abf
000001f0: 9807 e63f ef4f 9cbf 0a21 7c3f b8f7 fb3f
00000200: 30e3 2e40 bde1 1840 ac06 99be 7bb3 f7bf
00000210: d446 7bbf 8ecd f93f 63f0 333f e5fb 113e
00000220: 4502 e83f 767e a2be 8709 f7bf 7b53 953e
00000230: cdb4 afbe 9f54 663f 9f5e 8abd 4ccc c43f
00000240: 6282 fcbf 1df0 0040 78c1 6f3d eea9 2640
00000250: bc67 50ba 3c30 83bf 8b33 91bf da86 12be
00000260: 88e9 623f 57ed 923f 5e6d 373f 7307 923f
00000270: 6148 58c0 c952 513d c0cb 47bf e7fe b23e
00000280: 7439 18c0 95b2 ddbe fdcd 82bf 2b34 943f
00000290: 6b42 82bf 8903 14c0 4ebb 22bf c25d 9fbf
000002a0: 148b a8bf 4ce4 9f3f a7ec 993f 68b7 423f
000002b0: b538 6ebf c1ed 7cbf 0525 723f c021 8c3f
000002c0: 7cf4 5abf 1fce 983e 61c3 aabf a43f 3d3e
000002d0: 67c2 b4be 273d 0fbf a708 7ebd 3432 89be
000002e0: 3b95 94bf 43be fbbe 9fb6 cabf 20d2 cabe
000002f0: 1375 3c40 2a11 753f 5e62 e93f 0adf b6be
00000300: d47c 1640 bad3 42bf 3cc1 c23e 1c39 f1be
00000310: 0ec1 c8bf c705 ffbd e0a7 b63e e128 d13f
00000320: cebf 8f3f ee4f ae3f 08ee a2bf 5bd2 24bf
00000330: a17e e2be 51b4 af3e 667b b93f 0dca 803f
00000340: dca8 c9bf 98f4 98bf e3d2 623e b059 9a3d
00000350: 1dc9 01bf 758d cbbd e565 50bf 9de8 d4bf
00000360: fa09 48bf bfca e43d 7d03 96bf 8c02 0140
00000370: ae7e 153f 45c9 a53e a73b 833e c457 333f
00000380: 68d5 bb3f 932a 4f3f dc5a 1ebf 7f47 d9bf
00000390: a199 93bf 8e01 e3be a37b 83bf f955 3e40
000003a0: dfdf 203f e5b2 3b3f fa56 d4bc e3a8 39bf
000003b0: c22c f53f 017d 82be 15b1 e03f 86b6 febc
000003c0: 23eb 1cc0 fdff 9b3f eb52 17bf 7574 2dbf
000003d0: d3bf c6bd c4a5 bebf 97a5 a0bf 3116 803f
000003e0: 22eb b83e f70f 90bf 1a9a 18bf 4e1d 833f
000003f0: 29f9 d33e abd8 3dbe df6d 32bf f6eb ac3e
2.2353907 1.345705 1.678345 -1.739691 -0.5951995 -1.2539171 -0.11993185 -2.0635383
-1.6680166 2.2684271 -1.0018466 -2.0448508 0.45629054 -1.765724 -0.15625072 1.2678431
1.7662946 -0.19698845 -0.621715 0.6893722 -0.9003207 1.2096137 1.0260559 1.9574804
1.4532452 1.3266264 0.61326313 1.3768376 -0.17647552 0.024853995 -0.4845104 0.9114814
-1.2766619 -1.7721847 0.37535158 0.35112286 1.1504482 -1.2690859 -0.843145 -1.0609587
-0.9599237 0.5535982 -0.882358 -0.39782536 -0.9907862 3.2037091 -1.1950312 -0.08734892
-0.5035917 -0.63027805 0.29415917 0.6337428 -0.2604832 1.2441756 -1.1187077 -0.5875414
-1.4665396 -0.047632445 -0.0828421 0.5435965 -0.37984058 1.7076036 -1.6474456 1.7450246
1.3973169 0.7285314 2.2715092 0.7118843 0.9977049 -0.6260309 -1.1116897 1.4589876
-0.44063884 0.9475542 -0.25170422 0.41252917 0.3452425 -0.9227815 -2.3292718 0.04739868
0.7479245 0.28051668 0.062027127 -0.061451375 -0.5427573 0.0769824 0.11674965 1.5520988
1.3671991 0.29556742 -1.7369658 0.27385783 -1.7215848 -2.195446 0.47409058 1.7124298
-1.8994055 -0.72506624 0.34105593 0.08781045 0.2692537 -0.34270456 -0.048747748 -0.97670865
-0.7654627 -0.12878208 -0.10673704 1.2694497 0.5742024 0.656773 -0.07227488 0.18233791
-2.0804415 -0.37887797 -1.6961958 0.9847194 1.9554375 -0.56266505 -0.12460423 0.4020122
-1.3883637 -0.15312944 -0.5995454 -0.7282997 1.7971067 -1.2211894 0.98487914 1.9684973
2.7326164 2.388778 -0.29887903 -1.9351648 -0.9815495 1.9515855 0.70288676 0.14256246
1.8125693 -0.31737107 -1.9299783 0.29165253 -0.34317628 0.8997287 -0.06756329 1.5374846
-1.972729 2.0146554 0.058534116 2.6041217 -0.0007950028 -1.0249095 -1.1343855 -0.14309254
0.8863759 1.147868 0.71651256 1.1408523 -3.3794177 0.05110434 -0.7804527 0.349601
-2.3785067 -0.4330031 -1.0219113 1.157842 -1.0176519 -2.3127158 -0.63567054 -1.2450488
-1.3167443 1.2491546 1.2025346 0.76061106 -0.9305528 -0.98800284 0.9458774 1.09478
-0.85529304 0.29844758 -1.3340875 0.18481308 -0.35304567 -0.55952686 -0.06201997 -0.26796114
-1.1608042 -0.49168596 -1.5836982 -0.39613438 2.9446456 0.95729315 1.8233144 -0.3571704
2.351369 -0.7610432 0.3803805 -0.47113883 -1.5683916 -0.12452274 0.35674953 1.63406
1.1230409 1.3618143 -1.2728891 -0.64383477 -0.44237235 0.34317258 1.4490783 1.0061661
-1.5754657 -1.1949644 0.2215076 0.07536638 -0.506975 -0.0993909 -0.8140548 -1.6633488
-0.78140223 0.11171483 -1.1719815 2.0157804 0.5839642 0.3238012 0.2563145 0.70055795
1.4674501 0.8092434 -0.6185739 -1.6974944 -1.1531259 -0.44337124 -1.0272106 2.9739974
0.628416 0.73319846 -0.02592038 -0.72523326 1.9154284 -0.25485995 1.7554041 -0.031092893
-2.4518516 1.2187496 -0.591109 -0.67755824 -0.09704556 -1.4894338 -1.2550534 1.0006772
0.36116892 -1.1254872 -0.5961014 1.0243318 0.41401032 -0.18539684 -0.696989 0.33773774

layers.0.weight f4 [256, 32]
00000000: 4de6 a93e d41f b33e 39e2 a0be 05a5 97be
00000010: 49de 383e 1071 b7be 56d5 51be 0b27 7bbd
00000020: 2541 1bbe 2449 b23e c58c 0c3f 7c75 463f
00000030: 5659 a33d 906d 80bf 8e13 743e dcaf 7b3e
00000040: 91b4 da3e ba34 87bf d559 a5be cd4c f43c
00000050: 1e8d 393e e681 30bf bafa eebc 0836 1cbf
00000060: 8add 0abe 5659 ab3d 0269 6ebe 492a 893e
00000070: 913c c5be 509d 63bd 691b fb3d d3c6 21bf
00000080: baff a6be 0bc8 85be 9206 2dbf f83b 82bd
00000090: 0421 0e3f 6fb0 d0be 698a c6be 4275 0f3f
000000a0: c388 373e d91d 1cbf de3f a23e 9929 2abf
000000b0: face 13be b370 4bbd 4996 39bd e3b9 363e
000000c0: 35e3 f93e d7ac 0abf 6a0b a3bd 2a1d 00bf
000000d0: c8a6 26bf d4f1 323f 4967 95be be02 b83e
000000e0: 9d40 0f3e a97f 30be e9ba b4be b0f5 963e
000000f0: b6b2 753e 6818 1dbf 9d7f 093f 4dad 123f
00000100: c032 203f d61e 143f 7b01 15bf 3fc7 c2bd
00000110: 7ff8 1abf 6b4b ab3d 431b 213f d78e ae3e
00000120: 1dc9 2d3d f101 bdbe 08b2 7cbf 007e 10be
00000130: 8f8d c7bd 166c 4e3e 8d8b 173f 5cb6 b23e
00000140: e7a0 4ebe 4569 29bf 9bab 8cbe acde dcbd
00000150: 82d0 8fbe 8773 ce3e 0500 1dbf 4df4 593e
00000160: 82d7 f13e 03b3 283f 5c63 8fbe bfdd 75be
00000170: b038 04bf 3032 f1bd e896 623f 61d4 a43e
00000180: 8988 8d3e 06fc 813d 1603 203f 914a b83e
00000190: 198c 0dbe 6abb 0a3e 3636 59bf 4f51 cdbe
000001a0: e3b7 ea3c a68d 313c 3c43 03bf f827 a3bc
000001b0: 16be 80be 63f0 b43e fccf 0cbe 7a63 f5be
000001c0: 199a 183e 2ef7 c8be 1486 a2be d7b6 953e
000001d0: 3c6d 97be cc2d 963e 5fbf a13e 2f7f a9be
000001e0: bd57 443f 019d ae3d 1e26 3bbd 8dfc 87be
000001f0: fbf3 1abf 250c cfbe 2769 d0be 7730 123f
00000200: 11ff 2b3e 2b72 b43c f524 8e3e 4603 a73e
00000210: bb05 fa3e b1cd 0f3f ba16 6c3d cf51 8f3e
00000220: b42c b73e eb02 f03d 6103 513e 9ab1 383f
00000230: 04d1 52be b23d d5be caa8 0d3e e95d c8be
00000240: 7966 863e b6a7 81bd 85e7 853e d809 9e3e
00000250: dded eb3d 87d6 eebd eed4 4ebd 9794 5f3e
00000260: 9b7c 513e 1f40 c9be fa0d 743e af1a 0d3f
00000270: 96d9 4abf 7e98 13be 5da6 023e 5530 2ebe
00000280: 4024 433d d732 64be f017 08bf 08f6 823d
00000290: 81e5 be3e 175a 503e 743a 8dbe 6dfa b9bd
000002a0: 284a 45be e8a4 9bbe 07d2 07be 8af4 893e
000002b0: a806 bb3d 2852 48be 4cea 81bc 89cf fdbe
000002c0: adc2 5bbe b8eb e63d e259 f0be 8f4f 06bf
000002d0: 4ab5 b0be 2b3c 913e 1104 8f3f eb0a e8be
000002e0: bc7c 17bf 7d81 d13e a5d0 a6be 17e2 e7be
000002f0: 130e 7b3c bb75 07bd 9da0 2f3f 3817 293f
00000300: 0cdb 1fbe f1e3 eabd 78fa 4a3e edeb a63e
00000310: 2d53 153e 0b50 2dbf 09e5 a83e 14b2 10be
00000320: 6b7c 133e 108e f3bb b582 28be 80e1 193f
00000330: e047 113f 2e9a 6ebd 344d 1abf afef dcbe
00000340: 7041 953e 4ee6 3b3e 0a78 24bf 25e4 29bf
00000350: 2b77 6d3e 618f bf3e e4df 913e 61fe 863e
00000360: a3c8 b7be a649 b4bd e6cb cc3e 8d40 c2be
00000370: ceae 36bd 76f2 293e afba 3f3e e965 2e3f
00000380: 00d3 f9be 33d9 c53e 2948 2cbe d318 a3be
00000390: 8294 a8ba 648f fc3d 4032 98be bd21 8b3e
000003a0: db65 f3be 25e1 91be db7b 973d 54bb 253f
000003b0: 62cd 093f 5e3b 2cbe a63a 8d3d 5bc3 c13e
000003c0: d6f9 14be 276a 933e 346a d1be 4f88 033f
000003d0: 1082 cc3e 8f15 4ebe 7ab3 903e 54c2 8bbe
000003e0: 1ed5 373d 017c 4bbe aa3a d23c 6b9a 60be
000003f0: 30a2 09be 782b 4c3e a1d8 9d3e 7a8f ea3e
0.33183518 0.3498522 -0.31422594 -0.29618087 0.18053545 -0.35828447 -0.20491537 -0.06131653
-0.1516157 0.34821427 0.549023 0.77523017 0.07976024 -1.0033436 0.23835585 0.24578804
0.42715886 -1.0562966 -0.322951 0.029821778 0.18120238 -0.6894821 -0.02917229 -0.61019945
-0.13561073 0.08366649 -0.23282245 0.26790074 -0.3852277 -0.055569947 0.122610874 -0.63194007
-0.3261698 -0.26129183 -0.6758815 -0.063590944 0.5551913 -0.40759608 -0.38777474 0.56038296
0.17923264 -0.60983044 0.31689352 -0.66469723 -0.14434424 -0.049668025 -0.04530934 0.17844348
0.48806158 -0.5416998 -0.079611614 -0.500445 -0.6509824 0.6990025 -0.29180363 0.35939592
0.13989492 -0.17236198 -0.3529885 0.2948432 0.23993954 -0.61365366 0.5371035 0.57295686
0.6257744 0.5785955 -0.58205384 -0.095106594 -0.60535425 0.08363994 0.62932223 0.34093353
0.042428125 -0.36915544 -0.98709154 -0.14110565 -0.09743797 0.20158419 0.5919731 0.34904754
-0.20178567 -0.66176254 -0.27474675 -0.10784659 -0.28088766 0.40322515 -0.61328155 0.212846
0.47234732 0.6589815 -0.28005493 -0.2401037 -0.51649 -0.11777151 0.88511515 0.32193282
0.2764323 0.06346898 0.6250471 0.3599439 -0.13822974 0.13548055 -0.84848344 -0.40101096
0.028652137 0.010836994 -0.51274467 -0.01991652 -0.25145024 0.3533965 -0.13751215 -0.47927457
0.14902534 -0.39251083 -0.31742918 0.29241058 -0.29575527 0.29331815 0.31591317 -0.33104846
0.7669638 0.0852604 -0.04569065 -0.26559868 -0.60528535 -0.40438953 -0.40705225 0.571052
0.16796519 0.022027096 0.2776257 0.32619685 0.48832497 0.56173235 0.05763886 0.27992103
0.35776293 0.117193066 0.20411445 0.72146 -0.20587546 -0.41648632 0.13833919 -0.39134148
0.26250055 -0.063308164 0.26153198 0.30866885 0.11519978 -0.116620116 -0.050496034 0.21834026
0.2045769 -0.39306733 0.23833457 0.5511884 -0.7923826 -0.1441364 0.12758775 -0.17010625
0.047641993 -0.22285019 -0.53161526 0.06394583 0.37284473 0.20346867 -0.2758366 -0.09080968
-0.1926657 -0.3039925 -0.13263713 0.2694438 0.09132129 -0.1956259 -0.015858792 -0.495724
-0.21460982 0.112754285 -0.46943575 -0.52465147 -0.34513313 0.28366217 1.1173116 -0.4532083
-0.59174705 0.40919104 -0.32581058 -0.4528968 0.01532318 -0.03307126 0.6860445 0.66051054
-0.15610904 -0.114692576 0.19822109 0.32601872 0.1458251 -0.6770026 0.3298724 -0.14130431
0.1440293 -0.0074327067 -0.16456111 0.6010971 0.567503 -0.058252506 -0.6027405 -0.43151614
0.29151487 0.18349573 -0.64245665 -0.66363746 0.2318999 0.37414077 0.28491127 0.2636595
-0.3589526 -0.0880311 0.39999312 -0.37939873 -0.0446003 0.16596398 0.18723558 0.6812425
-0.48793793 0.38642272 -0.16824402 -0.31854877 -0.0012861642 0.12332037 -0.29725838 0.27174178
-0.47538647 -0.28492084 0.073966704 0.64738965 0.53829014 -0.16819522 0.06895952 0.37844357
-0.1454843 0.28791925 -0.4090134 0.51379865 0.3994298 -0.20125411 0.2826193 -0.27296698
0.04488098 -0.19871522 0.025662739 -0.21933906 -0.13440776 0.19938457 0.30829337 0.4581259

layers.0.bias f4 [256]
00000000: a29e e7bd b845 f6bc 5463 253e 54a7 bebe
00000010: ac1b 94bb deef 4b3d d977 343e fc0f ef3d
00000020: b4ec ad3d cc8e ffbd d3f7 89bc 33cb 093d
00000030: cd5d 4abd 2554 82be 0957 59be 8c12 23bd
00000040: 6397 193e ba70 ea3c f58a 68bd cb55 853d
00000050: 7b96 c53d 5ebb b33d 70ef 25bc d3eb d4bd
00000060: 12f0 143e df21 0ebe 8acd 1d3d ba58 0bbf
00000070: c22f 993c 7c3f c23c 35df df3d 4b4c 493e
00000080: 7b2e 173e 9911 d1bd a1c2 07be eb22 b23c
00000090: 3f23 83bd b4fa ee3d 7626 993d affa 5bbd
000000a0: e2ab d13d 3f39 f7be 199f 40be 20d6 ccbe
000000b0: c265 b7be af29 673c 9c77 82bd 6e3b d2bd
000000c0: fd73 1abd 3bf1 153e 06ae 29be 56d0 c0bc
000000d0: e7eb e13d 52c5 58be a380 fbbd 5613 003e
000000e0: 9890 033e 9206 3ebe 2d0e 8f3e 9048 1cbe
000000f0: 0d3b dcbe 2a85 02bf 9c8f c6bc 2c37 67be
00000100: 92d6 823e 9b5e c03c 32f9 9dbe ee90 343d
00000110: 1d2d 903c 6768 14be e785 2b3e 8eb4 c03d
00000120: 27c1 6dbe 1b19 23be cfa8 3abe a98e 303e
00000130: ebb7 db3c dce2 2abb b4c1 2bbe 1133 3dbd
00000140: 83f8 edbd 220f f0bc 5732 2bbe 7f66 353d
00000150: 426e 8b3e 9144 fcbd 71ad a43d beee 743d
00000160: f6ad 6f3e 255e 02bd d109 2dbe 93a9 d1bd
00000170: 5809 e23d 4258 9dbe 727f f6bc 570c c6bd
00000180: d075 a3bd 77e7 fbbd d656 ebbd 5420 29be
00000190: c195 fdbd 9127 0f3d 2989 663c 6bfb af3d
000001a0: 73c5 0f3e 6eaa 2fbc 0a18 b7bd 7fb7 0ebe
000001b0: 7ff1 2f3e b301 be3d b225 0fbe 5369 a1be
000001c0: 9007 cdbd 8bda fc3d c100 443e 9795 193d
000001d0: 8a59 35be 2475 78be 6692 e43c eab0 58bd
000001e0: 131f 103d de89 cbbd 5722 0abe 9a48 0c3e
000001f0: a5cb f93d c68b 433e c988 eebd 369b ddbd
00000200: d5b9 833d b601 8b3b 6f41 1fbd 46da 843d
00000210: 833a 3dbd 3539 1ebe 23c7 093e ace0 15bd
00000220: 929b 85be dc39 afbc 8596 0f3e 7f3d ddbd
00000230: b0a2 c9bc 4194 c03c 042b 39bb d295 80be
00000240: 9e6d b7be 91a8 183e 8658 903d 4a3a b23c
00000250: db74 a83b b12f 52bd 8040 40be c1c8 8f3d
00000260: 461b ff3d aa4d f4bb f611 d7be 2687 b13d
00000270: e981 2c3e 75ed e8bc 6d64 ae3d 5816 413b
00000280: ce0c 40bd a759 4abe 504a 8dbd a103 113d
00000290: f396 54be e39b 19be ef99 e9be 110f 52bd
000002a0: 1d4a fe3d 889b 0fbe 22cc 7ebd 4792 00bd
000002b0: b4dc d63d 6fd6 cfbd ba06 2dbd 778e a9be
000002c0: 5240 51bd d99b 82bd fceb 09be e087 82bc
000002d0: 45b2 943c e513 7b3d 761f d7bd a1a9 263d
000002e0: 04be 4fbc 7b00 41be f353 723d b30d 49be
000002f0: 5767 86be e9a4 553d b885 c13d 4907 233d
00000300: 8474 b1be db01 4dbd 8cea 1b3e 0a5d 50be
00000310: e27b 85be 03dd fa3d e57f b53d d440 6e3c
00000320: 9593 383e 6bc7 82be ed80 6f3d 9876 743d
00000330: 880f ab3d e398 c93d e623 7dbd ddb2 733d
00000340: a548 19be 5db5 bfbd 38ec f2bd 9533 d73d
00000350: 91f6 fa3d 5ced 99bd dc11 bf3b a1d4 d8bd
00000360: dfb7 093d 410d 123e 87a9 15be 5a95 07be
00000370: 7b53 0ebe c1b9 cabd 5891 e1bb 890d 023e
00000380: 29e5 0b3e 0514 97bd 7507 46bd a1a0 763d
00000390: 4b21 eabd 027e 373e 86dc 8cbd 8331 723e
000003a0: 6820 b7bd aadb 89be d4c6 2d3d ec8b e23b
000003b0: c52d b6be e6d6 d1bd 11e3 04be 362e 9ebc
000003c0: a7cc c53b 6ab8 4e3e 87af c9bd b7df b03d
000003d0: 879f 3f3e d989 043e de6f 73be 0a35 023e
000003e0: 3905 c4be 1aa3 9cbe 4e20 e5bd 6360 233e
000003f0: b443 0fbe b2a9 bf3d 4efb 98bb 0ae8 ae3c
-0.11309554 -0.030062541 0.16151172 -0.37237036 -0.0045199003 0.049789302 0.17623843 0.11672971
0.08492413 -0.12478408 -0.016841805 0.03364105 -0.04940586 -0.25454822 -0.21224608 -0.03981261
0.14999156 0.028618205 -0.056773145 0.06510504 0.096478425 0.08775972 -0.010127887 -0.103965424
0.14544705 -0.13880108 0.038526095 -0.5443226 0.01869953 0.023711912 0.10931245 0.1965801
0.14763825 -0.102084346 -0.13257839 0.021745166 -0.06403207 0.116689116 0.07478039 -0.053705867
0.10237862 -0.48285863 -0.18810691 -0.40007114 -0.35819823 0.014109059 -0.0637047 -0.102652416
-0.03770827 0.14642803 -0.16570291 -0.023536842 0.11031323 -0.21169022 -0.12280395 0.12507376
0.12848127 -0.18557194 0.27940503 -0.15262055 -0.43013802 -0.5098444 -0.0242384 -0.2257964
0.2555433 0.023482611 -0.30854183 0.04408353 0.017599637 -0.14492951 0.16750298 0.09409438
-0.23218213 -0.15927546 -0.18228458 0.1724192 0.026821097 -0.002607516 -0.1677311 -0.04619128
-0.116196655 -0.02930409 -0.16718422 0.0442872 0.27232558 -0.123177655 0.08040894 0.059797995
0.23406205 -0.031828064 -0.16898276 -0.10237422 0.110369384 -0.30731398 -0.030090068 -0.096703224
-0.07981455 -0.12300008 -0.11491172 -0.16516238 -0.12382079 0.034949843 0.0140707875 0.08592876
0.14040165 -0.010721786 -0.08940132 -0.13937186 0.17181967 0.09277668 -0.13979223 -0.31525669
-0.10011208 0.12346371 0.19140913 0.037496176 -0.17709938 -0.24263436 0.02790184 -0.052903093
0.035185885 -0.099384055 -0.13489662 0.1369957 0.12197045 0.19096288 -0.116471834 -0.1082062
0.06431929 0.0042421473 -0.03888076 0.06486945 -0.04619838 -0.1545151 0.13454871 -0.036591217
-0.26095253 -0.021389894 0.14022262 -0.10802745 -0.024613708 0.023508193 -0.00282544 -0.25114304
-0.3582582 0.14908053 0.070481345 0.02175631 0.0051408834 -0.051315013 -0.18774605 0.07020713
0.12456374 -0.0074555473 -0.4200589 0.08668356 0.16846432 -0.02843354 0.085152484 0.002946278
-0.04688721 -0.19760762 -0.068989396 0.03540385 -0.20760708 -0.15000872 -0.45625255 -0.0512839
0.1241648 -0.14024174 -0.062206395 -0.0313895 0.104913145 -0.10148322 -0.042242743 -0.33116505
-0.05108673 -0.06377382 -0.13468927 -0.01593393 0.018151412 0.06129827 -0.105040476 0.040689114
-0.012679581 -0.1884784 0.05916209 -0.19634132 -0.26250717 0.052159224 0.09449333 0.03980187
-0.34659207 -0.050050598 0.15226191 -0.20347992 -0.26071078 0.12249186 0.088622846 0.014541823
0.18025048 -0.2554277 0.058472563 0.059683412 0.08352572 0.09843614 -0.061801814 0.05949675
-0.14969118 -0.09360764 -0.118614614 0.10507885 0.1225406 -0.07515976 0.0058309864 -0.10587431
0.03362262 0.14262868 -0.14615451 -0.13240567 -0.13899033 -0.09898711 -0.0068837814 0.12700476
0.13661636 -0.07376865 -0.048346955 0.06021178 -0.114321314 0.17919162 -0.06877999 0.236517
-0.08941728 -0.26925403 0.042425945 0.0069136526 -0.35581794 -0.10246067 -0.12977244 -0.019309144
0.0060363594 0.20187536 -0.09847932 0.0863642 0.18713199 0.1294321 -0.23773143 0.12715545
-0.38285235 -0.30593187 -0.11187802 0.15954737 -0.1399067 0.09358539 -0.0046686297 0.02135088

layers.2.weight f4 [32, 256]
00000000: 74c8 663e 3e5d 993d 6785 753d de59 b53c
00000010: 792d 94be ad8b ee3e 0177 813d 9348 243f
00000020: e230 af3e d175 b73d 1e69 123f c08d 1a3f
00000030: 4d24 0d3f 0c62 243f ede0 5fbe cb99 953c
00000040: 94a8 e4bd 8f61 80be 72c2 f03e 5b77 0c3e
00000050: 600c 1ebe 46e0 93be b47c 1a3e 442d c0be
00000060: 46f2 56be 71fa 75bd 3032 e4bd 26af 143f
00000070: 1995 b4bc 17a9 5f3e 89cd 1abf af5d 1d3f
00000080: d9da 1cbf 577b f8bd 5324 7bbe 293c ff3e
00000090: 19f0 98be 0cfe 6eb9 e58e 323d 9198 2dbe
000000a0: 52de 853c f8ef 94be 249f 48bf 174a cc3a
000000b0: 67c4 32bf 7f38 85be cc76 1bbe b299 a3be
000000c0: 65c0 873e b735 bcbe b6e6 f3be 8b9d 6e3e
000000d0: 3059 e83c 25be 003f fd6d 5abf cb8c 29be
000000e0: 2482 ddbd f7be 11be 8d28 9a3d 8621 333e
000000f0: 95b7 66be f04b e6bd 073b a33d a8d0 8e3e
00000100: 4a7b 47bd 969d a2be d05e 3e3f e072 16bd
00000110: 026e c73e 57c5 4b3e 8baf 38bf f1ea 283b
00000120: 4f43 383d d108 243e 012a 043d a253 973e
00000130: 7d71 953b 3fe8 a33e 7919 a83d f801 4f3e
00000140: 83e3 373c 686e 6f3e b27e b0be 2bd1 833e
00000150: b114 d2bb 65e0 e13e ee27 c83e d6e7 ff3e
00000160: cc44 8e3e 45ce 3d3e 2f7f 0abf 53d0 9f3e
00000170: 89c0 e13d 7502 29bf 8bf1 90be 352e e43e
00000180: b611 a0be 2990 a83e d824 7f3e 1660 17be
00000190: 8292 97be a420 66bd 1b39 f83d 7d93 8f3c
000001a0: 4d07 6a3e 7ef6 903d 077c 7b3e 8554 a43e
000001b0: 2c8c 10be 9b8b ec3e 0fcf 993b ce3f b2be
000001c0: 49a9 a7bb 7680 bdbe 2c48 5dba 87a9 e8bd
000001d0: 827e a93e 12cd c33e daf5 e8be 3336 273e
000001e0: 32be 0c3a bb58 9d3d 5faf ba3e 2942 8cbd
000001f0: 7cf5 223e bcc2 c63e 041e 54be b06c 03bf
00000200: 8584 8b3e a933 953e 4fa0 583d 8c08 763e
00000210: 3aba dcbc 7605 62be 04b9 0b3e 5609 1ebe
00000220: c71a 5d3e 6a09 f53d 6a7f e1bd 4362 9bbe
00000230: 0252 d93e 5742 783e f840 173d 629b bf3e
00000240: f8d8 ddbe f587 a3be 9229 b4be 4da5 e83e
00000250: bc57 eebd 163a b83d 8d1e cbbd fdc1 6c3e
00000260: 21cf 253e b4be 793d 8ecb 22bf b6a2 38bc
00000270: c0c3 903c d21d 02be 0598 143f e474 0dbf
00000280: fd7a ee3e 3a1a 273e 626f 80be 2e85 0abe
00000290: 7815 843e 0cb2 fd3d 73d0 ea3d 3799 80bf
000002a0: 0351 19be 10fd a53e 28ee 1e3f 88ae c53e
000002b0: 14bc 793e 5489 fa3c c9b1 d9be e004 7bbe
000002c0: 0b73 b33e 0567 ae3e b2ef 84be a060 5f3e
000002d0: 11b0 29be 3a59 993e da1f a63d 9404 b3be
000002e0: 7eae 37be cc39 c23d 0c83 2a3e 87a9 063f
000002f0: ead3 14bf 9f51 963e f975 88bd 72aa b73e
00000300: 979f fbbe d0fd 593d 7d85 dcbe b9f8 6d3e
00000310: b52c 24be f018 04bf b9e1 19be 54fc bfbe
00000320: a0f5 f13b aa90 ae3e d20a 4dbe 885c 593e
00000330: 42df 0f3f e218 7b3b 9c9f 38bd db36 0dbd
00000340: ff3b f63d 9dc7 a1be 7107 40bd 517a 38be
00000350: 460d cdbd 169d 693e 089d 103e 0147 c0bd
00000360: 5194 acbe bfa6 723e 0799 0a3f 972d eb3e
00000370: 0453 163e 1e20 003f b16a 823e 42ca d43e
00000380: 1486 26bd 2893 a43e ed0d 03be f404 ffbe
00000390: ff6f c0bd 9861 453d f971 18be 5dd3 8d3e
000003a0: f0ca e9be 430a 793d f7ac 4d3e f66e 18be
000003b0: 5aee 86be ff41 0ebe daa7 563e 4917 c8be
000003c0: 4176 403e 4ec4 903e 3889 d7bd d5e3 7d3e
000003d0: 4ed8 85be 43e0 e5bd 5cd3 e73e 35c4 bb3e
000003e0: c42b 9ebe 6b89 eabe 4883 d3be 6f55 8cbd
000003f0: 737c bfbe 53cb ec3e 1b12 833e a89c 003d
0.22537404 0.07488488 0.059941676 0.022137579 -0.28940943 0.4659094 0.06321526 0.6417324
0.34216982 0.089580186 0.57191646 0.60372543 0.55133516 0.6421211 -0.21863146 0.01826181
-0.11164966 -0.2507443 0.4702335 0.13717405 -0.15434408 -0.28882045 0.15086633 -0.37534535
-0.20990857 -0.060053293 -0.11142385 0.58079755 -0.022043752 0.21841846 -0.6046987 0.61471075
-0.61271435 -0.121329 -0.24525575 0.49850586 -0.2987068 -0.00022792089 0.043593306 -0.1695273
0.016341362 -0.29089332 -0.7836783 0.0015586045 -0.69830936 -0.26019666 -0.15182036 -0.31953198
0.26513973 -0.3675973 -0.47636956 0.23302285 0.02836284 0.5029014 -0.8532408 -0.16557615
-0.10815838 -0.14233004 0.07527266 0.17493257 -0.22530968 -0.11244953 0.07970243 0.27893567
-0.048701562 -0.31760854 0.7436342 -0.036730647 0.38951117 0.19899498 -0.7214286 0.0025774802
0.044986065 0.16018988 0.03226662 0.29555994 0.004560648 0.32013127 0.082079835 0.20215595
0.011223677 0.2338196 -0.3447166 0.2574552 -0.006411158 0.44116512 0.39092964 0.49981564
0.27786863 0.18535717 -0.54100317 0.31213626 0.11023051 -0.66019374 -0.28309283 0.44566503
-0.31263512 0.32922485 0.24916399 -0.14782748 -0.29603964 -0.056183472 0.12120267 0.017526383
0.22854348 0.07078265 0.24559031 0.32095733 -0.14115971 0.4620026 0.0046938728 -0.34814304
-0.005116616 -0.3701207 -0.00084412354 -0.1136046 0.3310433 0.38242394 -0.4550007 0.16329269
0.00053689175 0.076829396 0.36461923 -0.068485565 0.15913957 0.38820446 -0.20714575 -0.5133772
0.27249542 0.29140976 0.052887257 0.24026698 -0.026944268 -0.22072396 0.13644797 -0.15433249
0.21592246 0.11964686 -0.110106304 -0.30348405 0.4244538 0.24244057 0.036927193 0.37423235
-0.43329597 -0.31939664 -0.35187966 0.45438614 -0.11637828 0.08995454 -0.099179365 0.23120876
0.16192295 0.060972884 -0.6359185 -0.011269262 0.017671466 -0.12706688 0.58044463 -0.55256486
0.46578208 0.16318598 -0.25084978 -0.13527367 0.2579763 0.12387475 0.1146554 -1.0046757
-0.1497231 0.32419634 0.6208215 0.3860972 0.24388152 0.030583061 -0.42518452 -0.24513578
0.35048708 0.34062973 -0.25964123 0.21814203 -0.1657107 0.29950887 0.08111544 -0.3496443
-0.17937657 0.0948368 0.16651553 0.5260243 -0.58135855 0.29359147 -0.066631265 0.35872227
-0.49145195 0.05322057 -0.43070593 0.23239411 -0.1603268 -0.5160055 -0.15027513 -0.374972
0.007384017 0.34094745 -0.20023659 0.21226704 0.5620004 0.0038314392 -0.04507409 -0.034476142
0.12023162 -0.31597605 -0.046882097 -0.1801541 -0.10012297 0.2281383 0.14122403 -0.09388543
-0.33706906 0.23696421 0.5413975 0.4593322 0.14680105 0.50049007 0.25472024 0.4156056
-0.04065521 0.3214352 -0.12798281 -0.49808466 -0.093963616 0.048188776 -0.14887227 0.2770032
-0.45662642 0.060800802 0.20085512 -0.14886078 -0.26353723 -0.13892363 0.20962468 -0.39080265
0.1879511 0.2827477 -0.10524219 0.24793942 -0.2614159 -0.11224415 0.45278442 0.36673132
-0.30892766 -0.45807967 -0.41311097 -0.06852233 -0.37399635 0.46248874 0.2559975 0.0313994

layers.2.bias f4 [32]
00000000: 7d6d 483e a6d6 063e 70c4 963c 076a 3d3e
00000010: a7ca 093d fcd4 e13d 176e 373e f82c 493e
00000020: 3e6f 2e3e f700 dc3b 8497 5d3e f81e 303d
00000030: 5f1e 053e 7c07 473d 085d e73d f1e6 453d
00000040: 4210 b43d eef1 92bd 5ba2 da3d abe1 a3bd
00000050: 1e46 0e3e 2972 a33d 989f d9bc b6c7 abbd
00000060: 428c ab3d c731 413d 5e63 1c3e 4044 b33d
00000070: ac15 893e 8d5e bb3d 327e 03be 3ed8 8b3d
0.19573016 0.1316782 0.018404216 0.18497477 0.03364053 0.11026952 0.1791309 0.1964606
0.17034623 0.006713982 0.2163983 0.042998284 0.12999867 0.048591122 0.11297041 0.048315946
0.087921634 -0.07175051 0.10675498 -0.08002027 0.13893935 0.07980759 -0.026565358 -0.08387701
0.083763614 0.047166612 0.1527228 0.08753252 0.26774347 0.091488935 -0.12841108 0.06828354

layers.4.weight f4 [1172, 32]
00000000: afb2 243e 79de 723d 4235 50bd 10d7 9d3d
00000010: 7ba5 343c 784e 0bbf 754c 09bf 0165 4d3e
00000020: 0e55 f4be 21d5 7fbe 81df 23be 2375 153e
00000030: 694c 91be 74bf b33e 6d58 9bbe b2f8 87be
00000040: 67f1 35bf 25c7 07bf fdde b83e 3fc1 ce3e
00000050: 993e dfba 065f c9be e91c 663e 64f8 b03e
00000060: a4d4 52bf 7f6e 193d ca47 d13e ca52 28bf
00000070: 9964 8a3e 3174 7bbf 14cf d93e 18f5 b9be
00000080: b4f3 8a3e 1df0 2cbe eb6b cfbe cd71 f13d
00000090: 7de6 213e 7c8f 313e f329 26bd 38fb 273d
000000a0: 92ab 82bd e87a 9ebe 83be 543e cfb2 053e
000000b0: 85c9 bf3c 373e 213e 57ec 4b3e 3eaa b5bf
000000c0: 1783 b23c 35cd b5bd 6b43 d43d 53ae c73b
000000d0: 685e 093e 1e2c 83be 671c cbbd 1d8d bcbe
000000e0: 0913 7ebe af07 5d3e 7790 823e e21b 95bd
000000f0: b9d0 23bf d6c5 6c3d 34c3 74be dca2 1c3d
00000100: 716d ca3c 6ba1 f5be f48d 9cbd 7a11 93bf
00000110: c8fc 1dbf 4627 53bc 6d8a 51bf 96cc d03e
00000120: a5b6 e1be 0f85 7dbf 1840 7c3e 7ebf b93e
00000130: 549f 1d3e e2ce 17bc e206 8fbe eb1f 113d
00000140: 6460 d9be 2495 d3be a025 acbe 1d04 c73d
00000150: 4b28 b73c fd40 2a3a bb33 a43e 8f68 a73e
00000160: 985b bf3e 5c45 1c3e f624 cb3e 3fa5 efbe
00000170: e7b0 17bf a928 1ebe a5ea d93e c2a6 da3e
00000180: 0831 323e 7582 ef3c a36c 18be 6c89 e2bb
00000190: d96a fabd ce80 353e 0aee 223d de6d cd3e
000001a0: 658c d13d 724b 8abe e1b7 133e 53e0 3bbe
000001b0: ddd6 bebb 9df8 11be 8127 8f3e 2f6d f03c
000001c0: c281 c7be 30b3 a3bd 1aa4 c83e 992a c5be
000001d0: 7054 a63d 4dec b8be f5ec fbbe a45a bbbe
000001e0: 1ac5 f4bd 516e 18bd bf72 1f3e eac6 b0bd
000001f0: 6aa9 4a3d d3ee 9fbe 7a63 663e a03d 583e
00000200: 39c9 b33d f7b6 b23d dc4e f4be 1096 9abc
00000210: 0739 273e b988 833e d4fc 98bc b6dc 6a3e
00000220: c728 b83e 87cc fcbd 63f1 4ebe 58aa c63d
00000230: 4c63 393d 1fdb 9f3d d07e d03d f2bd 3bbe
00000240: 2d9c b63d cb3f 72be 3290 5a3e fd68 3ebf
00000250: 8aa6 8b3e c22a 2bbe 2c1e ccbe c267 0abf
00000260: f495 2abe aed0 7f3e d79a 0ebe c14c cbbd
00000270: a50e 153e acbc 71be 8476 cabe 49c1 173e
00000280: 375b 0e3e 18db 5fbe a41f 81bf d44b c23c
00000290: 3774 14bf 3764 9dbd 536f 433e 2f29 91be
000002a0: 963b 16be 3117 2dbf 5c40 45bd b40a e93e
000002b0: 1c94 48bf 1ce6 2cbf 56ad 12bf e1d6 b23d
000002c0: 058e 38bf e6b5 50be 9798 a2bd 6b7d 683e
000002d0: 1015 303e da7e d23c 7b9e 903e 15a6 623e
000002e0: cc19 46bf 7d88 293e 31c5 203e d8c0 673d
000002f0: bd2c 273e 401b 14bf 0da5 b93e 23ca 553e
00000300: 1613 30bf d388 c8be 7e0c f23d e182 35bf
00000310: 1685 12bd ee00 ce3d 31b4 c0be 5730 333e
00000320: 7f24 d6be 0ba2 1d3d c276 05bf 384d e9be
00000330: 0069 933e a6cc 18bf 1ad7 ffbe c4e9 3c3e
00000340: 9769 08be ee4c 1abe df78 7cbe 8509 203c
00000350: 90a7 ffbe edd9 1a3e 5528 003e 1fa2 a03d
00000360: 892a 48bf 40ad 04bf d426 96bd 80b0 923e
00000370: dcc6 453e 7b8e 183e e86d 423d 9827 023c
00000380: 143e 00bf 48d9 a2be 39a8 a03e 6bc6 4f3e
00000390: d39c 953e d13c b3be 2ba1 a13d 3d5a f9be
000003a0: 55eb 9c3e 135a 0fbb 754c cfbe 44e5 a1be
000003b0: c476 0d3d 730d c4bc 390c a8be 39cb 953e
000003c0: 79bf bebe a087 ae3e a020 1abf fac1 f43d
000003d0: 764b 7cbe 03b6 69be aab4 9c3e b9fd a83d
000003e0: 0526 2abe e591 02bf 51c9 53bd d925 7ebe
000003f0: 82c9 6a3d b874 62bf 5a71 7c3d 6e18 ba3d
0.16083787 0.059294198 -0.05083204 0.077070355 0.011025782 -0.5441661 -0.5363229 0.20058061
-0.47721142 -0.24983646 -0.16003229 0.14595465 -0.2837861 0.35107005 -0.303409 -0.26556927
-0.71071476 -0.53038245 0.36107627 0.4038181 -0.0017032205 -0.3933031 0.22471966 0.34564507
-0.82355714 0.037458893 0.40875083 -0.65751326 0.27029875 -0.9822417 0.425408 -0.36319804
0.27139056 -0.16888471 -0.40512022 0.11789284 0.1581058 0.17339891 -0.04056735 0.041011065
-0.06380381 -0.30953145 0.207758 0.13056491 0.023411522 0.1574639 0.19914375 -1.4192579
0.021791024 -0.08877031 0.103644215 0.006093779 0.1341492 -0.25619596 -0.09917527 -0.3682641
-0.24811949 0.21584962 0.25500843 -0.07280709 -0.6399036 0.05780586 -0.23902589 0.038241252
0.024710389 -0.47974715 -0.07644263 -1.1489708 -0.6171384 -0.0128877815 -0.81851846 0.40781087
-0.4408466 -0.99031156 0.24633825 0.3627891 0.1539281 -0.009265633 -0.2793494 0.03543083
-0.42456353 -0.41324723 -0.33622456 0.097175814 0.02235808 0.00064946694 0.32070717 0.3269696
0.37374568 0.15260834 0.39676636 -0.4680576 -0.59254307 -0.15445198 0.42561832 0.4270535
0.17401516 0.029237011 -0.14885192 -0.0069133546 -0.12227411 0.17724916 0.039777793 0.40122885
0.10231856 -0.27010685 0.14425613 -0.18347292 -0.0058239535 -0.14254995 0.27959827 0.029348938
-0.38966185 -0.07993162 0.391877 -0.38509062 0.08121574 -0.36117783 -0.4920422 -0.3659259
-0.11951657 -0.03721458 0.15571116 -0.0863169 0.049477972 -0.31236896 0.22498885 0.21117258
0.087786146 0.08726304 -0.47716415 -0.018870384 0.16330348 0.2569025 -0.018675245 0.22935757
0.3596861 -0.12343698 -0.20209269 0.09700459 0.045260713 0.07805466 0.101804376 -0.18334177
0.08916507 -0.23657148 0.21344069 -0.7437895 0.27275497 -0.1671553 -0.3986677 -0.5406457
-0.16658765 0.24981949 -0.13926254 -0.09926749 0.14556368 -0.23607129 -0.39543545 0.14819826
0.13901983 -0.21860921 -1.0087781 0.023717798 -0.5798983 -0.0768513 0.19085436 -0.28351733
-0.14671168 -0.6761351 -0.04815708 0.45515978 -0.78350997 -0.6753862 -0.5729574 0.08732391
-0.72091705 -0.20381889 -0.079392605 0.22704093 0.17195535 0.025695253 0.2824591 0.22133668
-0.7738311 0.16555972 0.15700223 0.056580395 0.1632566 -0.5785408 0.36258736 0.2087789
-0.6877912 -0.3916689 0.11818789 -0.7090283 -0.035771452 0.10058771 -0.37637475 0.17498909
-0.4182472 0.038484614 -0.52134335 -0.45566726 0.28791046 -0.5968727 -0.49968797 0.1844855
-0.1332153 -0.15068409 -0.24655484 0.009767895 -0.49932528 0.15122195 0.12515385 0.07843422
-0.78189903 -0.5182686 -0.073316246 0.28650284 0.1931414 0.14898102 0.047468096 0.00794401
-0.50094724 -0.31806397 0.31378344 0.20290534 0.2922121 -0.35007337 0.078920685 -0.4870166
0.30648294 -0.0021873757 -0.4048802 -0.31620228 0.03453709 -0.023932194 -0.32821825 0.2925661
-0.37255457 0.3408785 -0.6020603 0.119510606 -0.24638161 -0.22823338 0.30606586 0.08251519
-0.16616066 -0.5100387 -0.051705662 -0.24819125 0.05732108 -0.8845935 0.061631538 0.09086691

layers.4.bias f4 [1172]
00000000: 1b04 bdbe a0c4 873e 0a46 53be 4e42 eb3d
00000010: 7b68 2b3e 77f7 59bd ce70 b53d d356 a4be
00000020: a3ab 47be e004 4a3d 7466 70bd 93ba 84be
00000030: 7baf 133c 347a 3ebe 97bf 9abe d18f 49bc
00000040: b93f b9be 1e5b 44be d221 1a3d 4258 09be
00000050: 275f 88be bf0d edbc 1a05 023e c892 d5bc
00000060: f750 eb3d 70d6 613e a4ae 06be 53b0 87be
00000070: 25ac 61be 8cdc 0bbe 0c79 88be e355 b0bc
00000080: 1ecc 8cbe e660 033c ff9a a7be 4b7a 77bc
00000090: 41ca fabd d53c a4be cba1 acbc f063 1ebe
000000a0: fcbb d0be 5099 15be a904 bf3c 672d 27be
000000b0: 8c6a 8e3d 3ebe ff3b 1b73 873c b638 68be
000000c0: 05eb 10bc b763 5fbe 3397 a73e 5855 b03c
000000d0: 5a48 16be e8b1 3ebd 1646 133e 180e c23d
000000e0: 56f1 b2bd 5ac6 653d 14aa 043d 4858 90be
000000f0: 824a 153d f8ee 18be 6650 193e 55dc f7bc
00000100: 9a11 b53d 71ce 51be 4f5d 87be 8432 47be
00000110: f293 5fbc ce2e 023a d84f 89be 3adc e0bc
00000120: 1e43 a3be bba5 abbe cfc2 6dbe eff8 db3b
00000130: 375c 483d b720 b73e 924f d4be 2d42 6fbe
00000140: 8e71 0bbe 2827 893a f9e2 bfbe f1fb 963e
00000150: f531 0abe 5a68 e3bc 13c9 d13d d65e 5ebd
00000160: 7d26 823e 2f3e 423d d590 7bbd bf86 7f3b
00000170: a0a0 16be 7789 89be 5ef9 9dbe f429 43be
00000180: 5837 2abd 12ce 2cbe 0dc7 6ebe 94d2 2dbe
00000190: b25f 82be e4a4 103d 8d35 5ebe 3070 133e
000001a0: 5747 423d 77d6 c8bd 19ac 713d 2516 36be
000001b0: 2c89 a83d df4c f238 b572 1bbe 6f03 b8be
000001c0: eaaa 9bbe 4dda 813e f4ba 8fbe e9f0 0ebe
000001d0: 9581 8c3e 3ecb 203e 91d8 48be 938c 8b3e
000001e0: a107 4dbe d67a 78be d659 9abe 16d1 91be
000001f0: a3b6 7fbe d32e b6bd 0707 3ebe ee90 86be
00000200: 7bc2 863c 1056 693d f0b9 abbd 305a f9bd
00000210: a21a 9abd 216c 84bd 1c09 57be 0d49 c8bd
00000220: 481b 293e 8103 09be 4c88 abbd d4a6 53bd
00000230: 224f 09be 786a 0f3e 57f8 95bc 2e9e 86bc
00000240: a71e 843e b0af f33d 37a9 c6bd 93ce 903d
00000250: 441b 7bbd 0e29 0b3c b1be 4fbe 6d41 dbbd
00000260: 61c2 a3bd 0c94 afbd 889a dd3c 19b6 883e
00000270: 9711 dfbd 8bb3 33be 858b 94be 132f 01bd
00000280: dcb7 9c3d fe96 9e3d 4004 5fbe 8762 1bbd
00000290: 479b d23d 4fe8 8bbe f341 cabe b422 b5be
000002a0: 2901 373d 1eb1 67be 1339 ddbd cf4f 88bd
000002b0: 73bc f1bd b9cc 95bd d34e 72be d003 6dbe
000002c0: 84c6 92be 0221 2bbe 1e7d 98bd 5f12 70bc
000002d0: c343 bc3e d607 1a3e 5a1e a7be b705 65be
000002e0: 52e4 75be 2f80 81be cb35 8dbe 4321 52bd
000002f0: c6d4 a8be b409 8dbd 419f 2cbe 7d73 2bbe
00000300: f4aa e6bd 2521 06be 7e99 7dbe c1b1 1a3c
00000310: a6ba b43c 6f10 6bbe a321 32be 30c9 51be
00000320: 9f8c b53c bc33 62be 36cf c0bd 302d ad38
00000330: f799 8c3e 1196 f4bd 6b17 06be 38c7 a6bd
00000340: 964e 4c3d f2b9 5abe e884 dbbd 29c2 61be
00000350: fec4 64be 2739 2dbe 58a3 a7be 50cd 0cbe
00000360: 37bc dfbd 31bd 4abe 68fd debd c6ed 0ebe
00000370: d187 cb3d 96d0 c9bd 7ca3 06be 7d0e 45be
00000380: 1ffb b5bd 539d 17bd f0e3 81be c49c b9bc
00000390: f1c9 9c3d d1c7 87be 7ff3 0ebe 7203 18be
000003a0: a790 e4bd 1fdc 74be 1d5a c3be 6391 55bd
000003b0: cc48 17be 715a 32bd 9652 9b3d b530 96be
000003c0: ca26 3bbe d4d9 c23d f5a4 bcbd 4861 b2be
000003d0: bed7 3d3d d018 303e 2098 6bbe 6b22 d8bd
000003e0: 1a64 86bd 58e5 7dbe 7cae adbc 2361 e5bc
000003f0: 1de9 52bd df97 193d 0932 08be ec99 3cbe
-0.36917195 0.265172 -0.20632187 0.11487256 0.16739075 -0.053214516 0.088594064 -0.32097492
-0.19499068 0.049321055 -0.058691457 -0.25923595 0.009014006 -0.18601304 -0.30224296 -0.012302355
-0.3618143 -0.19175383 0.03762991 -0.13412574 -0.26635095 -0.028937219 0.12697259 -0.026070967
0.11490052 0.22054458 -0.13152558 -0.26501712 -0.22038324 -0.1365835 -0.2665485 -0.021525329
-0.2749948 0.008018708 -0.3273544 -0.0151048405 -0.12245608 -0.3207766 -0.021073243 -0.1546781
-0.4076842 -0.14609265 0.023317652 -0.16325913 0.06953916 0.007804661 0.016534379 -0.22677884
-0.0088450955 -0.21815382 0.32732543 0.02152507 -0.14676037 -0.046556383 0.14382204 0.094753444
-0.087374374 0.056097366 0.03238876 -0.28192353 0.03644801 -0.1493491 0.14972076 -0.03025643
0.08841248 -0.20488907 -0.26438376 -0.19452864 -0.013646113 0.0004966081 -0.26818728 -0.027448762
-0.31887144 -0.3352488 -0.23218845 0.006713025 0.048916068 0.35767147 -0.41466957 -0.23365088
-0.13617536 0.001046394 -0.37477854 0.2948909 -0.1349562 -0.02775972 0.1024343 -0.05428966
0.2541999 0.047422584 -0.06141742 0.0038990227 -0.14709711 -0.2686269 -0.30854315 -0.19058973
-0.041556686 -0.16875485 -0.2331812 -0.1697486 -0.25463635 0.035313502 -0.21700116 0.14398265
0.047431316 -0.09806531 0.059002016 -0.17781885 0.082292885 0.000115537776 -0.15180476 -0.3594012
-0.30403835 0.25361863 -0.2807232 -0.13959087 0.27442613 0.1570253 -0.19613864 0.27255687
-0.20022441 -0.24265608 -0.30146664 -0.28479832 -0.24972014 -0.0889565 -0.18557368 -0.26282448
0.016450157 0.05696684 -0.08385074 -0.12175405 -0.07524611 -0.064659365 -0.20999569 -0.09779558
0.16514313 -0.13380243 -0.08375606 -0.05167277 -0.13409093 0.14005458 -0.018306894 -0.016432848
0.25804636 0.11898744 -0.09700244 0.07070651 -0.0613053 0.008493675 -0.20287587 -0.10705838
-0.07996059 -0.085731596 0.027051225 0.2670143 -0.10892027 -0.17548959 -0.29012695 -0.031539034
0.07652256 0.07743643 -0.21778965 -0.03793576 0.10283523 -0.27325675 -0.3950344 -0.3537804
0.04467884 -0.22626159 -0.10801902 -0.06655847 -0.11803522 -0.073144384 -0.23662882 -0.23145986
-0.2866708 -0.1671181 -0.07445739 -0.0146528175 0.36770448 0.15042052 -0.32640344 -0.22365461
-0.24012879 -0.2529311 -0.27580103 -0.051301252 -0.32974833 -0.06886616 -0.16857626 -0.16743274
-0.112630755 -0.13098581 -0.24765584 0.009441794 0.022061657 -0.22955488 -0.17395644 -0.20486903
0.02216178 -0.22090048 -0.09414522 8.2577e-05 0.27461216 -0.119426854 -0.13094871 -0.08143467
0.049879633 -0.21359995 -0.10718709 -0.22046722 -0.22340772 -0.16916333 -0.3274181 -0.13750196
-0.10924571 -0.19798733 -0.10888177 -0.13957891 0.09938014 -0.09854238 -0.13148302 -0.19243808
-0.08885788 -0.03701527 -0.25369215 -0.02265776 0.07655705 -0.26519635 -0.13960074 -0.14845064
-0.11160403 -0.23912095 -0.38154688 -0.052140605 -0.14773864 -0.043543283 0.075841114 -0.29334036
-0.18276516 0.09514204 -0.092111506 -0.34839845 0.046348326 0.17196965 -0.2300725 -0.1055344
-0.065620616 -0.24794519 -0.021201365 -0.02800042 -0.051491845 0.03749835 -0.13300337 -0.18418092
