Models/LSTM_Start-ups_16_2.pth (torch, 234056 bytes, 7 tensors)

embeddings.0.weight f4 [1172, 2]
000000 27 32 07 40 6d ac 0f 40 29 76 07 40 9c 88 71 c0
       2.112436 2.244899 2.116587 -3.773963
000010 49 31 bd 3e d2 d0 09 bf 29 ad 84 bf 74 41 2f c0
       0.36951664 -0.5383426 -1.0365344 -2.73837
000020 04 49 3e bf 7b 92 b1 3f c2 46 3d 3f 26 90 89 bf
       -0.74330163 1.3872827 0.7393609 -1.0747116
000030 35 85 0f 3f 0f ae d3 3e 0f 8d 43 bf c5 45 56 3f
       0.5606263 0.41343734 -0.76387113 0.8370021
000040 9b 93 f2 3f 87 e3 ab 3e b3 0e 2f bf be 6d 72 bf
       1.8951296 0.33572027 -0.68381804 -0.94698703
000050 f9 0d cf bf dc 23 05 3f 1c b6 75 3f 67 74 46 3f
       -1.6176139 0.5200784 0.95981 0.77521366
000060 f7 56 a6 3f b7 a9 20 bf 90 38 7b 3e 6e f4 0f 40
       1.299529 -0.62758964 0.24533296 2.2492938
000070 c1 24 5f 3f 2b 3e 9a 3f 6a b1 ee be fb 77 c0 3f
       0.87165457 1.2050222 -0.4661973 1.5036615
000080 39 dc ab bf fb d1 89 bf 48 b1 45 3d ec b7 61 3f
       -1.3426582 -1.0767206 0.04826477 0.8817127
000090 bc aa c2 bd ff e6 81 bf 30 c8 14 bd 96 4d 9a bf
       -0.09505221 -1.014862 -0.036323726 -1.2054927
0000a0 d5 46 21 c0 c3 99 13 3f 44 e3 87 3d de fb 3f 3e
       -2.5199482 0.57656497 0.06635144 0.18748423
0000b0 06 b4 c5 bf ff 79 6d 40 7c 51 a2 bf fa b3 8a bf
       -1.5445564 3.710571 -1.2681117 -1.0836174
0000c0 26 05 1e c0 e9 c2 cd bf 31 d8 6e 3e 68 29 91 3f
       -2.4690642 -1.6075107 0.23324658 1.1340761
0000d0 46 c1 d5 3e dc 75 1d 40 89 df a1 3e bf 4d ec bf
       0.41749018 2.4603186 0.31615856 -1.8461226
0000e0 09 a1 1a bf e2 c0 1b 3f f1 0a 5c 3e d9 93 5a bd
       -0.6040197 0.6084119 0.21488549 -0.053363655
0000f0 6d f6 62 be ce f7 37 40 27 c4 e8 bf 93 15 bd bc
       -0.22164316 2.8744998 -1.8184861 -0.023081576
000100 ee 04 d9 3f ef ff f9 bd de 91 3a 40 be 71 3b 3f
       1.695463 -0.122070186 2.915153 0.7322043
000110 88 23 88 3e cf 0c 9d 3d 8a 94 2d 3e bb f0 40 bc
       0.26589608 0.07668459 0.16951194 -0.011776145
000120 76 b3 31 bf 76 a2 92 3f 2d 38 90 be d0 7e 0e bf
       -0.6941446 1.1455829 -0.2816786 -0.5566225
000130 80 2c d6 3f 08 70 03 c0 7e ba 29 c0 d6 b3 f9 bf
       1.673233 -2.0537128 -2.6520076 -1.9508007
000140 b2 8a b2 3f 43 c0 6d bf 6c 42 9c bf a8 89 9e bf
       1.3948576 -0.92871493 -1.220777 -1.2385759
000150 e0 87 08 40 21 3c 80 bf f4 a4 bb 3f fa 03 e6 3f
       2.1332932 -1.001835 1.4659715 1.7969964
000160 60 e2 42 be bc a8 a5 bf fd ab 55 bf f6 26 f7 be
       -0.19031668 -1.2942119 -0.8346556 -0.48271912
000170 05 91 10 c0 f9 7c f7 be f6 38 ea 3f 18 54 8b 3f
       -2.2588513 -0.48337534 1.8298633 1.0885038
000180 81 2d 68 c0 3a 3e bc be f0 06 ce 3f f0 f1 f3 3e
       -3.6277773 -0.36766225 1.6095867 0.4764552
000190 fc f5 b3 3f 8f 23 1e 3f a5 9f 23 bf b9 1e 27 bf
       1.4059443 0.6177301 -0.63915473 -0.65281254
0001a0 cd ab 8d bf b9 1a 3a 3f 5b ab 38 bd 3a e8 2a 3f
       -1.1068054 0.72697026 -0.045085292 0.667606
0001b0 2c cc ff be 65 45 3d 3f 91 fb 2a bf 4a dc 81 be
       -0.49960458 0.7393401 -0.6679011 -0.2536338
0001c0 a4 91 ec bf 9a 8a ff 3d a5 7e c3 bf 3c b9 98 3f
       -1.8481946 0.12477608 -1.5273024 1.1931529
0001d0 56 70 cd 3f f9 08 10 be 47 22 c9 3e 6e 12 96 3f
       1.6049907 -0.14065923 0.39283964 1.1724374
0001e0 cb 7f 99 3f 92 82 ea 3d ff 91 10 40 96 14 9b 3f
       1.1992124 0.114506856 2.258911 1.2115657
0001f0 bb 7f e2 3e 4f 59 06 40 fd fb 82 3f b1 1d 43 3d
       0.44238076 2.099201 1.0233151 0.047635738
000200 12 d8 b5 3f 9f d2 4c 40 99 d9 17 be f8 8b 9d be
       1.4206564 3.2003553 -0.148291 -0.3077085
000210 0d 13 9b 3e 37 ca 38 40 27 41 d5 3e 18 62 df 3f
       0.30287972 2.8873422 0.4165127 1.7451811
000220 6f b0 cc be 85 55 60 3e c0 cc ee bf 13 0a 1b 40
       -0.39978358 0.21907623 -1.8656235 2.42249
000230 81 16 37 bf 4d 6b 42 3f f3 8f 89 be a8 b1 78 3f
       -0.71518713 0.7594498 -0.26867637 0.9714608
000240 20 f0 86 3f 06 83 c4 3f bc 1a 06 40 7b e1 d3 3f
       1.054203 1.5352485 2.0953817 1.6553186
000250 60 b8 8b bf 68 35 ac 3c bc 19 bc bf 0d d9 11 bd
       -1.0915642 0.02102156 -1.4695354 -0.035607386
000260 6c c3 52 be fb bb b0 3f a2 77 12 be 9f 61 05 40
       -0.2058236 1.3807367 -0.14303449 2.0840833
000270 ca 72 00 c0 ba 3f 67 3e 2a cc c6 bf 6a 33 6f be
       -2.0070062 0.22582904 -1.5531056 -0.23359457
000280 56 bb 11 c0 ac 7a 00 bf 3b 9e e6 bf ef 9a d7 bf
       -2.277059 -0.5018718 -1.8017038 -1.6844157
000290 2a 42 fb 3f d3 38 37 3f d3 36 98 bd 77 7e 74 bf
       1.9629567 0.7157108 -0.07432332 -0.9550547
0002a0 d9 fd 78 bf dc 37 d4 3e cb 67 c5 3f c6 b2 10 3f
       -0.9726234 0.41448867 1.54223 0.56522787
0002b0 15 2a b0 bf d7 37 86 bf 1f 16 ca 3f f6 67 d6 3f
       -1.3762842 -1.0485791 1.5788001 1.6750476
0002c0 16 a3 ea 3c 44 d0 b0 3f 0e e6 cb 3e 4c 46 12 3f
       0.028642219 1.3813558 0.39823955 0.57138515
0002d0 89 cb f4 be f0 ed ac bf b7 cb ff be 99 9c d9 bf
       -0.47811535 -1.3510113 -0.4996011 -1.7000915
0002e0 12 9c 95 bd 16 b6 a4 bd a8 b6 44 c0 c6 1a a2 3e
       -0.07305159 -0.08042543 -3.0736485 0.31661052
0002f0 2c d5 30 3f 6c 5b 06 bf 32 1c 37 40 c4 cd 20 40
       0.69075274 -0.5248325 2.861096 2.512559
000300 c6 a4 bb 3f f6 3a ee 3d df 60 44 40 e8 0a a6 3f
       1.465966 0.1163234 3.0684125 1.2972078
000310 30 e7 97 bf ff ba a3 3f d6 16 b0 3f f7 bb 97 3f
       -1.1867428 1.2791442 1.3756969 1.1854237
000320 25 04 9b 3f fe 50 10 40 be cc a0 bf 2a d1 8b bf
       1.211064 2.2549434 -1.2562482 -1.0923207
000330 b9 27 a6 3b d3 91 07 40 4c 10 e3 3f 5a 21 90 3f
       0.0050706533 2.1182754 1.7739348 1.1260178
000340 08 3c f8 bf a5 02 11 c0 09 24 06 bf 00 47 25 bf
       -1.939332 -2.2657864 -0.52398735 -0.6456146
000350 41 4c da 3e ef f5 20 3f de 2f 9d bf 22 da fa bf
       0.42636302 0.62875265 -1.2280233 -1.9597819
000360 0f ac 56 3e 6b 4c 0a 40 b2 3d a6 bf 95 d7 28 bf
       0.20964073 2.1609142 -1.2987578 -0.6595395
000370 38 ae 68 3f 32 6c 0c bf 76 5b 7b 3f f2 97 c1 3e
       0.90890837 -0.5485259 0.98186433 0.37811238
000380 a4 dc 5f bf f9 eb 1b 3f eb fd 6d 3e 58 6d 51 bf
       -0.87446046 0.6090694 0.23241393 -0.8180747
000390 cc 80 bd bf 36 c2 96 bf d9 a1 da bf 5e f4 34 40
       -1.4804931 -1.1778018 -1.7080642 2.827415
0003a0 35 97 61 bf 7b 45 cb be 19 5a 2c c0 09 29 ea bf
       -0.8812135 -0.39701447 -2.6929991 -1.8293773
0003b0 bd 96 05 3f ab 64 ce 3f 7c 1b 1a bf 62 cf b3 3f
       0.52183133 1.6124471 -0.6019819 1.4047663
0003c0 17 1a 9f bf a9 92 94 bf 29 ce 9d 3e 2c 8b 1e 40
       -1.2429837 -1.1607257 0.3082135 2.4772444
0003d0 46 bc 27 bf 46 1e 7b bf 56 9d 2b bf 09 39 96 3e
       -0.6552166 -0.9809307 -0.6703695 0.2934039
0003e0 6e 78 39 3f 27 3e 90 3f 23 0e a5 3f 90 07 92 3f
       0.72449386 1.1268967 1.2894939 1.1408558
0003f0 4d d3 a2 3f bb 49 b8 3d 6f 60 b4 3f c9 ce dd 3e
       1.2720734 0.08998438 1.4091929 0.43321827

layers.0.weight f4 [256, 32]
000000 7b 66 9c 3d 47 c4 d0 be e2 3d 9c 3e 06 97 07 be
       0.07636734 -0.40774748 0.30515963 -0.13241205
000010 22 6d 5f 3f a3 8d ab 3e f2 de 8c be 38 5f fe 3e
       0.872759 0.33506498 -0.27513844 0.4968202
000020 b6 48 d0 3e 75 d0 aa 3e f2 da 3d 3e ce 30 27 be
       0.40680474 0.33362165 0.18540552 -0.16327211
000030 59 38 fc bd ed 53 5f be ee 04 fe 3e 4a 45 29 be
       -0.12315435 -0.21809359 0.49613136 -0.16530338
000040 f7 36 59 3b d4 29 aa be 38 5a 89 bc bd 33 0f 3d
       0.0033144334 -0.33235037 -0.016766652 0.03496145
000050 57 b8 50 be 01 76 6c 3e 41 8d b8 be 55 d3 8f be
       -0.2038282 0.2309189 -0.36045268 -0.2809092
000060 2b c9 e4 be df 12 77 3e 01 3b 3d 3e 70 7e 77 bc
       -0.4468473 0.24128293 0.1847954 -0.015105829
000070 34 48 08 bf a0 e7 36 be e3 a3 70 bf 01 25 cc bd
       -0.53235173 -0.17861795 -0.9400007 -0.099679954
000080 17 03 4e 3e 64 3d 17 bf a3 8e df be 3d c4 01 be
       0.20118366 -0.5907805 -0.4366351 -0.12672515
000090 87 ab 74 3f 99 48 a0 3c 2f 7c 04 bf 4f 72 63 bc
       0.9557423 0.019565867 -0.5175199 -0.013882234
0000a0 9b c1 07 bf c4 64 5a 3b 70 d3 3e be 58 d8 5f 3e
       -0.53029794 0.003332422 -0.18635345 0.21859872
0000b0 a5 8f 6b 3f 57 bb 78 bd 4f 57 ec 3e 0f f2 06 bf
       0.9201606 -0.060725536 0.4616036 -0.527131
0000c0 ae de c4 be ab 05 f7 3d 48 12 22 3b 0a 26 b8 3e
       -0.3845114 0.12061628 0.0024730135 0.35966522
0000d0 87 db f5 3e 72 0a e5 be 4a 4f a7 3e 20 92 b8 3e
       0.4801905 -0.44734532 0.3267768 0.36048985
0000e0 ba 92 01 bf 0e 0b cc 3d 03 4b 56 3e 90 80 d7 bd
       -0.5061451 0.09963046 0.20927052 -0.10522568
0000f0 fd 7c 09 bf e0 04 3c be 23 10 9a 3e 40 87 10 3f
       -0.5370634 -0.18361235 0.30090436 0.56456375
000100 27 b5 25 3f ea c3 35 3e 64 74 26 3e fa 1a e6 3e
       0.6472954 0.17750517 0.16255337 0.44942456
000110 19 e7 03 bf be e0 9b be 6a d1 29 be 69 e3 72 bf
       -0.515245 -0.30444902 -0.16583791 -0.9487825
000120 d0 60 2c bf 32 45 3d bd df 4f cf be 76 78 9a 3d
       -0.67335224 -0.046208568 -0.40490624 0.07542507
000130 ce 80 08 bf 1b d5 1b bf 95 88 84 3f c6 a6 10 bf
       -0.5332154 -0.6087205 1.0354182 -0.56504476
000140 c8 71 aa bb a3 d5 10 3e fd 84 58 3e 8c b0 fd be
       -0.005201552 0.14143996 0.21144481 -0.49548757
000150 1f 09 62 be 9e 80 f9 be 0b 04 44 bd 58 92 eb 3e
       -0.22073792 -0.4873094 -0.04785542 0.4601009
000160 25 44 4b be e5 fc 31 3e 94 6a ca 3d 90 28 31 3e
       -0.19850214 0.17381628 0.098836094 0.1730063
000170 5e 19 02 3f 3b 96 d6 3d bc ee 9c bd 4c dc a5 bd
       0.5081996 0.10477873 -0.076627225 -0.08098659
000180 91 b3 f7 3e d9 40 10 be bb d9 1e 3c 75 24 6a be
       0.48379186 -0.14087237 0.009695466 -0.2286547
000190 81 59 9f 3e 8e 7c 07 3f 9f 80 c1 3d 41 6e 53 3e
       0.31122974 0.5292443 0.09448361 0.20647527
0001a0 b1 02 36 be ed ce 2d be e0 34 67 3e 0d f0 cd bd
       -0.17774464 -0.16973467 0.22578764 -0.10055552
0001b0 4e ee 9d bd 54 08 95 be 15 4a 45 bd 82 ce 40 be
       -0.07711469 -0.29107916 -0.048166353 -0.18828776
0001c0 44 e6 57 be 3c 97 53 bd 8d ac 2b bf 8d 11 8b be
       -0.21083933 -0.0516579 -0.67060167 -0.27161828
0001d0 c7 a1 83 be fb 9e fd bd 36 b0 65 be 1b f8 b4 3e
       -0.25709364 -0.12383839 -0.224305 0.3534554
0001e0 00 48 5a 3e bd 66 63 be e4 fa 20 bf b0 e6 c3 bd
       0.21316528 -0.2220716 -0.6288283 -0.095654845
0001f0 78 57 e6 be 6b 9e 90 3e 6c 08 2d bf ad ba 8c 3f
       -0.44988608 0.28245863 -0.67590976 1.0994469
000200 c7 42 87 3e ee f1 9d be d7 36 3f be d5 e0 64 3e
       0.26418135 -0.3084864 -0.18673263 0.22351392
000210 8c 35 1c be 49 d8 aa 3e 75 8b 0d 3f ef 1c 1a bf
       -0.15254802 0.33368137 0.5529092 -0.602004
000220 77 90 89 bd 5b 45 ca bd 4e 8d 47 3f d0 ea bf bd
       -0.067170076 -0.0987651 0.7794999 -0.09370959
000230 83 38 69 3f 7f 51 91 be 4a 19 b6 3e 2f 56 e6 3e
       0.91101855 -0.2838249 0.3556617 0.44987628
000240 04 62 cd be bd ad 72 be 72 a3 c4 3d e9 81 37 be
       -0.40113842 -0.23699088 0.09601487 -0.1792065
000250 37 19 bd 3e a0 f6 e9 be 0e 7b 71 bd 0e f9 d3 3d
       0.369333 -0.45695972 -0.058955245 0.10350238
000260 cf c7 05 3d d0 c7 42 3e 57 c5 a8 3f 64 f2 d9 be
       0.032661255 0.19021535 1.3185223 -0.42567742
000270 30 bb 86 be 88 dc c4 3e bd 2f 66 3f 63 3d a4 3d
       -0.26314688 0.38449502 0.8991659 0.08019521
000280 0e 6f 0c 3f 5b d3 87 3d a3 8e 92 3e 0a 58 ea 3e
       0.54856956 0.0663211 0.28624448 0.45770293
000290 77 cc 2c bf b6 36 21 3f 38 2a de bd 35 39 19 3f
       -0.6749949 0.6297411 -0.10847896 0.59852916
0002a0 16 e8 2e be 75 6c a3 3e 62 55 ea 3b c5 fa 61 bd
       -0.17080721 0.31918684 0.0071512917 -0.055170793
0002b0 8b fb 48 3e 41 c2 4a bd 98 f5 7f be 85 01 59 be
       0.19627206 -0.04950166 -0.2499603 -0.21191986
0002c0 32 eb 76 be 69 bd e0 3b 77 1f 1d be ff f2 54 bf
       -0.24113157 0.006858517 -0.15344034 -0.8318328
0002d0 b8 26 86 3f 5d a2 24 3e bb 50 8e 3e de e9 68 3d
       1.0480566 0.16077562 0.27795967 0.056863658
0002e0 fa 7d 6e 3b ae 32 d7 be d2 47 2a bc 59 85 58 be
       0.0036391006 -0.42030853 -0.0103931 -0.21144618
0002f0 cf 79 e5 bd ea bf 97 3c 40 99 d4 3e 06 cc fb 3c
       -0.11204874 0.018524129 0.4152317 0.030736934
000300 cc a9 a3 3e b5 ec a8 3e 9d cb 87 bd 43 f2 34 bf
       0.31965482 0.32993093 -0.06630633 -0.7068216
000310 8c 93 76 bc 47 71 66 3e 2c eb 42 3d 0a 84 ff bc
       -0.015049826 0.2250415 0.04758756 -0.03119089
000320 a3 d6 55 3e 43 b9 9c 3e ff 97 95 3d 99 62 d3 bd
       0.20882659 0.30610093 0.073043816 -0.103215404
000330 98 a6 9a be 5b 5c 68 3e f4 74 bb bd 5e 60 6c 3e
       -0.30205226 0.22691481 -0.091531664 0.23083636
000340 a4 0f be 3e ff 10 52 3d b3 0c 9e 3e 30 33 c4 3d
       0.37121308 0.05128574 0.30869064 0.09580076
000350 b3 96 6c 3c ba 19 55 3f b7 7a b1 3e 20 1f 1a bf
       0.014440226 0.8324238 0.34663936 -0.60203743
000360 ad c5 1e be 6c 9d 70 be f3 37 9c 3a c8 76 4b bd
       -0.15505095 -0.23497552 0.001191853 -0.049673826
000370 98 76 4f bd 05 cd 1f be ab 18 83 3e e5 6c 55 be
       -0.05065021 -0.15605552 0.25604758 -0.20842321
000380 16 bc b5 be 71 2b 1c bd 7d 5a 09 be 8f fa 73 3e
       -0.3549506 -0.038127366 -0.13413425 0.2382605
000390 7d 36 f9 3e de 91 82 be a1 16 2b be 80 f9 00 bd
       0.48674384 -0.25501913 -0.16707851 -0.03148794
0003a0 10 05 a3 3e 18 ab a0 3d a1 d7 2a 3e 2f 9d a2 3d
       0.318398 0.078451335 0.16683818 0.07940137
0003b0 2c 87 97 3e c2 26 a5 3d b7 fe b0 3e dc 9d df be
       0.29595315 0.08064033 0.34569332 -0.43675125
0003c0 ff 3a 01 bf c3 ce 3e 3d d9 d5 bb 3e 5c c2 3b 3e
       -0.50480646 0.046583902 0.3668659 0.18335861
0003d0 30 d2 72 be 9b d4 14 3e 27 a9 7a 3e 12 01 03 bf
       -0.23712993 0.14534228 0.24478589 -0.5117351
0003e0 d3 4c 82 be ea 42 4c be 1c 58 41 3e 92 25 b2 3e
       -0.25449237 -0.199474 0.18881267 0.3479429
0003f0 9d 9a 98 3f 9f bf c8 be fe 52 19 bf 44 0c 66 3e
       1.1922184 -0.39208695 -0.5989226 0.22465616

layers.0.bias f4 [256]
000000 7f eb 22 3e 19 74 25 be 7e 24 77 3e 62 16 03 bf
       0.15910147 -0.16157569 0.24135014 -0.5120603
000010 07 2e 85 3c 60 6c 0d bf 79 78 32 3e f2 4b ae 3d
       0.0162573 -0.5524349 0.17428769 0.08510579
000020 69 3a 77 3e 74 bd 0d 3e 0e 6a d0 3d 76 b1 ad be
       0.24143375 0.13841802 0.10176478 -0.33924454
000030 06 64 8f 3e fb ea 18 3e 61 c0 0c bf 69 37 0b bf
       0.28006 0.14933388 -0.54981047 -0.54381424
000040 01 49 e7 3e 8f b2 8c 3c 89 be 4f 3e 9b d8 be be
       0.45172885 0.017174987 0.20287527 -0.37274632
000050 3b 12 af bc 6e 47 b4 bd 04 78 ae 3e e2 86 0d be
       -0.021370998 -0.08802687 0.3407594 -0.13820985
000060 6c a4 55 3e 0b 30 9b 3e e2 e9 12 3d f2 af 62 be
       0.20863503 0.3031009 0.03586758 -0.2213743
000070 10 c1 37 bf 9d a9 dd 3d 8f 57 60 be 1d ee 0a bf
       -0.71778965 0.10823367 -0.21908401 -0.5426958
000080 24 cf c5 3c 63 bf 45 be 3b 21 11 3e 2a 11 09 bf
       0.024146624 -0.1931129 0.14172833 -0.53541815
000090 16 34 9a 3d ba 07 ca 3e e0 b8 a3 3c 3e a3 77 3e
       0.07529466 0.3945902 0.019985616 0.24183366
0000a0 2a cb e3 3e ce 56 cf be 59 84 2c bf 02 96 9e 3e
       0.4449094 -0.40495914 -0.67389446 0.30973822
0000b0 41 d0 2c 3e 6a 2b 22 bf f8 d3 37 3e 5d bd 26 3e
       0.16876318 -0.63347495 0.17951953 0.16283174
0000c0 92 50 a9 3e 75 d3 97 3e de 5c b4 3d 63 a8 d2 3d
       0.33069283 0.29653516 0.088067755 0.102860235
0000d0 e4 a3 88 be 55 d4 59 bf 22 c3 4d 3e be 0b 72 bc
       -0.2668754 -0.8508962 0.20093969 -0.014773307
0000e0 5c bf 7d 3d 54 e8 fe 3e 41 82 ef be a9 95 31 be
       0.061950073 0.49786627 -0.46779063 -0.17342247
0000f0 90 15 14 bf 96 6d b8 3d a6 fe be 3d 43 45 cd 3e
       -0.578454 0.09005277 0.09325914 0.40091905
000100 d0 88 35 bd a8 37 10 3d cc 0b 12 3e a3 0e 34 bf
       -0.044319928 0.035209328 0.14262313 -0.70334834
000110 e6 1e f5 3e 5a 74 d4 3d b0 31 8e 3d a2 6b 3c bd
       0.47875136 0.10373755 0.06943071 -0.046001084
000120 64 e3 34 be a0 76 10 3d bf 6e 81 3e e2 ea 5b 3e
       -0.17664868 0.03526938 0.25279805 0.2147632
000130 14 0a 0a be 62 64 bd 3e 19 c9 09 3f ac 8b de be
       -0.13480407 0.36990649 0.53822476 -0.43465936
000140 07 72 8e 3d f9 fc b0 3e d5 be 9b 3e 82 fe 1e b9
       0.06955343 0.34568003 0.3041903 -0.00015162866
000150 48 c6 18 bc 9f 51 cc 3e bd e0 c6 3d 4f f8 5b bf
       -0.009324618 0.39906022 0.09710834 -0.85925764
000160 7c 3f c8 3d 47 57 b2 bc c0 81 12 3e d7 45 55 3e
       0.09777734 -0.021770133 0.14307308 0.20827423
000170 0d a1 ab 3e db 03 16 bf fa 8e 79 3d c8 29 92 be
       0.3352131 -0.5859963 0.06092737 -0.28547502
000180 f6 98 83 be 2b a8 bb bd 74 17 36 be bc 9a bb bd
       -0.25702637 -0.09162935 -0.17782384 -0.091603726
000190 ae 36 ac bd 18 ae a4 3e 34 f1 91 be eb de 3f 3e
       -0.08408867 0.32164073 -0.28504336 0.1873738
0001a0 81 52 0b bd d5 f0 b3 3e 8d 5a 6c 3b d4 ae 0e be
       -0.03401423 0.35144678 0.0036064715 -0.13933879
0001b0 a1 b4 e5 bc 2e 60 6b be d6 86 e1 be f8 25 39 be
       -0.028040232 -0.22985908 -0.44048184 -0.1808089
0001c0 04 e9 a3 3d 60 4c dd 3d 43 96 f9 3d 45 89 6c 3e
       0.080034286 0.10805583 0.12186863 0.23099239
0001d0 e6 e7 69 bf 2e 49 41 3e f4 6f d7 3d e9 12 4d 3e
       -0.91369474 0.18875572 0.105194 0.20026745
0001e0 dc c9 70 3e 71 8d f9 be 2b 75 f3 bd b6 bf a3 3e
       0.23514503 -0.48740724 -0.118875824 0.319822
0001f0 ca 7c 4f 3d 1a 36 6b bc 23 d2 c2 be fa 78 d3 be
       0.050656117 -0.014356161 -0.38050947 -0.41303235
000200 16 b1 c2 3d 9b 9c 89 be 9a f4 54 3e 8f 7a 16 be
       0.09506433 -0.26877293 0.20796433 -0.1469519
000210 6a 12 23 3e 6d 5e 2c 3e 18 c2 a4 3d 53 e8 16 be
       0.15924993 0.16832896 0.08044833 -0.14737062
000220 5e 5a b9 3e 9f 0f 01 be d1 3b 3d 3d 21 c6 25 3e
       0.36201757 -0.12603615 0.046199623 0.16188861
000230 3f 5e 28 3c 2d b9 11 bf f8 6d 97 3e 93 a0 87 3e
       0.010276376 -0.5692318 0.29576087 0.26489696
000240 d7 09 9b be 7c f5 5e be 79 6a 92 3e 06 e6 ee 3d
       -0.30280945 -0.21773332 0.28596857 0.11664967
000250 21 fc c3 3e 3a 97 df 3e f4 ab 9c 3e 1c 84 c1 3d
       0.38278297 0.43670064 0.3059994 0.09449026
000260 c0 96 cf 3d 52 80 ad 3c 51 20 14 bd e3 69 f4 bd
       0.10136175 0.021179352 -0.03616363 -0.11934259
000270 eb 52 cc 3d 88 7e 43 3e 0f f3 b5 3e 69 58 a0 3e
       0.09976753 0.19091237 0.35537001 0.31317452
000280 bf c0 7f be 92 1b 6f bd 40 7b c9 be d6 0b b9 be
       -0.2497587 -0.058375902 -0.39351845 -0.36141843
000290 ff 45 15 bc 59 cd 86 3e 52 fc 36 bc ca 5f 3d bf
       -0.009110927 0.26328543 -0.011168556 -0.7397429
0002a0 a2 f3 f6 3d 56 59 b7 bd 7e a3 80 3e ad 8c 05 be
       0.12058188 -0.08952586 0.25124735 -0.13041945
0002b0 f9 f4 97 be a1 d9 2c 3e 8e 24 a2 3e e2 5b a7 3d
       -0.29679087 0.16879894 0.31668514 0.08171822
0002c0 c1 0e a4 3e 27 5e 15 be bd b8 41 3e ec 6e 42 bf
       0.32042506 -0.14586698 0.18918128 -0.75950503
0002d0 ab 9d 5c 3d 53 8c 7f 3e f6 94 0a 3f 61 f6 25 be
       0.0538613 0.24955873 0.54133546 -0.16207267
0002e0 91 6e 6f 3d 88 a0 a3 be 38 45 c8 bd 94 b2 93 3e
       0.058455054 -0.31958413 -0.097788274 0.28847182
0002f0 9a ac f2 be 78 1d 9b be c1 73 0d be 32 bf 5c be
       -0.4739731 -0.3029592 -0.13813688 -0.2155731
000300 e9 c7 a4 3d 97 f2 f9 3d 78 d4 f4 3d 70 7e ca bd
       0.08045942 0.122044735 0.11954588 -0.09887397
000310 27 87 eb 3e 8a 2e a2 3e 9f c2 fe be 03 bd 7a 3e
       0.4600155 0.3167613 -0.4975786 0.24486165
000320 79 69 71 3c dc d1 e9 3d 19 66 a2 be 54 4b e9 bc
       0.014734619 0.114169806 -0.3171852 -0.028478302
000330 f1 85 c6 be 52 3e e0 bd f2 6a 18 bf 30 07 db be
       -0.38774064 -0.10949387 -0.59538186 -0.4277892
000340 c5 25 54 be df b8 56 be 32 ce 1f bf c8 eb f5 bd
       -0.20717533 -0.2096896 -0.62424004 -0.12007862
000350 93 fd fb 3d 68 42 8a 3e 1c 25 d9 bd 79 b4 8a 3e
       0.12304225 0.2700379 -0.10602781 0.27090815
000360 a6 d5 b1 3e d3 f2 51 3e 10 8e eb 3e 8d 74 1f 3e
       0.34733313 0.20502786 0.46006823 0.15571804
000370 71 c4 07 bd 7c 35 ff 3d 03 f8 1b 3d 7b 3e 3f be
       -0.033146325 0.12461373 0.03807832 -0.18676178
000380 c9 ba 9c be a2 72 97 3e 61 d7 a2 be 3e f4 76 3d
       -0.30611256 0.29579645 -0.31804946 0.06029152
000390 c8 95 3e 3e 17 a9 96 bd 98 ed 54 3e 0e 63 49 be
       0.18611825 -0.0735647 0.2079376 -0.19666693
0003a0 98 99 64 be 17 46 3a 3e 6e e4 be be 8c ee 97 be
       -0.22324216 0.181908 -0.37283653 -0.29674184
0003b0 e3 3e 06 3e 64 4b f1 3e 4f 96 26 3d 54 26 fd 3d
       0.13109927 0.4712783 0.04067069 0.12360826
0003c0 9d 95 3f 3d 93 fc 83 3e 37 03 02 3e a0 58 c1 be
       0.04677354 0.25778636 0.12696539 -0.37762928
0003d0 fe a7 c3 3e fd 25 17 3e 9d 11 e5 3e f9 d6 a1 3e
       0.38214105 0.14760585 0.4474 0.31609324
0003e0 a7 72 1c be 7c 84 32 3e cd df 6e 3e 75 78 41 3d
       -0.15278111 0.17433351 0.2332756 0.047234017
0003f0 dd 58 57 bd 2f 2e 1d 3e c9 0b ff 3d 1b b6 1b 3e
       -0.05257498 0.15349649 0.1245342 0.15206186

layers.2.weight f4 [32, 256]
000000 2a 77 8d 3e 49 15 20 3d 56 fa 21 3e 49 1f cb 3e
       0.27629977 0.0390828 0.15818152 0.39672306
000010 e5 a5 4a be b3 94 0b bf 53 26 3f bf f4 50 2a 3e
       -0.19789846 -0.5452377 -0.74667853 0.16632444
000020 f5 0d fd 3c 3f 5a 0a be 24 2b 5c be b3 32 dc be
       0.030890444 -0.13510989 -0.21500832 -0.4300743
000030 af d7 3a bf b4 b7 13 3e 02 7c 89 be 9b 2e 12 3d
       -0.7298536 0.14425546 -0.26852423 0.035688978
000040 ec 5a 20 3e 6d 58 10 bd 74 fe b6 be 16 ee 2f bf
       0.15659684 -0.03524058 -0.35741007 -0.68722665
000050 3b 4a 65 bf 5e ea ce 3e 73 db 44 bd 68 74 c7 be
       -0.8956639 0.40413183 -0.048060846 -0.38955998
000060 fa e8 f5 bd 4f 69 4e 3e b5 cd 4b bf 3b 85 b0 be
       -0.120073274 0.2015736 -0.7961076 -0.34476647
000070 e5 80 b3 3e ef bc 4a 3e 49 48 92 3c 43 c1 00 3e
       0.35059276 0.19798635 0.017856734 0.12573723
000080 d1 c2 9a 3e 58 98 d5 be f3 b7 42 3f c5 cd c9 be
       0.30226758 -0.41717792 0.76061934 -0.39414802
000090 d3 95 00 3f 34 bb 60 be 6a e9 51 bf 65 e9 a3 3d
       0.50228614 -0.21946412 -0.81996787 0.08003501
0000a0 1e 2c f5 3c 43 fb b0 bf 54 c3 f3 3e 68 ac 1e 3f
       0.029928263 -1.3826679 0.4760996 0.6198182
0000b0 64 98 6d be 51 f2 66 be ae 8c b5 3e b2 bc 24 3c
       -0.23202664 -0.22553374 0.35458893 0.010054754
0000c0 3c 1a ed 3e 63 e2 17 3a 01 c5 78 3e a2 3e 66 bc
       0.46309078 0.0005793927 0.24293901 -0.014053019
0000d0 47 9b b6 3e 9f d3 8a 3e 6b fd 84 3d ed 66 0e bf
       0.35665342 0.2711458 0.06493648 -0.556258
0000e0 40 1f dd be bc f8 82 3e b2 35 b0 3d b7 3b 0a be
       -0.43187904 0.25580394 0.086039916 -0.13499342
0000f0 d4 67 4c 3e 78 dc b7 be bc 18 c9 be 18 11 ca 3e
       0.19961482 -0.35910392 -0.39276683 0.39466166
000100 47 10 33 bf 17 55 b7 3e 4c be e6 be 77 10 ae be
       -0.6994671 0.35807106 -0.4506706 -0.33996937
000110 43 b1 92 be dc 35 f5 3e 84 8c 9c 3e 2b 6b ff 3e
       -0.28650865 0.47892654 0.30575955 0.4988645
000120 d6 49 3f bf a4 d4 09 3f 03 6b 87 3d 24 ae c2 3d
       -0.7472204 0.5384009 0.06612208 0.09505871
000130 f1 d1 ff bd 93 3b be be ce 50 6c bd ed 48 94 3e
       -0.12491215 -0.37154827 -0.05769425 0.28961888
000140 87 73 c3 bd 41 51 ca be c4 87 5b 3e 80 9a 34 be
       -0.095435195 -0.39515117 0.21438509 -0.17637062
000150 9e 72 09 bf 3d 81 33 3e 4c 6c ff be e7 19 40 bc
       -0.53690517 0.17529769 -0.4988731 -0.011724926
000160 cd 32 aa 3e 9c 7e 55 bd 72 de a6 3e d2 8d 4d be
       0.33241883 -0.052122697 0.32591587 -0.20073631
000170 fc 60 3c 3e eb b8 08 3f 49 ec 8a be d0 72 5d be
       0.18396372 0.5340716 -0.27133396 -0.21625829
000180 a9 43 04 3f 01 0f cd be 5d 9e e2 3d 35 5d 20 3e
       0.5166574 -0.4005051 0.11065362 0.15660556
000190 c4 32 9a bf 51 6e c0 3e f3 5b 44 bf 8e 55 78 be
       -1.2046742 0.37584165 -0.76702803 -0.24251387
0001a0 ac 3b 8a be b3 e3 ad 3e e5 60 fd bd 8e f6 50 bf
       -0.2699865 0.33962783 -0.12371997 -0.8162621
0001b0 8b b0 39 bf aa 6f 62 3e 80 31 19 bf 02 25 73 bc
       -0.7253501 0.22112909 -0.59841156 -0.014840366
0001c0 e6 65 d0 3e 43 6b 56 bf dd 75 df 3e 86 27 14 3e
       0.40702742 -0.8375742 0.4364461 0.14468202
0001d0 9b ae 39 bf d6 64 52 3e c9 b0 14 bf f0 45 2c be
       -0.7253205 0.20546278 -0.5808225 -0.16823554
0001e0 e1 7a cf bd cb 3e 0a bf 5e 2b 7b 3f 35 48 15 bf
       -0.10130859 -0.54002064 0.9811305 -0.58313304
0001f0 d4 2e 4b bf 94 3d 88 bd 36 e4 48 bf 84 f6 94 be
       -0.7936833 -0.0665237 -0.7847322 -0.29094326
000200 d2 3a 0b 3f a2 68 2b be 53 18 f3 bd b4 5e a5 be
       0.5438663 -0.16739133 -0.11869874 -0.32298815
000210 61 56 5e 3d e3 24 07 3d 58 a5 a3 bf 6d 46 ff 3e
       0.054281596 0.032994162 -1.2784834 0.49858418
000220 1b c5 64 3e 70 3e 58 3f aa 4b 13 3f 1c 9a 64 bd
       0.22340815 0.8447027 0.5753733 -0.055811033
000230 24 0d a7 be 01 e5 da 3d c3 06 51 be d5 2b 21 3d
       -0.32627213 0.1068821 -0.20412736 0.039348442
000240 95 11 97 3e de bd 87 3e e2 f0 dd be 7f 68 b8 be
       0.29505602 0.26512045 -0.43347842 -0.36017224
000250 40 aa 8e be 15 65 10 be 41 a7 19 3e 60 25 a3 be
       -0.27864265 -0.1410106 0.15005209 -0.31864452
000260 fd 88 c5 bd 8b 94 14 be a1 e8 f1 3e cd 57 24 bf
       -0.09645269 -0.1450979 0.47247794 -0.64196473
000270 ef d6 f9 3d df e1 75 3e 35 d5 2d bf 5a 3b 25 bf
       0.121991985 0.24011944 -0.67903453 -0.6454369
000280 71 8f 9b 3e 15 38 7e bc 45 58 5c 3e 15 b2 3b be
       0.30382875 -0.015516301 0.21518047 -0.18329652
000290 c9 c4 37 bf 81 64 b7 be d4 49 c1 be 38 81 9a 3e
       -0.71784645 -0.35818866 -0.3775164 0.3017671
0002a0 4d bf 3f 3d 31 59 8c be 53 d2 b4 3d 1a 55 d2 3e
       0.046813298 -0.27411798 0.08829179 0.41080552
0002b0 82 30 4b be 7a 05 d0 bd 5d 1f 32 be d5 b9 2a bf
       -0.19842723 -0.101572946 -0.17394777 -0.6668981
0002c0 1f 77 98 be fc 75 33 bf db ae db be 44 86 da 3e
       -0.29778382 -0.70101905 -0.42906842 0.42680562
0002d0 49 0f ef be 69 b6 bb bd 71 16 19 3e 24 1d 93 be
       -0.4669135 -0.09165651 0.14949967 -0.2873317
0002e0 bd 6c 63 bd 8f 34 6a be 6a f8 18 3d 1d 1c b6 3e
       -0.055523623 -0.22871612 0.03734628 0.35568324
0002f0 63 3c a3 bf b3 28 d9 bd 8b e6 1c 3f 4b b2 98 bf
       -1.2752804 -0.10603466 0.6128928 -1.1929411
000300 c7 40 ae 3e 17 20 86 3e 0d c8 45 be c6 ca 00 3f
       0.34033796 0.26196358 -0.19314595 0.5030941
000310 ff 6a 33 3e 44 d4 f3 bd aa 74 1a 3e 34 98 fa be
       0.17521285 -0.11905721 0.15083566 -0.48944247
000320 74 0a 80 bf d0 a2 f6 be ac 56 0f be c0 f6 9e be
       -1.000319 -0.4817109 -0.13997906 -0.3104763
000330 58 3f 3b bf 14 88 c2 be cf a7 ed 3e 39 77 7e 3c
       -0.7314353 -0.37994444 0.4641709 0.015531355
000340 7e 3e 35 3e eb 3e 93 be 4c be 0c 3f 49 35 0e bf
       0.1769962 -0.2875894 0.5497787 -0.55550057
000350 63 c0 4f be 33 68 5d 3c fc 65 cb 3e d8 2c 90 3e
       -0.20288233 0.013513613 0.39726245 0.28159213
000360 7f 99 7e be 43 5f 37 bf 8a ef a1 3e b2 80 f7 3e
       -0.24863242 -0.7162973 0.31628066 0.48340374
000370 42 7c 53 bd 16 84 1b 3f 85 2a a1 3e 16 ab 96 bc
       -0.051632173 0.6074842 0.31477752 -0.018392127
000380 fe 5f 2c 3e bc a5 0f bf 53 b8 03 bf 93 4a 94 bc
       0.16833493 -0.56112266 -0.5145313 -0.018101966
000390 a7 4b 41 3e 09 8a e7 be 71 a3 8b 3e 10 bf 39 3f
       0.18876515 -0.452225 0.27273133 0.72557163
0003a0 fa 7d c8 3d a3 4c f5 be 62 8f d2 be bf 1f 2a be
       0.09789653 -0.47910032 -0.41125017 -0.16613673
0003b0 70 b2 51 bf 11 2c 83 3e cf c6 a8 bd fc 01 11 3e
       -0.819129 0.25619557 -0.08241045 0.14160913
0003c0 c7 95 97 be 6b df cf 3e 62 3f 64 3e e9 c9 c2 be
       -0.2960646 0.40600142 0.22289804 -0.3804467
0003d0 93 02 9a bd 5e 7d 98 be 69 bf 85 bf 28 15 5b bd
       -0.07520022 -0.29783148 -1.0449039 -0.053486973
0003e0 c7 f0 7c bf a8 84 c8 be fe 27 c6 bd eb 10 b0 3e
       -0.988049 -0.3916371 -0.09675597 0.34387907
0003f0 c7 a1 4f bd 65 7b 5a bf d8 da c4 3c 64 3a 06 bf
       -0.050691392 -0.85344535 0.024030134 -0.5243285

layers.2.bias f4 [32]
000000 3d b7 27 3e 65 27 3f 3e 6b f5 1d 3e f5 3d 48 be
       0.16378494 0.18667372 0.15425651 -0.19554885
000010 40 a5 2c 3e b6 4a b7 3d 2f f3 66 3e 4c df cf bd
       0.16859913 0.08949797 0.22553705 -0.101500124
000020 a0 9d 6c 3e cc cb 8a 3d ef 47 05 3e 14 1c 8c 3e
       0.23107004 0.067771524 0.13015722 0.27365172
000030 75 cc 57 3e 9d ad 81 3e a1 2e b0 3c 70 15 e6 3d
       0.21074088 0.2532777 0.02150661 0.11234558
000040 b3 8c c8 3e 3b 7c 8c 3e 07 c8 db 3d a8 79 2e 3e
       0.39169845 0.2743853 0.107315116 0.17038596
000050 f2 7b 2e 3e 67 e4 90 be 2f 23 7f 3d f0 71 c4 be
       0.17039469 -0.28299257 0.062289413 -0.38368177
000060 aa 92 96 3e 60 cc 84 bd 7f a8 f2 bd c6 00 b7 3c
       0.2940877 -0.06484294 -0.11848544 0.022339236
000070 51 5e 0b 3e 68 58 c4 3d 89 a0 36 3e 52 55 79 bd
       0.13610198 0.09587175 0.17834677 -0.060872383

layers.4.weight f4 [1172, 32]
000000 0a 1d 0f 3e 9c 10 f0 bd 43 ae 64 3e 32 5d 5b bd
       0.13975921 -0.11721918 0.223321 -0.053555675
000010 1f 2b fa 3e ec dd 87 3d 4d b8 51 3e 03 b1 31 3e
       0.48861024 0.06634125 0.20480461 0.17352681
000020 62 6d 9a 3e d8 4a f8 3e 6d 71 9c 3e e6 b9 ee bb
       0.30161577 0.484946 0.30555287 -0.0072853444
000030 54 01 f2 bd d3 bc 34 bf b1 a4 9a bd 14 36 c9 3e
       -0.118166596 -0.7060062 -0.07550944 0.3929907
000040 93 7d 4a bd 1b 15 e8 be e9 bc 50 3e ec f0 1f bf
       -0.049436163 -0.45328602 0.20384564 -0.6247699
000050 55 fc ae bf 6b e3 81 be 2d 5b 82 3e 09 b7 3c bf
       -1.3670756 -0.2536882 0.25460187 -0.7371679
000060 5a 04 ac be f2 4a c4 3e 27 30 14 3e c3 b4 cc 3e
       -0.3359707 0.3833843 0.14471494 0.3998166
000070 0b c6 aa 3e 88 c0 15 3f bd 61 74 3e e7 f4 08 3f
       0.3335422 0.58496904 0.23865409 0.5349869
000080 4b 41 87 3e 6a 41 82 be a3 63 fb bd 30 93 70 bf
       0.26417002 -0.25440532 -0.122748636 -0.9397459
000090 64 ae 52 bf c2 e2 23 bd 78 84 39 3e 40 f6 90 3d
       -0.8229735 -0.040011175 0.18116939 0.070782185
0000a0 5e 5c 36 3e b8 99 94 3e 8a 5c 36 bf fd d1 f7 3d
       0.17808673 0.29023528 -0.71234953 0.12100599
0000b0 d9 98 86 3e e6 25 bc 3c a7 aa d8 3d f5 39 9c 3d
       0.26288489 0.02296729 0.10579424 0.07628242
0000c0 68 e3 3e 3e f3 fb 92 3e a5 78 99 bc 7a 0d 12 bc
       0.18641436 0.28707847 -0.018734286 -0.008914346
0000d0 0f b3 29 3d 85 d1 9f bd 0d fe 1e be 21 df fd be
       0.04143053 -0.078036346 -0.155266 -0.49584296
0000e0 73 78 2c 3e 2d f6 27 bf 97 d2 f0 3c 38 f1 26 3e
       0.16842823 -0.6561001 0.029397292 0.16302955
0000f0 8b d0 5d 3d 33 bb 0e 3e 1d 81 a6 bd 93 a2 bb bd
       0.05415396 0.13938598 -0.08130095 -0.09161868
000100 e5 a1 08 bf e4 c0 9b 3e 3f 56 25 bf 43 b2 fe be
       -0.5337203 0.304206 -0.64584726 -0.49745378
000110 2d 9c 0f 3f d7 03 10 3e a7 65 e4 3d 6a 32 1b 3e
       0.5609768 0.14063965 0.11152201 0.1515595
000120 26 7a 3e 3e 2a 60 9b be b7 5f 4e bf c1 91 13 bd
       0.18601283 -0.30346805 -0.806148 -0.036027674
000130 6f 13 41 3d aa c3 c6 3b 01 6d 52 bf c4 e5 59 3e
       0.047137674 0.0060658054 -0.82197577 0.21279055
000140 83 66 35 3e 29 91 02 be 0f 49 71 bd e7 21 53 be
       0.17714886 -0.12750687 -0.058907565 -0.20618401
000150 79 e3 d0 3d 56 fb a1 bf bd 4b 3b bf aa 6e 98 3e
       0.10199637 -1.2654827 -0.7316244 0.2977193
000160 a6 7b fe be ac fc 13 bf 72 80 8d bd 26 3b a0 bf
       -0.4970371 -0.5780742 -0.069092646 -1.2518051
000170 1e ac 4b 3f aa 16 b6 be ef 23 c4 3d 9d 79 88 3f
       0.79559505 -0.35564166 0.09577166 1.0662113
000180 bd 68 e0 3d e1 f9 16 3e a4 fb c8 bd e6 67 98 be
       0.10957477 0.14743759 -0.09813622 -0.29766768
000190 52 a0 2d bf 95 0e 94 3d a9 73 79 3c 51 a9 3f bf
       -0.67822754 0.07229344 0.015225329 -0.7486773
0001a0 0b 95 96 bd c9 00 0d 3d 65 00 e5 bd dc b6 df 3d
       -0.073526464 0.034424577 -0.11181716 0.109235495
0001b0 3e 85 53 3e 33 ae 8b 3d a4 26 2b be 08 22 e3 3d
       0.20656297 0.06820335 -0.16713959 0.11090475
0001c0 2e 8c 3b 3e a5 4e 11 3e 3f 0f e6 3d 38 8c 57 3e
       0.18315193 0.14190157 0.11233377 0.21049583
0001d0 77 a4 1b 3e 7c 25 5a bf 2c a2 38 3e b8 a5 cd bd
       0.15199457 -0.85213447 0.18030614 -0.10041374
0001e0 b1 ec 49 3d 34 d0 7c bf 53 af 81 bd f1 12 64 be
       0.049297992 -0.9875519 -0.063322686 -0.2227285
0001f0 4c 4b a9 bf 3c 63 5a bf 02 53 ca 3d 8f 4b 45 3d
       -1.3226104 -0.8530767 0.09879114 0.04816776
000200 ba c9 94 bf 09 bf 60 3e 6d 57 0d be e7 59 b6 be
       -1.1624062 0.21947874 -0.13802882 -0.35615465
000210 5d de ae be 8b 85 3a be bc cb 98 3d 4f c8 e3 be
       -0.34154025 -0.18215005 0.07460734 -0.4448876
000220 83 17 6b bc 8f 77 42 be 6f 08 27 3e 8d b2 4e 3e
       -0.014348867 -0.1899092 0.16311811 0.20185299
000230 59 75 a3 3d 1e db 53 3e 5a 23 57 be dd 49 1e 3b
       0.07981367 0.20689055 -0.2100958 0.0024152913
000240 51 d8 0d 3e 0c d0 fa 3d ee 5c 94 3d b0 00 70 3e
       0.1385205 0.12246713 0.072442874 0.23437762
000250 3e 76 a6 3e cf b0 9a bf 63 2c 3b bf 70 3c 84 be
       0.32512087 -1.2085208 -0.73114604 -0.2582736
000260 56 02 e8 3d 2f ad 82 bf 25 8d 27 bc 75 24 0c bf
       0.113285705 -1.0209101 -0.010226523 -0.5474313
000270 a3 31 20 bf d5 47 16 bf 41 af ba 3c 6e 82 df be
       -0.6257574 -0.58703357 0.022788646 -0.43654197
000280 2a 6d 22 3f f5 d3 0a be 66 bf 5b bf fc 03 47 bd
       0.6344782 -0.13557418 -0.85838926 -0.048587784
000290 c2 a7 c3 be b0 3f b5 3d 97 da 30 3e 11 76 9b 3d
       -0.38213927 0.08850038 0.17270885 0.07590879
0002a0 c1 b2 8c 3f 0b 49 42 3e 80 17 9b be 4e f3 00 be
       1.0992051 0.18973176 -0.30291367 -0.12592813
0002b0 86 f6 3b 3c ad af 8d 3c e9 54 77 be 9d 5d da be
       0.01147235 0.017295683 -0.24153484 -0.42649546
0002c0 38 66 18 3e 8f a9 d6 bd 8e f5 78 3e db 57 48 be
       0.14882743 -0.104815595 0.24312422 -0.19564764
0002d0 6c ee 32 be cb 63 62 bf 81 ef f3 be 7d 20 99 bf
       -0.17473763 -0.8843352 -0.47643664 -1.196304
0002e0 6b 10 42 bf 6a 58 45 be 82 78 08 3f c5 be 14 bf
       -0.758063 -0.19272009 0.5330888 -0.5810359
0002f0 c7 17 fc 3e 5d 3e 81 be 92 02 45 bd 99 ac 91 be
       0.4923689 -0.25242892 -0.048098154 -0.28451994
000300 da 7c bc bd 5a bd 8e bf df f1 13 be 50 24 a0 be
       -0.09203501 -1.1151536 -0.14447735 -0.31277704
000310 d9 10 b4 3c 1c 62 67 3e e4 36 ab 3d 09 86 4c 3d
       0.02198069 0.2259602 0.08360079 0.049932513
000320 c3 d3 e0 be b0 04 3b 3e 59 55 fc bc 5c 4e 86 3d
       -0.4391156 0.18263507 -0.030802416 0.065579146
000330 b3 93 00 be ac c0 9c 3d f7 35 cd 3e 32 6d 8f 3e
       -0.12556343 0.07653937 0.40080234 0.28012997
000340 12 b6 1a be 34 25 5a bf ef f6 4b bf fe 62 91 3e
       -0.15108517 -0.8521302 -0.79673666 0.28395838
000350 40 ac d5 3d ec 94 f5 be 0a 0c 5e 3e 2f 66 85 bf
       0.10433245 -0.4796518 0.2168428 -1.0421809
000360 00 f9 4b 3d fa 54 a2 bd 2c 34 57 bf 18 ce 5b 3e
       0.04979801 -0.07926364 -0.8406398 0.21465337
000370 79 9c 6f 3e 39 21 d6 3d 40 58 12 be 7e 04 29 bf
       0.23399533 0.104555555 -0.14291477 -0.6602248
000380 75 00 4f 3b af 74 3d bf 86 76 85 3e 0e de 2f be
       0.0031585966 -0.7400617 0.2606699 -0.17174551
000390 09 9e 03 3e 55 43 75 3e 68 a3 17 bc b6 47 ca be
       0.12853254 0.23951466 -0.009255268 -0.39507836
0003a0 f8 54 15 be 9b ee 9e 3d cd 5a 13 3e 49 91 86 3e
       -0.14583194 0.07760354 0.14390106 0.2628272
0003b0 5f 5a 38 bf 75 d1 6c bf 54 b1 c2 3d d4 b2 b0 bf
       -0.72012895 -0.92507106 0.09506479 -1.3804574
0003c0 a2 00 9a 3d bc a6 90 be 91 7e ae 3e fa cc 88 bf
       0.07519652 -0.28252208 0.34080938 -1.0687554
0003d0 2a fb 39 3c fb 93 1c 3e 4c ac 59 3e 91 f6 4d bf
       0.011351386 0.15290825 0.21257132 -0.80454355
0003e0 cd f1 12 be cf 6b 81 3e 3d 71 38 bf 1e cd 62 3e
       -0.14350052 0.25277564 -0.7204779 0.22148558
0003f0 91 60 3a 3e 6d 86 ba 3e e7 55 34 3e 96 f6 b4 3d
       0.182009 0.36430684 0.17610894 0.08836095

layers.4.bias f4 [1172]
000000 d9 02 bb be a0 a4 86 3e e6 ce e8 be f9 ca ac 3e
       -0.3652561 0.26297474 -0.4547035 0.33748606
000010 6c fa 45 3e 33 97 33 be 86 25 95 be 31 c0 f4 bd
       0.1933381 -0.17538147 -0.2913019 -0.1195072
000020 58 0d de bd 5b 4c 16 be 24 42 aa bd 35 4a 52 3d
       -0.10842389 -0.14677565 -0.083133966 0.0513403
000030 91 91 be bc f5 a4 33 3d d7 21 4f be c1 70 b4 3d
       -0.02326277 0.043858487 -0.20227753 0.088105686
000040 92 a3 4a bc ed 65 bc 3d 3a 6e a5 3c 15 94 1b be
       -0.0123681 0.09199128 0.020194162 -0.15193208
000050 c8 76 91 bd 2d 76 b5 3d 92 10 d8 3d 95 48 0a bd
       -0.07102734 0.08860431 0.105500355 -0.033760626
000060 fe 3f 89 3d 71 17 14 be 70 e8 23 be 48 dc 8d bd
       0.06701659 -0.14462067 -0.16006637 -0.06926781
000070 14 3d 83 3d ed d6 d0 bd 5b 1b a7 bd 32 f8 67 be
       0.06408134 -0.10197244 -0.081595145 -0.22653273
000080 b7 b4 a1 be c5 d2 75 be 39 81 64 be 64 a4 68 be
       -0.31583187 -0.24006183 -0.2231492 -0.2271896
000090 1f 7e 70 be 09 77 61 be 4e 22 40 be ac 5c 7a be
       -0.23485611 -0.22018065 -0.18763086 -0.24449414
0000a0 10 2a 71 be c0 f8 8a bd e9 4c d6 bd 33 a2 99 bc
       -0.23551202 -0.067857265 -0.10463888 -0.0187541
0000b0 b2 24 cb bd fd 29 b6 3e 2f eb dc 3d b5 1f ab be
       -0.099191085 0.3557891 0.10787045 -0.33422628
0000c0 1d a2 6a bd c8 8e 8b 3b 03 d4 76 3d b0 29 00 3c
       -0.05728351 0.004258964 0.060260784 0.007822439
0000d0 53 e5 17 be 44 29 a9 bd a0 fe 89 be a4 7f 07 be
       -0.14833574 -0.08259824 -0.26952076 -0.13232285
0000e0 f4 96 f6 bd f7 58 25 bd 80 07 5f be 48 56 8f be
       -0.12040511 -0.040368047 -0.21780205 -0.27995515
0000f0 0f c3 a2 be 21 86 92 3d 35 3b cb 3d 2f 91 98 3e
       -0.31789443 0.07154489 0.09923402 0.29798266
000100 45 db 3c be 22 d0 af 3d 47 eb 0e bb c3 28 f6 bd
       -0.1844302 0.0858462 -0.0021807717 -0.120194934
000110 ab 9d 35 3b 12 13 68 be 98 9d 42 3c ac 6b b6 3e
       0.0027712386 -0.22663525 0.011878394 0.35629022
000120 58 dc 87 be 8a 7c 57 be 88 a9 29 be 30 6b ce bd
       -0.26535296 -0.21043602 -0.16568577 -0.10079038
000130 a6 0e ba 3d 81 cc 7a 3e 51 15 c7 3d 8c 06 20 be
       0.09084825 0.24492075 0.09720863 -0.15627497
000140 45 ea f0 bc 25 7f 82 bd 2c b9 96 be e5 cc 60 3e
       -0.029408583 -0.06371907 -0.2943815 0.21953161
000150 98 5d 09 bd 39 4b 3f be 16 45 b5 be 73 c5 bb bd
       -0.033536524 -0.18681039 -0.3540427 -0.0916852
000160 69 db 2c 3e 32 4c 88 be ae 5c 0f 3d c5 52 56 bc
       0.16880573 -0.26620632 0.035000496 -0.013081257
000170 4a 0a 8e bc e9 19 57 be 24 0a b8 bd ac 02 23 be
       -0.01733889 -0.21005978 -0.08986309 -0.15918988
000180 9e bf 20 be 2a 15 19 bd 23 99 45 bd 8b 97 71 bd
       -0.15698096 -0.0373737 -0.048241746 -0.058982413
000190 0a d3 48 be fa 93 11 be e2 08 47 be fb f0 0d 3f
       -0.19611755 -0.14216605 -0.19436982 0.5544583
0001a0 87 11 8a 3e 1d 27 0d be 59 fd 3e be 96 5b 95 bd
       0.26966497 -0.13784452 -0.18651332 -0.07292859
0001b0 22 fe 1a bf a6 36 83 bd 00 52 bc bd c6 c9 68 be
       -0.60544026 -0.06406908 -0.09195328 -0.2273322
0001c0 51 1b 4c 3c 8f 7b 04 3e 3d 8a 14 be 70 f0 9c be
       0.012457685 0.12937759 -0.14505859 -0.3065219
0001d0 ec 44 2b be fc 5e 88 be f8 e6 7d bd 39 a3 a7 3e
       -0.1672551 -0.26634967 -0.061987847 0.32741717
0001e0 44 95 c8 bd 48 13 5a be 5e f3 b1 3e cb a6 af be
       -0.09794095 -0.21296418 0.34755987 -0.3430694
0001f0 9d 5f 5e bd 22 47 02 bf 95 98 76 be 59 aa b6 bc
       -0.054290403 -0.5088979 -0.24081643 -0.022298025
000200 49 69 e9 bd 18 0e 0e be b7 d1 0d 3c 2e 85 43 be
       -0.11397035 -0.13872564 0.008655957 -0.19093773
000210 5a 21 9b bd 03 52 58 3e 57 d2 d2 bd a5 77 89 bd
       -0.07574721 0.21125035 -0.102940254 -0.067122735
000220 ef 3e dd 3d 37 a8 04 3d f3 0c 69 3e 45 97 bf be
       0.10803019 0.032386985 0.22758846 -0.37420097
000230 a5 22 00 be 36 b0 0f bc 60 6f 89 be fe 58 77 3d
       -0.12513216 -0.008770039 -0.26842785 0.060387604
000240 86 05 fc 3d 2a af 0c be 4d 5d 74 be 1e 82 64 be
       0.12305741 -0.13738695 -0.23863716 -0.22315261
000250 23 1b 50 be 5a 6e 47 3d 66 2b 75 be 3a e4 cb be
       -0.20322852 0.048689224 -0.23942336 -0.3982256
000260 b1 1e 26 bd e9 6c 8c be 3a 61 1c bd 43 57 cb 3e
       -0.040556613 -0.27426842 -0.03817866 0.39715013
000270 8b e5 59 be 78 b8 d6 bd b1 bd 12 bc e9 de 9f be
       -0.2127897 -0.10484403 -0.008956359 -0.31224754
000280 41 08 96 be f2 a5 75 be fe 69 61 bd f8 33 da be
       -0.29303172 -0.23989084 -0.055032723 -0.42617774
000290 7b ae df bd 7a 5b cf 3d c4 39 c4 bd 3a 54 10 3e
       -0.109219514 0.1012487 -0.095813304 0.1409463
0002a0 7e 55 5a be 87 70 0b bb 20 29 a5 be 97 d3 90 be
       -0.21321675 -0.0021276788 -0.32257938 -0.2828643
0002b0 57 5e 0c 3c c2 8f a8 3d ac a3 b3 bd 3b 7c a1 bd
       0.008567414 0.082305446 -0.08771452 -0.07885023
0002c0 ae e2 43 bd fa 89 66 be 52 61 96 be 2f 16 36 be
       -0.0478236 -0.22513571 -0.29371125 -0.177819
0002d0 59 7d 7d 3e 43 03 e8 3d dd 8c 72 be 6b d7 bf bd
       0.24754848 0.11328747 -0.23686548 -0.093672596
0002e0 56 01 5b bc 94 63 e3 bd 36 f7 83 be 86 0b fc bd
       -0.013367018 -0.111029774 -0.25774544 -0.123068854
0002f0 b8 aa d1 3d e7 f7 c0 bc 92 20 10 bf 90 d8 f1 bd
       0.1023764 -0.023555709 -0.562997 -0.11808884
000300 35 d4 f3 bd 3f c5 d1 3b dc 36 83 bd 25 c9 83 be
       -0.1190571 0.0064016874 -0.06406948 -0.257394
000310 68 01 12 be e5 ec 89 be 79 44 cb be 27 c7 81 bc
       -0.14258349 -0.2693855 -0.39700678 -0.015842034
000320 b2 48 02 3e 15 3d d0 bd 32 f8 89 be 4b e8 16 bb
       0.12723044 -0.101679005 -0.2694717 -0.002302664
000330 75 9b 6d be 0b b6 cf bd 08 2c a8 3e 5f 2b 13 bd
       -0.23203833 -0.10142144 0.32846093 -0.035930034
000340 38 bf c8 bd 8f a5 45 be 6b 82 95 be ea 23 5f be
       -0.09802097 -0.19301437 -0.29201064 -0.21791044
000350 f0 03 b5 3d ce e0 8f be a5 df b4 be 42 7d b5 be
       0.08838642 -0.281012 -0.35326877 -0.35447127
000360 c9 e9 0a be b1 cc 1a be ab 04 e8 bd 0d b5 4e 3d
       -0.13565744 -0.15117146 -0.11329015 0.050465632
000370 85 ba e9 be 72 17 35 be 69 70 8f be ba 13 43 3d
       -0.45650116 -0.17684725 -0.2801545 0.047626235
000380 21 62 12 be e7 73 56 bd 9e c9 be be ce 35 cd 3c
       -0.14295246 -0.052356627 -0.37263197 0.02505007
000390 27 83 3e 3e b1 43 c6 be e3 9b f5 bd b1 ad 75 bc
       0.18604718 -0.3872352 -0.11992624 -0.014995025
0003a0 b2 0a 7d 3d 5e 0e ba bd 31 78 ca bd d3 05 10 bc
       0.061777778 -0.090847716 -0.09886206 -0.008790451
0003b0 3d 63 79 be 4e 16 dc bd 86 18 57 be ae 48 24 bd
       -0.24354263 -0.10746442 -0.21005449 -0.040108375
0003c0 5f 9e c0 bd e2 1d d1 bd c1 91 11 be 31 8b 57 3e
       -0.09405207 -0.10210778 -0.14215757 0.21049191
0003d0 7c 46 0d 3e 82 ef 79 be d9 2f 65 be 4d 18 cc bd
       0.13796419 -0.24407771 -0.22381534 -0.099655725
0003e0 00 1f 64 bc 70 c0 c5 bd e1 2d 16 3e fa f5 fb be
       -0.013923407 -0.09655845 0.14665939 -0.49211103
0003f0 86 6e 8d be 42 1a 8e bd 5e 70 c0 be 70 3e 7c be
       -0.27623385 -0.06938602 -0.3758573 -0.24633193
