Models/LSTM_Start-ups_2_4.pth (torch, 218813 bytes, 7 tensors)

embeddings.0.weight f4 [1172, 4]
0.8446851 0.07385421 -0.22550747 -2.744317 1.4306216 -1.9104084 0.34594932 -2.3394034
-0.9003198 1.3981594 0.107761316 -1.5152414 0.18568845 -1.6008512 -1.279826 1.1170855
2.0404544 -0.89540035 -0.55063856 1.6486586 -0.9097907 0.76461 1.5616844 0.72305053
-0.3380525 1.2610481 0.10612668 -0.3522512 0.57043743 1.5777377 -1.0403193 1.324595
-1.9123105 -0.25314486 1.0148057 1.2077987 0.8417808 0.5167468 -0.5913089 -0.55163485
-1.4884319 0.41212958 -0.6591533 -1.525459 -0.5106053 2.5514874 -1.7652283 -0.30327496
-1.5034544 0.3959874 0.728474 0.9843246 -0.7183487 0.4769276 0.29477832 -1.2136104
-1.7496241 0.49866316 0.3392119 0.6426003 0.031498693 0.8282877 -0.13269873 1.1132649
1.7785262 0.38322762 0.27499822 0.6863807 1.9005499 -0.7508394 -1.6568341 1.3877747
0.6304485 -0.83676434 -0.52173537 0.956802 0.8969347 -0.055297524 -1.3691401 0.30295137
0.2853422 0.37373015 -1.365488 -1.1072772 2.4586658 0.9800612 -0.41700605 1.5389363
0.28786469 -0.20879985 -1.3379819 1.0542951 -3.529427 -0.23429367 0.68888086 -0.8409467
-2.4843125 0.02710027 -0.47722405 1.3522496 1.4961993 0.36471137 0.40460303 0.24398132
-1.7373525 1.8039932 -0.72771424 1.0177115 -0.0664915 0.8385964 -0.70797765 0.3785007
-1.180432 -0.06938444 -1.9936471 0.34632593 0.4848045 1.6063229 -0.80754507 2.024663
-0.74798566 -0.58769506 1.0433943 0.7522103 0.6401783 0.36014268 1.747357 0.61261594
2.8190005 -0.63804215 -0.593155 0.45251575 -1.8550406 0.7709391 0.6425272 0.22097857
-1.2798493 -2.2049985 -1.9250968 1.4352549 0.7898112 1.8572057 -1.1646446 0.5364752
-1.800698 0.7693743 3.1506648 1.1083074 -1.0015332 0.014055958 0.4078923 0.40394288
0.585511 1.4917425 -0.84212446 1.2248979 -0.80740577 -1.3019468 -0.6400161 1.8799936
-1.2489263 -0.14792414 1.3464544 0.67332965 -0.82915205 0.25016904 -1.6705247 -1.0479023
-1.6481466 0.31322628 -0.3183279 -0.30761868 -0.1106589 0.5962403 -0.9390982 0.9173599
0.8863078 -0.9717289 -0.88910294 -0.24990702 -1.5962142 -1.2194358 -0.32654154 -1.1912351
1.4284985 -1.394779 -1.882934 -0.9762915 0.36665314 -0.13212962 0.68168324 1.439913
3.0272942 -0.56250703 -0.37748736 -0.11585783 -1.6663297 0.76951563 0.690028 1.3601109
0.25612432 1.3354828 -1.7027408 -0.111519635 1.4521203 1.3037496 2.154302 -1.1866384
-0.5203349 -1.8428484 0.8816207 -0.7300433 -0.22486366 -0.49764442 -1.5959144 -3.0159824
-0.18173541 1.0423485 -2.1392176 1.6402936 -0.7050324 -0.5576463 0.66511655 0.3908339
-0.70837694 2.7414446 -0.008395011 -1.7690625 0.8160857 -0.1412553 -0.6274197 3.1747859
-0.24121103 -1.219353 -0.9465735 -0.687284 -0.6406805 -0.20328869 -0.36059076 1.0774099
-1.2297101 0.37980866 -0.8094328 0.35853174 -2.2418544 0.42006198 0.241777 0.5918024
0.7219177 -0.21848044 0.55860186 0.33288756 1.5291352 -0.016384665 0.06406194 0.6144182
00000000: 483d 583f e040 973d 6eeb 66be e4a2 2fc0
00000010: 9c1e b73f 4388 f4bf 4520 b13e c9b8 15c0
00000020: 5c7b 66bf e3f6 b23f f7b1 dc3d 6ef3 c1bf
00000030: 1d25 3e3e b1e8 ccbf 57d1 a3bf a8fc 8e3f
00000040: ce96 0240 f538 65bf a6f6 0cbf 3f07 d33f
00000050: 0be8 68bf 7bbd 433f 46e5 c73f d719 393f
00000060: 3815 adbe 066a a13f f258 d93d 455a b4be
00000070: 3008 123f 4ff3 c93f 2f29 85bf 548c a93f
00000080: 97c6 f4bf 349c 81be 27e5 813f 2699 9a3f
00000090: f27e 573f 8549 043f 0560 17bf f137 0dbf
000000a0: f084 bebf a602 d33e 45be 28bf 3e42 c3bf
000000b0: 07b7 02bf 924b 2340 00f3 e1bf db46 9bbe
000000c0: 3271 c0bf dcbe ca3e 467d 3a3f b2fc 7b3f
000000d0: b3e5 37bf db2f f43e 2fed 963e 9657 9bbf
000000e0: aff3 dfbf c750 ff3e 2fad ad3e 7481 243f
000000f0: c604 013d aa0a 543f 2de2 07be 777f 8e3f
00000100: bfa6 e33f 6936 c43e 91cc 8c3e a5b6 2f3f
00000110: 3845 f33f 0337 40bf 2413 d4bf 9aa2 b13f
00000120: 1365 213f 3036 56bf 7390 05bf faf0 743f
00000130: 839d 653f a87f 62bd fc3f afbf 711c 9b3e
00000140: 5f18 923e 8f59 bf3e 50c8 aebf 42bb 8dbf
00000150: c85a 1d40 4ae5 7a3f d181 d5be ddfb c43f
00000160: 0063 933e a1cf 55be fe42 abbf 24f3 863f
00000170: 22e2 61c0 aeea 6fbe 7f5a 303f 4848 57bf
00000180: fafe 1ec0 6301 de3c b656 f4be 8416 ad3f
00000190: 7583 bf3f 73bb ba3e 2128 cf3e 3dd6 793e
000001a0: 9161 debf 40e9 e63f 7b4b 3abf 5f44 823f
000001b0: b22c 88bd 41ae 563f 063e 35bf d8ca c13e
000001c0: 6518 97bf 6e19 8ebd d42f ffbf a251 b13e
000001d0: 4c38 f83e fd9b cd3f 46bb 4ebf 1494 0140
000001e0: fd7b 3fbf 2f73 16bf f28d 853f db90 403f
000001f0: bae2 233f 9f64 b83e 65a9 df3f 66d4 1c3f
00000200: 816a 3440 bb56 23bf 02d9 17bf 25b0 e73e
00000210: f871 edbf 445c 453f aa7c 243f 3548 623e
00000220: 1ad2 a3bf b21e 0dc0 9269 f6bf 6fb6 b73f
00000230: 1131 4a3f ebb8 ed3f 1313 95bf 7056 093f
00000240: 467d e6bf b7f5 443f 7ea4 4940 04dd 8d3f
00000250: 3d32 80bf f64a 663c 42d7 d03e 9ad1 ce3e
00000260: 0de4 153f 6bf1 be3f 7895 57bf 74c9 9c3f
00000270: 25b2 4ebf 31a6 a6bf 18d8 23bf a1a3 f03f
00000280: d1dc 9fbf 6d79 17be 9e58 ac3f 555f 2c3f
00000290: 4f43 54bf 2816 803e c1d3 d5bf aa21 86bf
000002a0: 78f6 d2bf 325f a03e e0fb a2be 3280 9dbe
000002b0: 22a1 e2bd 34a3 183f bd68 70bf 19d8 6a3f
000002c0: 11e5 623f 3ac3 78bf 409c 63bf a0e7 7fbe
000002d0: bf50 ccbf 7916 9cbf 7430 a7be 647a 98bf
000002e0: 0ad9 b63f 1e88 b2bf fb03 f1bf 3dee 79bf
000002f0: f6b9 bb3e fd4c 07be cb82 2e3f 124f b83f
00000300: 30bf 4140 7600 10bf 0646 c1be df46 edbd
00000310: 4b4a d5bf fafe 443f ada5 303f 1d18 ae3f
00000320: ba22 833e 1af1 aa3f 69f3 d9bf 6864 e4bd
00000330: 14df b93f 44e1 a63f 15e0 0940 c4e3 97bf
00000340: ab34 05bf 75e2 ebbf e5b1 613f 1ee4 3abf
00000350: a942 66be 40cb febe ec46 ccbf db05 41c0
00000360: d918 3abe ad6b 853f f1e8 08c0 24f5 d13f
00000370: 017d 34bf e8c1 0ebf 1445 2a3f 621b c83e
00000380: 3158 35bf d473 2f40 3a8b 09bc a470 e2bf
00000390: feea 503f 3ba5 10be 949e 20bf b12f 4b40
000003a0: 0600 77be c213 9cbf a452 72bf d8f1 2fbf
000003b0: a303 24bf e92a 50be 5a9f b8be 91e8 893f
000003c0: 2467 9dbf 4876 c23e fd36 4fbf 7991 b73e
000003d0: 8b7a 0fc0 5d12 d73e 6494 773e 5d80 173f
000003e0: 99cf 383f 56b9 5fbe 8800 0f3f 3d70 aa3e
000003f0: b4ba c33f 2239 86bc e832 833d 834a 1d3f

layers.0.weight f4 [256, 8]
-0.35441953 0.015522005 -0.30940482 -0.02992925 0.20557314 -0.124242604 0.025243482 -0.0830127
0.66333634 -0.05218169 -0.052284144 0.26594475 0.7270483 0.49751234 0.5673807 0.3627309
0.43877608 0.08934307 0.19320865 0.46194214 -0.03315736 -0.3327036 0.19882776 0.1077991
-0.9259827 0.13918255 -0.5297451 0.052645456 0.37994924 0.40115306 -0.27936766 0.7095891
0.3927786 0.6081375 -0.47145864 -0.27556163 0.035996206 0.55266404 -0.29208806 -0.047170445
0.46235082 -0.37054607 -0.39769572 0.97697645 -0.04514181 0.31689274 -0.3356981 -0.116304405
0.52636033 0.19751754 -0.016614443 -0.28018188 1.3072387 -1.301549 -0.21534024 -0.72971404
-0.3068738 -0.28125116 -0.35672548 -0.1887719 -0.39030185 0.75746006 0.2907537 0.57478076
-0.24861011 -0.106025845 0.5963874 -0.4922452 -0.08838278 0.55997044 0.032562315 -0.37250382
0.33507398 -0.5972887 -0.073792376 -0.41131753 -0.19846857 0.07010578 -0.16593264 -0.68211013
0.37793997 0.14526404 -0.7608401 -0.47814235 -0.5669586 0.36491242 0.75288516 -0.48865148
0.15799999 0.066109486 -0.18117447 0.045781273 0.5845653 0.8871861 0.29263633 -0.13465571
-0.57087475 -0.83781135 0.44627756 0.021954795 0.47804886 -1.0488448 -0.20556708 -0.66681385
0.37049827 0.80170673 -0.31878194 -0.4142497 0.13250996 -1.2607434 -0.7386713 0.3856691
-0.8408392 0.91728663 -0.28762785 -0.1912499 0.88761336 0.09185692 0.82939184 0.64588016
-0.554321 0.390926 -0.43479568 0.60815275 -0.122785576 0.21940008 0.6524653 -0.5101667
0.74180734 -0.16600621 -0.5743555 0.627013 -0.13558653 0.7704317 0.39063215 0.81257606
-0.2883194 -0.07499056 -0.6344465 -0.15258205 -0.011304997 -0.5797449 0.3141342 0.28080583
-0.19397196 0.062995285 0.31514937 -0.14614826 0.52957755 0.929799 -0.7254075 -0.58072585
0.5487736 -0.9616473 0.7247884 -0.54040396 0.1645295 -0.32948363 -0.14824894 0.118882135
-0.46114534 -0.41504043 -0.24473739 0.39191237 0.34799463 0.899615 0.26069584 0.846461
0.22450404 -0.50269794 -0.03497735 0.501646 -0.48052087 0.31344137 0.6549841 -0.19660895
0.26852155 -0.026765602 0.12677349 -0.055842467 -0.4462235 0.7447714 0.105949424 0.6773472
0.14589104 0.13284534 -0.49436617 -0.5743812 0.25212592 0.80989575 0.08117962 -0.5919255
0.5316561 -0.8357938 0.20082748 -0.52878916 -0.6807738 0.27402624 0.79113895 0.22118734
0.63949025 -0.80135 -0.252592 0.751962 0.058133002 0.1826589 -0.009582442 0.13123168
0.48053673 0.5239085 0.07887719 0.10558386 -0.3811985 -0.92592824 -0.5024177 -0.15952891
0.38622865 0.46823317 0.7185604 0.05836324 0.38863662 -0.79280907 0.10410337 0.57749593
0.20808564 -0.052564908 -0.55970585 -0.28981632 -0.26335272 -0.6861519 0.59973234 -0.26784158
-0.51960677 -0.4610615 -0.16429214 0.2220468 0.25419372 -0.4867785 0.24739742 0.45636618
0.51497763 -0.56610894 -0.3147192 -0.45471105 -0.8952985 0.5303991 -0.7201853 -0.5904269
0.34242183 0.50435466 -0.5585261 -0.2852519 -0.08167681 0.6829452 0.32995415 0.48545492
00000000: 7a76 b5be 0250 7e3c 4f6a 9ebe 302e f5bc
00000010: c481 523e e872 febd 6bcb ce3c 9002 aabd
00000020: 69d0 293f 78bc 55bd e627 56bd e929 883e
00000030: d61f 3a3f f0b9 fe3e dd3f 113f ddb7 b93e
00000040: 42a7 e03e 80f9 b63d 7dd8 453e ae83 ec3e
00000050: 03d0 07bd 2058 aabe 8199 4b3e c6c5 dc3d
00000060: 340d 6dbf df85 0e3e 609d 07bf c3a2 573d
00000070: b588 c23e ef63 cd3e 4709 8fbe a2a7 353f
00000080: 471a c93e e6ae 1b3f 0763 f1be 6a16 8dbe
00000090: c270 133d 647b 0d3f 918c 95be cc35 41bd
000000a0: 3fb9 ec3e 37b8 bdbe c69e cbbe 211b 7a3f
000000b0: 9ee6 38bd c43f a23e 9fe0 abbe 0131 eebd
000000c0: 8dbf 063f 0a42 4a3e 031b 88bc 0074 8fbe
000000d0: 9953 a73f 2899 a6bf 2782 5cbe 8ace 3abf
000000e0: 901e 9dbe 2700 90be b9a4 b6be 6c4d 41be
000000f0: a5d5 c7be e7e8 413f abdd 943e d524 133f
00000100: a693 7ebe 1424 d9bd d8ac 183f 9007 fcbe
00000110: 0802 b5bd 395a 0f3f 1060 053d d2b8 bebe
00000120: d18e ab3e eae7 18bf 7520 97bd 3698 d2be
00000130: 583b 4bbe 9f93 8f3d 3fea 29be c59e 2ebf
00000140: 5981 c13e 19c0 143e 6bc6 42bf 13cf f4be
00000150: 3324 11bf cdd5 ba3e 15bd 403f 8730 fabe
00000160: c0ca 213e 6964 873d cd85 39be 2585 3b3d
00000170: 12a6 153f a11e 633f 6ed4 953e 30e3 09be
00000180: d924 12bf ce7a 56bf 7e7e e43e 8bda b33c
00000190: d2c2 f43e 8c40 86bf 2d80 52be 50b4 2abf
000001a0: f3b1 bd3e a73c 4d3f 6337 a3be 8918 d4be
000001b0: b1b0 073e 0a60 a1bf 9019 3dbf 6c76 c53e
000001c0: 3d41 57bf 4cd3 6a3f f543 93be 04d7 43be
000001d0: a13a 633f 7b1f bc3d 0653 543f 6758 253f
000001e0: fbe7 0dbf 7427 c83e 8a9d debe e6af 1b3f
000001f0: 0177 fbbd 6aaa 603e f707 273f 499a 02bf
00000200: 16e7 3d3f 88fd 29be f608 13bf ed83 203f
00000210: 32d7 0abe 033b 453f f000 c83e fc04 503f
00000220: 9a9e 93be a794 99bd 166b 22bf 783e 1cbe
00000230: 9838 39bc 296a 14bf 33d6 a03e c8c5 8f3e
00000240: 96a0 46be ac03 813d 425b a13e e4a7 15be
00000250: 6592 073f 4f07 6e3f 4eb4 39bf 73aa 14bf
00000260: 6d7c 0c3f 842e 76bf bc8b 393f ea57 0abf
00000270: 6c7a 283e 14b2 a8be 92ce 17be 7a78 f33d
00000280: 3e1b ecbe 2e80 d4be 709c 7abe bda8 c83e
00000290: 5a2c b23e 2b4d 663f ed79 853e abb1 583f
000002a0: 63e4 653e d0b0 00bf 6944 0fbd df6b 003f
000002b0: d506 f6be 637b a03e 0aad 273f db53 49be
000002c0: a87b 893e 8943 dbbc e9d0 013e 12bb 64bd
000002d0: 6877 e4be 57a9 3e3f 03fc d83d a066 2d3f
000002e0: 7664 153e 9c08 083e 901d fdbe a50a 13bf
000002f0: a616 813e 5455 4f3f 8041 a63d 6e88 17bf
00000300: 9d1a 083f 95f6 55bf b8a5 4d3e ba5e 07bf
00000310: 3147 2ebf 2b4d 8c3e 1588 4a3f ef7e 623e
00000320: a2b5 233f 4625 4dbf bd53 81be 9580 403f
00000330: df1c 6e3d ef0a 3b3e adff 1cbc 9961 063e
00000340: e908 f63e de1e 063f 5d8a a13d 5a3c d83d
00000350: 732c c3be a209 6dbf 729e 00bf 8c5b 23be
00000360: c3bf c53e 42bc ef3e 93f3 373f 4b0e 6f3d
00000370: 61fb c63e 89f5 4abf 2634 d53d c6d6 133f
00000380: 6714 553e 4d4e 57bd e248 0fbf ce62 94be
00000390: 2bd6 86be a7a7 2fbf 0f88 193f 8822 89be
000003a0: f304 05bf 4110 ecbe 333c 28be 3d60 633e
000003b0: ae25 823e 083b f9be c055 7d3e d4a8 e93e
000003c0: 93d5 033f 84ec 10bf e022 a1be e3cf e8be
000003d0: 4832 65bf 3cc8 073f 105e 38bf 3826 17bf
000003e0: ea51 af3e 631d 013f 91fb 0ebf 890c 92be
000003f0: 2c46 a7bd 7fd5 2e3f c0ef a83e 8c8d f83e

layers.0.bias f4 [256]
0.5566752 0.117363214 0.3663453 -0.07106979 0.49090663 0.25544316 -0.092304535 0.2936024
0.21235971 -0.5709276 0.012138583 0.3292855 0.25735644 -0.034779746 -0.15561043 -0.38924634
0.40070564 0.3950015 -0.67523366 -0.5094795 0.12189674 -0.55328596 0.38899636 0.09607959
-0.231297 0.14708912 0.31588322 0.26322564 0.43898597 0.29939154 -0.07687438 0.18252954
0.351616 -0.28946337 -0.4657581 -0.19828743 -0.23383284 -0.27793914 0.3842471 -0.23470755
0.4595123 0.13545826 0.33390158 0.01945083 0.24456835 0.30984908 0.5259487 0.07192102
0.13393751 0.18692704 -0.15085721 0.12639017 0.22768493 0.21162613 -0.7191668 0.38204333
0.05303056 -0.19990882 -0.094369024 -0.05909987 0.42248073 -0.5946104 0.21071474 0.5759439
-0.7607373 0.27208927 0.17995298 0.1825342 0.29490516 -0.43574223 0.1959545 0.5406013
0.047533695 -0.3125724 0.24987952 0.24789664 0.09045007 0.05229283 -0.029828118 -0.2116763
0.48801923 -0.5294264 -0.4425207 0.42674193 -0.5867379 -0.11031701 -0.29875267 -0.57741976
0.26968855 -0.0029552246 -0.266887 0.019709026 0.2599127 0.48231965 0.47949812 0.16077045
-0.4605573 0.0800937 0.087830864 0.54297704 0.07769951 -0.6144116 0.20035695 -0.12550855
0.17007343 0.09823947 0.34096527 0.2827841 -0.3917922 -0.48207283 0.4007059 0.3755375
-0.33712852 0.4779517 0.033691898 -0.09539972 -0.6680003 -0.48305258 0.47246322 0.12598495
-0.15499172 0.52704084 -0.5560434 0.6212149 0.05236264 0.44634196 0.1886508 0.2741866
0.19969681 0.23097403 -0.47357112 -0.5671305 -0.50590265 0.5127683 -0.12320726 -0.4885491
0.06906882 0.34164932 0.42786828 0.0012621598 0.18475883 -0.08838755 0.39381337 -0.39421293
0.10399276 -0.12372053 -0.55832773 -0.66721 -0.31349152 -0.30250797 0.52002954 0.08866106
-0.5461793 0.0064807576 -0.40699297 0.102357574 0.5054009 -0.5676232 -0.64366376 0.31049865
0.3155883 -0.4490512 0.3176297 0.601137 0.14125878 -0.6000236 0.3186858 0.27624443
-0.16817711 -0.51316935 0.1721107 -0.2748092 -0.533236 0.5516848 0.26856974 0.23150036
-0.54132086 0.37923107 0.3906117 0.5204804 0.10108587 -0.04025683 -0.29269066 0.41782293
-0.027560506 -0.67399055 0.6772776 0.05005916 0.3762197 -0.035380512 -0.4738232 0.36447668
0.3549799 -0.4315059 0.21320175 0.5013869 0.21183503 -0.28855765 0.59472543 0.5742536
-0.02599752 0.4018458 0.22650827 0.010534242 0.4789502 0.021002732 0.0018298496 -0.1403097
-0.45751756 0.38633654 -0.3475967 -0.5321383 0.011267043 0.07681513 -0.2479524 0.08564051
0.5969237 -0.5084552 -0.5118723 0.16822512 -0.32409334 -0.19228123 0.40357456 0.22114767
-0.26264098 0.07780513 0.18435931 0.18633299 0.4534141 0.2380272 0.41716665 -0.44569117
-0.08124305 0.2385583 0.25200477 -0.15279578 0.48968405 -0.20404808 -0.18488203 0.32152408
-0.34931916 -0.55775404 -0.12507921 -0.44387123 0.2762016 -0.30178988 -0.19413908 0.4239392
0.10405703 -0.70617014 -0.5569249 0.39633542 0.30407044 0.52336735 -0.5888089 0.28003117
00000000: 4482 0e3f 205c f03d 9c91 bb3e 0a8d 91bd
00000010: 1d58 fb3e 72c9 823e 290a bdbd 0e53 963e
00000020: d374 593e 5028 12bf e8e0 463c 1c98 a83e
00000030: 39c4 833e 3575 0ebd 5758 1fbe 4c4b c7be
00000040: 4a29 cd3e a33d ca3e 1ddc 2cbf 406d 02bf
00000050: ffa4 f93d 26a4 0dbf 882a c73e 60c5 c43d
00000060: 1fd9 6cbe 889e 163e 72bb a13e 83c5 863e
00000070: c5c2 e03e d949 993e 5170 9dbd 06e9 3a3e
00000080: 0307 b43e 8b34 94be d877 eebe dc0b 4bbe
00000090: e071 6fbe 0a4e 8ebe 09bc c43e 2d57 70be
000000a0: 3245 eb3e 92b5 0a3e 26f5 aa3e 5957 9f3c
000000b0: 2070 7a3e 8aa4 9e3e 93a4 063f 544b 933d
000000c0: ea26 093e cd69 3f3e 507a 1abe 6d6c 013e
000000d0: 3d26 693e 85b4 583e 511b 38bf 2f9b c33e
000000e0: 9336 593d e6b4 4cbe 8c44 c1bd b512 72bd
000000f0: 654f d83e 6338 18bf 9bc5 573e 0f71 133f
00000100: aebf 42bf 494f 8b3e 9845 383e 3fea 3a3e
00000110: cffd 963e 9b19 dfbe 4ca8 483e d964 0a3f
00000120: b1b2 423d 7d09 a0be 6be0 7f3e 9ed8 7d3e
00000130: e33d b93d 0231 563d 195a f4bc acc1 58be
00000140: a8dd f93e 7d88 07bf 1392 e2be eb7d da3e
00000150: 7434 16bf e2ed e1bd 1cf6 98be c8d1 13bf
00000160: 9e14 8a3e 71ac 41bb 6aa5 88be d374 a13c
00000170: 4713 853e 9af2 f63e c780 f53e 02a1 243e
00000180: 2bce ebbe 2a08 a43d abe0 b33d 8b00 0b3f
00000190: ec20 9f3d 144a 1dbf 5f2a 4d3e 5085 00be
000001a0: bb27 2e3e c631 c93d 0093 ae3e 14c9 903e
000001b0: fd98 c8be 40d2 f6be 5329 cd3e 7446 c03e
000001c0: 1c9c acbe 16b6 f43e 8400 0a3d ee60 c3bd
000001d0: 1102 2bbf ab52 f7be b3e6 f13e 3302 013e
000001e0: 26b6 1ebe 26ec 063f dc58 0ebf f107 1f3f
000001f0: 357a 563d ef86 e43e ad2d 413e 3062 8c3e
00000200: 527d 4c3e 7584 6c3e ea77 f2be 772f 11bf
00000210: d682 01bf c944 033f 1754 fcbd 1c23 fabe
00000220: f473 8d3d a9ec ae3e 8d11 db3e 0e6f a53a
00000230: 6b31 3d3e 8804 b5bd e8a1 c93e 47d6 c9be
00000240: 28fa d43d 3061 fdbd 91ee 0ebf 46ce 2abf
00000250: f681 a0be 53e2 9abe a820 053f ee93 b53d
00000260: 68d2 0bbf 895c d43b 6261 d0be d9a0 d13d
00000270: f461 013f c14f 11bf 26c7 24bf aef9 9e3e
00000280: ca94 a13e 0aea e5be 5ca0 a23e 1de4 193f
00000290: 24a6 103e 269b 19bf c92a a33e e96f 8d3e
000002a0: 9f36 2cbe 115f 03bf ca3d 303e cbb3 8cbe
000002b0: 2882 08bf 373b 0d3f f981 893e 6e0e 6d3e
000002c0: 0194 0abf 932a c23e 42fe c73e 343e 053f
000002d0: 1c06 cf3d 59e4 24bd 8ddb 95be e3ec d53e
000002e0: 92c6 e1bc a58a 2cbf 1162 2d3f d50a 4d3d
000002f0: de9f c03e 28eb 10bd f498 f2be b09c ba3e
00000300: edbf b53e 57ee dcbe 8f51 5a3e e45a 003f
00000310: 48eb 583e d4bd 93be ed3f 183f 4902 133f
00000320: c0f8 d4bc bcbe cd3e c9f1 673e d097 2c3c
00000330: f638 f53e ec0d ac3c 90d7 ef3a 59ad 0fbe
00000340: be3f eabe e7cd c53e 32f8 b1be 373a 08bf
00000350: 6799 383c 4051 9d3d 3ce7 7dbe 4b64 af3d
00000360: fecf 183f 1f2a 02bf 100a 03bf 3543 2c3e
00000370: 90ef a5be 5fe5 44be 53a1 ce3e 8974 623e
00000380: e178 86be 4c58 9f3d b0c8 3c3e 13ce 3e3e
00000390: e525 e83e 67bd 733e de96 d53e a231 e4be
000003a0: c262 a6bd a148 743e c506 813e 7f76 1cbe
000003b0: deb7 fa3e fbf1 50be b751 3dbe ce9e a43e
000003c0: f6d9 b2be f8c8 0ebf c414 00be 1743 e3be
000003d0: 4c6a 8d3e 3484 9abe 65cc 46be 8f0e d93e
000003e0: da1b d53d 91c7 34bf a192 0ebf 7aec ca3e
000003f0: 1faf 9b3e 67fb 053f 2ebc 16bf 3f60 8f3e

layers.2.weight f4 [32, 256]
-0.14116828 -0.25562933 -0.087662674 0.23235197 -0.10347084 -0.19931772 0.22227418 0.13211823
0.16456343 0.031728547 -0.08880822 -0.09808817 0.06790833 0.03660676 -0.4782191 -0.06972283
0.04358731 -0.34538162 0.12856528 -0.23755254 0.044749998 0.108816475 -0.03207949 -0.14261256
-0.09048318 -0.20639871 -0.17881373 -0.40586615 0.006310865 -0.29450172 -0.040293448 0.07976575
-0.6646542 -0.1463879 -0.4489742 -0.35556328 -0.3307744 -0.027412774 -0.3367905 -1.2597793
0.16512151 -0.070286505 0.008491301 -0.24034457 -0.0047175684 -0.03272697 0.16684568 0.0044805524
0.047803976 -0.27662182 0.12857427 -0.10080355 -0.045784626 -0.051141545 -0.3417596 -0.47505328
-0.04775722 0.28715238 0.31235674 0.22005226 -0.11144559 0.07995048 0.00738103 -0.004532273
0.38303626 -0.4720835 0.07853168 -0.035370212 0.10487338 -0.05870583 -0.14882101 -0.1599286
-0.10812413 -0.2136763 -0.7224876 -0.09635645 -0.03038307 -0.38709813 -0.34759647 -0.081868894
-0.115705505 0.09789164 0.005175951 0.11680877 0.20256178 0.006204116 0.0055789696 -0.02774337
-0.15100162 0.27440238 -0.32553497 0.02604203 -0.18627378 0.015028114 0.002041342 -0.10778967
0.38403243 -0.28479874 0.039821554 -0.02562743 -0.5725735 -0.1524219 -0.35909933 -0.80569583
-0.2830532 -0.1677359 0.0059312033 0.34040883 0.0898304 0.2739719 -0.09378268 0.13083147
0.21443911 -0.06441518 0.32625705 -0.05135943 -0.022484034 -0.6238779 -0.015019579 0.25572416
0.28120905 0.16735561 0.12886457 -0.10624404 0.040162828 -0.30476546 0.15628563 0.040960506
-0.11479099 0.354821 0.06934594 0.054504167 0.1462374 0.25302428 -0.0683431 0.11626705
-0.022971563 -0.099720016 -0.24432127 0.068860285 -0.2170074 -0.10512208 0.16872424 -0.35515118
-0.48212782 -0.15382183 -0.11862049 -0.6911311 0.24187668 0.5170273 -0.1037783 -0.19524108
0.08529376 -0.08170478 0.11171859 -0.31243616 0.07069234 -0.40128264 0.08019083 -0.051011443
-0.036498785 -0.6597447 0.06757814 -0.15289241 -0.27180517 -0.15388173 0.33011338 -0.07653363
-0.012948166 0.2883129 0.115102775 -0.0773124 -0.12195027 0.0804559 -0.16046096 -0.11017234
-0.113323 -0.08440414 0.062266957 -0.038067143 -0.16795507 -0.25502592 -0.41021058 -0.024847673
-0.07974093 0.10424861 -0.04196671 0.25284943 -0.38729104 -0.071585365 -0.51171994 -0.12855005
-0.036443196 0.13091542 0.109773 -0.02060791 -0.01926664 0.24708477 -0.1624894 -0.15037072
-0.25139222 -0.15281144 0.2132284 0.042818714 -0.0327491 -0.61096585 0.07975335 -0.23323761
-0.118309885 -0.17334199 -0.20823935 -0.097034596 -0.28951448 -0.21930277 -0.04108686 0.24216695
-0.033528186 -0.30771533 0.3229868 0.5295602 0.6582147 -0.11501046 -0.17761923 -0.13186808
0.050760966 0.11478739 0.014483449 -0.05975 0.14867444 -0.112329096 -0.09904297 -0.11408731
-0.45918062 0.28711325 -0.5207818 0.21426685 -0.041153423 -0.58892816 0.031159833 -0.034497518
-0.17412299 -0.23203465 -0.24798323 0.3101983 -0.0020921596 -0.30431443 -0.06473719 0.013592711
0.12185521 -0.26081437 0.16745768 -0.17002022 0.06743847 -0.046170663 0.14703065 -0.3354783
00000000: 6b8e 10be d9e1 82be 7d88 b3bd aded 6d3e
00000010: 85e8 d3bd f219 4cbe d89b 633e 004a 073e
00000020: 5183 283e cbf5 013d 16e1 b5bd 73e2 c8bd
00000030: 8613 8b3d f8f0 153d 22d9 f4be d8ca 8ebd
00000040: 9b88 323d dcd5 b0be 9ea6 033e f940 73be
00000050: c64b 373d 2cdb de3d c965 03bd 0709 12be
00000060: 3f4f b9bd 2f5a 53be f21a 37be b0cd cfbe
00000070: 5fcb ce3b eec8 96be be0a 25bd 3a5c a33d
00000080: c726 2abf b6e6 15be f2df e5be 640c b6be
00000090: 435b a9be c190 e0bc ce6f acbe 7340 a1bf
000000a0: 9d15 293e 5ff2 8fbd 191f 0b3c e31c 76be
000000b0: d595 9abb b70c 06bd 98d9 2a3e 99d1 923b
000000c0: 1ace 433d 60a1 8dbe f9a8 033e 1772 cebd
000000d0: a988 3bbd cc79 51bd 1dfb aebe 2f3a f3be
000000e0: 139d 43bd a305 933e 39ed 9f3e 6155 613e
000000f0: 963d e4bd 14bd a33d 91dc f13b 7683 94bb
00000100: 541d c43e eeb4 f1be 38d5 a03d 5be0 10bd
00000110: dbc7 d63d 8675 70bd 8964 18be 53c4 23be
00000120: 2f70 ddbd f6cd 5abe f3f4 38bf 8856 c5bd
00000130: ebe5 f8bc ba31 c6be 2af8 b1be e1aa a7bd
00000140: 02f7 ecbd 6a7b c83d 069b a93b 7039 ef3d
00000150: 5b6c 4f3e e64b cb3b cacf b63b 1046 e3bc
00000160: 2ba0 1abe 787e 8c3e 85ac a6be 1856 d53c
00000170: 8ebe 3ebe 7b38 763c 09c8 053b d5c0 dcbd
00000180: e69f c43e 24d1 91be ed1b 233d 9ef0 d1bc
00000190: 2d94 12bf 7d14 1cbe dedb b7be 1542 4ebf
000001a0: 59ec 90be f6c2 2bbe 8a5a c23b 114a ae3e
000001b0: 00f9 b73d 0b46 8c3e 2211 c0bd aff8 053e
000001c0: ed95 5b3e 1bec 83bd 2a0b a73e 445e 52bd
000001d0: 7030 b8bc 76b6 1fbf ae14 76bc 47ee 823e
000001e0: a2fa 8f3e 455f 2b3e 13f5 033e 7a96 d9bd
000001f0: c781 243d 380a 9cbe 5709 203e 34c6 273d
00000200: 8a17 ebbd 19ab b53e 3f05 8e3d c33f 5f3d
00000210: 42bf 153e 668c 813e 78f7 8bbd 6b1d ee3d
00000220: dc2e bcbc 023a ccbd 5b2f 7abe 9f06 8d3d
00000230: 3037 5ebe 3f4a d7bd 0cc6 2c3e 60d6 b5be
00000240: 75d9 f6be 7883 1dbe 4def f2bd f8ed 30bf
00000250: 85ae 773e e75b 043f b889 d4bd 47ed 47be
00000260: 7fae ae3d d654 a7bd b7cc e43d a2f7 9fbe
00000270: 25c7 903d eb74 cdbe 173b a43d 60f1 50bd
00000280: c07f 15bd 07e5 28bf 6866 8a3d d48f 1cbe
00000290: 0c2a 8bbe 2c93 1dbe 9f04 a93e aabd 9cbd
000002a0: 8b24 54bc c09d 933e 01bb eb3d f755 9ebd
000002b0: 10c1 f9bd 10c6 a43d e14f 24be 09a2 e1bd
000002c0: e415 e8bd 14dc acbd a30b 7f3d 4bec 1bbd
000002d0: 6afc 2bbe c292 82be 1f07 d2be 598d cbbc
000002e0: 364f a3bd 4c80 d53d 49e5 2bbd 7b75 813e
000002f0: 034b c6be 599b 92bd 1400 03bf a0a2 03be
00000300: 7645 15bd b10e 063e abd0 e03d ebd1 a8bc
00000310: 13d5 9dbc ca03 7d3e 9f63 26be c8fa 19be
00000320: 7bb6 80be 9a7a 1cbe 8c58 5a3e ad62 2f3d
00000330: ec23 06bd 4268 1cbf b955 a33d d7d5 6ebe
00000340: 744c f2bd 9080 31be b23c 55be 13ba c6bd
00000350: 3e3b 94be e890 60be b24a 28bd 9dfa 773e
00000360: da54 09bd dd8c 9dbe 875e a53e 4291 073f
00000370: c280 283f 9b8a ebbd d1e1 35be 6d08 07be
00000380: bbea 4f3d a715 eb3d fd4b 6d3c 6abc 74bd
00000390: 1d3e 183e cc0c e6bd 0ad7 cabd 9ca6 e9bd
000003a0: b919 ebbe 8200 933e f551 05bf c568 5b3e
000003b0: 7e90 28bd ffc3 16bf e842 ff3c 454d 0dbd
000003c0: 4c4d 32be 7e9a 6dbe 51ef 7dbe 50d2 9e3e
000003d0: 9d1c 09bb 1acf 9bbe ef94 84bd f6b3 5e3c
000003e0: 398f f93d 7689 85be 077a 2b3e c819 2ebe
000003f0: 2e1d 8a3d 731d 3dbd 348f 163e d0c3 abbe

layers.2.bias f4 [32]
-0.020998579 0.06650089 -0.13698989 -0.023283364 0.05759668 -0.10877948 0.3243844 0.013665431
0.1977537 0.2005423 -0.030543745 0.19258183 0.10974645 0.09313675 0.38548613 0.24123861
0.023647655 0.074278094 0.005983118 0.020520607 -0.4999676 -0.20846525 -0.043491233 0.15621816
-0.32913953 -0.00017764576 0.18955122 0.1321686 0.14302018 0.26811323 -0.018358575 0.269003
00000000: 3605 acbc 9e31 883d 1447 0cbe c1bc bebc
00000010: 7fea 6b3d c7c7 debd b615 a63e f9e4 5f3c
00000020: f27f 4a3e f65a 4d3e e036 fabc 2c34 453e
00000030: bfc2 e03d 7bbe be3d 705e c53e 4107 773e
00000040: bab8 c13c 1d1f 983d 080e c43b d51a a83c
00000050: c1fb ffbe ea77 55be dd23 32bd a7f7 1f3e
00000060: fa84 a8be 6c46 3ab9 b719 423e 3557 073e
00000070: e273 123e 2346 893e b964 96bc c3ba 893e

layers.4.weight f4 [1172, 32]
0.20058566 0.13550924 0.032515753 0.08266384 -1.6250389 0.12195191 0.24325871 -0.12920287
0.20327413 0.046984818 -0.012406394 -0.27366853 0.032416742 -1.1288973 -0.02591105 -0.0766595
-0.36449662 -0.17888427 -0.071785435 0.113424495 0.12305863 0.057298463 0.034482643 -0.93663037
-0.47873345 -0.2163352 -0.22555478 -0.43371996 -0.12235392 0.7093394 0.25407994 -0.0683611
-0.08064096 -0.16705889 0.4557485 -0.12817757 0.20442165 0.038830947 0.11849825 -0.108055376
0.0132098375 0.06900235 0.08371943 -0.008125619 0.07120905 -0.05171575 0.042413503 0.15032212
-0.031620868 0.39850676 0.08451717 -0.14666313 0.1925515 0.21006386 0.15765774 0.092610545
0.018077482 0.119330026 -0.13610235 0.031145895 -0.042354114 -0.116991006 -0.05055205 0.1311962
-0.5237625 -0.51938397 0.100558095 -0.23441528 -0.77726424 -1.1502382 -0.08569578 0.18872494
-0.17581056 -0.17015381 0.073367655 0.33898622 -0.7366319 -0.026711652 0.43155798 -0.124526694
-1.0907393 0.17616612 -0.13027649 0.0470125 -0.46124548 -0.07402706 -0.48859197 0.73490477
-0.93559635 -1.1619152 -0.3003195 -0.2545657 -0.5485322 0.5081495 -0.8657838 0.12025047
-0.30055013 -0.42370674 -0.17176485 -0.0016359858 0.11037257 -0.071594805 0.32133797 -0.0988213
0.3306189 0.11513796 0.17774013 0.14932078 -0.82569706 -0.047485493 -0.15400544 0.09700843
-0.0033186765 0.003907201 -0.43571782 0.034495585 -0.32472917 -0.034262322 0.03974101 -0.14672521
-0.4412864 -0.33147687 0.21998616 0.12798285 -0.11106621 -0.013880363 0.22624432 0.13198082
-0.20359331 -0.27552465 -0.1033888 -0.22949272 0.1605415 -0.02731608 0.26136357 -0.07620783
0.2424162 0.17974755 0.10074683 0.07588593 0.13579234 0.047611523 -0.05947071 0.04017226
-0.16036184 0.10605528 -0.06391568 0.11940853 -0.26331824 0.12799388 -0.2113101 -0.2657507
-0.25739303 0.1629965 0.15319227 0.069395356 -0.19596171 -0.10730214 -0.057472236 0.20209217
0.42359188 0.21680333 0.542801 -0.27194116 0.045114614 -0.6140512 -0.0352795 0.36025515
-0.06303298 0.0980465 0.20292696 -0.46056575 0.42326838 -0.0476133 -0.0035745678 -0.12032089
-0.621005 -0.20934407 0.36466926 0.14750312 -0.2620309 -0.28559962 -0.5654394 -0.8093495
0.2497033 0.45812216 0.0737401 -0.8844273 -0.1971209 0.19977465 0.51240075 0.3229794
-0.2878312 -0.11381804 0.20405062 -0.97764456 0.1821354 -0.06750964 -0.81377196 -0.9805069
-0.78968924 -0.42042944 0.05829881 0.43847126 0.005458772 -0.18814093 0.26127663 -0.60585225
-0.16813804 0.020557756 0.6067502 0.18550335 -0.4656626 0.047059048 -0.30761343 -1.2024419
-0.50711054 0.17900185 0.087408125 -0.5937567 0.045156598 -1.2008488 -0.28627747 0.023308536
0.4775207 0.21710381 0.14516242 0.2891197 -0.16551365 -1.2631019 0.27426592 -0.17370166
-0.63809466 -0.24133508 -0.044779524 -1.1565322 0.45341402 -0.28505868 0.14696154 -0.9019132
-0.64326525 0.1561012 0.6553498 0.36181805 -0.14283334 0.6129092 0.23556103 -0.7679215
-0.080625005 0.52281874 0.044659015 0.21024607 0.40900135 0.054104842 0.17622012 -0.6674624
00000000: 5466 4d3e efc2 0a3e 3d2f 053d a94b a93d
00000010: 4601 d0bf ecc1 f93d d018 793e c24d 04be
00000020: 1827 503e 2773 403d 3044 4bbc 481e 8cbe
00000030: 6bc7 043d b57f 90bf 6943 d4bc a8ff 9cbd
00000040: 4d9f babe 702d 37be 3e04 93bd 1a4b e83d
00000050: 2a06 fc3d cbb1 6a3d ac3d 0d3d 02c7 6fbf
00000060: 8d1c f5be fa86 5dbe d5f7 66be 8b10 debe
00000070: b194 fabd 4497 353f c416 823e e800 8cbd
00000080: 1627 a5bd 7c11 2bbe de57 e93e fb40 03be
00000090: e953 513e 330d 1f3d 36af f23d 234c ddbd
000000a0: 136e 583c 1b51 8d3d 1875 ab3d 5121 05bc
000000b0: 0dd6 913d e5d3 53bd c8b9 2d3d 0bee 193e
000000c0: e284 01bd 1409 cc3e 5717 ad3d dc2e 16be
000000d0: 382c 453e fb1a 573e 0871 213e 99aa bd3d
000000e0: 3a17 943c 4d63 f43d 6a5e 0bbe ad25 ff3c
000000f0: 827b 2dbd fb98 efbd ab0f 4fbd 4c58 063e
00000100: 4d15 06bf 59f6 04bf 67f1 cd3d 8f0a 70be
00000110: cafa 46bf 013b 93bf 4581 afbd 1c41 413e
00000120: af07 34be cd3c 2ebe c841 963d 9a8f ad3e
00000130: e893 3cbf 65d2 dabc 2bf5 dc3e da07 ffbd
00000140: 589d 8bbf e464 343e 3367 05be 2e90 403d
00000150: 5e28 ecbe 809b 97bd ba28 fabe b822 3c3f
00000160: 3e83 6fbf a3b9 94bf 7ac3 99be 6f56 82be
00000170: 9b6c 0cbf 1616 023f 02a4 5dbf e145 f63d
00000180: b5e1 99be 17f0 d8be 20e3 2fbe 936e d6ba
00000190: 040b e23d 4ca0 92bd 6986 a43e d262 cabd
000001a0: e146 a93e 73cd eb3d 8201 363e 8ce7 183e
000001b0: e260 53bf 2680 42bd 9ab3 1dbe 5bac c63d
000001c0: 277e 59bb fa07 803b 6816 dfbe 3e4b 0d3d
000001d0: e742 a6be a656 0cbd 78c7 223d 223f 16be
000001e0: 4bf0 e1be 56b7 a9be 0d44 613e f00d 033e
000001f0: ae76 e3bd 766a 63bc 97ac 673e fb25 073e
00000200: c47a 50be 9111 8dbe 82bd d3bd 2400 6bbe
00000210: fe64 243e f9c5 dfbc 72d1 853e da12 9cbd
00000220: f43b 783e be0f 383e 5b54 ce3d 156a 9b3d
00000230: 260d 0b3e 4d04 433d 8f97 73bd ab8b 243d
00000240: e535 24be 8333 d93d 39e6 82bd 768c f43d
00000250: a6d1 86be d410 033e ad61 58be 7a10 88be
00000260: 05c9 83be 8ee8 263e 6fde 1c3e 271f 8e3d
00000270: 30aa 48be 39c1 dbbd 0268 6bbd 40f1 4e3e
00000280: 09e1 d83e b101 5e3e 02f5 0a3f df3b 8bbe
00000290: 1aca 383d 7632 1dbf 3d81 10bd 5d73 b83e
000002a0: 6f17 81bd 9acc c83d 16cc 4f3e 46cf ebbe
000002b0: a2b6 d83e 2a06 43bd 4c43 6abb cc6a f6bd
000002c0: 2ffa 1ebf 4b5e 56be eeb5 ba3e 0f0b 173e
000002d0: ea28 86be 1d3a 92be a3c0 10bf 8731 4fbf
000002e0: 39b2 7f3e fd8e ea3e 0d05 973d d469 62bf
000002f0: 10da 49be ba91 4c3e b22c 033f 8e5d a53e
00000300: 9c5e 93be 6f19 e9bd a5f2 503e ea46 7abf
00000310: b481 3a3e 7e42 8abd 5c53 50bf 8002 7bbf
00000320: 1329 4abf 8742 d7be bcca 6e3d 4e7f e03e
00000330: 80df b23b 04a8 40be 0dc6 853e 2219 1bbf
00000340: 612c 2cbe bd68 a83c fb53 1b3f 97f4 3d3e
00000350: 546b eebe fdc0 403d 827f 9dbe 9ee9 99bf
00000360: ffd1 01bf 434c 373e 0803 b33d 7000 18bf
00000370: 20f6 383d 6ab5 99bf f692 92be 8bf1 be3c
00000380: 987d f43e 7650 5e3e 75a5 143e 7f07 943e
00000390: 697c 29be 53ad a1bf 956c 8c3e d9de 31be
000003a0: 2c5a 23bf 8b20 77be bc6a 37bd 3f09 94bf
000003b0: e225 e83e 36f3 91be 167d 163e c9e3 66bf
000003c0: 08ad 24bf fed8 1f3e 01c5 273f 3740 b93e
000003d0: e742 12be 9ee7 1c3f e936 713e 8196 44bf
000003e0: b91e a5bd 73d7 053f 5fec 363d bf4a 573e
000003f0: a068 d13e 0a9d 5d3d 0c73 343e d1de 2abf

layers.4.bias f4 [1172]
-0.23023029 0.07006348 0.30923998 -0.019498287 0.020154553 -0.27367303 -0.064956725 -0.13809493
-0.13526599 -0.01200141 -0.1371166 -0.195979 -0.1901044 0.013453637 0.103343524 -0.49009493
-0.21891712 -0.42750004 -0.261684 -0.15283304 -0.26961744 -0.25940883 0.23432513 -0.22059265
0.002797073 0.1339816 0.120911606 -0.18558463 -0.34848812 -0.31488132 -0.07993716 0.16674499
-0.36264274 -0.045693252 -0.23464948 -0.33114475 0.24714325 -0.2473414 -0.04054106 0.08784398
-0.2329815 -0.19236861 -0.1986128 -0.09963929 -0.20652917 -0.24880907 -0.02550693 -0.04162045
-0.11887831 -0.10626591 0.4120255 -0.035915036 0.03929919 -0.33918086 -0.29821253 0.046030343
0.3602893 -0.12801652 -0.14846475 0.010922515 -0.09156428 -0.19122016 0.18023136 0.15273225
0.28210923 0.16203372 -0.10712788 0.15768933 0.059784457 0.06255943 -0.23098685 -0.14859073
-0.03991725 -0.22302988 0.08221261 0.07934584 -0.14874144 -0.089795835 -0.16443713 -0.12513869
-0.26045263 -0.18376824 -0.36291483 0.06939513 -0.093457356 0.044753846 -0.0756874 -0.05568969
-0.040066745 -0.11236866 -0.05911868 0.005629765 -0.32684425 -0.31652102 0.11680796 -0.042651907
0.081616715 -0.23337539 0.11495724 0.049488757 -0.2920865 0.054204103 -0.024185864 0.12180564
-0.057234515 -0.095421314 -0.07367486 -0.16343817 0.037579294 -0.08199592 -0.030265832 -0.14360741
0.055289306 0.3420761 -0.25299606 -0.120867945 -0.03166312 0.4325613 -0.21313399 0.4206223
0.10500385 0.06391336 -0.2900209 0.084371805 -0.357183 0.23445791 0.002819581 0.11937047
-0.13766733 -0.28420326 -0.077987984 -0.30252448 -0.26003703 -0.020843096 -0.3124073 -0.14170441
0.19109122 -0.054771222 -0.041791815 -0.1342688 0.034766063 0.18501578 -0.18426912 0.2156945
0.08122412 -0.14252104 -0.16621926 -0.37745622 -0.1098802 -0.1283592 -0.16248564 -0.1867074
-0.13824338 0.08538933 -0.0016899575 -0.10937533 -0.13762803 -0.053094245 -0.16166767 -0.11536585
-0.22828111 0.14311098 -0.12060528 0.07590969 -0.11594252 0.14547886 -0.12028353 -0.041181896
-0.21446581 0.017875947 -0.15049076 -0.26080889 -0.030574182 0.054473415 0.004878108 -0.3393417
-0.18645263 -0.2650832 -0.14133236 -0.03779856 -0.13573875 0.1434335 0.019270247 -0.06981806
0.25296172 -0.04012209 -0.0562601 -0.19007063 0.05973011 0.034084253 -0.40536085 -0.14257006
-0.2017365 -0.022351218 -0.016767265 -0.055846594 -0.21184704 -0.041437894 0.06625151 -0.2072347
-0.3342789 -0.14223354 -0.3659126 0.0096802665 0.08322293 -0.20009205 -0.07830559 0.0511227
-0.045913905 -0.26689523 0.025017159 -0.03312124 -0.26635522 -0.21207802 0.17683512 -0.07880357
-0.120263234 -0.20004253 0.0061081247 -0.18337226 -0.28367624 -0.37227777 -0.15386975 0.30466577
-0.0841583 -0.14521968 -0.024697375 -0.029949414 0.19621775 -0.2718993 -0.20119913 -0.21067972
-0.039397843 -0.019812688 -0.13201725 -0.4095043 -0.25741205 -0.12588862 -0.14373143 0.24451211
0.28077692 -0.23935667 -0.12610206 0.008246506 -0.32555616 -0.24619861 0.040538214 -0.15696381
-0.30381107 0.27243996 -0.20224923 0.15785916 -0.16117689 -0.06981438 -0.07434997 0.02040371
00000000: 7dc1 6bbe 717d 8f3d b454 9e3e dfba 9fbc
00000010: 291b a53c df1e 8cbe 0808 85bd c268 0dbe
00000020: 2b83 0abe 90a1 44bc 4b68 0cbe b8ae 48be
00000030: baaa 42be a56c 5c3c c5a5 d33d b9ed fabe
00000040: cf2b 60be 49e1 dabe 72fb 85be 4480 1cbe
00000050: 4c0b 8abe 3cd1 84be edf2 6f3e 0ae3 61be
00000060: 194f 373b 7932 093e 81a0 f73d e609 3ebe
00000070: 096d b2be 2038 a1be 18b6 a3bd 33bf 2a3e
00000080: 4fac b9be d928 3bbd f447 70be ce8b a9be
00000090: 1f13 7d3e 1047 7dbe 620e 26bd 8be7 b33d
000000a0: b492 6ebe 47fc 44be 2761 4bbe af0f ccbd
000000b0: 627c 53be cec7 7ebe e9f3 d0bc 347a 2abd
000000c0: 7976 f3bd f1a1 d9bd 02f5 d23e a51b 13bd
000000d0: 30f8 203d 1da9 adbe 50af 98be 508a 3c3d
000000e0: d777 b83e c316 03be 2507 18be 59f4 323c
000000f0: 0e86 bbbd 38cf 43be 928e 383e d865 1c3e
00000100: 9f70 903e 2bec 253e dd65 dbbd 5079 213e
00000110: 8ce0 743d 291f 803d d187 6cbe 2b28 18be
00000120: 4580 23bd f261 64be 165f a83d 1280 a23d
00000130: ad4f 18be e1e6 b7bd 3562 28be 5b24 00be
00000140: 0c5a 85be be2d 3cbe f9cf b9be 091f 8e3d
00000150: 9266 bfbd cf4f 373d ff01 9bbd df1a 64bd
00000160: 071d 24bd 8a21 e6bd 6e26 72bd e479 b83b
00000170: 2158 a7be 0b0f a2be 0339 ef3d c4b3 2ebd
00000180: aa26 a73d f5f9 6ebe b46e eb3d b9b4 4a3d
00000190: 5d8c 95be 1f05 5e3d 6f21 c6bc 3c75 f93d
000001a0: bd6e 6abd 406c c3bd d8e2 96bd 565c 27be
000001b0: bfec 193d 7aed a7bd 0df0 f7bc d20d 13be
000001c0: 0a77 623d 9924 af3e b388 81be 9d89 f7bd
000001d0: 30b1 01bd ad78 dd3e cc3f 5abe ce5b d73e
000001e0: 420c d73d 02e5 823d 9f7d 94be 20cb ac3d
000001f0: b1e0 b6be bc15 703e b8c8 383b 8178 f43d
00000200: aaf8 0cbe 1783 91be 2ab8 9fbd 7de4 9abe
00000210: 9323 85be 24bf aabc daf3 9fbe f61a 11be
00000220: 6bad 433e ca57 60bd e52d 2bbd c37d 09be
00000230: dc66 0e3d c774 3d3e 0bb1 3cbe 05df 5c3e
00000240: d558 a63d 09f1 11be 6235 2abe f141 c1be
00000250: df08 e1bd 9870 03be a362 26be 3a30 3fbe
00000260: ac8f 0dbe 9ae0 ae3d 9081 ddba 2c00 e0bd
00000270: 5dee 0cbe 5a79 59bd 368c 25be ee44 ecbd
00000280: 86c2 69be af8b 123e e7ff f6bd 8a76 9b3d
00000290: 4673 edbd 69f8 143e 3657 f6bd 59ae 28bd
000002a0: ed9c 5bbe 9470 923c 401a 1abe be88 85be
000002b0: b576 fabc 841f 5f3d 89d8 9f3b 32be adbe
000002c0: 70ed 3ebe fcb8 87be 6eb9 10be aad2 1abd
000002d0: 19ff 0abe 3be0 123e a3dc 9d3c c5fc 8ebd
000002e0: 3384 813e 1057 24bd fe70 66bd e0a1 42be
000002f0: 8fa7 743d ee9b 0b3d 758b cfbe e3fd 11be
00000300: 0394 4ebe e719 b7bc 815b 89bc 66bf 64bd
00000310: 6eee 58be c8ba 29bd dfae 873d 5535 54be
00000320: 9b26 abbe aba5 11be e558 bbbe fb99 1e3c
00000330: c970 aa3d eee4 4cbe ae5e a0bd 0966 513d
00000340: 3810 3cbd 7ea6 88be c9f0 cc3c 23aa 07bd
00000350: b65f 88be fb2a 59be 4414 353e c463 a1bd
00000360: 924c f6bd f3d7 4cbe aa26 c83b f0c5 3bbe
00000370: 033e 91be 319b bebe 0890 1dbe 27fd 9b3e
00000380: 305b acbd 78b4 14be 2652 cabc 7958 f5bc
00000390: 4eed 483e 6336 8bbe 2507 4ebe 6dbc 57be
000003a0: a25f 21bd 384e a2bc 882f 07be 8caa d1be
000003b0: 83cb 83be f2e8 00be 552e 13be 6261 7a3e
000003c0: fec1 8f3e ea19 75be e620 01be 5a1c 073c
000003d0: 4caf a6be 7d1b 7cbe 660b 263d 1fbb 20be
000003e0: 208d 9bbe 407d 8b3e 6c1a 4fbe d5a5 213e
000003f0: 8e0b 25be d7fa 8ebd cc44 98bd ae25 a73c
