Models/LSTM_Start-ups_32_4.pth (torch, 341768 bytes, 7 tensors)

embeddings.0.weight f4 [1172, 4]
0	0x4036350f	2.8469884
1	0x3ff269a9	1.8938495
2	0x3fa57a75	1.2927996
3	0xbff6a2b1	-1.92684
4	0x3fc74181	1.5566865
5	0xc019d086	-2.4033523
6	0xbe0507e8	-0.12991297
7	0xc03fcbcb	-2.9968135
8	0xbf7888b6	-0.97083604
9	0x40105115	2.2549489
10	0xbfaf281b	-1.3684114
11	0xbfa8325f	-1.3140372
12	0xbf5d12d1	-0.86356837
13	0xbfc803d5	-1.562617
14	0xbfe34fa1	-1.7758676
15	0x3ff3a5c4	1.9034963
16	0x40300975	2.7505772
17	0xbf402021	-0.75049025
18	0xbf35c50b	-0.7100379
19	0x3fb2a403	1.3956302
20	0xbf94bf2f	-1.1620845
21	0x3f4a9c46	0.79144704
22	0x3fb56f4b	1.4174589
23	0x3fe6564d	1.7995087
24	0x3ffe91e0	1.9888268
25	0x3f849616	1.0358303
26	0x3f505f48	0.8139539
27	0x3ed78e8c	0.42100942
28	0xbf2b08c3	-0.66810244
29	0xbf50e20f	-0.8159494
30	0x3f5f51e6	0.8723434
31	0x3ea4226a	0.32057506
32	0xbfa8266f	-1.3136729
33	0xbf54b5a0	-0.8308964
34	0xbec441f1	-0.3833156
35	0x403d2fc8	2.9560413
36	0xbeee63b1	-0.46560434
37	0x3d38b35f	0.045092937
38	0x3f4a1026	0.7893089
39	0xbf54e5d4	-0.8316319
40	0xc013e6bf	-2.3109586
41	0x3ff43eca	1.9081662
42	0xbf75afaa	-0.9597117
43	0xbf418049	-0.7558637
44	0xbe915faf	-0.28393313
45	0x403a8b8a	2.9147668
46	0xbf18ca33	-0.5968353
47	0x3eb485b5	0.3525826
48	0xbfc51721	-1.5397683
49	0xbe38a1ff	-0.18030547
50	0xbea7b01a	-0.32751542
51	0x3f950c62	1.1644404
52	0xbf83613e	-1.0264051
53	0x3fd43135	1.6577517
54	0xbf6fb7e0	-0.93639946
55	0xbfef20c0	-1.868187
56	0xbfdcd076	-1.7251117
57	0xbe3706f5	-0.17873748
58	0xbee82abb	-0.453451
59	0x3f82c5e9	1.0216647
60	0x3ecc4f50	0.3990426
61	0x3fb96624	1.4484296
62	0xc01da2ac	-2.4630537
63	0x40123604	2.2845469
64	0x402a60c4	2.662156
65	0x3fd35dab	1.651296
66	0x4000a532	2.0100827
67	0x3fc5cf13	1.5453819
68	0x3f9e066f	1.2345713
69	0xbf212022	-0.62939656
70	0xbf50055c	-0.8125818
71	0x3f84a4e2	1.0362818
72	0xbd397830	-0.045280635
73	0x3ee0f81c	0.43939292
74	0xbe8dc2cf	-0.2768769
75	0x3f7e7786	0.9940113
76	0xbed26bdc	-0.41097915
77	0xbfbf189a	-1.4929383
78	0xc013dae4	-2.310235
79	0xbfd4e991	-1.6633779
80	0xbf18b69a	-0.5965363
81	0x3c4063d1	0.011742548
82	0xc016ccf8	-2.3562603
83	0xbf50d343	-0.8157236
84	0x40103877	2.2534463
85	0x3f2d4fcf	0.67699903
86	0x3ef3a325	0.47585407
87	0xbf23bcab	-0.6395976
88	0x3f44c6c2	0.7686578
89	0xbf6bc6db	-0.92100304
90	0xbfe4c14b	-1.7871488
91	0xbd4954b2	-0.049153037
92	0xbfdcc25f	-1.7246817
93	0xbfc8644d	-1.5655609
94	0x3fa5844d	1.2931
95	0x3f746313	0.95463675
96	0xc0598491	-3.3987162
97	0x3eabfac6	0.33589762
98	0x3f428369	0.75981766
99	0x3efe518d	0.49671593
100	0x3fa99ff5	1.325194
101	0x3fc3261f	1.5246009
102	0x3fa24e9f	1.2680243
103	0xbf1769bb	-0.59145707
104	0xbebeb500	-0.37247467
105	0x3fdb6fcd	1.7143494
106	0x3f127857	0.57214874
107	0x3f1851bc	0.59499717
108	0xbe4b4305	-0.19849785
109	0x3fdfb14c	1.7475982
110	0x3f01ed0d	0.50752336
111	0xbf7378b5	-0.9510606
112	0xc00b9aaa	-2.181315
113	0xbf3419d3	-0.70351905
114	0xbfb7f4e5	-1.4371611
115	0x3e6123c3	0.21986298
116	0x3eb9243b	0.36160454
117	0xbeabb49f	-0.3353624
118	0xbf3b7387	-0.73223156
119	0x3f9da1a4	1.2314954
120	0xbfd1daf3	-1.6394943
121	0xbe0a73e2	-0.13520768
122	0x3f0f700a	0.56030333
123	0x3fb03fa7	1.3769425
124	0x401afa7d	2.4215386
125	0x3f6235d3	0.8836338
126	0x3e63d0f6	0.22247681
127	0x3f61b720	0.8817005
128	0x3f995d8e	1.1981676
129	0x3f4b6a6d	0.7945927
130	0xbfa8f2ed	-1.3199135
131	0xbf67d995	-0.9056638
132	0x3f042ead	0.5163372
133	0x3f2e5756	0.68102014
134	0x3fd2e12d	1.6474968
135	0x3f220591	0.63289744
136	0x3dea1c89	0.11431224
137	0x3f419c7e	0.75629413
138	0xc02ac6e5	-2.6683896
139	0x3facb733	1.3493408
140	0xbf07b53c	-0.53010917
141	0x3f95491f	1.166294
142	0xbe66bd74	-0.22533208
143	0x3d312cc5	0.043255586
144	0xbfa50f00	-1.2895203
145	0x4003dcd3	2.060353
146	0x3fdf8364	1.7461972
147	0x3fa35120	1.2759132
148	0x3f56ce7e	0.8390883
149	0xbf18c863	-0.59680766
150	0xbece5f89	-0.40307263
151	0x3fa6b0b5	1.3022677
152	0x3f8f8cf0	1.1214886
153	0x3ff102c0	1.8828964
154	0xbfe56667	-1.7921876
155	0x3fe2e990	1.7727528
156	0xc014bf14	-2.3241625
157	0xbf1d60c1	-0.6147576
158	0xbfe35e6a	-1.7763188
159	0x3ed939b8	0.42426848
160	0xc000f67b	-2.015044
161	0x3db9112c	0.090364784
162	0x3e1b6bc7	0.15177833
163	0xbf63a28b	-0.88919896
164	0x3f12430d	0.5713356
165	0xbdcfb354	-0.10141626
166	0xbef672ac	-0.48134363
167	0xbfc25dc6	-1.5184867
168	0xbfa46ea7	-1.2846268
169	0x3f96c559	1.1778976
170	0x3fa80197	1.3125485
171	0x3eb0ad74	0.34507334
172	0xbf607731	-0.8768187
173	0x3f9a0763	1.2033504
174	0x3fa2fabb	1.2732767
175	0x4023394d	2.5503724
176	0x3e88404d	0.26611558
177	0xbf22b908	-0.63563585
178	0xbf8074e0	-1.0035667
179	0x3eaa0543	0.3320714
180	0xc01a3cef	-2.409969
181	0xbfccf32e	-1.6011713
182	0xbf8cc803	-1.0998539
183	0x3f50ac2e	0.81512725
184	0xbfe5be72	-1.7948744
185	0xbf982c2b	-1.1888479
186	0xbffc2f9f	-1.9702033
187	0xbe87df7f	-0.265377
188	0x3fcfbf7d	1.6230313
189	0x3e9c24b1	0.30496743
190	0xbea07a32	-0.31343228
191	0x3f83a093	1.0283378
192	0x40383030	2.8779411
193	0xbe902280	-0.2815132
194	0x3f0be2f5	0.54643184
195	0xbf5b2db9	-0.8561664
196	0xbf4c06a6	-0.79697645
197	0x3ef1aa30	0.47200155
198	0x3fa1fe74	1.2655778
199	0x3fa8c556	1.3185222
200	0x3f65854c	0.8965652
201	0x40513117	3.2686212
202	0xbe4dbcac	-0.20091504
203	0xbfa7f87f	-1.312271
204	0xbdeb760c	-0.11497125
205	0x3f85b808	1.0446787
206	0x3fede04e	1.8584077
207	0x3f11a594	0.5689328
208	0x3ddbb170	0.10727203
209	0xbf87d53f	-1.0611953
210	0x3e7b28bd	0.24527259
211	0x3eb9f116	0.36316746
212	0x3eb1b1b6	0.34705895
213	0x3fa5c829	1.2951709
214	0x3edbce36	0.42930764
215	0xc06012f4	-3.5011568
216	0xbe88e927	-0.2674038
217	0x3fd604a8	1.6720171
218	0xc00ceaff	-2.201843
219	0x3ff62dde	1.9232748
220	0x3f5d71cb	0.8650176
221	0x3eebcb90	0.46053743
222	0x3fd51ea4	1.6649976
223	0x3feb1b08	1.8367624
224	0xbb503c4a	-0.0031774216
225	0x401d80a4	2.4609766
226	0xbda6b166	-0.08139305
227	0xbfc92164	-1.5713315
228	0xbfbe79b2	-1.4880888
229	0xbeab93f9	-0.33511332
230	0x3c8a183b	0.016857257
231	0x40281259	2.6261199
232	0xbf4b30a5	-0.793711
233	0xbf23a6c9	-0.6392637
234	0xbff07e92	-1.8788626
235	0xbfb2f96a	-1.3982365
236	0x3f675960	0.9037075
237	0x3d5a098c	0.05323176
238	0xbf483eec	-0.7822101
239	0x3f3972bb	0.7244069
240	0xbf13a9a5	-0.5768073
241	0x3f577c19	0.84173733
242	0xbf5f0b39	-0.871265
243	0x3ee066e0	0.43828487
244	0xbf332c1a	-0.6998917
245	0xbf375881	-0.7161942
246	0xbe89e25b	-0.26930508
247	0x3f63669d	0.8882845
248	0x3fafa8cf	1.3723391
249	0xbee5e572	-0.44901615
250	0x3f99d68d	1.2018601
251	0xbe874240	-0.26417732
252	0x3f9c54ab	1.2213339
253	0x3efad133	0.4898773
254	0x3ef69c51	0.48166135
255	0x3f297ac3	0.66202945

layers.0.weight f4 [256, 128]
0	0xbf483882	-0.78211224
1	0xbecb519c	-0.397107
2	0xbe10e0e6	-0.14148292
3	0x3e8f2ad7	0.27962372
4	0xbd7f70bc	-0.06236337
5	0xbe439fab	-0.19103877
6	0x3ecb4d2e	0.3970732
7	0xbc5f6c7d	-0.013636705
8	0x3ecb68de	0.39728445
9	0x3e78032f	0.24219964
10	0x3e90f2e4	0.2831031
11	0x3e209d20	0.15684938
12	0xbe050957	-0.12991844
13	0x3eb64d95	0.35606065
14	0xbe101440	-0.14070225
15	0xbdba723d	-0.091038205
16	0xbe31aa7a	-0.17350188
17	0xbcf61d83	-0.03004337
18	0xbe2a9fd7	-0.16662537
19	0x3e46dde5	0.19420584
20	0xbdaabb26	-0.08336477
21	0xbe940ee0	-0.289176
22	0x3e6aa6c4	0.22915179
23	0x3eaf5d77	0.34250996
24	0x3e26b3a0	0.16279459
25	0xbebe37e9	-0.3715203
26	0xbe80d5d6	-0.25163144
27	0xbe835a4b	-0.25654826
28	0xbe0ef576	-0.13960823
29	0x3e7cb904	0.24679953
30	0x3df677ca	0.12034567
31	0x3ef53ea4	0.47899354
32	0x3cb06beb	0.021535834
33	0xbd90f5fc	-0.07078168
34	0xbe959969	-0.29218605
35	0x3e2dbec2	0.169673
36	0x3ed201f8	0.41017127
37	0x3b7efb2f	0.0038907041
38	0xbd888188	-0.06665331
39	0xbc09f827	-0.008420981
40	0x3e01eecf	0.12688754
41	0xbe552571	-0.20815064
42	0x3b9ef12c	0.0048505273
43	0x3e4f87e2	0.20266679
44	0xbe9bb202	-0.30409247
45	0x3bd3dae2	0.006465302
46	0x3e706eb1	0.23479725
47	0xbcbf1163	-0.02332372
48	0xbdaec84c	-0.08534297
49	0xbe27e91a	-0.16397515
50	0xbe223ec0	-0.1584425
51	0x3e38a0f8	0.18030155
52	0x3ef51e36	0.47874612
53	0xbea084b4	-0.31351244
54	0xbb028230	-0.0019914024
55	0xbe60d668	-0.2195679
56	0x3da85b1e	0.08220504
57	0xbf136a4f	-0.5758409
58	0x3e80ceb2	0.25157696
59	0x3bd7117c	0.0065633636
60	0x3de92314	0.11383644
61	0x3e0f5fd8	0.14001405
62	0x3e6990d7	0.22809158
63	0x3e377e22	0.1791921
64	0x3e337da0	0.17528391
65	0xbd62e68e	-0.055395655
66	0xbe2a953b	-0.1665849
67	0xbe351a8e	-0.17685911
68	0xbeadc1ab	-0.3393682
69	0x3eb2ceaf	0.34923312
70	0xbbd7f352	-0.0065902853
71	0xbdb4d64a	-0.08829935
72	0xbe21f907	-0.15817653
73	0xbe8394b5	-0.25699392
74	0x3e20b03a	0.15692225
75	0x3eab9cc4	0.3351804
76	0xbe07ee1e	-0.13274428
77	0xbbfddb0d	-0.00774706
78	0xbf05f412	-0.52325547
79	0xbe99858e	-0.29984707
80	0xbd0a9797	-0.033835974
81	0xbe1fb8b6	-0.15597805
82	0xbdfe58bf	-0.12419271
83	0xbee26b1f	-0.44222352
84	0xbecf6c1a	-0.40512162
85	0xbda86d43	-0.08223965
86	0xbe12a00f	-0.1431887
87	0x3e1d3d9d	0.15355535
88	0x3ecadc94	0.39621413
89	0x3e9f72ce	0.31142277
90	0xbe3771f3	-0.17914562
91	0x3df17d8d	0.11791525
92	0xbddd9d12	-0.108209744
93	0x3ed82478	0.42215323
94	0x3ebf3c5d	0.3735074
95	0x3e665930	0.2249496
96	0xbec72451	-0.38894895
97	0xbea0b632	-0.31389004
98	0xbd95cddb	-0.073146544
99	0xbe9d090a	-0.3067096
100	0x3ea1055f	0.3144941
101	0xbd02e3ca	-0.031955518
102	0x3dd9efa5	0.10641412
103	0x3d95f9b7	0.0732302
104	0x3ea5ba7d	0.32368842
105	0x3e888590	0.266644
106	0x3e04efac	0.12982053
107	0xbec4dc4c	-0.38449323
108	0x3d433083	0.047653686
109	0x3ce4cc65	0.027929494
110	0xbddbef74	-0.107390314
111	0x3f07e5bc	0.5308492
112	0xbe11fe7c	-0.14257234
113	0x3eca4c0b	0.3951114
114	0xbd0c44cf	-0.03424531
115	0xbe2772a6	-0.16352329
116	0xbc3abb90	-0.011397257
117	0xbddec448	-0.108772814
118	0x3e11a145	0.14221676
119	0x3d58b4d1	0.052906815
120	0xbdbe5ff8	-0.09295648
121	0x3d3682da	0.044558384
122	0x3e51db9a	0.20493928
123	0x3f28287b	0.6568677
124	0xbf4bd7d9	-0.7962623
125	0x3f049b6b	0.5179965
126	0x3f075c81	0.52875525
127	0x3eaefb98	0.34176326
128	0x3df57b41	0.119863994
129	0xbe383f35	-0.17992862
130	0xbe47a446	-0.19496259
131	0x3e10694f	0.14102672
132	0xbeaefb5a	-0.3417614
133	0x3edff40c	0.4374088
134	0x3ea32c06	0.31869525
135	0x3e42ab6f	0.19010709
136	0xbd4d99cb	-0.050195497
137	0xbecf8e5a	-0.40538293
138	0xbe687ff9	-0.22705068
139	0xbe8be6ea	-0.2732461
140	0xbe85acd5	-0.26108423
141	0xbe830b00	-0.2559433
142	0xbe5d9357	-0.21638237
143	0x3e5d05c3	0.21584229
144	0x3e3a0d0e	0.18169042
145	0x3ebdc520	0.37064457
146	0xbe220f1b	-0.15826075
147	0x3d529af4	0.051417306
148	0x3ebfcd69	0.37461403
149	0x3eca36de	0.39494985
150	0xbec086d0	-0.37602854
151	0xbe0f5f5d	-0.14001222
152	0x3d32c414	0.043644026
153	0x3d83f2c3	0.064427875
154	0xbe3ff0cf	-0.18744205
155	0x3eab9b3e	0.33516878
156	0x3e8c2013	0.2736822
157	0xbcc38854	-0.023868717
158	0xbe32826e	-0.17432567
159	0x3e30c4b7	0.17262541
160	0xbd7b48ae	-0.06134861
161	0xbe3350bf	-0.17511271
162	0xbe910854	-0.28326666
163	0x3e5f40a4	0.21802002
164	0x3e410f90	0.18853593
165	0x3eae8d88	0.34092355
166	0xbd8b232f	-0.0679382
167	0x3eb49691	0.35271123
168	0x3e088b28	0.13334334
169	0xbeae8c62	-0.3409148
170	0xbca22436	-0.019792657
171	0x3e5d98f0	0.21640372
172	0xbc365112	-0.011127727
173	0xbe371322	-0.17878392
174	0x3d653fca	0.055969037
175	0x3e9adbf9	0.3024595
176	0x3e369c60	0.1783309
177	0x3ecf7620	0.4051981
178	0xbdfe5ea5	-0.12420396
179	0x3e7b1771	0.24520661
180	0xbf2ff781	-0.68737036
181	0x3e9d6e64	0.30748284
182	0x3e046101	0.12927629
183	0x3f25ec91	0.64814097
184	0xbe80332d	-0.25039044
185	0xbdc28625	-0.09498242
186	0xbd5a628b	-0.053316634
187	0xbe513790	-0.20431352
188	0xbe570282	-0.2099705
189	0xbde7a52d	-0.11310802
190	0x3ecf6bae	0.4051184
191	0x3e15c244	0.14624888
192	0x3ef973be	0.48721117
193	0xbdd48c73	-0.10378351
194	0x3e25e6fc	0.16201395
195	0xbe3b16a9	-0.18270363
196	0xbe5ef5ed	-0.217735
197	0xbe6ba02f	-0.23010324
198	0x3dc5b8fb	0.09654423
199	0x3d3ec164	0.04657115
200	0x3e118cf6	0.14213929
201	0x3ec69e2f	0.3879256
202	0x3dca1d39	0.09868855
203	0xbcd43508	-0.025904194
204	0x3d0232b8	0.03178665
205	0x3e974601	0.29545596
206	0xbd0b8849	-0.03406552
207	0xbd573fde	-0.052551143
208	0xbd0fed8d	-0.035138655
209	0x3eff5fd0	0.49877787
210	0x3dae1668	0.085003674
211	0x3c6cd280	0.014454484
212	0xbf1fa53e	-0.62361515
213	0x3ee3d88d	0.44501153
214	0xbe393d37	-0.18089758
215	0x3d0feccb	0.035137933
216	0xbdfb5c98	-0.1227352
217	0x3e8eacab	0.2786611
218	0x3dc6b5b3	0.09702625
219	0xbd9b9a02	-0.07597734
220	0x3d433e03	0.04766656
221	0xbdfaeec6	-0.12252574
222	0x3e66ff97	0.22558437
223	0x3f01912b	0.50612134
224	0x3e641c6c	0.22276467
225	0xbe3fd76a	-0.18734518
226	0xbe557914	-0.20846969
227	0xbeb0c06c	-0.34521806
228	0x3ce88711	0.028384717
229	0xbe067ac6	-0.13132772
230	0x3f1176f4	0.56822133
231	0xbe92cbb1	-0.2867103
232	0x3e0de3e2	0.13856462
233	0xbded50eb	-0.115876995
234	0x3d9cf031	0.076630004
235	0x3eaeacd7	0.3411624
236	0x3e917910	0.28412676
237	0x3d93ba5d	0.0721328
238	0x3e8af002	0.27136236
239	0x3d77404c	0.060364053
240	0x3e1b3208	0.15155804
241	0xbdf2e221	-0.11859537
242	0x3e639d54	0.22227985
243	0xbee3c4f4	-0.444862
244	0x3bf3929d	0.007433249
245	0x3f1fca44	0.6241801
246	0xbe6e6fe9	-0.23284878
247	0x3ef83f58	0.48485827
248	0x3e99c200	0.30030823
249	0x3eb735d1	0.35783246
250	0xbed08835	-0.40728918
251	0x3db4af44	0.08822492
252	0xbc713fb9	-0.014724665
253	0x3dad8a4f	0.08473646
254	0x3efbdb65	0.49190822
255	0x3f0032c1	0.50077444

layers.0.bias f4 [256]
0	0xbd0da3a7	-0.0345799
1	0xbc2f65bd	-0.010705409
2	0xbb5d7aa3	-0.003379502
3	0x3d4409d1	0.047860924
4	0x3b6d3b8a	0.0036198818
5	0xbd96a48b	-0.07355603
6	0xbb9524d7	-0.004551511
7	0xbe0ba453	-0.13636903
8	0x3d8d7653	0.06907334
9	0xbc253954	-0.010084469
10	0x3dcc1918	0.09965724
11	0xbdc556b8	-0.09635681
12	0xbe51082a	-0.2041327
13	0xbca1b1f5	-0.019738177
14	0x3b9ed2a3	0.004846887
15	0xbdb08512	-0.08619131
16	0x3d606fef	0.05479425
17	0x3bf45c36	0.0074572815
18	0x3df2637e	0.11835383
19	0xbd5a58dc	-0.0533074
20	0x3c0ca067	0.008583165
21	0x3e0db514	0.13838607
22	0xbc8fd6da	-0.017558504
23	0xbde2cbe6	-0.11074047
24	0x3c1e6e9b	0.009669925
25	0x3d570e74	0.052504018
26	0xbdf2764c	-0.118389696
27	0xbccf4923	-0.025303429
28	0x3dc6f2b5	0.097142614
29	0xbdad7ab3	-0.08470669
30	0xbc4789be	-0.012178836
31	0xbe8915e0	-0.26774502
32	0xbcc3d4a3	-0.023905104
33	0x3dd5c025	0.10437039
34	0x3daa562b	0.083172165
35	0x3d6709b4	0.056405738
36	0xbdd342bb	-0.10315462
37	0x3c0c949f	0.008580356
38	0xbe0235fd	-0.12715907
39	0xbbafbf70	-0.0053633973
40	0x38edffcb	0.00011348686
41	0xbd958632	-0.07300986
42	0xbdda9561	-0.10673023
43	0xbd1738b0	-0.036919296
44	0x3dadd672	0.08488168
45	0xbe1505e1	-0.14553024
46	0x3dceb56b	0.100931965
47	0xbbd60a22	-0.0065319696
48	0xbdedc45d	-0.11609719
49	0x3d5762fb	0.05258463
50	0x3cdc0eda	0.02686255
51	0x3bcfddab	0.0063435636
52	0xbd6ef4d3	-0.05833895
53	0x3e05a7e9	0.13052334
54	0xbdf0b32a	-0.11752923
55	0x3dcbe715	0.09956185
56	0x3d5c1bf1	0.053737585
57	0xbc8299e2	-0.015942518
58	0xbd9ab54c	-0.07554111
59	0xbea6f4a6	-0.32608527
60	0x3d0bef47	0.03416374
61	0xbd561a20	-0.05227101
62	0x3df351e1	0.118808515
63	0xbe30517d	-0.17218585
64	0xbd2c463a	-0.04205916
65	0xbe1bdde7	-0.15221368
66	0x3cbd0747	0.02307476
67	0xbe7f0bfe	-0.24906918
68	0x3c0c83ad	0.008576316
69	0x3ce36c74	0.027761675
70	0x3b2e0f99	0.002655959
71	0x3d098993	0.033578467
72	0xbd13b62a	-0.036062397
73	0xbd0c9086	-0.034317516
74	0xbd2796e1	-0.040915374
75	0xbce32cee	-0.027731385
76	0xbd8a0a24	-0.067402154
77	0xbd11851c	-0.035527334
78	0xbbff9754	-0.007800022
79	0x3d24c680	0.040228367
80	0xbdb4eb11	-0.08833898
81	0xbd465f72	-0.048430867
82	0x3d212a14	0.03934677
83	0xbd12f250	-0.03587562
84	0xbe47117a	-0.1944026
85	0xbc284c37	-0.010272077
86	0x3d6e80b1	0.0582282
87	0xbe1baeb9	-0.1520337
88	0xbd9904d0	-0.07471621
89	0x3df6867e	0.12037371
90	0xbc3920fb	-0.011299367
91	0x3d6b9733	0.05751724
92	0x3db908b1	0.09034861
93	0x3e30c15b	0.1726126
94	0x3cc8467d	0.024447674
95	0xbda1611c	-0.0787985
96	0x3c992fc1	0.018699529
97	0xbea91795	-0.33025804
98	0x3d40efec	0.047103807
99	0x3c1eff2a	0.009704391
100	0x3de0217a	0.10943885
101	0x3dff49f8	0.1246528
102	0xbd857e36	-0.065182135
103	0x3d5cba8b	0.05388884
104	0xbe0a94e4	-0.1353336
105	0xbe01e9cf	-0.12686847
106	0xbdb13ef9	-0.08654589
107	0x3d1a5af4	0.037684396
108	0xbca43450	-0.020044476
109	0xbd89b9c3	-0.06724884
110	0x3d841945	0.06450132
111	0xbd4a6bf1	-0.049419347
112	0x3d9bf6a1	0.076154
113	0xbde168fd	-0.11006353
114	0xbbac46ef	-0.0052574794
115	0xbe60ddfe	-0.21959683
116	0x3dc87a65	0.0978897
117	0xbdfeec22	-0.124473825
118	0xbc0728f4	-0.00824951
119	0xbd3785b5	-0.044805247
120	0xbe268e4b	-0.16265218
121	0xbd2ad13c	-0.041703448
122	0xbcf8ac70	-0.030355662
123	0x3c9f1d7d	0.01942324
124	0xbe5c2a91	-0.21500613
125	0xbe06c43c	-0.13160795
126	0x3e09be2e	0.13451454
127	0xbe034b72	-0.12821749
128	0x3d05a6bf	0.032629725
129	0x3d8e406a	0.0694588
130	0x3c85ce54	0.016333736
131	0xbe126c0e	-0.14299032
132	0xbe1a6306	-0.15076837
133	0xbe24d363	-0.16096263
134	0xba6f7117	-0.0009133978
135	0xbe0beb8d	-0.13664074
136	0xbcc11aeb	-0.023572406
137	0xbd6005c5	-0.054693002
138	0x3dbe5b90	0.09294808
139	0xbdad98b5	-0.08476392
140	0xbcd0b176	-0.025475245
141	0xbdd1ed3f	-0.10250329
142	0xbe214a2d	-0.15750952
143	0xbdaf10f8	-0.085481584
144	0xbe2ac447	-0.16676436
145	0x3c975b49	0.018476145
146	0x3d79f84e	0.061027817
147	0xbc7d0471	-0.015442953
148	0xbd6c223f	-0.057649847
149	0x3c95a063	0.018264955
150	0xbe51004e	-0.20410272
151	0xbe233547	-0.15938292
152	0x3d934bb3	0.07192173
153	0xbc00b48b	-0.007855545
154	0xbd94f2e6	-0.07272892
155	0xbd92235e	-0.07135652
156	0xbdeb7f9a	-0.114989474
157	0x3dd0ad9b	0.101893626
158	0xbd73294d	-0.05936556
159	0xbd7f456a	-0.062322058
160	0xbdbef9fa	-0.09325023
161	0x3c406a4b	0.011744092
162	0x3d5ce91d	0.05393325
163	0xbbd5aae6	-0.006520617
164	0xbbd0d215	-0.0063727
165	0xbe561582	-0.20906642
166	0xb96d7e83	-0.0002264921
167	0xbcc3c4db	-0.023897579
168	0xbd1abca0	-0.037777543
169	0xbd9184e4	-0.07105425
170	0xbe1657b4	-0.14681894
171	0x3b17b127	0.0023146363
172	0xbded46d0	-0.11585772
173	0x3da2d2c6	0.07950358
174	0x3da5e21c	0.080997676
175	0x3d599a4f	0.053125676
176	0xbde43f2c	-0.111448616
177	0xbd323de6	-0.043516062
178	0xbdcf2dcd	-0.10116158
179	0xba07811e	-0.0005169081
180	0xbe0fcc28	-0.14042723
181	0xbe368fe1	-0.17828323
182	0xbd78a4e1	-0.060704116
183	0x3ceae911	0.028675588
184	0xbdbbab16	-0.091634914
185	0x3c199d64	0.009375904
186	0x3da69df6	0.081355974
187	0xbd145260	-0.03621137
188	0xbd2ccbc7	-0.042186525
189	0x3db2608c	0.08709821
190	0xbd86aa7f	-0.06575488
191	0xbca8c3d6	-0.020601194
192	0x3c1a8190	0.009430304
193	0xbd0f022c	-0.03491418
194	0xbda2d834	-0.07951394
195	0xbc5377f5	-0.012907018
196	0x3dd39260	0.10330653
197	0xbd902d81	-0.07039929
198	0xbe1261c3	-0.14295106
199	0x3da8c5ac	0.08240828
200	0xbcead71b	-0.028667023
201	0xbdebf18c	-0.11520681
202	0xbd0e71dd	-0.034776557
203	0x3cc1890d	0.023624921
204	0xbcc8d0ee	-0.024513688
205	0xbe3cda46	-0.1844264
206	0xbd94f49d	-0.07273219
207	0x3d9f87a6	0.07789545
208	0x3d6b1d8f	0.057401236
209	0xbdcb6271	-0.099308856
210	0xbe203a44	-0.15647227
211	0xbdb9eb9c	-0.09078142
212	0xbdbf8673	-0.09351816
213	0xbdfd456a	-0.12366755
214	0x3c44dd53	0.012015658
215	0x3cbb04e5	0.022829482
216	0xbd24044b	-0.040043157
217	0x3d758f3a	0.059951045
218	0x3dbf89d3	0.0935246
219	0xbd1bba45	-0.038019437
220	0xbd003fac	-0.031310722
221	0x3d44b6b3	0.048025798
222	0x3caf5ee0	0.021407545
223	0x3c900401	0.017580034
224	0xbe3b6c11	-0.18302943
225	0x3dde75df	0.10862326
226	0x3c70699a	0.014673615
227	0x3da4f880	0.0805521
228	0x3c1da658	0.009622179
229	0x3baf681a	0.005352986
230	0xbdbc2a0c	-0.09187707
231	0x3b21e3da	0.002470246
232	0xbde7b6c9	-0.113141604
233	0xbe45d353	-0.19318895
234	0xbe00204a	-0.12512317
235	0x3df02016	0.1172487
236	0xbe6d47e4	-0.23171955
237	0xbdd14ec2	-0.102201
238	0xbda43fc3	-0.08019974
239	0xbd91e7b9	-0.07124276
240	0x3e46ebf7	0.19425951
241	0x3d8e1d8a	0.06939228
242	0xbd4cd903	-0.050011646
243	0xbd7815ff	-0.060567852
244	0x3dbdcaae	0.09267174
245	0xbd2c7359	-0.04210219
246	0x3c04716f	0.008083685
247	0x3d3c3b37	0.04595491
248	0xbe20ab9f	-0.15690468
249	0xbd054ba6	-0.032542847
250	0x3cdb060d	0.026736284
251	0xbd1d4a3f	-0.038400885
252	0xbdae7ff9	-0.085205026
253	0xbd88abbf	-0.06673383
254	0xbd1dc704	-0.038519874
255	0xbdb26552	-0.087107316

layers.2.weight f4 [32, 256]
0	0xbeb2ff35	-0.34960333
1	0x3dc8de10	0.0980798
2	0x3e3a84bb	0.18214695
3	0x3d0129a6	0.03153386
4	0xbdd4ba6a	-0.10387118
5	0xbe27ff99	-0.16406097
6	0x3e60ecc1	0.21965314
7	0xbde10312	-0.10986914
8	0x3da4aab5	0.08040372
9	0x3ebdab74	0.3704487
10	0xbe3d94c7	-0.18513785
11	0x3db524c6	0.088449046
12	0xbf04550c	-0.5169227
13	0x3c6b5b96	0.0143650975
14	0xbe0d390c	-0.13791293
15	0x3bb60cc5	0.0055557215
16	0xba9c597e	-0.0011928526
17	0x3e03440b	0.12818925
18	0x3e0be6a9	0.13662209
19	0x3c2838ea	0.010267476
20	0x3e4d92ca	0.20075527
21	0xbb9b5247	-0.004740033
22	0xbd9596fe	-0.0730419
23	0x3e8ece75	0.2789189
24	0x3f39c9ad	0.7257336
25	0x3e1ae43f	0.15126131
26	0x3ef28c72	0.47372776
27	0xbde10de7	-0.1098898
28	0x3ecf5a48	0.40498567
29	0xbf1aebf0	-0.6051626
30	0x3e5a013b	0.21289532
31	0xbe3003d1	-0.17188956
32	0x3e39c020	0.18139696
33	0x3e9a3292	0.30116707
34	0xbee24026	-0.44189566
35	0xbe76b834	-0.24093705
36	0xbf14be21	-0.58102614
37	0xbd5d3125	-0.054001946
38	0x3ea35a1d	0.31904688
39	0xbe0b1a66	-0.13584289
40	0x3ec6139b	0.38686833
41	0x3e855eba	0.26048833
42	0x3dd43b58	0.103628814
43	0x3dac7e8c	0.084225744
44	0x3e80eb25	0.251794
45	0x3eb96d48	0.36216187
46	0x3ed26b8e	0.41097683
47	0xbe4c6302	-0.19959643
48	0xbdeac5d7	-0.11463516
49	0x3e3a0901	0.18167497
50	0xbdc4952b	-0.09598764
51	0x3ecf35b8	0.40470672
52	0x3d5fad51	0.054608647
53	0xbee07267	-0.43837282
54	0xbe8bcaee	-0.2730326
55	0x3e331b5f	0.1749091
56	0xbebfdf16	-0.3747489
57	0xbbdbf6e0	-0.0067127794
58	0xbe309f7c	-0.17248338
59	0xbe3a657e	-0.18202779
60	0xbd92f80a	-0.07176216
61	0x3f049a60	0.5179806
62	0x3e089864	0.13339382
63	0x3ec4c198	0.3842895
64	0x3d8b2f58	0.067961395
65	0x3e86cd60	0.26328564
66	0x3e19061f	0.14943741
67	0xbe833313	-0.25624904
68	0x3e305ad4	0.17222148
69	0x3dd82a46	0.10554938
70	0x3e206716	0.15664324
71	0xbd037d90	-0.032102168
72	0x3c814000	0.015777588
73	0x3d6b55c1	0.05745483
74	0x3eba98e3	0.36444768
75	0x3b5625a1	0.0032676237
76	0x3eb4d3fc	0.3531798
77	0xbefaf87d	-0.49017707
78	0x3d68f777	0.056876626
79	0x3e554e1f	0.20830582
80	0xbd8baaa0	-0.068196535
81	0x3e2f1d1b	0.17100947
82	0x3e34d1dd	0.17658181
83	0x3e208fb8	0.15679824
84	0xbf0bb26f	-0.54569143
85	0x3de5cfdc	0.11221287
86	0xbde7d5df	-0.113200895
87	0x3f04bc47	0.5184979
88	0x3eaaa3e8	0.33328176
89	0x3e4fae3f	0.20281313
90	0x3e1be75f	0.1522498
91	0xbe3bdac2	-0.18345168
92	0x3e570af4	0.21000272
93	0xbed8fd66	-0.42380828
94	0xbe4e47d7	-0.20144592
95	0x3ad70f82	0.001640782
96	0x3e6cbb27	0.23118268
97	0x3eb0b24f	0.3451104
98	0x3eb0f470	0.3456149
99	0x3e5ef70c	0.21773928
100	0x3d1e5631	0.038656417
101	0x3e754377	0.23951517
102	0x3e758c65	0.23979338
103	0x3e83b5e7	0.25724718
104	0xbe04fc12	-0.12986782
105	0xbd47a004	-0.048736587
106	0x3de949ff	0.11391067
107	0xbe0bde24	-0.13658959
108	0xbeb4ad57	-0.35288498
109	0xbdceaaf7	-0.10091203
110	0xbea31c29	-0.31857422
111	0xbe8fe94d	-0.28107682
112	0x3d139b8b	0.03603701
113	0x3ec8ea2a	0.39241153
114	0x3ea3f92f	0.3202605
115	0x3e44ae9b	0.19207232
116	0x3eb76142	0.3581639
117	0xbf38ecc6	-0.7223629
118	0x3ddc3723	0.10752704
119	0xbe121f78	-0.14269817
120	0x3ac830cb	0.001527333
121	0xbe1089ca	-0.14115062
122	0xbeea9a4e	-0.4582085
123	0x3da101b7	0.07861655
124	0x3f29a533	0.662677
125	0xbe8e5a13	-0.27803096
126	0x3e87b5fb	0.26506028
127	0xbdaf55d8	-0.08561295
128	0xbdf4d0bd	-0.11953876
129	0x3e11bcbe	0.14232156
130	0x3e9f999a	0.31171876
131	0xbf173ad2	-0.5907413
132	0x3ea9c740	0.33159828
133	0xbeb355d4	-0.3502642
134	0x3deffe63	0.11718442
135	0x3ea3aa4e	0.3196587
136	0x3d8df46b	0.06931385
137	0x3da0c11a	0.07849331
138	0xbe91be48	-0.28465486
139	0xbe22b609	-0.15889753
140	0x3d7c0787	0.061530616
141	0xbdf4220b	-0.11920556
142	0x3d93e49a	0.07221337
143	0x3e3ccc62	0.18437341
144	0xbd8420c2	-0.064515606
145	0xbe95c24f	-0.29249808
146	0x3f5b6dc9	0.85714394
147	0xbf18c13b	-0.59669846
148	0xbd88a4c9	-0.06672055
149	0xbd9f468f	-0.0777713
150	0x3f120da8	0.5705209
151	0xbf084f3c	-0.532459
152	0x3f1b5fd4	0.606931
153	0x3d069c30	0.032863796
154	0x3e66ed25	0.22551401
155	0x3e1cb5f9	0.15303792
156	0xbe066cb3	-0.13127403
157	0x3d8a6848	0.06758171
158	0x3ebd1af7	0.36934635
159	0xbe63c42a	-0.222428
160	0x3df7647a	0.12079711
161	0xbed24fb2	-0.41076428
162	0x3d463b16	0.048396192
163	0x3e7b52a4	0.24543244
164	0xbe276e87	-0.16350757
165	0x3e3b1616	0.18270144
166	0xbe08c127	-0.13354932
167	0xbe939648	-0.28825593
168	0x3e309c4d	0.17247124
169	0xbe44ddea	-0.19225278
170	0xbeac5d00	-0.33664703
171	0x3f00dd7d	0.50337964
172	0xbf14b0b5	-0.58082134
173	0xbe8a760f	-0.27043197
174	0xbe935ed2	-0.2878328
175	0x3e930c4f	0.28720328
176	0xbea0d72c	-0.31414163
177	0x3e2e8d98	0.17046201
178	0xbec9e1a9	-0.39429978
179	0x3e9c7898	0.30560756
180	0xbbaf5cef	-0.0053516547
181	0x3ed766c3	0.42070588
182	0xbe21fbbb	-0.15818684
183	0x3d99d800	0.07511902
184	0x3ea02ef7	0.3128583
185	0xbe4dfbd2	-0.20115593
186	0xbe7980af	-0.24365495
187	0xbc34234a	-0.010994742
188	0x3dad1dac	0.08452925
189	0x3ea40771	0.32036927
190	0xbdade001	-0.08489991
191	0xbe3fcae7	-0.18729745
192	0x3b95f8a8	0.0045767613
193	0xbd74c8e2	-0.05976189
194	0x3f12befc	0.5732267
195	0x3cf138c2	0.02944601
196	0xbe23339c	-0.15937656
197	0x3ee92826	0.45538443
198	0x3dd01db5	0.10161916
199	0x3d34f907	0.044182803
200	0xbe7f0bdc	-0.24906868
201	0xbdf4065e	-0.11915277
202	0x3d43f295	0.047838766
203	0x3e2864aa	0.1644465
204	0x3eaf25b2	0.34208447
205	0x3df114cb	0.11771544
206	0xbe64fc97	-0.2236198
207	0x3ddbc3f3	0.10730734
208	0xbd984a0d	-0.07435999
209	0xbeaf65f2	-0.34257466
210	0xbeedc690	-0.46440554
211	0x3ed52dac	0.41636407
212	0x3ec3bdcf	0.3823075
213	0xbf1d8ca6	-0.6154274
214	0x3e865eae	0.2624411
215	0xbdeb0a7f	-0.11476611
216	0x3e95c9f3	0.29255638
217	0x3dad5e58	0.0846526
218	0x3e72680c	0.23672503
219	0xbe8993a5	-0.26870456
220	0x3e3f205c	0.18664688
221	0xbddb0e73	-0.10696115
222	0xbdad6e3f	-0.084682934
223	0xbe812e12	-0.2523046
224	0x3e8ee388	0.27907968
225	0xbe47e9df	-0.19522808
226	0xbd1500ac	-0.036377594
227	0xbd08b2f1	-0.033373777
228	0xbe445858	-0.19174325
229	0xbb9fedbe	-0.004880636
230	0x3d87c5cd	0.066295244
231	0x3dd82e13	0.10555663
232	0xbf194a94	-0.5987942
233	0x3d386b25	0.045024056
234	0xbe6c6161	-0.23084022
235	0xbe7a90da	-0.24469319
236	0xbecdcb6a	-0.40194255
237	0xbd925655	-0.07145373
238	0x3e129aff	0.14316939
239	0x3e7b19b9	0.24521531
240	0x3eeeef25	0.46666828
241	0x3e192633	0.14955978
242	0x3e60f79b	0.21969454
243	0x3f239718	0.63902426
244	0x3e5e7891	0.2172568
245	0x3d3f0a53	0.046640705
246	0xbe2dba3e	-0.16965577
247	0x3d4a46e8	0.049384028
248	0x3e9535f0	0.29142714
249	0x3e33a013	0.17541532
250	0x3d732251	0.0593589
251	0x3ec68252	0.38771302
252	0x3e699e24	0.22814232
253	0xbe6dfb26	-0.23240337
254	0x3e1bbf81	0.15209772
255	0xbe89f715	-0.2694632

layers.2.bias f4 [32]
0	0x3b0217e0	0.0019850656
1	0x3d64ac8f	0.055828627
2	0xbce8ab58	-0.028402016
3	0x3d4f6ba3	0.05063976
4	0x3d0efbd6	0.03490814
5	0x3dbdf6e0	0.09275603
6	0x3dd5ab16	0.10433023
7	0x3e188bd9	0.14897098
8	0xbb900ca4	-0.004396038
9	0x3c6e62b8	0.014549904
10	0x3c902f88	0.01760079
11	0x3d9aa382	0.07550718
12	0xbd94376d	-0.07237134
13	0x3d60c3c7	0.054874208
14	0x3db3075d	0.08741639
15	0x3cfd70bd	0.030937547
16	0x3d2b2f52	0.041793175
17	0x3ccc2cd7	0.024923725
18	0xbe1c8bf6	-0.15287766
19	0xbdd45ec1	-0.103696354
20	0x3dee6981	0.11641217
21	0x3bf4afbd	0.0074672387
22	0x3e39613c	0.18103498
23	0x3df74d0c	0.120752424
24	0x3ca39d0f	0.019972352
25	0x3d29fd33	0.041501235
26	0x3c48d960	0.0122588575
27	0x3e1919f6	0.1495131
28	0x3d1babf7	0.038005795
29	0xbe18559e	-0.1487641
30	0x3d58e0bc	0.0529487
31	0xbe053b3b	-0.13010876

layers.4.weight f4 [1172, 32]
0	0x3e041cba	0.12901583
1	0x3ecb3322	0.3968745
2	0xbe4f9cc9	-0.20274653
3	0x3e71fa93	0.23630743
4	0x3e66d006	0.22540292
5	0xbc819404	-0.01581765
6	0xbf1ff341	-0.6248055
7	0x3e65212f	0.2237594
8	0xbf1844aa	-0.59479773
9	0xbf26151d	-0.64875966
10	0xbdabd4d6	-0.083902046
11	0xbf109a15	-0.5648511
12	0x3e2e43fd	0.17018123
13	0xbd531e26	-0.051542424
14	0x3e135de9	0.14391293
15	0xbf69a03d	-0.9126013
16	0xbea9eb66	-0.33187407
17	0x3d66d85d	0.056358684
18	0x3e6897e2	0.22714189
19	0x3c8002ad	0.015626276
20	0x3e206eb1	0.15667225
21	0x3d4e065f	0.050299045
22	0x3e46dfac	0.19421262
23	0xbd815d7f	-0.06316661
24	0xbf1f1c84	-0.62152886
25	0xbe700bd2	-0.23442009
26	0x3e596723	0.2123075
27	0xbe8d3c6d	-0.27585164
28	0xbef061d5	-0.4694964
29	0xbd0b76eb	-0.034048956
30	0xbd887a85	-0.06663994
31	0xbbdc9fb5	-0.0067329057
32	0x3e587479	0.21138181
33	0xbf18bb18	-0.5966048
34	0x3de1a905	0.11018566
35	0xbe189197	-0.14899288
36	0x3dc217c5	0.0947719
37	0x3d7e0991	0.062020842
38	0x3ed31beb	0.41232237
39	0x3e6da87a	0.232088
40	0xbe41407f	-0.1887226
41	0xbec332f2	-0.38124806
42	0x3e043a43	0.1291285
43	0xbd9b2e4f	-0.07577192
44	0xbe3d393e	-0.18478867
45	0x3de29a2c	0.11064562
46	0x3e7fac1b	0.24967997
47	0x3e86f192	0.2635618
48	0x3e46b203	0.19403844
49	0x3cb7f112	0.022453818
50	0xbe91b035	-0.28454748
51	0xbe216eb9	-0.15764894
52	0x3e3710fc	0.17877573
53	0x3e642870	0.2228105
54	0xbe57ac81	-0.21061899
55	0x3e56f133	0.20990448
56	0xbdc2d10c	-0.09512529
57	0xbed9c624	-0.42533982
58	0xbe5e3e12	-0.21703365
59	0x3d02dbba	0.03194783
60	0xbdd5107b	-0.10403534
61	0xbe91a5d7	-0.28446838
62	0xbedf0876	-0.43561143
63	0xbe467b0f	-0.1938288
64	0x3df4cc25	0.11953
65	0xbe37fa14	-0.17966491
66	0x3e1c2cb0	0.15251422
67	0xbe326fc0	-0.17425442
68	0xbdf9e4f0	-0.122018695
69	0xbd7f94f4	-0.062397912
70	0xbd71387a	-0.05889175
71	0xbd36ba7c	-0.04461144
72	0xbeba3d90	-0.36375093
73	0xbe783316	-0.24238238
74	0x3d9f6274	0.0778245
75	0x3db605c1	0.08887816
76	0x3e875524	0.26432145
77	0xbdb6fa1b	-0.089344226
78	0xbd4f48ae	-0.050606422
79	0xbecfe277	-0.40602466
80	0x3e534951	0.20633437
81	0xbf5e94d3	-0.8694584
82	0x3d87758f	0.066142194
83	0xbd4a1d5d	-0.04934441
84	0x3ec3fb4d	0.38277665
85	0x3e0709de	0.13187358
86	0x3f0b7c87	0.5448689
87	0xbe217406	-0.15766916
88	0xbf3032ce	-0.6882752
89	0xbc9eb597	-0.019373698
90	0xbe6728e5	-0.22574194
91	0xbdfea886	-0.12434487
92	0x3f00cb9c	0.50310683
93	0x3e1c3991	0.15256335
94	0xbdebcde6	-0.115138814
95	0x3df2290f	0.118242376
96	0x3eff99ad	0.49921933
97	0x3db85b33	0.0900177
98	0xbeb6885c	-0.3565091
99	0xbec3b05f	-0.38220498
100	0x3e3a9afa	0.18223181
101	0xbe478312	-0.19483593
102	0x3e6ef9a0	0.23337412
103	0xbdc522c3	-0.09625771
104	0xbe2ff885	-0.17184646
105	0xbd3bd020	-0.04585278
106	0xbe98f00f	-0.2987065
107	0x3e5bf89f	0.2148156
108	0xbcbedd7f	-0.023298977
109	0x3f010440	0.5039711
110	0x3e6a9cfe	0.2291145
111	0x3e20538e	0.15656874
112	0xbe6e81e7	-0.23291741
113	0xbe917215	-0.2840735
114	0xbe3ccc2a	-0.18437257
115	0xbe4fa0a6	-0.20276126
116	0x3e2d7198	0.16937864
117	0xbe48ca8d	-0.19608517
118	0xbe6389c5	-0.22220524
119	0x3d390337	0.04516908
120	0xbe1a53bf	-0.15071009
121	0xbebc38df	-0.3676214
122	0x3e1a425c	0.15064377
123	0x3e447c5d	0.19188066
124	0xbdf83057	-0.12118595
125	0xbe607d7f	-0.21922873
126	0x3e579574	0.21053106
127	0xbe19f78c	-0.15035838
128	0x3e5d7bab	0.21629207
129	0xbf0fa96d	-0.561179
130	0xbe309f2e	-0.17248222
131	0x3cbb6f10	0.022880107
132	0x3ddb3e10	0.10705197
133	0x3e52942c	0.20564336
134	0xbd70a413	-0.058750223
135	0x3ebec48e	0.37259334
136	0xbea62fbb	-0.3245829
137	0x3e87676f	0.264461
138	0xbf10d8ae	-0.56580627
139	0xbd74a95e	-0.059731834
140	0xbcf9f214	-0.03051094
141	0x3e85ed57	0.26157638
142	0x3ed8f4e7	0.42374346
143	0x3e7e48a5	0.24832399
144	0x3d1afa87	0.037836578
145	0xbc938c8d	-0.018011356
146	0xbdb071ac	-0.08615431
147	0xbd83467a	-0.06409927
148	0x3dcbd6ac	0.09953055
149	0xbe257e18	-0.16161382
150	0xbea1c2f6	-0.31594056
151	0x3ec46866	0.383609
152	0xbefa38d9	-0.48871496
153	0xbee9e15f	-0.45679757
154	0x3eb2a618	0.34892344
155	0xbdbdfdbc	-0.092769116
156	0x3e235b17	0.15952717
157	0xbd74884a	-0.059700288
158	0xbdd1a90b	-0.102373205
159	0xbeb0ec72	-0.34555393
160	0x3d81ec9e	0.06343959
161	0xbf3f5f49	-0.7475477
162	0xbf5a01ac	-0.851588
163	0xbd8c2c5a	-0.06844397
164	0xbd9f9d99	-0.07793731
165	0xbf1e0302	-0.6172334
166	0x3e167bbe	0.14695641
167	0x3dfdbe80	0.123898506
168	0x3c85c59f	0.016329585
169	0x3ce75d1d	0.028242642
170	0x3d694874	0.056953862
171	0xbeca5c78	-0.39523673
172	0x3e92f319	0.28701094
173	0xbded8a0f	-0.11598598
174	0x3e033cf1	0.12816216
175	0x3ea0be12	0.31395012
176	0xbefcc69c	-0.49370277
177	0x3da3ec95	0.08004109
178	0x3d1b7e73	0.03796239
179	0x3e5a4918	0.21316946
180	0xbeca4dd6	-0.3951251
181	0x3ed16b42	0.40902144
182	0xbf005800	-0.5013428
183	0x3e41b169	0.18915333
184	0xbe076417	-0.13221775
185	0x3e7b5488	0.24543965
186	0x3d46ae24	0.048505917
187	0x3d93bac5	0.07213358
188	0xbec57f57	-0.38573715
189	0x3bac216d	0.005253008
190	0x3d48a9e8	0.04899016
191	0x3e23ea4a	0.16007343
192	0xbddae883	-0.10688879
193	0x3e3a8620	0.18215227
194	0x3e3bd960	0.1834464
195	0x3e4beea1	0.19915248
196	0x3d3c3df5	0.045957524
197	0xbed0c981	-0.40778735
198	0x3eb458dd	0.35224047
199	0x3e29c026	0.16577205
200	0x3de139ba	0.109973386
201	0x3e506e5e	0.20354602
202	0x3b6a9d51	0.0035799334
203	0x3e2cf7ae	0.16891357
204	0x3e4fa6c0	0.20278454
205	0xbe83cbe5	-0.25741497
206	0xbe22bf83	-0.15893368
207	0x3dc1c0b7	0.094605856
208	0xbf048e97	-0.51780075
209	0xbd2bd93d	-0.04195522
210	0x3e90ad51	0.2825723
211	0x3e2d4ca9	0.16923775
212	0x3dc90c02	0.098167434
213	0xbf2de526	-0.6792778
214	0xbe82d5eb	-0.2555383
215	0xbc86c919	-0.016453313
216	0x3e3808fb	0.17972176
217	0xbf2d5649	-0.67709786
218	0xbef18964	-0.47175133
219	0x3e047bc7	0.12937842
220	0x3e1aa481	0.15101816
221	0x3e081aff	0.13291548
222	0xbf199d6b	-0.60005826
223	0x3e124883	0.14285474
224	0x3d319031	0.043350402
225	0x3d815a39	0.06316037
226	0xbf3c519d	-0.7356203
227	0xbe9a7b5b	-0.30172238
228	0xbdcf611d	-0.10125945
229	0xbea8d01a	-0.3297127
230	0x3e7df486	0.2480031
231	0x3e7dbf61	0.24780037
232	0x3de16608	0.11005789
233	0x3e66574e	0.22494242
234	0x3e7a0c6e	0.24418804
235	0x3e2615d4	0.16219264
236	0x3e69c29c	0.22828144
237	0x3e233ed6	0.15941939
238	0x3ce30b36	0.027715307
239	0xbea063af	-0.31326053
240	0x3e4cea6a	0.20011297
241	0x3d9bf187	0.07614427
242	0x3dcf5c92	0.10125078
243	0xbcbe452e	-0.023226347
244	0xbf0f3951	-0.5594683
245	0x3eacab6a	0.3372453
246	0x3e13285e	0.14370868
247	0xbeb6fc32	-0.35739285
248	0xbe7c5cb4	-0.24644738
249	0xbf06cccf	-0.52656263
250	0x3da83ab6	0.08214323
251	0xbed2244b	-0.41043314
252	0xbee12d1d	-0.4397973
253	0xbdc027cb	-0.0938259
254	0xbee70efb	-0.45128617
255	0x3e93836f	0.28811213

layers.4.bias f4 [1172]
0	0xbe068a4f	-0.13138698
1	0xbcc851b7	-0.024453027
2	0x3d99c723	0.075086854
3	0x3ea7e300	0.32790375
4	0x3ebe9e10	0.37229967
5	0xbe7d99d7	-0.24765716
6	0xbda96c74	-0.08272639
7	0x3d673b96	0.05645331
8	0xbe2b4d51	-0.16728713
9	0xbe8644aa	-0.26224262
10	0xbea020fa	-0.3127516
11	0x3c48cd5f	0.012255996
12	0xbe3043ca	-0.1721336
13	0xbeae3790	-0.34026766
14	0xbd96e1de	-0.073672995
15	0x3d5e7a94	0.05431612
16	0x3cfaccfa	0.030615319
17	0xbd6722a8	-0.056429535
18	0xbd0afd53	-0.033932995
19	0xbe21721f	-0.1576619
20	0xbe59cbb4	-0.21269113
21	0xbdb3cc47	-0.08779197
22	0xbd9f8b9a	-0.07790299
23	0xbe609bbb	-0.21934406
24	0x3d980cae	0.074242935
25	0x3e9061eb	0.28199705
26	0xbd981166	-0.074251935
27	0xbe129c7b	-0.14317505
28	0xbe2ec43f	-0.1706705
29	0xbe4fe429	-0.2030188
30	0xbe3cba0c	-0.18430346
31	0xbe801384	-0.2501489
32	0xbe419ab0	-0.18906665
33	0xbe4604d9	-0.19337787
34	0xbdf8f0ae	-0.12155281
35	0xbe251e44	-0.16124827
36	0x3d23ec8d	0.040020514
37	0xbd949881	-0.0725565
38	0xbdfa2964	-0.12214926
39	0xbe362cb6	-0.17790493
40	0x3d3921a0	0.045198083
41	0x3c0b6be6	0.008509612
42	0xbe44258c	-0.19154948
43	0xbc6950d1	-0.01424046
44	0xbe770a88	-0.24125111
45	0xbe2c3e37	-0.16820608
46	0xbe9d83c2	-0.30764586
47	0xbd6e8654	-0.058233574
48	0x3db2d286	0.087315604
49	0xbe5c486e	-0.21512005
50	0xbd8f7fa1	-0.07006765
51	0xbd9748e5	-0.073869504
52	0x3dd51cff	0.10405921
53	0xbdb5f287	-0.08884149
54	0xbe471ffb	-0.19445793
55	0xbe853f59	-0.26024893
56	0x3daece5c	0.08535454
57	0xbe462abe	-0.19352242
58	0xbe6627df	-0.22476147
59	0xbe76b52e	-0.24092552
60	0x3e0c457b	0.1369838
61	0xbcedcacf	-0.02902737
62	0x3e2d6f4d	0.16936989
63	0xbdb61259	-0.08890218
64	0x3ccb3dc7	0.024809731
65	0x3daed2ee	0.085363254
66	0xbdc8c897	-0.098038845
67	0xbd85302e	-0.0650333
68	0xbe296ffd	-0.16546626
69	0x3e6272e6	0.22114143
70	0x3bd62571	0.006535225
71	0x3df2c692	0.118542805
72	0xbe5bdbde	-0.21470591
73	0xbe4b0ff0	-0.19830298
74	0xbeab1485	-0.33414093
75	0xbeb53ea7	-0.35399362
76	0xbe2fd632	-0.17171553
77	0x3ca98390	0.020692617
78	0xbe75fd93	-0.24022512
79	0xbe2ee8f7	-0.17081057
80	0x3cc1f5cc	0.023676775
81	0xbe6bea2a	-0.23038545
82	0xbdb2a4b8	-0.08722824
83	0x3e3f3c27	0.1867529
84	0xbe17f47b	-0.14839356
85	0x3e03a778	0.12856853
86	0xbd09040f	-0.033451136
87	0xbe81dbae	-0.25362915
88	0x3e4fc7a5	0.20291002
89	0xbe6f32a5	-0.23359163
90	0x3b0dbb75	0.0021626626
91	0xbc40a9b8	-0.011759214
92	0xbd66b28c	-0.05632262
93	0xbdd3eba0	-0.10347676
94	0x3d76fcc6	0.060299657
95	0x3db78bac	0.08962187
96	0xbe94889a	-0.2901047
97	0xbdd2714c	-0.10275516
98	0x3e6d9441	0.23201086
99	0x3b48dda5	0.0030649689
100	0xbde69cfe	-0.11260413
101	0xbd3d7aa3	-0.046259534
102	0xbdf0f10a	-0.117647246
103	0x3e680d2a	0.22661272
104	0x3deb7710	0.11497319
105	0xbe6cd58a	-0.23128334
106	0xbe86dc9c	-0.26340187
107	0xbd0d911b	-0.03456221
108	0x3e0b52a3	0.13605742
109	0x3c5f8457	0.013642392
110	0xbe81d135	-0.25354925
111	0x3c717dac	0.014739435
112	0xbe84fe99	-0.25975493
113	0x3e02b6ed	0.12765093
114	0xbeb597a9	-0.3546727
115	0xbda120f0	-0.078676105
116	0x3ea4d8b4	0.3219658
117	0xbdb5010a	-0.08838089
118	0x3e3e9bbd	0.18614097
119	0x3eb33101	0.34998325
120	0xbda602c2	-0.08105995
121	0xbcdcb104	-0.026939876
122	0xbca18804	-0.019718178
123	0xbdd7807d	-0.10522554
124	0xbe066011	-0.13122584
125	0xbebc92d7	-0.3683078
126	0xbe547cef	-0.20750783
127	0xbe5fa28b	-0.21839349
128	0x3cb060c5	0.021530518
129	0xbea8a093	-0.32935008
130	0xbe2feb26	-0.17179546
131	0xbbbedeb9	-0.0058248905
132	0x3dacb6ba	0.0843329
133	0xbe165f2b	-0.14684741
134	0x3d69a5d2	0.057042904
135	0xbd381109	-0.04493812
136	0x3c02503f	0.0079537025
137	0xbe522bac	-0.20524472
138	0x3e1c5747	0.15267669
139	0xbe80ade6	-0.25132674
140	0x3d8dfc5f	0.069329016
141	0xbdbee855	-0.093216576
142	0xbd2d6379	-0.042331193
143	0xbe614988	-0.22000706
144	0x3e873192	0.26405007
145	0xbdb42fdf	-0.08798193
146	0xbea6179f	-0.32439896
147	0xbc5dea55	-0.013544639
148	0xbd94b5e7	-0.072612576
149	0xbdcb4c4d	-0.099266626
150	0x3da0324a	0.07822092
151	0x3d5ad725	0.053427834
152	0xbc0c9dd8	-0.008582555
153	0xbeb22c24	-0.34799302
154	0xbea21960	-0.31659985
155	0x3e76e82a	0.24112001
156	0x3df0212e	0.117250785
157	0xbe9bdfbe	-0.3044414
158	0xbe24c7f3	-0.160919
159	0xbe0d9212	-0.13825253
160	0xbe02c6d2	-0.12771156
161	0x3c734097	0.014846942
162	0xbe2d2168	-0.16907275
163	0xbc00834a	-0.007843802
164	0x3de9c1ed	0.114139415
165	0xbdf03491	-0.11728776
166	0x3c2ac5b8	0.010423116
167	0xbe1425f5	-0.14467604
168	0xbd4bf056	-0.04978975
169	0xbd360d3a	-0.044446208
170	0x3e081293	0.13288336
171	0xbe595f89	-0.2122785
172	0xbe8c6963	-0.27424154
173	0xbd161528	-0.03664127
174	0xbd926d07	-0.071497016
175	0xbd18cfd7	-0.037307587
176	0xbe0eb70e	-0.13937017
177	0xbe36674e	-0.17812845
178	0x3cdf5629	0.027262764
179	0xbe86a346	-0.26296443
180	0x3df15036	0.11782877
181	0x3e64a680	0.2232914
182	0xbdd56bd6	-0.10420959
183	0xbe664e72	-0.22490862
184	0xbe26e5dc	-0.16298622
185	0xbdfaa3ac	-0.12238249
186	0xbe2f6a4a	-0.1713039
187	0xbd516c7c	-0.05112885
188	0xbdac4965	-0.084124364
189	0xbe7458df	-0.23862027
190	0xbcfb0801	-0.030643465
191	0xbe37461b	-0.17897837
192	0xbe4648ee	-0.19363758
193	0x3e0dbe9b	0.13842241
194	0xbe1bb509	-0.15205778
195	0x3d286834	0.041115
196	0x3ce629bd	0.028096074
197	0xbdad070e	-0.08448611
198	0xbddc69fb	-0.10762402
199	0xbe648534	-0.22316438
200	0x3e240fe2	0.16021684
201	0xbc913747	-0.017726554
202	0x3dd67654	0.10471788
203	0x3cbc69b0	0.022999614
204	0x3d3a8143	0.04553343
205	0x3ca302d2	0.019898806
206	0x3d2447c4	0.040107504
207	0xbdb3b9b7	-0.08775657
208	0x3d9d6a55	0.07686297
209	0xbec7f8eb	-0.39057097
210	0xbdacef7c	-0.084441155
211	0x3d80c133	0.0628685
212	0xbd713ff6	-0.05889889
213	0x3c70a85c	0.0146885775
214	0xbe0af2fa	-0.1356925
215	0xbdf29e33	-0.1184658
216	0x3b8404be	0.0040288856
217	0x3c3dfc36	0.011595776
218	0x3d82c5c3	0.06385376
219	0xbdadb655	-0.08482043
220	0x3d8629aa	0.065509155
221	0xbe096a88	-0.13419545
222	0xbdd713ac	-0.10501799
223	0x3e67e168	0.2264458
224	0xbe3ecc34	-0.18632585
225	0x3c6d87b3	0.014497685
226	0xbd4fbf8a	-0.050719775
227	0xbe2a0650	-0.1660397
228	0xbe995676	-0.29948777
229	0xbdaa5e01	-0.08318711
230	0xbdc16957	-0.0944392
231	0xbe4a7846	-0.19772443
232	0xbded9a58	-0.11601704
233	0xbd5a91eb	-0.053361814
234	0xbe4f6c6a	-0.202562
235	0xbd49ebe1	-0.049297217
236	0xbdbe1386	-0.092810676
237	0xbe5aa60d	-0.21352406
238	0xbd6386a7	-0.055548336
239	0xbe0741b0	-0.13208652
240	0xbe449fa6	-0.19201526
241	0xbe8d4b13	-0.2759634
242	0x3dfc8391	0.12329782
243	0xbe9e90ee	-0.30969948
244	0xbd3dc1a3	-0.046327244
245	0xbe7c6e32	-0.24651411
246	0xbdeea4df	-0.116525404
247	0xbe320143	-0.17383294
248	0xbe3dbe43	-0.1852961
249	0xbe92e86d	-0.28692952
250	0x3da74504	0.081674606
251	0xbe5fe1e7	-0.21863519
252	0x3d2a2fe8	0.041549593
253	0x3c94c841	0.018161895
254	0x3d5682e5	0.052370925
255	0xbe1a0525	-0.15041025
