Models/LSTM_Start-ups_32_8.pth (torch, 491528 bytes, 7 tensors)

embeddings.0.weight f4 [1172, 8]
0	0x40100fd7	2.2509668
1	0x3f9bf5ff	1.2184447
2	0x3f2fef25	0.6872428
3	0xbfede26c	-1.8584723
4	0x3f64cd57	0.89375824
5	0xbfa03530	-1.2516232
6	0x3ee4023b	0.44532952
7	0xbfa2b9ba	-1.2712929
8	0xbf9c8275	-1.2227312
9	0x40166ff4	2.350583
10	0xbf08388b	-0.5321128
11	0xc007dcea	-2.1228585
12	0xbf6c432b	-0.9228999
13	0xbf5556ee	-0.8333577
14	0xbfb0be7a	-1.3808129
15	0x3f9f7e50	1.2460423
16	0x40086e59	2.131735
17	0xbe509510	-0.20369363
18	0xbe1cb78e	-0.15304396
19	0x3f753015	0.9577649
20	0xbf5b9d43	-0.8578684
21	0x3f5da7a6	0.86583936
22	0x3edca4c6	0.43094462
23	0x3fecdd56	1.8505046
24	0x3fdfe213	1.7490867
25	0x3fe040e8	1.7519808
26	0x3f6c3d97	0.9228148
27	0x40090f1c	2.1415472
28	0xbdd7afcd	-0.10531578
29	0xbe75933a	-0.23981944
30	0xbf27c525	-0.65535194
31	0x3f8fd73c	1.1237559
32	0xbff7b16c	-1.935102
33	0xbf8d01fa	-1.1016228
34	0xbea64f40	-0.32482338
35	0x4020ec50	2.5144234
36	0x3f3d0855	0.7384084
37	0xbf330825	-0.699343
38	0x3f3bc824	0.73352265
39	0xbf69b109	-0.9128576
40	0xbfaa56ea	-1.3307774
41	0x3f0d16be	0.55112827
42	0xbf797d6c	-0.97457004
43	0xbe6797fa	-0.22616568
44	0xbfbf33e8	-1.4937716
45	0x3fe36d5d	1.776775
46	0xbfbeff99	-1.4921752
47	0xbf24a5d7	-0.6431555
48	0xbf63ed6e	-0.89034164
49	0xbf24c6bb	-0.6436574
50	0xbe98812c	-0.2978605
51	0x3f48197e	0.781639
52	0xbed58062	-0.4169951
53	0x3f56f5bc	0.8396871
54	0xbfa09673	-1.2545913
55	0xbf3c61f7	-0.7358698
56	0xbfef2bd0	-1.8685246
57	0xbddfa74b	-0.109205805
58	0xbf051bca	-0.5199553
59	0x3fa3da30	1.280096
60	0xbe4ed36b	-0.20197837
61	0x3fe19011	1.762209
62	0xbf717a41	-0.9432717
63	0x3fccfe23	1.6015056
64	0x3fb71ee4	1.4306302
65	0x3f18718a	0.59548247
66	0x400e43ef	2.2228963
67	0x3f86df8d	1.0536972
68	0x3f35f4ee	0.7107686
69	0xbe0feee5	-0.14055975
70	0xbf9c0b5b	-1.2190965
71	0x3f4d3a86	0.80167425
72	0xbe294db2	-0.16533545
73	0x3f6c32d6	0.9226507
74	0x3f3b8732	0.73253167
75	0xbd81066f	-0.06300055
76	0x3f9d0e27	1.2269944
77	0xbef61602	-0.48063666
78	0xc037a9c7	-2.8697374
79	0xbf135f27	-0.57567066
80	0xbf54d73e	-0.83140934
81	0x3e8800f4	0.26563227
82	0xbf9f8c11	-1.246462
83	0xbf9d50b9	-1.229026
84	0x3eab9e7d	0.33519354
85	0x3ec3e215	0.38258424
86	0x3f5c5bd8	0.8607764
87	0x3ef51f64	0.47875512
88	0x3fb0c92e	1.3811395
89	0xbe991953	-0.29902133
90	0xbfd3e6e5	-1.6554838
91	0x3ea4da6c	0.32197893
92	0xbff27925	-1.894322
93	0xbec0173f	-0.37517735
94	0x3fee97e8	1.8640108
95	0x3ec14c5c	0.3775357
96	0xc026b74e	-2.604938
97	0x3f9852d8	1.1900282
98	0x3f9a0eed	1.2035805
99	0x3e9da208	0.30787683
100	0x3dae64e4	0.08515337
101	0x3f24dce1	0.64399534
102	0x3f158206	0.58401525
103	0xbf5b1223	-0.8557455
104	0xbe92449a	-0.28567964
105	0x3f506b55	0.81413776
106	0x3f749bb5	0.9555009
107	0x3ead1600	0.33805847
108	0x3b8b9601	0.004259825
109	0x3f8cab8e	1.0989854
110	0x3d4ee98f	0.050515708
111	0xbea9eb94	-0.33187544
112	0xbff42518	-1.907382
113	0xbeef11d3	-0.46693286
114	0xbf91c935	-1.1389529
115	0x3efaae88	0.48961282
116	0x3e724a0b	0.23661058
117	0xbc19b31c	-0.009381082
118	0xbece2743	-0.4026433
119	0x3eff7257	0.49891922
120	0xbeb93993	-0.36176738
121	0x3da21533	0.079142
122	0xbcc0782e	-0.023494806
123	0x3f84be63	1.0370601
124	0x3f48dff2	0.78466713
125	0x3eef1fe5	0.4670402
126	0x3f70590c	0.93885875
127	0x3e8596d5	0.26091638
128	0x401e2d30	2.471508
129	0x3f725c3a	0.94671977
130	0xbfab4f79	-1.3383628
131	0xbf9e1aba	-1.2351906
132	0x3e839cc8	0.25705552
133	0x3fdf2c7c	1.743545
134	0x3f20d9e9	0.62832505
135	0xbe267a5c	-0.16257614
136	0x3f92749e	1.1441839
137	0x3e3ba13d	0.18323226
138	0xc0062a98	-2.0963497
139	0x3fcf28e8	1.6184359
140	0x3e5ec285	0.21753891
141	0x3f7ee494	0.9956753
142	0xbf823407	-1.0172127
143	0x3f8a35b5	1.079764
144	0xbfb975fd	-1.4489132
145	0x3f6fab09	0.93620354
146	0x3fed29b2	1.8528349
147	0x3fd68a8c	1.6761031
148	0x3f203e5a	0.6259514
149	0xbebe162d	-0.37126294
150	0xbfcad4af	-1.5846156
151	0x3ea911d4	0.33021414
152	0x3f7361b8	0.9507098
153	0x3f2c8c55	0.6740163
154	0xbe405ea4	-0.18786103
155	0x3fc630e0	1.5483665
156	0xc02f7ec1	-2.7421114
157	0xbf41e8b6	-0.75745714
158	0xbfc73bc8	-1.5565119
159	0x3f86d26a	1.0532963
160	0xc0086909	-2.1314108
161	0x3f1b02ba	0.60551035
162	0xbeef41d3	-0.46729907
163	0xbf68ac93	-0.9088833
164	0x3e3a0a22	0.18167928
165	0xbf21112b	-0.6291682
166	0x3d42445c	0.047428474
167	0xbfc8fd59	-1.5702316
168	0xc0186461	-2.3811266
169	0x3fa975a5	1.3239027
170	0x3fc39f62	1.5283015
171	0x3e31319a	0.17304078
172	0xbf91c093	-1.1386894
173	0x3f874fa8	1.0571184
174	0x3f80345e	1.0015981
175	0x4004a98a	2.0728478
176	0x3e360a04	0.17777258
177	0x3dd6b8e2	0.10484482
178	0xbf9cc9b3	-1.2249054
179	0xbf012fb5	-0.5046342
180	0xbf9dd993	-1.2332023
181	0xc015f9b5	-2.343366
182	0xbff8e01c	-1.9443393
183	0xbf5e8518	-0.86921835
184	0xbf170bbf	-0.590023
185	0xbfb8fc4b	-1.4451994
186	0xbfe34f89	-1.7758647
187	0x3f1869c5	0.5953639
188	0x3f546570	0.8296728
189	0xbf2ae276	-0.667518
190	0x3edb3ed0	0.4282136
191	0x3f8d27ec	1.1027808
192	0x4021e6b8	2.529707
193	0xbfa92380	-1.3213959
194	0x3fc1fcf0	1.5155315
195	0xbf756d0b	-0.9586951
196	0xbfb68263	-1.4258541
197	0x3ef03054	0.4691187
198	0x3ea59f7e	0.32348245
199	0x3fabd8cd	1.3425537
200	0x3f4c5a71	0.798255
201	0x4028d08d	2.637729
202	0xbea95162	-0.33069903
203	0xbfcf7be8	-1.6209688
204	0x3e869b3f	0.26290318
205	0x3f86d5c0	1.0533981
206	0x3fc1be9e	1.5136297
207	0x3d8bffa0	0.06835866
208	0xbf7c7687	-0.9861836
209	0xbf920eb7	-1.1410741
210	0xbf0bc5dd	-0.5459879
211	0xbf989d92	-1.1923087
212	0x3eb100e7	0.34571
213	0x3ed91247	0.42396757
214	0xbe92e725	-0.28691974
215	0xc00f190d	-2.235904
216	0x3d790b95	0.06080206
217	0x3f85f807	1.0466317
218	0xc003e2bf	-2.0607145
219	0x3fa25805	1.2683111
220	0x3f31611e	0.69288814
221	0xbf9a9082	-1.207535
222	0x3f4a06ca	0.7891661
223	0x40108d43	2.258622
224	0x3d34fafb	0.044184666
225	0x3fd56ee3	1.6674465
226	0x3e0ba5cb	0.13637464
227	0xbfbf61a5	-1.4951674
228	0xbf18e412	-0.5972301
229	0x3e66c3a9	0.22535576
230	0x3e3f2748	0.18667328
231	0x400cb4ad	2.1985276
232	0xbd62d67e	-0.055380337
233	0xbf97bf52	-1.1855261
234	0xc024fc49	-2.5778983
235	0xbfa29df4	-1.2704453
236	0xbd94d937	-0.07267993
237	0x3e795f55	0.24352773
238	0x3f60e0b0	0.87842846
239	0x3eed65c4	0.46366704
240	0xbf8d6a29	-1.1048023
241	0xbe82dd27	-0.2555935
242	0xbf239f6d	-0.6391514
243	0x3e4b7a6c	0.19870919
244	0xbf20f188	-0.6286855
245	0x3a9199e9	0.0011108491
246	0xbe976044	-0.29565632
247	0x3fc29d4c	1.5204253
248	0x3f8495b0	1.0358181
249	0xbf453ff1	-0.7705069
250	0x3f89aa0f	1.0755023
251	0x3f90fe58	1.132762
252	0x3d518c97	0.051159468
253	0x3eef583c	0.46747005
254	0x3e44814e	0.19189951
255	0x3eac697b	0.33674225

layers.0.weight f4 [256, 256]
0	0x3d8fa53e	0.07013939
1	0x3e7c7234	0.2465294
2	0xbcd3c9a2	-0.025852982
3	0xbcb4467d	-0.022006268
4	0xbe5cb2cf	-0.21552585
5	0x3ba3a7a0	0.0049943477
6	0x3e246684	0.16054732
7	0xbedc257d	-0.4299735
8	0xbe720125	-0.23633249
9	0x3b1685d8	0.002296796
10	0x3cff9f7d	0.03120398
11	0x3dd3dee8	0.1034525
12	0x3e0e2b02	0.13883594
13	0xbd9ba86d	-0.07600484
14	0xbe0a7c89	-0.13524069
15	0x3df530fc	0.11972234
16	0xbd943a00	-0.07237625
17	0xbd86b159	-0.06576795
18	0x3e9e9e38	0.30980086
19	0xbdc3f3dd	-0.095679976
20	0xbe95a9cf	-0.29231116
21	0xbc16390b	-0.009168874
22	0xbe16501b	-0.14678995
23	0x3dd9d452	0.106362
24	0x3f09ea05	0.5387271
25	0x3e820445	0.25393882
26	0x3e038868	0.12845004
27	0x3e1e3f7a	0.15453902
28	0x3cb71ae1	0.022351684
29	0x3d968ec6	0.073514506
30	0xbe931e2e	-0.28733963
31	0xbd5a5398	-0.053302377
32	0xbd04bfaf	-0.032409366
33	0xbe01f014	-0.12689239
34	0xbe58e608	-0.211815
35	0xbe9a5d3d	-0.3014926
36	0x3e438dbf	0.1909704
37	0xbc81b813	-0.015834844
38	0xbe503f55	-0.20336659
39	0xbe1e7873	-0.15475635
40	0xbe23d21c	-0.15998119
41	0x3dbae56a	0.091257885
42	0xbed5fabc	-0.41792858
43	0xbc0d6f76	-0.008632531
44	0xbd835a78	-0.0641374
45	0xbcfce8ef	-0.03087279
46	0xbe35adc9	-0.17742075
47	0x3b12cdcb	0.0022400494
48	0x3d8d20a8	0.06890994
49	0xbd1faa0c	-0.03898053
50	0xbe03ba0a	-0.12863937
51	0xbe6fbf5a	-0.23412839
52	0xbdc582ad	-0.09644065
53	0x3da07a17	0.07835787
54	0xbe17f188	-0.1483823
55	0xbd2499ad	-0.04018562
56	0x3e0d6e4a	0.13811603
57	0xbda58049	-0.08081109
58	0xbd742516	-0.05960568
59	0xbe2d69b9	-0.16934861
60	0x3e5d6da5	0.21623857
61	0x3e6b5a1a	0.2298359
62	0x3daab53b	0.08335348
63	0x3e3b8a84	0.18314558
64	0x3dbb3d85	0.09142593
65	0xbf00fc9a	-0.5038544
66	0xbcf64a3f	-0.0300647
67	0xbe3b8ef4	-0.18316251
68	0xbdb42f71	-0.08798111
69	0xbd0731c2	-0.033006437
70	0x3cb0060e	0.021487262
71	0x3e9e6f73	0.30944404
72	0xbe7eca93	-0.24881963
73	0x3e2de7b1	0.16982915
74	0xbd5fe744	-0.05466391
75	0xbe00a904	-0.12564474
76	0xbe4ec996	-0.20194086
77	0x3d5c3c38	0.053768367
78	0xbe061cd3	-0.13096933
79	0xbea7d5dd	-0.32780352
80	0xbe51e7b6	-0.20498547
81	0x3babee5f	0.005246922
82	0xbd0fa89b	-0.035072904
83	0x3d97d661	0.074139364
84	0x3e8d73d4	0.27627432
85	0x3e15d12d	0.14630575
86	0xbc7ff365	-0.015621995
87	0xbe95fe68	-0.2929566
88	0xbe9254bc	-0.28580272
89	0x3e114f9c	0.14190525
90	0x3dce74da	0.100808814
91	0xbd2eec65	-0.042705912
92	0xbe2b9580	-0.16756248
93	0xba84cf5e	-0.0010132601
94	0xbe8af6ab	-0.27141318
95	0xbdde5054	-0.10855165
96	0x3e65108d	0.22369595
97	0x3e44d524	0.19221932
98	0xbeea6f05	-0.45787826
99	0x3b0e4b70	0.0021712445
100	0x3efc60f1	0.4929271
101	0x3cb17672	0.021662924
102	0xbe87426f	-0.26417872
103	0xbe218cf3	-0.15776424
104	0x3dd288b1	0.10279978
105	0x3d8c008f	0.06836044
106	0x3e02f0b6	0.12787136
107	0x3d995e40	0.0748868
108	0x3c307d3e	0.010772048
109	0x3ee29416	0.44253606
110	0x3e23e388	0.16004765
111	0x3e7d6970	0.24747252
112	0xbb4c9c68	-0.0031221155
113	0xbec485d3	-0.3838335
114	0xbc9a5e5f	-0.018843828
115	0x3e121ae5	0.14268072
116	0xbe26fc06	-0.16307077
117	0xbbd5301b	-0.0065059788
118	0xbd9083a4	-0.070563585
119	0xbdb916ab	-0.09037527
120	0x3b4539fb	0.0030094374
121	0xbd9a1ca5	-0.07524995
122	0x3db21c3f	0.08696794
123	0x3ea8c89f	0.32965562
124	0x3e8934f7	0.2679822
125	0x3e6892a8	0.22712195
126	0x3e6e7f87	0.23290835
127	0xbe1ab359	-0.15107478
128	0x3da3d93b	0.08000418
129	0x3deb8060	0.11499095
130	0xbd366e04	-0.044538513
131	0xbe832977	-0.25617573
132	0x3de7d1be	0.11319302
133	0x3e846e11	0.25865224
134	0xbe29e472	-0.16591051
135	0x3e87801b	0.26464924
136	0xbd112580	-0.035436153
137	0x3de39c17	0.11113756
138	0xbe633b74	-0.22190648
139	0x3e436005	0.19079597
140	0x3e8d4a76	0.27595872
141	0xbdf9600b	-0.12176522
142	0x3df47a67	0.11937409
143	0x3eb05511	0.344399
144	0xbe09b8ee	-0.13449451
145	0xbe773671	-0.24141861
146	0xbc252a04	-0.010080818
147	0xbe49e22e	-0.19715187
148	0xbd8c9f53	-0.06866326
149	0xbe468379	-0.1938609
150	0x3ccaf3f3	0.024774527
151	0x3dc07663	0.093975805
152	0x3e31acc7	0.17351066
153	0xbd9cb6cf	-0.076520555
154	0xbcf5eb70	-0.030019492
155	0xbe60d41b	-0.21955912
156	0x3eaea767	0.34112093
157	0x3ed19063	0.4093047
158	0x3e1f5bb0	0.1556232
159	0x3e4f64af	0.20253251
160	0xbddd0ead	-0.10793815
161	0x3eb71336	0.35756844
162	0xbe4ddc4d	-0.2010357
163	0x3dde1570	0.10843933
164	0x3da992e9	0.08279974
165	0xbe0f5412	-0.13996914
166	0xbed058af	-0.4069266
167	0xbd94e176	-0.07269566
168	0xbe33877e	-0.17532155
169	0xbde02ac0	-0.10945654
170	0x3d0f2ece	0.034956746
171	0x3de0094d	0.10939274
172	0x3d5e766c	0.054312155
173	0xbe1a2a46	-0.15055189
174	0xbe9982fa	-0.2998274
175	0x3d05da17	0.03267869
176	0xbe071777	-0.13192545
177	0xbce17123	-0.027519768
178	0xbe99746c	-0.29971635
179	0xbf047f6b	-0.51756924
180	0x3d0e221d	0.0347005
181	0xbe5c1a96	-0.21494517
182	0x3eb1de71	0.34740022
183	0x3e7eb354	0.24873096
184	0x3eba7248	0.36415315
185	0xbec6ddf3	-0.3884121
186	0x3d267a1a	0.04064379
187	0xbc95b2bc	-0.018273704
188	0xbe16ab8f	-0.14713882
189	0xbde25bee	-0.110526904
190	0x3eabe4ce	0.33573002
191	0xbe381290	-0.17975831
192	0xbe694413	-0.22779875
193	0x3e93992d	0.288278
194	0xbcafb00b	-0.021446249
195	0x3e24f8d6	0.16110548
196	0xbe4c1239	-0.19928826
197	0x3e43dd69	0.1912743
198	0x3dc36b0d	0.09541903
199	0x3c04b936	0.008100798
200	0xbeb3474f	-0.35015342
201	0x3defee95	0.11715428
202	0x3cbeda54	0.023297466
203	0xbe319318	-0.17341268
204	0xbddb0c14	-0.10695663
205	0xbe4e79d8	-0.20163667
206	0xbde180f0	-0.11010921
207	0xbdd2e416	-0.1029741
208	0xbe26ecd9	-0.16301288
209	0x3dc58d33	0.09646072
210	0xbdd2b38b	-0.10288151
211	0xbe497aaf	-0.19675706
212	0xbb4602d3	-0.0030214086
213	0xbe7aba8a	-0.24485222
214	0xbe4e3c72	-0.20140246
215	0xbdd84896	-0.1056072
216	0xbec74540	-0.3892002
217	0xbe7731b1	-0.2414005
218	0xbd638e77	-0.055555787
219	0x3e767006	0.24066171
220	0xbe0fa348	-0.1402713
221	0x3ae4b69d	0.0017449443
222	0xbeaca91f	-0.3372278
223	0xbc671c3e	-0.014105855
224	0xbe14c79d	-0.14529271
225	0xbec3aa87	-0.3821604
226	0xbe81e68f	-0.25371215
227	0x3e9658ea	0.2936471
228	0x3e0c3ea7	0.13695775
229	0xbe7717cb	-0.2413017
230	0xbd99cc68	-0.075096905
231	0x3d8b803c	0.06811568
232	0xbec9eaa7	-0.39436838
233	0x3d14188e	0.03615623
234	0x3d373d1e	0.04473602
235	0x3d284be5	0.041088004
236	0x3dd102f1	0.10205639
237	0xbeb7490f	-0.35797927
238	0x3e07e751	0.13271834
239	0x3dd223b3	0.10260715
240	0x3e2f7f40	0.17138386
241	0x3e388574	0.18019658
242	0xbe8505e5	-0.2598106
243	0xbd7899cc	-0.060693547
244	0x3e359794	0.17733604
245	0xbdf84483	-0.121224426
246	0xbe00d9d6	-0.12583098
247	0xbd8b7ed5	-0.06811301
248	0xbc88336a	-0.016626079
249	0xbdb57336	-0.08859865
250	0xbe650239	-0.22364129
251	0x3dd88c61	0.1057365
252	0x3e55a755	0.20864613
253	0x3cdb5ded	0.026778186
254	0xbd552fa2	-0.05204738
255	0xbd09982d	-0.03359239

layers.0.bias f4 [256]
0	0xbd5091df	-0.050920364
1	0x3d01f918	0.031731695
2	0x3dbb1bb7	0.091361456
3	0x3d2529d0	0.04032308
4	0x3d84a949	0.06477601
5	0x3b875f95	0.0041312673
6	0xbc1957a0	-0.00935927
7	0xbc2a01d8	-0.010376416
8	0x3d027529	0.031850014
9	0x3d534166	0.05157604
10	0x3ddb7916	0.10716455
11	0x3c91464a	0.017733712
12	0x3d662668	0.05618897
13	0x3da77593	0.081767224
14	0x3b9e73f1	0.0048355986
15	0x3c39eb77	0.011347643
16	0x3cbffa72	0.023434851
17	0xbd4b0c69	-0.049572382
18	0x3d37a0bb	0.04483102
19	0x3c5b1d11	0.013373629
20	0x3dc69fa8	0.09698421
21	0x3d5e91e4	0.05433835
22	0xbdb362cf	-0.087590806
23	0xbc0b10cf	-0.008487894
24	0xbc42290a	-0.011850605
25	0x3d829979	0.06376929
26	0x3d22c1d4	0.03973563
27	0xbd3839ed	-0.044977117
28	0xbd3acfd6	-0.045608364
29	0xbd92eaa8	-0.071736634
30	0x3d1951f5	0.037431676
31	0x3d88c3e1	0.06677986
32	0x3b2215d1	0.0024732242
33	0x3d2143f2	0.03937144
34	0x3d21ab39	0.03946993
35	0xbcb504df	-0.02209705
36	0x3d8f928e	0.07010375
37	0xbc028943	-0.007967296
38	0x3d966b55	0.07344691
39	0x3d009949	0.031396184
40	0xbcb7f544	-0.022455819
41	0x3d87747d	0.06614015
42	0x3aa40928	0.0012514936
43	0xbd4bea86	-0.049784206
44	0x3a86bf35	0.0010280373
45	0xbd2e0f81	-0.042495254
46	0x3ca18485	0.01971651
47	0x3d9c7b4b	0.07640704
48	0xbe5c9dae	-0.21544525
49	0x3db51eed	0.08843789
50	0xbc785441	-0.015156806
51	0xbdd5bbb8	-0.10436195
52	0xbdd53bfc	-0.10411832
53	0x3ab87eb8	0.0014075851
54	0xbd9294a0	-0.07157254
55	0x3d2855b5	0.04109736
56	0x3cd92cfc	0.026510708
57	0xbdf274cb	-0.11838683
58	0x3dc7c986	0.097552344
59	0xbcdfa38d	-0.027299667
60	0x3c2c41a1	0.010513694
61	0x3c298f72	0.010349141
62	0xbd41bf34	-0.047301486
63	0xbc01758f	-0.007901563
64	0x3d90218e	0.0703765
65	0x3ca0870e	0.01959565
66	0xbdc018ee	-0.09379755
67	0xbcdeda2b	-0.02720364
68	0x3d06d4d9	0.03291783
69	0x3c973bbe	0.018461104
70	0x3c8553af	0.016275255
71	0xbc51390c	-0.012769949
72	0x3d0c225b	0.03421245
73	0xbd7d345d	-0.061817516
74	0x3d7f4f55	0.062331516
75	0xbe4be4da	-0.19911519
76	0x3d8a956b	0.067667805
77	0x3c0a52f7	0.008442632
78	0xbd16e196	-0.03683623
79	0x3afab5ba	0.0019127645
80	0x3dc6f2d7	0.09714287
81	0xbc04fde7	-0.008117176
82	0x3dd43d3c	0.10363242
83	0xbbf5672b	-0.007489105
84	0x3bda5fcf	0.0066642533
85	0xbd080049	-0.033203397
86	0xba981162	-0.001160186
87	0xbe177136	-0.1478928
88	0x3dad8236	0.084721014
89	0x3ce93d0b	0.02847149
90	0x3caf4caa	0.021398861
91	0xbdc951ce	-0.09830056
92	0x3d2e3f7b	0.04254101
93	0xbced172d	-0.028941715
94	0xbd945a89	-0.07243831
95	0xbc6669d3	-0.014063316
96	0xbc536e35	-0.012904693
97	0x3bd59b9f	0.0065187956
98	0x3d38c211	0.04510695
99	0xbca82150	-0.020523697
100	0x3dcf22f6	0.1011409
101	0x3df5c87d	0.12001131
102	0x3ce5603f	0.027999995
103	0x3cb4fb18	0.022092387
104	0x3bc4edc0	0.0060097873
105	0xbcfa1a18	-0.03053002
106	0x3dbf018e	0.093264684
107	0x3d0e6208	0.03476146
108	0x3e26ace5	0.16276892
109	0x3d6f870a	0.058478393
110	0xbcb5228e	-0.022111204
111	0x3d0be5c0	0.034154654
112	0xbbe3ddad	-0.006953916
113	0x3c34d2ab	0.011036555
114	0xbdbc4aa6	-0.091939256
115	0x3d83edb0	0.0644182
116	0x3d82b75c	0.06382629
117	0xbd291774	-0.041282132
118	0xbcddf497	-0.027094169
119	0x3d84658b	0.0646468
120	0x3d144179	0.036195252
121	0x3e0480a0	0.12939692
122	0x3d5fbcc4	0.05462338
123	0xbc920db3	-0.017828798
124	0x3d9ef097	0.077607326
125	0x3cd9881d	0.026554162
126	0x3db594b0	0.088662505
127	0xbd266c57	-0.040630665
128	0x3d2fa1be	0.04287886
129	0x3c54b7a5	0.012983237
130	0xbd4a4738	-0.049384326
131	0x3cb924c4	0.022600539
132	0x3c88899e	0.016667183
133	0xbd789568	-0.06068936
134	0xbcfd0578	-0.030886397
135	0x3d0a16d3	0.033713173
136	0x3da93a3b	0.0826306
137	0xbc75cd35	-0.015002538
138	0x3c9a0aeb	0.018804034
139	0x3bb88aa1	0.00563176
140	0x3ad65afa	0.0016354017
141	0xbb23683c	-0.0024933955
142	0x3d0ab56a	0.033864416
143	0x3dc9cd14	0.09853569
144	0xbc51e468	-0.012810804
145	0x3cb78c59	0.02240579
146	0xbd431504	-0.047627464
147	0x3d459afb	0.048243504
148	0x3dfae8e5	0.12251452
149	0x3cf4bcf0	0.029875249
150	0x3d82121f	0.063511126
151	0x3dcb26ee	0.099195346
152	0x3e078f3b	0.13238232
153	0xbcdafcff	-0.026731966
154	0x3d7f9c51	0.062404934
155	0xbdbdcaa5	-0.09267167
156	0x3cd05d80	0.02543521
157	0xbc936405	-0.017992029
158	0x3d10e974	0.03537889
159	0x3d975e6c	0.073910564
160	0xbcdc880d	-0.026920343
161	0x38e00453	0.00010681958
162	0x3e0482a1	0.12940456
163	0xbda6f129	-0.081514664
164	0xbd3625fc	-0.04446982
165	0xbde17038	-0.11007732
166	0xbd2545dc	-0.040349826
167	0x3c56b940	0.0131056905
168	0x3d95d418	0.07315844
169	0x3d46d101	0.048539165
170	0x3d4be6c7	0.049780633
171	0xbbac9e4e	-0.005267895
172	0x3db76075	0.089539446
173	0x3ce2e637	0.027697666
174	0xbc44685e	-0.011987774
175	0x3ce5be0d	0.028044725
176	0xbb4dbde6	-0.0031393706
177	0xbd350519	-0.044194315
178	0xbd021712	-0.031760283
179	0x3cafbe04	0.021452911
180	0x3d3bc808	0.04584506
181	0xbdc2268a	-0.09480007
182	0xbd9051d9	-0.07046861
183	0xbd4ca863	-0.049965274
184	0xbe1da57b	-0.15395157
185	0xbe1b90c3	-0.15191941
186	0xbbd6b891	-0.0065527637
187	0xbc5932c6	-0.013256734
188	0x3d86bff8	0.06579584
189	0x3cbe6da1	0.023245635
190	0x3b9056a8	0.0044048615
191	0xbcfa6146	-0.030563962
192	0x3d660af1	0.05616278
193	0xbd090df3	-0.03346057
194	0xbd305b29	-0.043055687
195	0x3de0a93c	0.10969779
196	0xbdf02130	-0.1172508
197	0x3de8966c	0.11356816
198	0x3d29714e	0.04136782
199	0x3e1dfb62	0.15427926
200	0xbd8d90d2	-0.06912388
201	0xbd883a4d	-0.06651745
202	0xbdc1a896	-0.09455983
203	0xbcad0b74	-0.021123625
204	0xbd8f924b	-0.07010325
205	0x3e17527f	0.14777564
206	0x3dd8c259	0.10583944
207	0x3abb1ff5	0.0014276492
208	0xbcb5dd42	-0.02220023
209	0x3d134f56	0.035964333
210	0xbe31e2a3	-0.17371611
211	0xbce9b7e0	-0.028530061
212	0x3d680a4f	0.056650456
213	0x3e0878a5	0.13327272
214	0x3c7d342f	0.015454336
215	0x3daeb23e	0.08530091
216	0x3d433a94	0.047663286
217	0x3d878c22	0.06618525
218	0xbcce5bb9	-0.025190221
219	0x3dc2bbcf	0.09508478
220	0xbdbbaeac	-0.091641754
221	0x3d8c06d7	0.06837242
222	0x3dae80a7	0.08520632
223	0x3ca38ce0	0.019964635
224	0x3dc6d2da	0.097081855
225	0x3d20d526	0.039265774
226	0xbd354ef3	-0.044264745
227	0xb9f6c8cd	-0.00047070385
228	0x3d7cfe69	0.061766062
229	0xbd5ecfec	-0.05439751
230	0x3dff391f	0.12462067
231	0x3da70c3b	0.0815663
232	0x3cc32e43	0.02382577
233	0xbd7b1575	-0.06129976
234	0x3caeb056	0.021324318
235	0x3e00cd12	0.12578228
236	0x3c2e27e0	0.010629624
237	0x3da4bb9f	0.080435984
238	0x3c901409	0.017587679
239	0x3cc657a4	0.024211712
240	0x3ca9d8e6	0.020733308
241	0xbd64c4ff	-0.055851933
242	0xbc97573d	-0.018474216
243	0x3c7112be	0.014713941
244	0x3c239e27	0.009986437
245	0xbd0a0282	-0.033693798
246	0x3d774379	0.06036708
247	0x3e04b622	0.12960103
248	0x3bbdfcdd	0.005797966
249	0xbdba3cbd	-0.09093616
250	0xbd920ad6	-0.07130973
251	0x37f3db10	2.9069866e-05
252	0x3dade5d0	0.08491099
253	0x3d534288	0.05157712
254	0xbd991e00	-0.07476425
255	0x3cd5825f	0.026063142

layers.2.weight f4 [32, 256]
0	0x3f37fdc5	0.71871597
1	0x3d6e3f3c	0.058165774
2	0x3e612d24	0.21989876
3	0xbe984ece	-0.29747623
4	0xbb93cbfe	-0.0045104017
5	0xbe062d04	-0.1310311
6	0xbebf46fb	-0.3735884
7	0x3e78635b	0.24256651
8	0xbe819947	-0.25312254
9	0xbe1e2b88	-0.15446293
10	0xbe7dd440	-0.24787998
11	0x3e9eafb5	0.3099343
12	0xbe4631e9	-0.19354977
13	0xbeff1b17	-0.49825355
14	0x3ebe73f6	0.37197846
15	0xbe1ae705	-0.1512719
16	0x3db09d27	0.086237244
17	0xbe98dcf9	-0.2985609
18	0xbf021c3d	-0.5082434
19	0xbd7209d3	-0.0590914
20	0xbe72bbea	-0.23704496
21	0xbd186fc3	-0.03721596
22	0x3f0d86b8	0.5528369
23	0x3e87c858	0.26520038
24	0x3d8635bd	0.065532185
25	0xbe6d42e7	-0.23170052
26	0xbe4c3f8b	-0.19946115
27	0x3e262d85	0.16228302
28	0x3f343000	0.7038574
29	0x3dff7845	0.124741115
30	0xbd8e5899	-0.069504924
31	0x3e03a82d	0.12857123
32	0x3eb7fda0	0.35935688
33	0x3e55a8ec	0.2086522
34	0x3c713aed	0.014723522
35	0x3e3eff2b	0.18652026
36	0x3eef1403	0.46694955
37	0x3e5df494	0.2167533
38	0xbe119588	-0.14217198
39	0x3d8c203c	0.06842086
40	0xbeaaa1ab	-0.33326468
41	0xbeac7614	-0.33683836
42	0x3e0e61a5	0.13904436
43	0x3da4ef2a	0.080534294
44	0xbe23283d	-0.15933318
45	0xbd8294ef	-0.06376063
46	0x3cc5465c	0.024081402
47	0x3d91bac7	0.07115703
48	0x3eb828b1	0.35968545
49	0x3d05ed8a	0.032697238
50	0x3e48d224	0.19611412
51	0x3e8f122b	0.2794355
52	0x3e94da80	0.29072952
53	0xbda9caff	-0.082906716
54	0x3f06959b	0.5257203
55	0xbe30189f	-0.17196892
56	0xbe0338a2	-0.12814572
57	0x3ec8cda9	0.39219406
58	0x3dff432b	0.12463983
59	0xbd9a4ae0	-0.075338125
60	0xbedf6612	-0.4363256
61	0x3eaf9d14	0.3429953
62	0xbe0b2a49	-0.1359035
63	0x3e974f66	0.29552764
64	0x3e93687f	0.28790662
65	0x3e84b197	0.2591674
66	0x3e3d01a8	0.18457663
67	0xbe7fc75e	-0.24978396
68	0xbec854b0	-0.3912711
69	0xbe52e751	-0.20596053
70	0x3920432a	0.0001528381
71	0xbe705bce	-0.2347252
72	0x3e274104	0.16333395
73	0x3e279411	0.16365077
74	0xbdde43a7	-0.108527474
75	0x3eb8458d	0.35990563
76	0x3d48c812	0.049018927
77	0xbf17a5f2	-0.5923759
78	0x3e043298	0.12909925
79	0x3e5dcd9c	0.21660465
80	0xbe83dd77	-0.25754902
81	0x3eeb6603	0.45976266
82	0x3e82b79f	0.25530717
83	0xbe5424fc	-0.20717233
84	0x3e78fb5d	0.24314637
85	0x3ede3ef8	0.43407416
86	0x3c5cda5b	0.013479794
87	0xbd17858f	-0.036992606
88	0xbda6351b	-0.08115598
89	0x3dc0b0f9	0.09408755
90	0xbe9a529b	-0.30141148
91	0xbd864275	-0.065556444
92	0xbe9a5c32	-0.30148464
93	0xbc9cec82	-0.019155744
94	0x3efca85d	0.493472
95	0xbe8b7feb	-0.2724603
96	0x3ec5e728	0.3865292
97	0x3d747151	0.05967838
98	0x3eaa1eb1	0.3322654
99	0x3ebe5c5b	0.37179837
100	0xbe7b853a	-0.2456254
101	0xbe9e96e2	-0.3097449
102	0xbebeb70f	-0.37249038
103	0xbeb721c7	-0.35767958
104	0xba0099da	-0.0004905738
105	0x3e49c52a	0.19704118
106	0x3dec721d	0.11545203
107	0xbe2a6c26	-0.16642818
108	0x3d04a93f	0.03238797
109	0x3e07a8a0	0.13247919
110	0x3eb27ca6	0.34860724
111	0xbea6792e	-0.32514328
112	0xbe7779ad	-0.2416751
113	0xbecf7a2a	-0.4052289
114	0x3f021305	0.5081027
115	0xbd07889a	-0.033089258
116	0x3dcdcc5b	0.10048743
117	0x3ee58784	0.44829953
118	0x3d3a6c5a	0.04551349
119	0x3cc42dd9	0.023947643
120	0xbe9d8ca5	-0.30771366
121	0x3e56053b	0.20900433
122	0xbe10a3f7	-0.14125048
123	0x3c97733b	0.018487563
124	0xbe37668e	-0.17910215
125	0x3e730c98	0.23735273
126	0x3e0ba8b1	0.1363857
127	0x3ec5ce6e	0.38634056
128	0x3ceb3a2d	0.028714264
129	0xbd4b70ea	-0.04966823
130	0x3ee34d91	0.44395116
131	0xbde795f6	-0.113079
132	0x3ec60e29	0.38682678
133	0xbd3b8bf5	-0.04578777
134	0x3cd4f929	0.025997715
135	0xbca12587	-0.019671215
136	0xbe7bbc10	-0.24583459
137	0x3dbe630b	0.09296235
138	0x3e69e449	0.2284099
139	0x3e9c17e1	0.30486968
140	0x3dda461e	0.10657905
141	0x3e200fc7	0.15631019
142	0x3ec8ce7d	0.39220038
143	0x3dc139c4	0.09434846
144	0x3ed3f371	0.4139667
145	0x3da6dda6	0.08147745
146	0xbea95aa9	-0.3307698
147	0xbe7acdf2	-0.24492624
148	0x3de548f7	0.111955576
149	0xbc9dad7e	-0.019247767
150	0x3d047299	0.03233585
151	0xbe372dc9	-0.1788856
152	0xbe8aeec9	-0.27135304
153	0x3ea2aa4b	0.31770548
154	0x3d5e3eb9	0.054259036
155	0xbe2038a0	-0.156466
156	0xbdd379df	-0.103259794
157	0x3e42c781	0.19021417
158	0xbe8d44dc	-0.27591598
159	0x3e914880	0.28375626
160	0x3e92fa9b	0.28706822
161	0x3da50310	0.08057225
162	0x3e6ad8e0	0.22934294
163	0xbe22644d	-0.15858574
164	0x3b296c9d	0.0025852092
165	0xbe8a0f49	-0.26964787
166	0x3ec56e9f	0.3856096
167	0x3d5a05bb	0.05322812
168	0xbe1b3a26	-0.151589
169	0x3ba0af24	0.004903691
170	0x3e20d300	0.1570549
171	0x3e9c3da9	0.30515793
172	0xbf218498	-0.63092947
173	0x3e314b09	0.1731378
174	0x3e86675b	0.2625073
175	0x3f07dd55	0.530721
176	0x3eb090a7	0.3448536
177	0x3eaba1e8	0.33521962
178	0xbe979c5d	-0.29611483
179	0x3e026ef8	0.12737644
180	0xbe3df0bb	-0.18548863
181	0x3ea0690b	0.3133014
182	0x3f288f7d	0.65843946
183	0xbe1ba373	-0.1519907
184	0x3de14560	0.1099956
185	0x3e6eaf96	0.23309168
186	0xbe0ee44a	-0.13954273
187	0xbeb30efb	-0.34972367
188	0x3e8698f5	0.26288572
189	0x3dbc4de7	0.09194546
190	0xbd17ed78	-0.037091702
191	0xbdf6a3a5	-0.120429315
192	0x3d68006d	0.05664103
193	0x3d40d2c9	0.04707602
194	0x3ddda042	0.108215824
195	0xbe23669c	-0.15957111
196	0x3e920051	0.28515866
197	0xbe40c293	-0.18824224
198	0xbdae57c1	-0.085128315
199	0xbea83f3c	-0.32860744
200	0x3ef950e6	0.48694533
201	0xbf0809b4	-0.53139806
202	0xbe410be5	-0.18852194
203	0xbf220025	-0.6328147
204	0x3eb162d2	0.34645706
205	0x3eb252b7	0.3482873
206	0xbe17b73b	-0.1481599
207	0xbf05d912	-0.5228435
208	0x3e613b3e	0.21995255
209	0xbe5133be	-0.20429894
210	0x3ea459f3	0.32099876
211	0xbe4677ce	-0.1938164
212	0xbeded097	-0.43518516
213	0x3e530123	0.20605902
214	0xbe64117d	-0.22272296
215	0x3ecbfc07	0.3984072
216	0x3da5edfa	0.08102031
217	0x3cb43a86	0.022000562
218	0x3e9e4b9d	0.30917063
219	0x3e47f939	0.19528665
220	0x3e1a6053	0.15075807
221	0x3ed328dd	0.41242114
222	0x3e002e0c	0.12517565
223	0x3e2779cc	0.16355056
224	0xbe200e06	-0.1563035
225	0x3e38c5c6	0.18044195
226	0xbec93b86	-0.39303225
227	0x3eeaf169	0.45887306
228	0xbe2e642d	-0.17030402
229	0x3d0501a2	0.03247226
230	0xbdf8517a	-0.121249154
231	0x3e37d17c	0.17951006
232	0xbe255bf1	-0.16148354
233	0xbed89e71	-0.4230838
234	0xbc811c08	-0.015760437
235	0x3e534a2b	0.20633762
236	0xbc027eb9	-0.007964783
237	0xbe6180cf	-0.22021793
238	0xbe8bb3e1	-0.27285674
239	0x3dbce967	0.092242055
240	0xbe9f2621	-0.31083778
241	0xbe79caef	-0.2439382
242	0xbd9f392b	-0.07774576
243	0x3e409576	0.18807015
244	0xbe77ce4e	-0.24199793
245	0xbbccf504	-0.006254794
246	0xbe81a95e	-0.2532453
247	0xbe9a71c4	-0.3016492
248	0x3df49524	0.11942509
249	0x3efe63ba	0.4968546
250	0x3e7fdcc4	0.24986559
251	0x3d94212e	0.07232891
252	0xbdecea46	-0.115681216
253	0x3ea139db	0.31489453
254	0xbdbb5da4	-0.0914872
255	0xbe0e944f	-0.13923763

layers.2.bias f4 [32]
0	0x3d7a33b0	0.06108445
1	0xbd16e50e	-0.036839537
2	0x3e0ebadc	0.13938469
3	0x3d4dbc6d	0.050228525
4	0x3d76191c	0.06008254
5	0x3dd1bb1f	0.10240769
6	0x3d0a9607	0.033834483
7	0x3e0622bb	0.13099186
8	0xbdc22764	-0.094801694
9	0x3e411064	0.18853909
10	0x3ddfc1bf	0.10925626
11	0x3cbcb677	0.023036225
12	0x3d9aae01	0.0755272
13	0x3e0a0163	0.13477091
14	0x3dbb0aac	0.09132895
15	0x3e02114e	0.12701914
16	0x3e04029c	0.1289162
17	0x3e440e2b	0.1914603
18	0x3e03b3e7	0.12861596
19	0x3d3afce9	0.04565135
20	0x3dd56970	0.10420501
21	0x3d481182	0.04884482
22	0x3d13828d	0.036013175
23	0x3cf19383	0.029489284
24	0x3e058c22	0.13041738
25	0x3dae91a8	0.085238755
26	0x3dc00e58	0.09377736
27	0x3df62099	0.12017936
28	0x3e0c9c88	0.13731587
29	0xbb4fc081	-0.0031700435
30	0x3e0a6e13	0.13518552
31	0x3e1cc377	0.15308939

layers.4.weight f4 [1172, 32]
0	0x3d1ed592	0.038777895
1	0xbdfbabd1	-0.12288631
2	0xbcc4c673	-0.02402041
3	0xbca412cc	-0.020028494
4	0xbea142b5	-0.31496206
5	0xbc9bebb3	-0.019033289
6	0x3c591edb	0.013251985
7	0xbf0b23f8	-0.5435176
8	0x3d849cfb	0.06475254
9	0x3eb984c4	0.36234105
10	0x3d3b889d	0.04578458
11	0x3d95da00	0.07316971
12	0xbe5059c7	-0.20346747
13	0xbeb1abc3	-0.34701356
14	0x3cdbb563	0.02681989
15	0xbb3c1f55	-0.0028705199
16	0xbed07727	-0.40715906
17	0x3ea04031	0.31298974
18	0x3e10c977	0.14139353
19	0xbed0f858	-0.4081447
20	0xbee0bcd5	-0.43894067
21	0x3c8dc963	0.017307943
22	0x3e666c61	0.22502281
23	0x3ddefe67	0.10888367
24	0xbea87f88	-0.329098
25	0xbeec3936	-0.46137398
26	0x3eb82046	0.35962123
27	0x3e8e1c21	0.27755836
28	0xbf1060b6	-0.5639757
29	0xbde2b18f	-0.11069023
30	0xbe99f5d6	-0.3007037
31	0x3d641354	0.055682495
32	0xbe95a9e3	-0.29231176
33	0xbed2014d	-0.41016617
34	0x3ea52680	0.32255936
35	0xbe4f1135	-0.20221408
36	0x3ce16d87	0.027518047
37	0x3e90269a	0.2815445
38	0x3e08ce59	0.13359965
39	0x3eb6e2b6	0.35719842
40	0xbe28ce38	-0.16484916
41	0xbe5d44e9	-0.21608318
42	0xbe96c0ea	-0.29444057
43	0x3d6413e4	0.05568303
44	0xbeba9c4c	-0.3644737
45	0x3c091049	0.008365699
46	0x3e76ad4c	0.24089545
47	0xbe24c069	-0.16089024
48	0xbcbcd2ae	-0.023049679
49	0xbed3d677	-0.4137456
50	0x3e66d33e	0.2254152
51	0x3e96626b	0.29371962
52	0x3eb784ee	0.35843605
53	0xbe853746	-0.26018733
54	0x3e59af97	0.21258388
55	0x3e955d92	0.2917295
56	0xbef79ef8	-0.4836347
57	0xbf02f52b	-0.51155347
58	0xbee9853a	-0.45609456
59	0x3e8fc1ac	0.28077447
60	0x3db37d44	0.08764127
61	0xbf1cc32e	-0.6123532
62	0xbe0b9892	-0.1363242
63	0x3ead0e51	0.33799985
64	0x3e19dbdd	0.15025277
65	0xbeed053e	-0.46293062
66	0x3dcba9c6	0.09944491
67	0x3d02688b	0.03183798
68	0xbe985f40	-0.2976017
69	0x3e23afa8	0.15984976
70	0xbecbbb23	-0.3979121
71	0xbec5be06	-0.3862154
72	0x3d997216	0.07492463
73	0x3e7b431b	0.24537317
74	0xbe7428e3	-0.23843722
75	0xbdbe02de	-0.092778906
76	0x3e71f40a	0.2362825
77	0xbe104205	-0.14087684
78	0xbcf042a0	-0.029328644
79	0xbeecabe7	-0.462249
80	0xbdbdb4d0	-0.09263003
81	0xbe2c9ae8	-0.16855967
82	0x3d8f2184	0.069888145
83	0xbd509132	-0.05091972
84	0x3d905ff6	0.07049553
85	0x3ec1373d	0.37737456
86	0x3deacbb7	0.11464637
87	0xbdfca03b	-0.12335249
88	0xbe7fb596	-0.24971613
89	0x3e961a75	0.2931706
90	0x3d9291b6	0.071566984
91	0x3e9a66ad	0.3015646
92	0x3da812f9	0.08206744
93	0xbd1a1efe	-0.037627213
94	0xbe812b92	-0.25228554
95	0xbe00dd51	-0.12584426
96	0x3e9afa2b	0.30268988
97	0xbe6951d9	-0.22785129
98	0xbd7f7589	-0.06236795
99	0x3e86f56d	0.2635912
100	0x3eb96516	0.36209935
101	0x3e58c059	0.21167125
102	0xbba90283	-0.00515777
103	0x3d8a7974	0.067614466
104	0x3c04ff10	0.008117452
105	0xbedb09b3	-0.42780837
106	0x3cca7252	0.024712715
107	0xbd8adf2b	-0.06780847
108	0x3e84be89	0.25926617
109	0x3e8e5643	0.27800187
110	0x3eadc8f6	0.33942384
111	0xbe9da5be	-0.30790514
112	0xbd1b1767	-0.037864115
113	0xbbaa822c	-0.005203506
114	0x3e9c1db2	0.30491406
115	0xbca16ce9	-0.019705253
116	0x3cf7e90f	0.030262498
117	0x3e82ab89	0.25521496
118	0x3e3d3a92	0.18479374
119	0x3ea3836d	0.31936207
120	0xbf3595b7	-0.7093157
121	0xbf11fc4b	-0.57025594
122	0xbf10f33f	-0.56621164
123	0xbf070c4f	-0.52753156
124	0x3e41903b	0.18902676
125	0xbe2518cb	-0.16122739
126	0xbe8894c5	-0.26676002
127	0xbd624f8b	-0.05525164
128	0x3e876798	0.26446223
129	0xbe064a45	-0.13114269
130	0xbe2fd606	-0.17171487
131	0x3cf1e080	0.029525995
132	0x3e920c46	0.2852499
133	0x3e80a4f0	0.25125837
134	0x3e396c99	0.18107833
135	0xbe5c816a	-0.21533743
136	0xbdff5439	-0.12467236
137	0xbeebf73b	-0.4608706
138	0x3dd320bb	0.10308977
139	0x3e6d1422	0.23152211
140	0x3e688b68	0.2270943
141	0x3e0025d8	0.12514436
142	0x3e8dbaf1	0.27681687
143	0x3ea3fa3f	0.3202686
144	0xbf0ed263	-0.55789775
145	0xbe9e0935	-0.308664
146	0x3e11e7fc	0.14248651
147	0x3e0ef279	0.13959683
148	0x3c6e5d8d	0.014548671
149	0x3d294956	0.041329704
150	0x3e3453c8	0.17610085
151	0x3e4c497a	0.19949904
152	0xbef0ed24	-0.47055924
153	0xbe226f11	-0.15862681
154	0xbf23a3e8	-0.63921976
155	0x3e842672	0.2581058
156	0x3dd4c70b	0.10389527
157	0xbe860bca	-0.2618087
158	0xbead16b9	-0.338064
159	0x3e3ace2f	0.18242715
160	0x3e3f6256	0.18689856
161	0xbeb11fd6	-0.345946
162	0xbe900dd0	-0.28135538
163	0xbd1fef88	-0.039046794
164	0x3e9cee81	0.30650714
165	0x3dda957d	0.10673044
166	0xbeb3f7a6	-0.35149878
167	0x3de931dc	0.11386463
168	0x3da7ce04	0.08193591
169	0xbe870dee	-0.26377815
170	0x3e0fcf16	0.14043841
171	0xbe17f63e	-0.14840028
172	0xbddfd71b	-0.109297
173	0xbda2ecc8	-0.07955319
174	0xbd56ec82	-0.052471645
175	0xbeb671e2	-0.3563376
176	0x3eb3ffe6	0.35156173
177	0x3e7511a3	0.23932509
178	0xbee87be8	-0.45407033
179	0xbe7a9f9e	-0.24474952
180	0x3d100db5	0.035169322
181	0xbe5207e0	-0.20510817
182	0x3e11011a	0.14160576
183	0x3e8658d3	0.26239643
184	0xbe586bd3	-0.21134882
185	0xbe872516	-0.26395482
186	0xbe9e9106	-0.3097002
187	0xbe368af4	-0.17826444
188	0x3e7cbf73	0.24682407
189	0xbe7526a5	-0.23940523
190	0x3e887fd6	0.2666003
191	0xbe0d382a	-0.13790956
192	0x3e3c7617	0.18404423
193	0xbdcc8f0f	-0.09988224
194	0xbe0ec4cf	-0.13942264
195	0xbe263c92	-0.16234043
196	0xbe52931e	-0.20563933
197	0xbe195216	-0.1497272
198	0x3e53ef5b	0.20696776
199	0xbe89e550	-0.26932764
200	0x3e20762d	0.1567008
201	0x3d3b8582	0.04578162
202	0xbebd281e	-0.3694467
203	0x3d253f35	0.040343482
204	0x3e9d2295	0.30690446
205	0xbd439830	-0.04775256
206	0x3c1b5a5e	0.009481994
207	0xbcb61f94	-0.022231854
208	0xbf1dc193	-0.61623496
209	0x3e61a4c0	0.22035503
210	0xbe82e7b3	-0.25567397
211	0x3e0cfb19	0.13767661
212	0x3d9af417	0.07566088
213	0xbea79913	-0.32733974
214	0xbeecd577	-0.4625661
215	0xbe3ec463	-0.18629603
216	0x3e110a96	0.14164194
217	0xbeec9ecd	-0.46214905
218	0x3e62a6e3	0.22133975
219	0x3db1bf14	0.086790234
220	0x3c32bbd7	0.010909042
221	0xbf03e551	-0.51521784
222	0x3e4cd1a7	0.20001851
223	0x3ea21f06	0.31664294
224	0x3e18789b	0.14889757
225	0x3e2130b6	0.15741238
226	0x398ce5e6	0.00026874169
227	0xbdd480fe	-0.10376166
228	0xbdfec744	-0.12440351
229	0xbc9fffb0	-0.019531101
230	0xbe881615	-0.26579347
231	0xbda502d4	-0.0805718
232	0x3e84237f	0.2580833
233	0x3dc156b6	0.09440367
234	0x3d3a6817	0.045509424
235	0x3d4e8d28	0.050427586
236	0xbefbd5d6	-0.4918658
237	0xbed0fa4b	-0.40815958
238	0xbdbdd8e0	-0.09269881
239	0xbed81a8d	-0.42207757
240	0xbbdf38aa	-0.006812175
241	0x3ec11609	0.37712124
242	0xbeb63e46	-0.35594386
243	0xbd97cf1e	-0.07412551
244	0xbe413c9d	-0.18870778
245	0xbe0177b4	-0.1264332
246	0xbf18d9e7	-0.5970749
247	0xbe1695d1	-0.14705588
248	0x3e883bed	0.2660822
249	0xbee4ff99	-0.44726256
250	0xbd8468f9	-0.064653344
251	0x3de4dfe4	0.11175516
252	0xbe6b201f	-0.22961472
253	0x3e315f50	0.17321515
254	0x3eb61e8a	0.35570174
255	0xbe399d6d	-0.1812646

layers.4.bias f4 [1172]
0	0xbe33f54d	-0.17574044
1	0x3dc93ce8	0.0982607
2	0x3c2cf27c	0.01055586
3	0x3d7fcbe4	0.062450305
4	0x3e02b6d2	0.12765053
5	0xbe0fe022	-0.14050344
6	0xbe034198	-0.12817991
7	0xbde79a30	-0.11308706
8	0xbea533e7	-0.3226616
9	0xbe5a423e	-0.21314332
10	0x3caf3bcf	0.021390824
11	0xbd80faa7	-0.06297808
12	0xbc1325ba	-0.008981163
13	0xbe19f65c	-0.15035385
14	0xbe70f080	-0.23529243
15	0xbd9f679b	-0.07783433
16	0xbd621967	-0.055200007
17	0xbdd5c988	-0.1043883
18	0xbba97c5c	-0.0051722955
19	0xbe0a7da7	-0.13524495
20	0x3cd6650b	0.026171228
21	0x3dbad764	0.09123114
22	0xbd54d17f	-0.051957604
23	0xbc3f2332	-0.011666106
24	0xbdea96e8	-0.11454564
25	0x3e0ccd6a	0.13750234
26	0xbc04000f	-0.008056655
27	0xbe1ccf5c	-0.15313476
28	0xbd4c068c	-0.04981093
29	0xbe16f9c9	-0.14743723
30	0xbe0fe551	-0.14052321
31	0xbd6d5278	-0.057939976
32	0xbe078f23	-0.13238196
33	0xbe75c3f7	-0.24000536
34	0xbdd2b6e8	-0.10288793
35	0xbebbcc54	-0.36679327
36	0xbe25bfbf	-0.16186427
37	0xbe469e1f	-0.19396256
38	0x3c88e62d	0.016711319
39	0x3dea6430	0.114448905
40	0xbe9aa81c	-0.30206382
41	0xbd11b531	-0.03557319
42	0x3d60d942	0.054894693
43	0xbd79d9a1	-0.060998563
44	0xbdc70f7b	-0.097197495
45	0x3d867068	0.065644085
46	0xbdf82987	-0.12117296
47	0xbe6043dc	-0.21900886
48	0xbdbb17b9	-0.09135384
49	0xbd627c6b	-0.055294435
50	0x3e929e0a	0.286362
51	0xbe439fc7	-0.19103919
52	0x3c9533ac	0.018213116
53	0xbdda1532	-0.10648574
54	0x3c8ca9b3	0.017170763
55	0xbe581d97	-0.21105038
56	0x3dbe197a	0.09282203
57	0x3e0d1c05	0.1378022
58	0xbe5787b2	-0.21047857
59	0xbeb60963	-0.35554036
60	0x3d0da5c6	0.034581922
61	0xbd455080	-0.048172474
62	0xbb46228f	-0.0030233
63	0x3e5aa7dc	0.21353096
64	0xbd01b6e0	-0.031668544
65	0x3d50ff69	0.051024828
66	0xbd7b8e2f	-0.061414894
67	0xbd2c1095	-0.042008
68	0xbd5471d3	-0.051866364
69	0x3dfd4d36	0.123682424
70	0xbcfa2b74	-0.030538298
71	0x3d978245	0.07397894
72	0xbde79397	-0.113074474
73	0xbde81ea2	-0.11333968
74	0xbe24c26a	-0.16089788
75	0xbeac44d9	-0.33646277
76	0xbe0081ca	-0.1254951
77	0x3dae6389	0.085150786
78	0xbe608fb8	-0.21929824
79	0xbe3e9224	-0.18610436
80	0xbe3350c2	-0.17511275
81	0xbe5770c4	-0.2103911
82	0xbbf14545	-0.007362994
83	0x3e04869f	0.12941979
84	0xbceecee1	-0.029151382
85	0xbdc92420	-0.098213434
86	0x3d6e86ba	0.058233954
87	0xbe9091d7	-0.28236267
88	0x3e14de92	0.14538029
89	0xbe5dba06	-0.21652994
90	0xbe47be43	-0.19506173
91	0xbe57fbf9	-0.21092214
92	0xbde417f4	-0.11137381
93	0xbe39d075	-0.18145926
94	0xbdd94d7f	-0.10610484
95	0xbe498d0d	-0.19682713
96	0x3d925de2	0.07146813
97	0xbca0b74a	-0.019618649
98	0xbd9c9ed6	-0.07647483
99	0xbe4c4e41	-0.19951726
100	0xbe2de5cc	-0.16982192
101	0x3ce231b5	0.027611593
102	0xbe0a3675	-0.13497336
103	0x3ea2f257	0.31825516
104	0x3eac91ec	0.3370508
105	0xbda35848	-0.07975823
106	0xbe33cee8	-0.17559397
107	0xbd29f4c8	-0.041493207
108	0x3dd3463f	0.10316133
109	0xbd1c0314	-0.038088873
110	0xbe35241c	-0.17689556
111	0xbd3829cc	-0.044961736
112	0xbe862600	-0.26200867
113	0x3c06aced	0.00821994
114	0xbd826541	-0.06366969
115	0x3d9b5e7f	0.07586383
116	0x3e891480	0.26773453
117	0x3b7ebd17	0.003887003
118	0x3d6f5aa6	0.05843606
119	0x3e11e58a	0.14247718
120	0xbe67bd0a	-0.22630706
121	0xbda32db4	-0.079677016
122	0xbdf8ce38	-0.12148708
123	0xbd7b7a9d	-0.06139623
124	0xbe8cdda2	-0.27512842
125	0xbe20bcf0	-0.15697074
126	0xbcf24ac7	-0.029576672
127	0xbd91c6b0	-0.07117975
128	0xbe01dc19	-0.12681617
129	0xbb5b3fb1	-0.003345471
130	0xbe8ae8a9	-0.2713063
131	0x3d5b904e	0.053604417
132	0xbd307952	-0.04308445
133	0xbc7b8e05	-0.015353684
134	0xbe79def5	-0.24401458
135	0xbe01a94d	-0.1266224
136	0xbe147d90	-0.14501023
137	0xbda139b6	-0.078723356
138	0x3e35474b	0.17702977
139	0xbd888320	-0.06665635
140	0x3c53f7e3	0.012937519
141	0x3c57159f	0.013127713
142	0x3cbd78e1	0.023128929
143	0xbddf9c32	-0.10918464
144	0xbd710c25	-0.058849473
145	0xbdc8e230	-0.09808767
146	0xbe7089c2	-0.2349005
147	0x3d3b851b	0.045781236
148	0xbdf198f7	-0.11796754
149	0x3cef4c01	0.029211046
150	0xbda4cbe2	-0.080467
151	0xbdf07d13	-0.11742606
152	0xbd7d5920	-0.061852574
153	0x3d0da513	0.034581255
154	0x3cac29d2	0.021016035
155	0xbdb79fb9	-0.089660116
156	0xbe8aa69e	-0.27080244
157	0xbe56b367	-0.20966874
158	0xbbc12bae	-0.0058950996
159	0xbe6f1e11	-0.23351313
160	0xbe262cce	-0.16228029
161	0xbe70ac90	-0.23503327
162	0x3d8a223b	0.0674481
163	0xbd3da40d	-0.04629903
164	0x3d5eadc9	0.054364953
165	0xbe98c0ac	-0.29834497
166	0xbe15d939	-0.14633645
167	0xbe1915f9	-0.14949788
168	0x3d860ba5	0.0654519
169	0xbd85ea5f	-0.06538843
170	0x3cc34254	0.023835339
171	0x3d213858	0.039360374
172	0x3d95af92	0.07308878
173	0xbd312e19	-0.043256853
174	0xbe82fcec	-0.2558359
175	0xbe5bbcee	-0.2145879
176	0xbcf3e70e	-0.029773261
177	0xbdc614c0	-0.096719265
178	0x3d8261cc	0.063663095
179	0x3dcd5626	0.10026197
180	0xbdcad800	-0.0990448
181	0x3e1f6aee	0.15568134
182	0xbe533ad1	-0.20627905
183	0xbe42940d	-0.1900179
184	0xbe083d34	-0.13304597
185	0xbd74063a	-0.05957625
186	0xbe806409	-0.2507632
187	0xbe052368	-0.13001788
188	0x3aa89142	0.0012860673
189	0xbe46c329	-0.19410385
190	0x3d7a8109	0.061158214
191	0xbe1eff28	-0.15527022
192	0xbd063c29	-0.032772217
193	0x3db9cd3a	0.09072347
194	0xbe457593	-0.19283132
195	0xbe73462f	-0.23757242
196	0xbe29934d	-0.16560097
197	0x3d27c477	0.040958848
198	0xbe368fcb	-0.1782829
199	0xbe8c3117	-0.27381203
200	0xbdcdc8fd	-0.10048101
201	0xbe801f2c	-0.25023782
202	0xbc67d6f2	-0.014150368
203	0xbce69631	-0.028147789
204	0x3dcfdaa4	0.10149124
205	0xbe206289	-0.15662588
206	0x3aeacff1	0.0017914755
207	0xbdfc1153	-0.12307992
208	0xbc624bb7	-0.013811997
209	0x3d6eb9fe	0.058282845
210	0xbdbf11af	-0.09329545
211	0xbd1cfac3	-0.038325083
212	0x3de705da	0.11280413
213	0xbea18e0f	-0.31553695
214	0xbc95b1df	-0.018273292
215	0xbe90e1ba	-0.28297216
216	0x3dfee2f5	0.12445632
217	0x3dea16c8	0.114301264
218	0xbd2b3eb4	-0.041807845
219	0x3d235c50	0.039882958
220	0xbe0521d7	-0.1300119
221	0x3dce5d01	0.10076333
222	0xbd9a838b	-0.07544621
223	0x3cbb780b	0.02288439
224	0xbdb60dce	-0.08889352
225	0xbd9b10d6	-0.075715706
226	0x3d9131cf	0.07089578
227	0x3c2ede54	0.010673124
228	0xbdb1a36e	-0.0867375
229	0xbe521b0f	-0.20518135
230	0xbe19429a	-0.14966813
231	0xbd359f25	-0.044341225
232	0xbe6b35e6	-0.2296978
233	0xbe485b83	-0.19566159
234	0x3d8db7d0	0.06919825
235	0xbe3b61d2	-0.18299034
236	0xbe2426bd	-0.16030402
237	0x3d2767ba	0.040870406
238	0x3c3ddc18	0.011588119
239	0xbca35152	-0.019936237
240	0x3e2b60a2	0.16736081
241	0x3c23cbc6	0.009997314
242	0xbde5fa85	-0.112294234
243	0x3ccd0da7	0.025030924
244	0xbda3ba23	-0.07994487
245	0xbdb2a72b	-0.08723291
246	0x3d553bf7	0.05205914
247	0xbe389266	-0.18024597
248	0xbdfbef57	-0.1230151
249	0xbcef7ee1	-0.029235305
250	0xbdcd2f23	-0.10018756
251	0xbdd294f2	-0.10282315
252	0x3cc1d4f4	0.023661114
253	0xbd3e5d07	-0.046475437
254	0xbe04537e	-0.12922475
255	0xbd7e0de0	-0.06202495
