Models/LSTM_Start-ups_8_16.pth (torch, 398024 bytes, 7 tensors)

embeddings.0.weight f4 [1172, 16]
0	0x401733c8	2.3625355
1	0x3fad9495	1.3560969
2	0x3ffaf500	1.9606018
3	0xbfca299e	-1.579395
4	0x3fa4ffbe	1.2890546
5	0xbf1c8ebf	-0.61155313
6	0xbf38962f	-0.7210416
7	0xc029f64c	-2.6556578
8	0xbfa95cfa	-1.3231499
9	0x3fb444ec	1.4083533
10	0xbfa635a0	-1.2985115
11	0xbfa6e336	-1.3038089
12	0xbff424c6	-1.9073722
13	0xbd4e66b1	-0.050390903
14	0xbfc120d0	-1.5088139
15	0x3b15edc6	0.002287732
16	0x401bc48e	2.4338717
17	0xbe772cb6	-0.2413815
18	0xbf8eee43	-1.1166462
19	0x3f60b2ac	0.8777263
20	0xbfabce5e	-1.3422353
21	0x3ffb3cf2	1.9627974
22	0x3fb683dc	1.425899
23	0x400f785f	2.2417219
24	0x3fc994ef	1.5748576
25	0x3fcc9d15	1.5985438
26	0x3f54f710	0.8318949
27	0x3ffa4aef	1.9554118
28	0xbeaeeedb	-0.34166607
29	0xbde05317	-0.10953348
30	0x3d1fdd8d	0.039029647
31	0x3fa5d598	1.2955809
32	0xbfa955bb	-1.3229288
33	0xbf9fb3c0	-1.247673
34	0xbe689ef5	-0.22716887
35	0x3f9e6fb5	1.237784
36	0x3f292de7	0.66085666
37	0xbf8438fe	-1.0329893
38	0x3ec7215a	0.38892633
39	0xbf465fce	-0.77489936
40	0xbfe841b2	-1.8145049
41	0x3f2eac4f	0.6823167
42	0xbf292337	-0.6606936
43	0xbf296828	-0.66174555
44	0xbfd81169	-1.6880313
45	0x402b46c5	2.6761944
46	0xbfb6d3d0	-1.428339
47	0xbf59954c	-0.84993434
48	0xbfa2209e	-1.2666204
49	0xbf4aaff6	-0.79174745
50	0x3f4f6554	0.8101399
51	0x3f770412	0.96490586
52	0xbec76b56	-0.38949078
53	0x3fe2435f	1.767681
54	0xbfd6d05d	-1.6782337
55	0xbf892ebf	-1.0717391
56	0xbfe2425c	-1.7676501
57	0x3e8ac0af	0.2710013
58	0xbe3f1aa5	-0.18662508
59	0x3f6b1ed5	0.9184392
60	0xbe963b90	-0.29342318
61	0x4031d74d	2.778766
62	0xbfea0cc8	-1.828515
63	0x3fec950a	1.8482983
64	0x3feb7901	1.8396302
65	0x3f63c864	0.88977647
66	0x404e67ee	3.2250934
67	0x3f8cf9ad	1.1013695
68	0x3f5ae837	0.8551058
69	0xbe8a7a47	-0.27046415
70	0xbff41788	-1.9069681
71	0x3fa5dfa5	1.2958876
72	0xbe48445b	-0.19557326
73	0x3f21f40b	0.63263005
74	0xbdf93fc7	-0.12170368
75	0x3e8b0e06	0.27159137
76	0x3f2fd5aa	0.686854
77	0xbf37551d	-0.7161425
78	0xc035a776	-2.838346
79	0xbf3a73c4	-0.72832894
80	0xbf08347c	-0.53205085
81	0x3eafe5a2	0.34354883
82	0xbf7e422f	-0.9931974
83	0xbf274e55	-0.653539
84	0x3e9dfcd8	0.30856967
85	0x3f36f7ee	0.7147206
86	0x3fda60d1	1.7060796
87	0x3e434fcf	0.19073413
88	0x3eec621b	0.461686
89	0xbeb262c6	-0.34840983
90	0xbf5e2e78	-0.86789656
91	0x3f8b8d82	1.090256
92	0xbff274dd	-1.8941914
93	0xbfe7aa0b	-1.8098768
94	0x3fbe70c9	1.4878169
95	0x3fcbec71	1.5931531
96	0xc035271c	-2.830512
97	0x3f3ccda8	0.73751307
98	0x3feb3172	1.8374465
99	0xbf78c3e2	-0.97173893
100	0x3f83fc1c	1.0311313
101	0xbe134579	-0.1438197
102	0xbe20c6e9	-0.15700878
103	0xbf9855c4	-1.1901174
104	0xbd635d45	-0.05550887
105	0x3f57f357	0.8435568
106	0xbed57c4e	-0.416964
107	0xbeec65fb	-0.46171555
108	0x3f5f1358	0.8713889
109	0x3f5314ff	0.8245391
110	0xbd0d430a	-0.03448776
111	0x3f6b1ccb	0.9184081
112	0xbfd843aa	-1.689565
113	0xbb2a1473	-0.002595213
114	0xbf86c4b5	-1.052878
115	0x3e7a84d9	0.2446474
116	0x3faf3d3d	1.3690563
117	0xbd9b8afe	-0.0759487
118	0xbf08fa6e	-0.53507125
119	0x3fd388c7	1.6526116
120	0x3eb9ec20	0.36312962
121	0x3ea0d06b	0.3140901
122	0xbedd175f	-0.43181893
123	0x3c28e703	0.010308984
124	0x3f13defd	0.5776213
125	0xbf0cd844	-0.55017495
126	0x3f3ffaff	0.74992365
127	0xbdd6a1a0	-0.10480046
128	0x40386162	2.8809438
129	0x3fbe1132	1.4848998
130	0xbf2fe0f8	-0.6870265
131	0xbfa06e8c	-1.2533736
132	0xbf0edf42	-0.55809414
133	0x4028b8f8	2.6362896
134	0x3fa2be98	1.2714415
135	0x3e6c798d	0.23093243
136	0x3f40b4ae	0.75275695
137	0xbf49856e	-0.7871922
138	0xc0168e3b	-2.352431
139	0x3f1a2a5a	0.60220873
140	0xbe6419e5	-0.22275503
141	0x3fd8a396	1.6924922
142	0xbfb7acbf	-1.4349593
143	0x3eb3e8d5	0.35138574
144	0xbfb114e7	-1.3834504
145	0x3f9794c8	1.184228
146	0x4025c9b1	2.5904353
147	0x3f8b5561	1.088543
148	0x3f95b298	1.1695127
149	0xbf0e97be	-0.5570029
150	0xbe12c105	-0.14331444
151	0x3f2768ab	0.65394086
152	0xbeec31aa	-0.4613164
153	0xbda5231e	-0.08063339
154	0xbf5f3a18	-0.8719802
155	0x3fa5fd70	1.2967968
156	0xbfd5c779	-1.6701499
157	0xbef82336	-0.48464364
158	0xbecaa605	-0.39579788
159	0x3f93edb8	1.1556921
160	0xc019fe41	-2.4061434
161	0xbeb56fe3	-0.35436925
162	0xbefea494	-0.49734938
163	0xbf853117	-1.0405606
164	0x3ab9df3e	0.0014180911
165	0xbfe8d190	-1.8188953
166	0xbee0ab72	-0.43880802
167	0xc00e3ee3	-2.2225883
168	0xbf79da48	-0.97598696
169	0x3f2a2c02	0.664734
170	0x3f9544d2	1.1661627
171	0xbf408666	-0.75205076
172	0xc00cd923	-2.200753
173	0x3f196847	0.5992474
174	0x3f65e069	0.8979555
175	0x3fcc4308	1.5957956
176	0xbe280074	-0.16406423
177	0xbf27e84a	-0.6558882
178	0xbe3d6ac8	-0.18497765
179	0x3ee0a1a7	0.4387333
180	0xbfa0584c	-1.2526946
181	0xbf80ad7a	-1.0052941
182	0xbf7b421c	-0.9814775
183	0xbd061e21	-0.032743577
184	0xbf4d7765	-0.80260307
185	0xc007fc1c	-2.1247625
186	0xc0254dac	-2.5828657
187	0x3f90dce8	1.1317415
188	0x3fd56b01	1.667328
189	0xbe7af1ff	-0.24506377
190	0x3e2c1452	0.16804627
191	0x3e9ce701	0.30644992
192	0x4027d97e	2.6226497
193	0xbfc17292	-1.5113089
194	0x3f9eb01a	1.2397492
195	0xbee2c214	-0.44288695
196	0xbf80cda7	-1.006276
197	0xbf5b33f1	-0.8562613
198	0x3f34a5ca	0.70565474
199	0x3f6b5d54	0.9193928
200	0x3ea8c125	0.32959858
201	0x3ffbf986	1.9685524
202	0xbeea27a6	-0.45733374
203	0xbd7dbcf2	-0.06194777
204	0x3e013125	0.12616403
205	0x3efee44e	0.49783558
206	0x4019b66f	2.4017599
207	0x3f88faeb	1.0701574
208	0x3ed494da	0.41519815
209	0xbf8adb16	-1.084811
210	0xbf1e2050	-0.61768055
211	0xbf0cede1	-0.55050474
212	0x3e8c38f9	0.27387217
213	0x3e79302f	0.24334787
214	0xbf396964	-0.7242644
215	0xbf8ec39b	-1.1153444
216	0x3f0201a1	0.50783736
217	0x3f68bb3a	0.90910685
218	0xc013bc97	-2.3083856
219	0x400eda68	2.2320805
220	0x3e4929ad	0.19644804
221	0xbfaeb0ac	-1.3647666
222	0x3f9243b0	1.1426907
223	0x4010cc15	2.2624562
224	0x3e9eec8a	0.3103984
225	0x3f60d823	0.878298
226	0x3e5d31e0	0.21601057
227	0xbfc4f8a3	-1.5388378
228	0xbf3a92ee	-0.72880447
229	0xbdaa30c0	-0.083100796
230	0x3eadbda3	0.33933744
231	0x400f18ca	2.235888
232	0x3efe9bd8	0.49728274
233	0xbe9b311d	-0.30310908
234	0xbf9bcd67	-1.2172059
235	0xbf089459	-0.5335136
236	0xbf2ddbb6	-0.6791338
237	0xbf8429db	-1.0325273
238	0xbdfa992b	-0.12236246
239	0x3da53e90	0.080685735
240	0xbf577a6f	-0.84171194
241	0xbdb7f1af	-0.08981644
242	0xbde6cbbb	-0.11269327
243	0x3ea10fe8	0.31457448
244	0xbddd6e96	-0.10812108
245	0xbdee73e6	-0.116431996
246	0xbfccaf04	-1.599091
247	0x3f919d10	1.1376057
248	0x3fd0d162	1.6313899
249	0xbf9fbb80	-1.2479095
250	0x3f1d6eed	0.61497384
251	0x3ebf93a0	0.37417316
252	0xbdd1f8b5	-0.10252515
253	0x3fd0c8ce	1.6311281
254	0xbf17195f	-0.5902309
255	0xbd9906bd	-0.07471988

layers.0.weight f4 [256, 128]
0	0xbe1c7c31	-0.1528175
1	0xbe95c3ba	-0.2925089
2	0xbd168ea2	-0.03675712
3	0x3c1324a3	0.008980903
4	0x3e0dc5c8	0.13844979
5	0xbe22062a	-0.15822664
6	0xbd8db590	-0.06919396
7	0x3d34c6a2	0.044134744
8	0xbe86e379	-0.26345423
9	0x3e63ed9c	0.2225861
10	0x3e456b14	0.19279128
11	0xbd9fb3a1	-0.07797933
12	0x3f33c305	0.7021945
13	0xbe058151	-0.13037612
14	0xbdce2d3d	-0.10067222
15	0xbedd7691	-0.4325452
16	0x3e57bc41	0.21067907
17	0xbd87405e	-0.06604074
18	0x3e892d19	0.2679222
19	0xbebd38f5	-0.36957517
20	0x3e89a88d	0.26886407
21	0xbe3dbb1d	-0.1852841
22	0x3e5c283b	0.21499722
23	0xbeb0af23	-0.3450862
24	0x3cc2c0f3	0.023773646
25	0x3d167358	0.036731094
26	0xbf10a275	-0.5649789
27	0xbdf5c4d5	-0.12000433
28	0xbe6b2d2d	-0.22966452
29	0x3f111a96	0.5668119
30	0x3e8f6c20	0.2801218
31	0x3de03c3c	0.10948989
32	0xbe8c566f	-0.27409694
33	0x3ee006ea	0.43755275
34	0xbeade4e2	-0.33963686
35	0xbecc30af	-0.39880893
36	0x3d889bde	0.06670354
37	0xbe7ddc09	-0.24790968
38	0x3ee2ba07	0.44282553
39	0x3eeb2f4e	0.45934528
40	0x3e749606	0.23885354
41	0xbebac60a	-0.36479217
42	0x3e3dc504	0.18532187
43	0xbe437c56	-0.19090399
44	0xbe8f3caa	-0.2797597
45	0x3d842b69	0.06453592
46	0x3e4f58f0	0.2024877
47	0x3d46c12e	0.048524074
48	0x3dca4061	0.098755606
49	0x3e98b1f5	0.2982327
50	0xbebfdfd4	-0.37475455
51	0x3cccaec6	0.024985682
52	0xbe775f11	-0.24157359
53	0xbbe80b84	-0.007081451
54	0xbd87d04f	-0.066315286
55	0xbd882383	-0.06647398
56	0x3e18c162	0.1491752
57	0x3dde14e0	0.10843825
58	0xbe84d5c9	-0.25944355
59	0x3e8344d0	0.25638437
60	0xbdfacf78	-0.12246603
61	0xbe8a92cd	-0.27065125
62	0x3ec0e463	0.37674245
63	0xbe11e01a	-0.14245644
64	0xbe053217	-0.13007389
65	0xbe47fb1c	-0.19529384
66	0xbbeed7a3	-0.0072888895
67	0x3c636123	0.01387814
68	0xbea64ef6	-0.32482117
69	0x3d0c36db	0.034232
70	0xbeada58f	-0.33915374
71	0xbe1e55a8	-0.15462363
72	0xbda6a6c0	-0.08137274
73	0xbda1223a	-0.07867856
74	0xbd6b69a6	-0.0574738
75	0xbd737c8f	-0.05944496
76	0x3eac55e1	0.3365927
77	0xbe194aec	-0.14969987
78	0xbed06b07	-0.40706655
79	0x3e6f9a54	0.23398715
80	0x3e0573d1	0.13032462
81	0x3e363511	0.1779368
82	0xbf17ead2	-0.5934268
83	0xbe8824d6	-0.26590604
84	0xbede3310	-0.43398333
85	0xbe52dab4	-0.20591241
86	0xbe93d43d	-0.28872862
87	0xbe309040	-0.17242527
88	0xbe9ded23	-0.30844983
89	0xbe6e96eb	-0.23299758
90	0xbc550ac5	-0.013003056
91	0x3e9638fa	0.29340345
92	0xbe589584	-0.21150786
93	0xbba8ead5	-0.0051549473
94	0xbdadd43f	-0.08487748
95	0x3e8eed15	0.27915254
96	0x3e9ac807	0.30230734
97	0xbd536a8b	-0.05161528
98	0x3f07848b	0.5293662
99	0x3d6c00d1	0.057617966
100	0x3d0249b6	0.031808577
101	0xbdae508e	-0.08511458
102	0xbe283682	-0.16427043
103	0xbed35568	-0.41276097
104	0x3e51309b	0.20428698
105	0x3e5890da	0.21149006
106	0xbecfd503	-0.40592203
107	0xbf0b440e	-0.5440072
108	0x3e211c79	0.15733518
109	0x3ee5b337	0.44863293
110	0xbbf90677	-0.0075996476
111	0x3ed67e04	0.41893017
112	0x3ebfe83a	0.37481862
113	0xbee81635	-0.45329443
114	0xbdf26e18	-0.11837405
115	0x3ed62bbd	0.41830245
116	0xbdec3838	-0.115341604
117	0x3ed4c652	0.41557556
118	0x3f1312d1	0.57450587
119	0xbeb0df6c	-0.34545457
120	0x3eca00fd	0.3945388
121	0xbdef4e2a	-0.116848305
122	0xbdae0dd7	-0.084987335
123	0xbf08fe32	-0.5351287
124	0xbed883ab	-0.42287955
125	0x3c937b83	0.01800323
126	0x3e26edf8	0.16301715
127	0x3e16166d	0.14656992
128	0x3ec9532e	0.39321274
129	0xbe84e3a5	-0.2595493
130	0xbe61ddac	-0.22057217
131	0x3c58fc98	0.013243817
132	0xbcb3e27c	-0.021958582
133	0xbd1ccd7b	-0.0382819
134	0xbe806936	-0.2508027
135	0xbe6fab95	-0.23405297
136	0x3f06a838	0.5260043
137	0x3d5f3d64	0.054501906
138	0xbed8a212	-0.4231115
139	0x3ea476ee	0.32121986
140	0xbe8222af	-0.25417086
141	0xbdf42419	-0.119209476
142	0xbcce1369	-0.02515574
143	0x3e0426b0	0.12905383
144	0x3ef7c43a	0.48391896
145	0xbd901dda	-0.07036944
146	0xbe2bed29	-0.16789688
147	0x3ee91d00	0.45529938
148	0xbe23721e	-0.15961501
149	0x3e128aeb	0.14310805
150	0x3d923247	0.07138496
151	0x3ebbbea7	0.36668894
152	0xbe16eb0a	-0.14738098
153	0xbc24a399	-0.01004877
154	0xbed0938b	-0.40737566
155	0x3bcf48a0	0.0063257962
156	0xbd6a0396	-0.057132326
157	0x3eb12196	0.34595937
158	0xbe1957ba	-0.14974871
159	0xbd6b4051	-0.057434384
160	0x3dda0e21	0.10647226
161	0xbf270636	-0.6524385
162	0xbe22a537	-0.15883337
163	0x3e1294d3	0.14314584
164	0x3e96e24a	0.2946952
165	0x3ee38395	0.44436327
166	0x3ecce48c	0.40018117
167	0x3eb28547	0.34867308
168	0xbd84023a	-0.06445737
169	0xbe85c21c	-0.26124656
170	0xbf062caf	-0.5241193
171	0x3dc66951	0.09688056
172	0xbdaf7b65	-0.085684575
173	0xbbcf9747	-0.0063351723
174	0x3e20a272	0.15686968
175	0xbeaabd25	-0.3334743
176	0xbe46e1b2	-0.19422033
177	0xbe18d578	-0.14925182
178	0x3eba0c85	0.36337677
179	0xbe6f04c2	-0.23341659
180	0xbcc48886	-0.02399088
181	0x3e158ebb	0.14605229
182	0x3ecd9d2e	0.4015898
183	0xbdf257aa	-0.11833127
184	0xbd39da54	-0.04537423
185	0xbdd18347	-0.10230117
186	0xbf0d61dc	-0.55227447
187	0x3d666954	0.056252792
188	0xbf0dfb29	-0.55461365
189	0x3e26c7ad	0.16287108
190	0x3da9eab9	0.08296723
191	0x3ec3f720	0.3827448
192	0x3dfca748	0.12336594
193	0xbccf4da7	-0.025305582
194	0x3dcd5525	0.10026006
195	0x3f361cd9	0.7113777
196	0x3db03f70	0.0860585
197	0xbd5417b9	-0.051780436
198	0x3e3386c0	0.17531872
199	0xbe54c7ef	-0.20779394
200	0xbdf6eb3f	-0.120565884
201	0xbd7e3760	-0.06206453
202	0xbdb5c2b3	-0.088750266
203	0x3e56115a	0.20905057
204	0x3da3141b	0.07962819
205	0x3de0fac2	0.10985328
206	0x3d504b3d	0.050853003
207	0xbb863950	-0.0040961877
208	0xbd40559d	-0.046956647
209	0x3e52fffe	0.20605466
210	0x3db2722c	0.08713183
211	0xbe472728	-0.1944853
212	0xbedcf47d	-0.4315528
213	0x3f3fde1a	0.74948275
214	0x3e215e2c	0.1575858
215	0x3e183382	0.14863399
216	0x3a0e5baa	0.0005430529
217	0x3e8e38d1	0.27777722
218	0xbea00af0	-0.31258345
219	0xbea0930c	-0.31362188
220	0xbe29442e	-0.16529915
221	0x3e65d3ec	0.22444123
222	0xbe4f97ee	-0.202728
223	0x3e2aa9f3	0.16666393
224	0xbeeec4ab	-0.4663442
225	0x3f3aeb65	0.73015434
226	0xbdc3137e	-0.09525202
227	0xbd94950d	-0.07254992
228	0x3e08e677	0.13369165
229	0x3e162e01	0.14665987
230	0xbe856600	-0.26054382
231	0x3deb86c4	0.11500314
232	0xbee094c6	-0.43863505
233	0xbdc0d745	-0.094160594
234	0x3e808019	0.2509773
235	0x3e554a14	0.2082904
236	0x3d87dac7	0.06633525
237	0xbdd4523c	-0.103672475
238	0x3e88ebba	0.26742345
239	0x3e206610	0.15663934
240	0x3d1b9503	0.037983906
241	0xbdc20788	-0.09474093
242	0x3f1efb3c	0.62102103
243	0xbdc8bd7e	-0.09801768
244	0x3f363fa0	0.71190834
245	0x3dd1a430	0.102363944
246	0xbf0679cb	-0.5252959
247	0xbdb9abd8	-0.0906598
248	0xbe90c216	-0.28273076
249	0xbe092270	-0.13392043
250	0x3e034bb6	0.1282185
251	0xbf203595	-0.6258176
252	0x3e12ec4e	0.14347956
253	0xbc9b3cb2	-0.01894984
254	0x3efc525a	0.4928158
255	0x3ea73a6b	0.32661757

layers.0.bias f4 [256]
0	0x3da7ecb1	0.08199442
1	0x3dd4c160	0.10388446
2	0xbc732d8c	-0.014842402
3	0xbc93bfeb	-0.01803585
4	0xbe021103	-0.12701802
5	0x3d6f2d02	0.058392532
6	0xb9785f30	-0.00023686583
7	0xbc590ec0	-0.013248146
8	0xbdee1c1c	-0.11626455
9	0xbc2e6d8a	-0.010646233
10	0x3e0da70d	0.13833256
11	0xbd1e6e57	-0.038679447
12	0x3c308f5a	0.010776365
13	0x3d1af307	0.037829425
14	0x3deefe11	0.11669553
15	0xbdee3552	-0.11631264
16	0xbd0e58ff	-0.034752842
17	0x3d98a992	0.07454218
18	0xbc5faff1	-0.013652788
19	0x3c674c2d	0.014117283
20	0xbdbd2ffc	-0.09237668
21	0xbdc23c4d	-0.09484158
22	0x3e0948fa	0.13406745
23	0x3dbe874c	0.093031496
24	0xb9bf130f	-0.0003644456
25	0xbe378201	-0.17920686
26	0x3d9694fb	0.073526345
27	0x3d813e4e	0.06310712
28	0xbd7817ac	-0.06056945
29	0x3e2f8855	0.1714185
30	0x3d2a2210	0.04153639
31	0x3db8622e	0.09003101
32	0xbb3a9d52	-0.0028475118
33	0xbdc494c0	-0.09598684
34	0x3c79b03a	0.01523977
35	0xbdc2af51	-0.09506095
36	0x3dd2e1f6	0.10297005
37	0x3ddc0ea4	0.1074498
38	0xbdd69702	-0.10478021
39	0x3dc50f58	0.09622067
40	0x3d81bb3d	0.06334541
41	0x3e3c9610	0.1841662
42	0xbe889bea	-0.26681453
43	0xbe0671de	-0.13129374
44	0xbd952ef4	-0.07284346
45	0xbdb9b156	-0.09067027
46	0x3d4e24fc	0.05032824
47	0xbd45c217	-0.0482808
48	0xbd409174	-0.047013715
49	0xbebdd2e5	-0.37074962
50	0x3d6becd1	0.057598893
51	0xbd161286	-0.03663876
52	0xbdf1d623	-0.118084215
53	0x3d17774d	0.03697901
54	0xbd8522b9	-0.065007634
55	0x3d795b97	0.060878363
56	0xbdccd2c8	-0.10001141
57	0x3d960d7a	0.07326789
58	0xbdcaa096	-0.098939106
59	0xbe0a4ac7	-0.13505088
60	0xbe585e8c	-0.21129817
61	0xbda5a0dc	-0.08087322
62	0xbc0a549f	-0.008443027
63	0xbd729e01	-0.059232716
64	0xbd06730f	-0.032824572
65	0xbd97f06d	-0.074189045
66	0x3beb2038	0.0071754716
67	0x3b5bd417	0.0033543163
68	0xbd784b54	-0.060618713
69	0x3e38cdbf	0.18047236
70	0x3d99542e	0.07486759
71	0xbae85c75	-0.001772775
72	0xbcdf7cff	-0.027281282
73	0xbdffbd3a	-0.12487264
74	0xbd869e01	-0.065731056
75	0xbddb6578	-0.10712713
76	0x3d551526	0.05202212
77	0xbd8197c4	-0.06327775
78	0x3da6f2c2	0.08151771
79	0xbd0a792c	-0.033806965
80	0xbe383f98	-0.17993009
81	0xbd677030	-0.056503475
82	0xbe1bbb58	-0.15208185
83	0xbe576712	-0.21035412
84	0xbdb1ff7e	-0.086913094
85	0x3d24abb2	0.040202804
86	0xbdcfacb3	-0.10140362
87	0xbd502f88	-0.05082658
88	0xbe2be48e	-0.16786405
89	0x3d1b8631	0.03796977
90	0xbb41fb72	-0.0029599336
91	0xbd1846c8	-0.037176877
92	0x3dee0149	0.11621339
93	0xbdb9dbcb	-0.09075125
94	0x3d5e5812	0.05428321
95	0xbe2f53c2	-0.17121795
96	0xbbc8ebd3	-0.006131628
97	0xbd4f8e72	-0.050672956
98	0x3e1378af	0.14401506
99	0x3d062f6a	0.03276006
100	0x3e16a523	0.14711432
101	0xbdc7a464	-0.09748152
102	0x3e22ab15	0.15885575
103	0x3da3964c	0.07987651
104	0xbdc5e029	-0.09661896
105	0xbb780510	-0.0037844814
106	0x3d890450	0.06690276
107	0xbde09af9	-0.10967059
108	0x3df67324	0.1203368
109	0x3cade7c0	0.021228671
110	0x3d361e52	0.04446251
111	0xbd934aa5	-0.07191972
112	0x3d13e3f6	0.036106072
113	0xbdba2523	-0.090891145
114	0x3dfabbc6	0.12242846
115	0x3d47d87a	0.048790433
116	0xbe28d6d7	-0.16488205
117	0xbdef27c3	-0.11677506
118	0xbbf553b8	-0.0074867867
119	0xbdcc12cb	-0.09964522
120	0x3e1b6025	0.15173395
121	0x3dc4f7b0	0.09617555
122	0x3bf077d2	0.0073385024
123	0xbd341475	-0.04396482
124	0x3e25afbf	0.16180323
125	0xbe90272d	-0.2815489
126	0x3c076018	0.008262657
127	0xbd87665e	-0.06611322
128	0xbe064159	-0.13110866
129	0xbd1eedd2	-0.038801022
130	0x3cc07240	0.023491979
131	0x3da30276	0.07959454
132	0x3d6efa77	0.05834433
133	0x3df20810	0.11817944
134	0x3d42ee16	0.047590338
135	0xbd20bb24	-0.03924097
136	0x3dcca7f9	0.09992976
137	0x3ce7a7dc	0.028278284
138	0x3d9bae9f	0.07601666
139	0xbd8cbbfe	-0.06871794
140	0xbd69df39	-0.057097647
141	0x3e0d3f8f	0.13793777
142	0xbda0f334	-0.07858887
143	0xbd356579	-0.044286225
144	0x3e54d839	0.20785607
145	0xbd622f96	-0.055221163
146	0xbd9429d9	-0.07234544
147	0xbe46db76	-0.19419655
148	0x3d2b3779	0.04180095
149	0xbe5c08c9	-0.21487726
150	0xbdf6fef5	-0.12060348
151	0x3dda696e	0.1066464
152	0xbce0460e	-0.027377155
153	0x3c126163	0.008934352
154	0x3deb1271	0.11478127
155	0xbdb9b47b	-0.09067627
156	0xbd5f48a9	-0.054512653
157	0x3d0a718f	0.033799704
158	0x3d906ab2	0.070516005
159	0x3d9368dd	0.071977355
160	0x3ccb30a2	0.024803463
161	0xbde5de40	-0.112240314
162	0xbc947c44	-0.01812566
163	0xbdf85afb	-0.12126728
164	0x3c9d31a9	0.019188719
165	0xbd29dc40	-0.041469812
166	0xbd779ca1	-0.060452107
167	0x3c9bb70e	0.019008186
168	0x3c3607b7	0.011110238
169	0xbd3a2027	-0.04544082
170	0x3c4494b6	0.011998346
171	0xbd2f3d9d	-0.04278337
172	0xbd1838e3	-0.037163626
173	0x3d05dffb	0.032684308
174	0x3d9769b0	0.07393205
175	0x3dda66e8	0.10664159
176	0x3e29c8ae	0.1658046
177	0x3d32555d	0.04353844
178	0x3c1ba69f	0.009500175
179	0x3b8177cd	0.003951049
180	0x3cdc0989	0.026860015
181	0xbe6b8e76	-0.23003563
182	0xbd53caff	-0.051707264
183	0x3e003133	0.12518768
184	0x3d837866	0.064194486
185	0xbde66097	-0.11248892
186	0xbe0459ec	-0.12924927
187	0xbdde8d18	-0.10866755
188	0x3df13492	0.11777605
189	0xbd8f15c1	-0.06986571
190	0xbdb1046b	-0.08643421
191	0xbd8d96e7	-0.06913548
192	0x3d2d2834	0.04227467
193	0xbd7b68c5	-0.061379213
194	0x3e52ecf5	0.20598204
195	0x3c9f8b54	0.019475617
196	0x3d6c577a	0.05770061
197	0xba26cbe4	-0.00063627795
198	0x3cb8d575	0.022562722
199	0xbd5f1d26	-0.054471157
200	0x3c9b9990	0.018994123
201	0xbd6a6610	-0.05722624
202	0xbe0815ce	-0.13289568
203	0xbb941dad	-0.004520139
204	0x3d0f087c	0.0349202
205	0xbc86dea6	-0.016463589
206	0x3a968fe6	0.0011486977
207	0xbdf4ad42	-0.11947109
208	0x3d93cd84	0.07216933
209	0x3d21802e	0.039428882
210	0xbd770053	-0.060303044
211	0xbcfa94f1	-0.030588599
212	0xbe1e9d5c	-0.15489715
213	0x3db0f1ed	0.08639894
214	0xbcc9f290	-0.024651796
215	0x3cb64f04	0.022254474
216	0xbd6e1e1c	-0.058134183
217	0xbe0aaa7d	-0.13541599
218	0x3d26c9d1	0.04071981
219	0xbdb15216	-0.08658235
220	0xbe258e7d	-0.16167636
221	0xbdc91e27	-0.09820204
222	0xbcb69899	-0.022289561
223	0x3d5ae051	0.05343658
224	0x3e47bd8f	0.19505905
225	0x3e4002f0	0.1875112
226	0xbc23074a	-0.009950468
227	0x3d5b6d3a	0.053570963
228	0x3d850901	0.06495858
229	0xbc83c36d	-0.016084397
230	0xbda6b52b	-0.08140024
231	0xbd9f61fd	-0.07782362
232	0x3db3488c	0.087540716
233	0x3cf609e2	0.03003401
234	0xbd50f3d0	-0.051013768
235	0xbdb4f6d6	-0.08836143
236	0x3d8f8abb	0.070088826
237	0xbe31d20d	-0.17365284
238	0x3d53962e	0.051656894
239	0x3cfeca2f	0.031102268
240	0x3da2302d	0.07919345
241	0xbde295a4	-0.11063698
242	0x3e2bf7c4	0.16793734
243	0x3de581ee	0.11206423
244	0x3deabe7b	0.114621125
245	0xbced5cec	-0.028974973
246	0x3d5dc86e	0.054146223
247	0x3decf538	0.11570209
248	0xbe6aea34	-0.22940904
249	0x3dbea6ec	0.093091816
250	0xbc212eb7	-0.009837798
251	0xbd97f5b3	-0.0741991
252	0x3cd6f76f	0.026241032
253	0xbdcccf91	-0.10000528
254	0x3d15f162	0.036607154
255	0xbe0cb970	-0.13742614

layers.2.weight f4 [32, 256]
0	0x3e75bde6	0.23998222
1	0x3ee5534f	0.44790122
2	0xbe873844	-0.26410115
3	0xbec77aae	-0.38960785
4	0x3ec41190	0.3829465
5	0xbe0b899f	-0.13626717
6	0x3d68985b	0.056785922
7	0xbf1c6d44	-0.61104226
8	0xbe4def68	-0.20110857
9	0x3e8a42a1	0.2700396
10	0xbe57714f	-0.21039318
11	0x3e93851e	0.28812498
12	0xbe8db054	-0.2767359
13	0xbe8903a3	-0.26760587
14	0xbda5dd07	-0.08098798
15	0x3e961fa4	0.29321015
16	0x3e023da2	0.12718824
17	0x3e4616ea	0.19344679
18	0xbd0225d5	-0.03177436
19	0x3dd456bd	0.103681065
20	0x3ec5abc7	0.38607618
21	0x3ee1835c	0.44045532
22	0xbeba5e4f	-0.36400077
23	0x3e60ddb0	0.21959567
24	0xbe56b744	-0.20968348
25	0x3edd19bd	0.431837
26	0xbe0c799b	-0.13718264
27	0x3dd8d4fb	0.10587498
28	0xbf1a0bc0	-0.6017418
29	0xbe198aa8	-0.149943
30	0x3d8f29d9	0.06990404
31	0xbeabc563	-0.33549032
32	0xbe90db90	-0.28292513
33	0xbe81f52c	-0.25382364
34	0x3e8511bb	0.2599009
35	0xbe9c58f5	-0.3053662
36	0x3e2682d6	0.16260847
37	0x3e85bb8a	0.26119643
38	0x3e33a5bb	0.1754369
39	0xbe14c75d	-0.14529176
40	0xbc0a6ce4	-0.008448813
41	0x3e3461ac	0.17615384
42	0xbef3e90e	-0.47638744
43	0x38defadd	0.00010632512
44	0xbe402018	-0.18762243
45	0xbddd557b	-0.1080732
46	0xbe402595	-0.18764336
47	0x3ebf6a0a	0.3738559
48	0x3eda62c8	0.4265349
49	0xbd39c7d2	-0.04535658
50	0x3df46dca	0.11935003
51	0xbd904400	-0.0704422
52	0x3c7034e6	0.0146610495
53	0x3e7b5c46	0.24546918
54	0xbe2df6b9	-0.16988648
55	0x3f0c93ce	0.5491303
56	0x3e9cd327	0.30629846
57	0xbe89032d	-0.26760235
58	0x3e5fd9f6	0.21860489
59	0x3c815599	0.015787886
60	0x3ed32d92	0.41245705
61	0x3e8415ba	0.25797826
62	0xbe928b11	-0.28621724
63	0xbf2d4f94	-0.6769955
64	0x3ece5652	0.40300232
65	0x3e8fe283	0.28102502
66	0x3ecdedd5	0.40220514
67	0x3e09e73d	0.13467117
68	0x3e9126d8	0.28349948
69	0xbdb7aecf	-0.08968889
70	0x3edc2715	0.42998567
71	0x3e5172e5	0.20453985
72	0xbe9b80a4	-0.30371583
73	0x3e892a21	0.26789954
74	0xbd276990	-0.040872157
75	0x3d94ca80	0.07265186
76	0xbe479266	-0.1948944
77	0xbde54f6c	-0.11196789
78	0x3eaec4a1	0.3413439
79	0xbbd1e614	-0.0064056013
80	0xbe1ff018	-0.15618932
81	0xbec49884	-0.3839761
82	0x3f06277b	0.5240399
83	0xbe9d563e	-0.3072986
84	0xbebfda8e	-0.37471431
85	0x3dfc5426	0.123207375
86	0xbf0c29b7	-0.5475115
87	0xbd8fa3bc	-0.07013652
88	0x3e0f856d	0.14015742
89	0xbd50215c	-0.050813064
90	0x3ec898c7	0.3917906
91	0xbe803fef	-0.25048777
92	0x3ec4935c	0.38393676
93	0xbdcd7ed7	-0.100339584
94	0x3e87ea44	0.26545918
95	0xbd49e282	-0.04928828
96	0x3ee04b11	0.4380727
97	0xbe97e2f0	-0.29665327
98	0x3efbad10	0.49155474
99	0x3e69fd5f	0.2285056
100	0xbeccd6df	-0.40007684
101	0xbee47058	-0.4461696
102	0x3dea8297	0.11450689
103	0x3c2babd8	0.010477982
104	0x3e69529a	0.22785416
105	0x3ebbe828	0.3670056
106	0xbf153d2e	-0.5829648
107	0x3ddabe63	0.10680845
108	0x3e66ed40	0.22551441
109	0x3e7997b3	0.24374275
110	0xbc178279	-0.009247416
111	0x3e40ae2a	0.18816438
112	0x3e3be387	0.18348514
113	0x3c3c9b20	0.011511594
114	0xbd74d956	-0.05977758
115	0x3e583b93	0.21116476
116	0xbbe476de	-0.006972178
117	0xbe4985aa	-0.19679895
118	0xbe4f11cf	-0.20221637
119	0xbe02243c	-0.12709135
120	0x3eb86754	0.36016333
121	0xbe78a1e1	-0.24280502
122	0x3f006d9f	0.5016727
123	0x3e8e5022	0.2779551
124	0xbe3fe71a	-0.18740502
125	0x3e0c02e1	0.13672973
126	0xbe217bd8	-0.15769899
127	0x3f1331ae	0.5749768
128	0x3e84a5fc	0.25907886
129	0xbe8fbbb8	-0.28072906
130	0xbd2de8d8	-0.042458385
131	0x3eb1b132	0.34705502
132	0xbe6d23b0	-0.23158145
133	0x3f200b17	0.6251692
134	0x3f00f900	0.50379944
135	0xbd309f8c	-0.043120906
136	0x3ddbd2cb	0.10733565
137	0x3daeab49	0.08528764
138	0xbe062561	-0.13100196
139	0x3dfbd2c1	0.122960575
140	0x3ec005ef	0.37504527
141	0x3d64ee3c	0.05589126
142	0x3f170709	0.5899511
143	0xbb5d38ac	-0.0033755703
144	0x3ee1e056	0.44116467
145	0x3e40df94	0.18835288
146	0xbef19641	-0.47184947
147	0x3e7f79e2	0.24948838
148	0x3e93524d	0.28773728
149	0xbb95f97b	-0.0045768595
150	0xbec0277d	-0.37530127
151	0xbe03c135	-0.12866671
152	0x3d65f96f	0.05614608
153	0x3df7a036	0.12091105
154	0xbe29e3ee	-0.16590855
155	0xbe744680	-0.23855019
156	0x3ef30379	0.47463587
157	0x3d700da8	0.058606774
158	0xbefab63e	-0.48967165
159	0xbe308cd2	-0.17241219
160	0x3c8e453e	0.017367002
161	0xbe7e1865	-0.24813993
162	0x3f118153	0.5683796
163	0xbe8661c9	-0.2624648
164	0xbe02d0c9	-0.12774958
165	0x3e10eeb9	0.14153565
166	0x3e1cd3dc	0.15315193
167	0x3d49022a	0.04907433
168	0x3d491b15	0.049098093
169	0xbdacfa88	-0.084462225
170	0x3e77f46f	0.24214338
171	0xbe927104	-0.2860185
172	0x3e7c9ff5	0.24670394
173	0x3ec30557	0.3809001
174	0x3e70431c	0.234631
175	0x3e039a7b	0.12851898
176	0xbd950b05	-0.072774924
177	0xbd74319d	-0.059617627
178	0xbe11b0b6	-0.14227566
179	0xbdae869e	-0.0852177
180	0x3e1035c0	0.14083004
181	0x3e3bb9f5	0.18332656
182	0x3e1e50c1	0.15460493
183	0x3e1de611	0.15419795
184	0xbe944d3e	-0.2896518
185	0x3ddf27c5	0.10896257
186	0x3f02a899	0.5103851
187	0xbf00b232	-0.50271904
188	0xbd99481e	-0.074844584
189	0xbec6cb22	-0.38826853
190	0x3e8848b8	0.2661798
191	0x3f800ddf	1.0004233
192	0xbdae40ac	-0.08508429
193	0x3ed400c9	0.4140685
194	0xbeff5203	-0.49867257
195	0xbe4584e3	-0.19288974
196	0x3e649ca3	0.22325377
197	0x3eb35096	0.3502242
198	0x3e799a97	0.24375378
199	0x3cb43537	0.021998031
200	0x3dba4271	0.09094704
201	0x3d30ae9e	0.043135278
202	0xbe4bbf93	-0.19897299
203	0xbe638584	-0.22218901
204	0x3ed0c9d0	0.4077897
205	0xbef3d04a	-0.4761985
206	0x3de0eca1	0.109826334
207	0x3d1e19c4	0.03859879
208	0x3da60b0f	0.08107578
209	0xbea529d1	-0.32258466
210	0x3f186c52	0.59540284
211	0xbe775d5d	-0.24156709
212	0xbf115be5	-0.56780845
213	0xbd379127	-0.044816162
214	0x3dad1f8a	0.08453281
215	0x3e8f1af7	0.2795026
216	0x3e96fef5	0.29491392
217	0x3d86373a	0.065535024
218	0x3e2653b1	0.16242863
219	0x3efc584c	0.49286115
220	0xbc756821	-0.01497844
221	0x3ecb26df	0.39678094
222	0x3db883fa	0.090095475
223	0x3ba9ef31	0.0051859845
224	0xbd7c2539	-0.061558936
225	0x3e564239	0.209237
226	0xbdd47f6e	-0.10375868
227	0x3e7618dc	0.2403292
228	0x3e296fb9	0.16546525
229	0x3e9d0c11	0.30673268
230	0xbed7ac44	-0.42123616
231	0xbc4fa76a	-0.012674192
232	0xbea08d0a	-0.31357604
233	0xbe4c6690	-0.19961
234	0xbf205399	-0.6262756
235	0xbd961fbf	-0.07330274
236	0xbe3f25fb	-0.18666832
237	0x3e698186	0.22803316
238	0xbe66e066	-0.22546539
239	0x3d2bb8fb	0.041924458
240	0xbec88af7	-0.39168522
241	0x3e4012ea	0.18757215
242	0xbf018fd6	-0.506101
243	0xbe0a393a	-0.13498393
244	0x3d516c33	0.051128577
245	0x3ee05e02	0.43821722
246	0xbcc537a7	-0.024074389
247	0xbf118688	-0.56845903
248	0x3e7ed25a	0.2488493
249	0x3e872423	0.26394758
250	0x3ef79978	0.48359275
251	0x3e42f776	0.19039711
252	0x3ebd2277	0.36940357
253	0xbeb11ef3	-0.34593925
254	0x3d7e62f3	0.062106084
255	0xbe86b042	-0.2630635

layers.2.bias f4 [32]
0	0x3dbe63d0	0.092963815
1	0x3b7acd68	0.0038269404
2	0xbdc16a68	-0.094441235
3	0x3d837654	0.06419054
4	0x3e626c95	0.22111733
5	0xbe25888d	-0.16165371
6	0x3c779461	0.01511106
7	0x3dbeefa6	0.09323053
8	0xbc724e07	-0.014789111
9	0x3d9306ed	0.07179055
10	0x3e05fb4d	0.13084145
11	0x3d90d400	0.07071686
12	0xbc1aa4a0	-0.009438664
13	0x3d1a165a	0.037618972
14	0x3de1a764	0.11018255
15	0x3d51b455	0.05119737
16	0x3e077f25	0.13232096
17	0xbe0b3ea9	-0.13598122
18	0x3df25508	0.11832625
19	0x3dcd2b5d	0.100180365
20	0x3de1f522	0.110330835
21	0x3dc4d5f3	0.0961112
22	0x3dbae5f2	0.0912589
23	0xbe2a774d	-0.16647072
24	0x3d916a85	0.07100395
25	0x3d6ba6e5	0.05753221
26	0x3e14fa4b	0.14548604
27	0xbe30720b	-0.17231004
28	0x3d9e9f4b	0.077452265
29	0xbc0b398b	-0.008497606
30	0x3e1aefaa	0.15130487
31	0x3d13a1c3	0.03604294

layers.4.weight f4 [1172, 32]
0	0xbe23c014	-0.1599124
1	0xbf11e011	-0.56982523
2	0x3e0d3718	0.13790548
3	0x3e864954	0.2622782
4	0xbd84dd81	-0.06487561
5	0x3e349d65	0.17638166
6	0x3e6185a6	0.22023639
7	0x3d71c331	0.05902404
8	0xbe6d3fbd	-0.23168845
9	0xbd7f6787	-0.06235459
10	0xbf213201	-0.62966925
11	0xbd637d46	-0.055539392
12	0xbf13e118	-0.5776534
13	0xbf210032	-0.62890923
14	0xbf43aea3	-0.7643835
15	0xbf26e15d	-0.6518763
16	0x3ea63949	0.3246558
17	0x3d95f6d1	0.07322467
18	0x3e9c16cc	0.30486143
19	0xbf0d24bc	-0.5513418
20	0x3bdba5ed	0.0067031295
21	0x3e3c5e67	0.18395387
22	0xbb6bb8a4	-0.0035968209
23	0x3dc5ea7e	0.096638665
24	0xbd724b4e	-0.059153847
25	0xbee43b79	-0.44576624
26	0x3cd594b1	0.026071878
27	0x3e5f203d	0.21789642
28	0xbe5dac9c	-0.21647877
29	0x3e0807cd	0.13284226
30	0x3eb520ae	0.35376495
31	0x3da360e3	0.07977464
32	0x3e523434	0.20527726
33	0xbd9c138f	-0.07620918
34	0xbe7b9498	-0.24568403
35	0x3d19d0dc	0.0375527
36	0xbf36b933	-0.7137634
37	0xbe6a3c20	-0.22874498
38	0xbb6ca6b3	-0.0036110103
39	0xbd7f701a	-0.062362768
40	0x3d210d6c	0.03931944
41	0xbebe4675	-0.3716313
42	0xbe89c287	-0.26906225
43	0xbf7d165b	-0.98862237
44	0x3e885ed8	0.2663486
45	0x3e92d6d2	0.2867952
46	0x3dd39865	0.10331801
47	0x3ea30159	0.31836966
48	0xbea7c62a	-0.32768375
49	0xbe54b113	-0.20770673
50	0x3de720dc	0.11285564
51	0xbce6d4ce	-0.028177645
52	0x3e4130c2	0.18866256
53	0xbe8b95f4	-0.27262843
54	0x3e94e8b3	0.29083785
55	0xbd724cb1	-0.05915517
56	0xbf1bc0a9	-0.6084085
57	0x3bf233d2	0.0073914314
58	0x3e5c3855	0.21505864
59	0xbe62fca6	-0.2216669
60	0x3e67dd02	0.22642902
61	0xbe63a727	-0.22231732
62	0xbebdfe99	-0.37108305
63	0xbeb7154a	-0.3575843
64	0x3e245b41	0.16050436
65	0xbf124f71	-0.5715247
66	0x3eb5e6b9	0.3552759
67	0x3e74ce30	0.2390678
68	0x3d95fa4c	0.07323131
69	0x3de4a592	0.111643925
70	0x3e937738	0.28801894
71	0xbeb4ce17	-0.35313484
72	0xbe48dc83	-0.19615369
73	0xbe86fcca	-0.26364738
74	0xbeaefc3f	-0.34176823
75	0xbf124d45	-0.57149154
76	0xbf4b21f1	-0.79348665
77	0xbf245a5c	-0.6420038
78	0x3d40eed7	0.047102775
79	0x3e98d3cb	0.29849085
80	0xbf6a96ab	-0.9163615
81	0x3ea82db7	0.32847378
82	0xbd8e3a20	-0.0694468
83	0x3b884f44	0.00415984
84	0xbef8f4f0	-0.48624372
85	0x3cf9a79b	0.030475428
86	0x3eba8e52	0.36436707
87	0x3ebd8fe9	0.37023857
88	0x3ec9a8d9	0.39386633
89	0xbe57eabe	-0.21085641
90	0xbd74b14f	-0.059739407
91	0x3e7ded53	0.24797563
92	0x3e60ce49	0.21953692
93	0xbf276f67	-0.6540436
94	0xbe12194b	-0.14267461
95	0xbd327119	-0.04356489
96	0x3ed8dfd7	0.42358276
97	0x3ecac01a	0.39599687
98	0xbe992722	-0.29912668
99	0x3e13f0a5	0.14447267
100	0x3d3f5f22	0.046721585
101	0xbe59a7e1	-0.21255447
102	0x3e365b27	0.1780821
103	0x3e664fc6	0.22491369
104	0x3da64797	0.081191234
105	0xbf68c092	-0.9091884
106	0xbe052a94	-0.13004524
107	0xbed2320f	-0.41053817
108	0x3ec859a3	0.39130887
109	0xbed607d2	-0.4180284
110	0xbeba81e2	-0.36427218
111	0xbf221980	-0.6332016
112	0xbf1c0720	-0.6094837
113	0xbe812cc4	-0.25229466
114	0x3e2db40d	0.16963215
115	0xbdbb283e	-0.09138535
116	0x3bc7b1d0	0.006094195
117	0xbec660fc	-0.38745868
118	0xbe614540	-0.21999073
119	0xbd29cbb8	-0.041454047
120	0x3e64748c	0.22310084
121	0x3f166d2f	0.5876035
122	0x3c7899cd	0.015173388
123	0xbe17db64	-0.14829785
124	0x3e2efaf3	0.17087917
125	0xbed7efc9	-0.4217513
126	0xbed8eca3	-0.4236804
127	0xbf19dd9e	-0.60103786
128	0x3d00d57b	0.03145359
129	0x3ec45cd5	0.38352075
130	0xbeafad67	-0.34311983
131	0xbbccbb29	-0.006247897
132	0xbe872ad7	-0.26399872
133	0xbc4056b5	-0.011739423
134	0x3e28f6dd	0.16500421
135	0x3d0b4d8b	0.034009498
136	0xbe33f578	-0.17574108
137	0xbe3d2858	-0.18472421
138	0x3eb48823	0.35260114
139	0xbdc7ebbf	-0.09761762
140	0xbf693ba6	-0.9110664
141	0x3e037145	0.12836178
142	0xbc9898a3	-0.01862747
143	0xbdd9a659	-0.106274314
144	0xbf2ec67f	-0.6827163
145	0xbe6ce0c3	-0.23132615
146	0xbe4afdbb	-0.19823353
147	0xbe85c2a6	-0.26125067
148	0x3e3dbfa4	0.18530136
149	0xbca09cdb	-0.019606045
150	0x3cf96d4a	0.03044762
151	0xbe948c19	-0.29013136
152	0x3e8f3822	0.27972513
153	0x3f06dba9	0.52678925
154	0x3e836047	0.2565939
155	0xbeb2580d	-0.34832802
156	0x3e9cbd8a	0.30613357
157	0xbe59f0c5	-0.21283253
158	0xbf235929	-0.6380792
159	0xbeb543c3	-0.3540326
160	0xbd8cc91f	-0.06874298
161	0xbed8aada	-0.4231785
162	0x3e3e711f	0.1859784
163	0x3cd57104	0.026054867
164	0xbf0c7ae0	-0.5487499
165	0x3d4e8f98	0.05042991
166	0x3e3a2281	0.18177225
167	0xbedc71d2	-0.43055588
168	0xbd7cf290	-0.061754763
169	0xbe5bdd26	-0.2147108
170	0xbba2650f	-0.004955895
171	0x3e32f837	0.17477499
172	0xbe8579fb	-0.26069626
173	0xbe95488c	-0.2915691
174	0x3e52ba44	0.20578867
175	0xbe5845ee	-0.21120426
176	0x3e489f94	0.19592124
177	0x3c1464e9	0.009057262
178	0xbe96b431	-0.2943435
179	0xbd47ac63	-0.048748385
180	0xbd7cdb46	-0.061732553
181	0x3ecd9be3	0.40157995
182	0x3e592faf	0.21209596
183	0x3e2a0ea9	0.16607155
184	0xbdb9aa0b	-0.09065636
185	0xbee3d282	-0.44496542
186	0x3e1809d1	0.14847495
187	0xbd10595a	-0.035241462
188	0x3e113fa6	0.14184436
189	0xbdd2a0c8	-0.10284573
190	0x3e69e1f7	0.22840105
191	0x3ecd31f1	0.40077165
192	0xbe462116	-0.19348559
193	0xbf127f44	-0.5722544
194	0x3d817581	0.0632124
195	0xbef25e11	-0.47337392
196	0x3e4f9c10	0.20274377
197	0xbd332002	-0.043731697
198	0xbbcc083d	-0.006226568
199	0x3bc93f11	0.0061415513
200	0x3b1ec5bf	0.0024226753
201	0x3eab5dd8	0.33470035
202	0xbf0f8338	-0.560596
203	0x3ba124d2	0.0049177194
204	0x3e827a77	0.25484058
205	0x3e7c03be	0.24610803
206	0xbd6827d5	-0.05667861
207	0x3e2b156b	0.16707389
208	0x3e120e07	0.14263164
209	0xbceeed98	-0.029166028
210	0xbed37498	-0.4129989
211	0xbe915c4e	-0.28390735
212	0xbe607ad6	-0.21921858
213	0xbe97319d	-0.2953004
214	0x3d9f2a67	0.077717595
215	0x3e209116	0.15680346
216	0xbdfcb374	-0.123389155
217	0x3da37067	0.079804234
218	0xbf1578dc	-0.5838754
219	0x3e495e9b	0.19664995
220	0xbee93669	-0.45549324
221	0xbde27d66	-0.11059074
222	0xbd4098e3	-0.047020804
223	0x3ed52489	0.41629437
224	0xbebd78f6	-0.37006348
225	0x3dd7d1f5	0.10538093
226	0x3a14be90	0.0005674148
227	0x3c8b0925	0.016972134
228	0xbf34d1e8	-0.7063279
229	0x3e0f4395	0.13990624
230	0x3c6fb50c	0.014630567
231	0xbe5e312d	-0.21698447
232	0xbdfdf252	-0.123997346
233	0x3eb7b77b	0.35882172
234	0x3de107e4	0.10987833
235	0x3d09be74	0.033628896
236	0x3e3e0089	0.18554892
237	0xbd8241ea	-0.06360228
238	0x3e5027a7	0.20327626
239	0xbf49c05e	-0.78809154
240	0xbee2ec96	-0.44321126
241	0x3da539ef	0.080676906
242	0xbe9eef71	-0.31042054
243	0x3e923553	0.28556308
244	0x3e83a3ce	0.2571091
245	0x3e58dc70	0.2117784
246	0xbdd8a95e	-0.10579179
247	0x3e5d1364	0.21589428
248	0xbf05ecd2	-0.52314484
249	0xbef6c804	-0.48199475
250	0x3dbe2bd1	0.09285701
251	0x3cec903c	0.02887737
252	0xbeceecb8	-0.40414977
253	0x3e898a9c	0.26863563
254	0xbf11b9a3	-0.56923884
255	0x3dd7da54	0.1053969

layers.4.bias f4 [1172]
0	0xbe02874a	-0.12746921
1	0x3e8c1588	0.27360177
2	0xbe85fd6a	-0.26169902
3	0x3d71b7ba	0.059013106
4	0x3e447974	0.19186956
5	0xbde0a219	-0.10968418
6	0xbdaf14be	-0.08548878
7	0x3c80c066	0.015716743
8	0xbdfecdae	-0.12441574
9	0xbe6238d9	-0.22091998
10	0x3d0c3c3c	0.03423713
11	0xbc923a0a	-0.01784994
12	0xbe91ca23	-0.2847453
13	0xbe289162	-0.16461709
14	0xbe274e5c	-0.16338485
15	0xbe64b241	-0.22333623
16	0xbe6781ab	-0.22608058
17	0xbc029348	-0.007969685
18	0xbd63bbfa	-0.05559919
19	0xbed4df74	-0.4157673
20	0xbe89778d	-0.26849023
21	0xbe0657d1	-0.13119437
22	0x3e668a2f	0.2251365
23	0xbe7544b1	-0.23951985
24	0xbd7e0ad8	-0.06202206
25	0x3e53c0be	0.20678994
26	0xbe399e3b	-0.18126766
27	0xbe047963	-0.1293693
28	0x3d717265	0.058946986
29	0xbded1c74	-0.11577693
30	0xbdfa105d	-0.12210152
31	0xbc2f5506	-0.0107014235
32	0x3d043af7	0.032282796
33	0xbd32451f	-0.04352295
34	0xbe26caa3	-0.16288237
35	0xbebefd24	-0.37302506
36	0xbda30060	-0.07959056
37	0x3d898aaa	0.06715901
38	0xbd81d038	-0.06338543
39	0xbe5b7f4e	-0.21435282
40	0xbe9f5679	-0.3112066
41	0xbe1c5528	-0.1526686
42	0xbd9f55f3	-0.077800654
43	0xbea61350	-0.3243661
44	0xbd7d9d2d	-0.061917473
45	0xbe305634	-0.17220384
46	0xbe33f34f	-0.17573284
47	0xbc9af67e	-0.018916365
48	0xbe6fcd19	-0.23418082
49	0x3d1871d1	0.03721792
50	0x3df3e40e	0.11908732
51	0x3d9fbbbc	0.07799479
52	0xbe5e72eb	-0.21723525
53	0xbe683762	-0.22677377
54	0x3cd05dbc	0.025435321
55	0x3e68c5a6	0.22731647
56	0xbc85a69c	-0.016314797
57	0x3e20d365	0.1570564
58	0xbd6119a9	-0.054956112
59	0xbe5f07c1	-0.21780302
60	0xbdb52244	-0.08844426
61	0xbc7542d3	-0.014969545
62	0x3e473856	0.19455084
63	0x3b9d508a	0.004800861
64	0x3debb199	0.115084834
65	0x3dc3b3a6	0.095557496
66	0x3d23791e	0.03991043
67	0x3de619a1	0.11235357
68	0xbdf4ee62	-0.119595304
69	0x3e6ea81f	0.2330632
70	0xbe873869	-0.26410225
71	0x3dfb0d9a	0.12258454
72	0xbe413fe9	-0.18872036
73	0x3d7c6231	0.06161708
74	0xbe63e122	-0.2225385
75	0xbcc81be8	-0.02442737
76	0xbeaf3ebb	-0.34227547
77	0x3e3a0ee5	0.18169744
78	0xbe9a2cc8	-0.3011229
79	0xbd1b071d	-0.03784858
80	0xbe431cd8	-0.19053972
81	0xbe0355ab	-0.12825648
82	0xbea3f05e	-0.32019323
83	0x3e7edf26	0.24889812
84	0xbe28d31f	-0.16486786
85	0xbddf7cb1	-0.10912455
86	0xbdc09793	-0.094039105
87	0xbe3dd5a7	-0.18538533
88	0x3e92c5d9	0.2866657
89	0xbbc26056	-0.0059318943
90	0xbe408135	-0.18799289
91	0xbc8e1426	-0.017343592
92	0xbe84e9e8	-0.25959706
93	0xbddf1489	-0.10892589
94	0xbe4db686	-0.20089158
95	0x3ce80cf7	0.028326495
96	0x3d7904c6	0.060795568
97	0xbe9507b5	-0.29107442
98	0xbc862e5c	-0.016379528
99	0x3ce646ab	0.028109869
100	0x3d0a85c3	0.03381897
101	0xbd0e467b	-0.034735184
102	0x3d2fca61	0.042917613
103	0x3e3f2cff	0.18669508
104	0x3d9d05aa	0.07667096
105	0xbe354771	-0.17703034
106	0xbdf65da0	-0.12029576
107	0xbd9a779e	-0.075423464
108	0x3bcc1d13	0.006229052
109	0xbd2bcef9	-0.04194543
110	0x3d88a401	0.06671906
111	0xbe60001b	-0.2187504
112	0xbdac393d	-0.08409355
113	0x3d1f5962	0.0389036
114	0xbe8f148a	-0.27945358
115	0xbe443d40	-0.1916399
116	0x3e00cb6e	0.12577602
117	0x3da2990a	0.07939346
118	0xbd9df1fe	-0.07712172
119	0x3e6d3ce1	0.23167755
120	0x3d6334a6	0.05547013
121	0xbdfe54b4	-0.124184996
122	0xbe290844	-0.1650706
123	0xbd21ec1f	-0.039531823
124	0x3c82ec22	0.015981738
125	0xbe540ecf	-0.20708774
126	0xbe21188a	-0.15732017
127	0xbe46434e	-0.19361612
128	0xbe461da9	-0.19347252
129	0xbd11c61f	-0.035589334
130	0x3c939ca2	0.018019024
131	0xbe8910cb	-0.26770625
132	0xbe0aaeda	-0.13543263
133	0xbd9dafea	-0.076995686
134	0xbdbb733d	-0.09152839
135	0xbe7c0955	-0.24612935
136	0x3d6c57d4	0.057700947
137	0x3d986cdf	0.074426405
138	0x3da0f9e6	0.07860164
139	0xbd9a1612	-0.07523741
140	0xbc31c686	-0.010850554
141	0x3ce88b9b	0.028386882
142	0xbe2575fd	-0.1615829
143	0x3d35c06c	0.04437296
144	0x3d32d5ce	0.04366093
145	0xbd458792	-0.048224993
146	0xbdbc1b02	-0.09184839
147	0x3d008bbd	0.031383265
148	0xbd6a1797	-0.057151403
149	0xbd387d7b	-0.045041543
150	0xbe24478f	-0.16042922
151	0x3e319cda	0.1734499
152	0xbd31401e	-0.043274038
153	0xbe8b025e	-0.27150244
154	0xbd86df60	-0.06585574
155	0xbcf86aad	-0.030324304
156	0xbdf60585	-0.120127715
157	0xbe2985de	-0.16554973
158	0xbe2e57b3	-0.17025642
159	0xbe103a4c	-0.14084738
160	0xbad91061	-0.0016560667
161	0x3c41e97e	0.011835454
162	0xbe8c6849	-0.27423313
163	0xbe5b579f	-0.21420144
164	0xbd929d1f	-0.07158875
165	0xbe5a6748	-0.21328461
166	0xbe6d6009	-0.23181166
167	0xbe911ec8	-0.28343797
168	0xbe1883ea	-0.14894071
169	0xbd845c16	-0.064628765
170	0xbd2d5469	-0.042316828
171	0xbe322097	-0.17395245
172	0xbea38c11	-0.319428
173	0x3c8034d5	0.015650192
174	0xbe4ae3cf	-0.19813465
175	0xbe8449a6	-0.2583744
176	0xbe38c5d9	-0.18044223
177	0xbe61c90a	-0.22049347
178	0xbdc3f789	-0.09568698
179	0xbd9cfa86	-0.07664971
180	0x3e296a4c	0.16544455
181	0x3de66174	0.112490565
182	0xbe5a646c	-0.2132737
183	0x3d86f0e5	0.06588916
184	0xbc6f7f48	-0.014617749
185	0xbe3428f1	-0.17593743
186	0xbe0b8c27	-0.13627683
187	0xbe2a5079	-0.1663226
188	0x3a8d5eb7	0.0010785674
189	0x3abf5816	0.0014598395
190	0xbea45e44	-0.3210317
191	0xbcfe0ef9	-0.031012999
192	0xbdf8c07e	-0.1214609
193	0xbe28c3df	-0.16480969
194	0xbeaa55f4	-0.33268702
195	0xbe8a06e2	-0.26958376
196	0x3d83dc3f	0.06438493
197	0x3cd2718b	0.025688907
198	0xbe7731b7	-0.24140058
199	0xbdd2c34f	-0.102911584
200	0xbe921cae	-0.28537506
201	0xbea7c2c8	-0.32765794
202	0xbec9d9b1	-0.39423898
203	0x3d3561d8	0.044282764
204	0xbe8d867f	-0.27641675
205	0x3d91b45f	0.07114481
206	0xbd275913	-0.040856432
207	0x3dd1b0ae	0.10238777
208	0xbdb3f6e4	-0.08787325
209	0x3d344b2b	0.044017
210	0xbd1e3c38	-0.038631648
211	0xbe5e8237	-0.2172936
212	0xbe77801b	-0.24169962
213	0xbd65c632	-0.056097217
214	0xbc5a2698	-0.0133148655
215	0x3c79c9dc	0.015245881
216	0xbcf94332	-0.030427549
217	0xbd5dc624	-0.05414404
218	0xbe6e1a95	-0.23252328
219	0xbe4a3ea6	-0.19750461
220	0x3dacbc2a	0.08434327
221	0xbe889fde	-0.2668447
222	0xbe69e7f6	-0.22842392
223	0x3dfe12dd	0.12405942
224	0x3bfe2780	0.0077561736
225	0xbde09471	-0.10965813
226	0xbe2a4703	-0.16628651
227	0xbe303954	-0.17209369
228	0xbd8dffab	-0.069335304
229	0xbe85dd37	-0.26145336
230	0xbcacfe07	-0.021117223
231	0xbe9050b2	-0.28186566
232	0xbe300945	-0.17191036
233	0xbe68de84	-0.22741133
234	0xbd17f76b	-0.03710119
235	0xbe75a774	-0.2398966
236	0xbe1531ce	-0.1456978
237	0xbe3a06ac	-0.18166608
238	0xbe17c153	-0.14819841
239	0xbe4cfc33	-0.20018081
240	0xbe22ae45	-0.15886791
241	0xbe803e2d	-0.25047436
242	0xbddad00b	-0.10684212
243	0x3d95165c	0.07279655
244	0x3dd25f7d	0.10272119
245	0x3e30c5ac	0.17262906
246	0xbd9371c3	-0.07199433
247	0xbe334c53	-0.17509584
248	0xbe021251	-0.127023
249	0xbd8d738c	-0.069068044
250	0xbe8af35d	-0.27138796
251	0xbdaa2072	-0.0830697
252	0x3db80daf	0.08986985
253	0xbde42615	-0.11140076
254	0x3c2f4bd9	0.010699236
255	0xbe1dde6c	-0.15416878
