Models/LSTM_Start-ups_8_4.pth (torch, 243453 bytes, 7 tensors)

embeddings.0.weight f4 [1172, 4]
0	0x3fd9136e	1.6959054
1	0x3f368bfc	0.7130735
2	0x3fe373e4	1.7769742
3	0xbf76e163	-0.9643766
4	0x3fb4ed88	1.4134989
5	0xc00be6f4	-2.1859713
6	0x3e5aa25b	0.21350996
7	0xc02a7e4d	-2.6639588
8	0xbf4be759	-0.79649884
9	0x3fad2810	1.3527851
10	0x3f14835e	0.5801295
11	0xbfbb888d	-1.4651047
12	0xbdc30e48	-0.09524208
13	0xbfd3ab07	-1.6536568
14	0xbf6c59ed	-0.92324716
15	0x400631af	2.0967824
16	0x4016e155	2.3575032
17	0xbe865439	-0.26236132
18	0xbd97e98e	-0.07417594
19	0x3fdbb1d0	1.7163639
20	0xbfedf151	-1.8589269
21	0x3f8c611f	1.0967139
22	0x3fc497bd	1.5358807
23	0x3fea443b	1.8302072
24	0xbf2ba831	-0.67053515
25	0x3f855d4c	1.0419097
26	0xbeac0421	-0.335969
27	0x3cee98b5	0.02912555
28	0xbdeafb42	-0.11473705
29	0xbf63a139	-0.8891788
30	0x3ed41392	0.4142118
31	0x3ec44442	0.38333327
32	0xc002d5fb	-2.0443103
33	0xbf9313c4	-1.1490407
34	0xbe9a1878	-0.30096793
35	0x4019fd5f	2.4060895
36	0x3efe0ced	0.49619237
37	0xbeadfc41	-0.33981517
38	0x3fe3031c	1.7735324
39	0xbf9f927b	-1.2466577
40	0xc02d68ec	-2.709529
41	0x3f542530	0.82869244
42	0xbff51c37	-1.9149235
43	0xbdf209c4	-0.11818269
44	0xbe0cf668	-0.13765872
45	0x40840446	4.1255217
46	0xbf12d7d1	-0.5736056
47	0xbfbb5497	-1.463519
48	0xbfbe69b9	-1.4876014
49	0x3eed6f62	0.4637404
50	0xbe5fbd31	-0.21849515
51	0x3fe72bc3	1.806023
52	0xc0081d6a	-2.1267953
53	0x3fcc9919	1.5984222
54	0xbed464bc	-0.41483104
55	0xbfcf9323	-1.6216778
56	0xbfc27500	-1.5191956
57	0x3ec7b6f9	0.39006785
58	0xbec17c79	-0.37790278
59	0x3f67bc90	0.905221
60	0x3f58f7d7	0.84753174
61	0x3eaf2a3b	0.34211907
62	0xbfd0cfd8	-1.6313429
63	0x4049a121	3.1504595
64	0x4045e7ae	3.0922656
65	0x3f6ea5d7	0.932218
66	0x3fb32524	1.399571
67	0x3f18758c	0.5955436
68	0x3f68ee41	0.90988547
69	0xbf842512	-1.0323813
70	0xc012146a	-2.282496
71	0x40179db7	2.3690012
72	0x3f820b26	1.0159652
73	0xbe8160ea	-0.25269252
74	0xbfd539eb	-1.66583
75	0x3fefa260	1.8721428
76	0x3fdb5fb7	1.7138585
77	0xbfa7a76a	-1.3097966
78	0xbf915e07	-1.135682
79	0xbf694a3c	-0.911289
80	0xbe5b7d68	-0.21434557
81	0xbef837c5	-0.4848005
82	0xc03ed5c9	-2.9817984
83	0xbea838db	-0.32855877
84	0x402a58fe	2.6616817
85	0x3f622587	0.8833851
86	0x3f851ad0	1.0398808
87	0x3fae7cfe	1.3631895
88	0x3f89a9e7	1.0754975
89	0xbf9fe198	-1.2490721
90	0xc015ccdf	-2.3406293
91	0x3dd40537	0.10352557
92	0xc025822c	-2.58607
93	0xbffb68f1	-1.96414
94	0x3f264f77	0.64965004
95	0x4048f172	3.1397367
96	0xc02e39d4	-2.7222795
97	0xbed37be6	-0.41305465
98	0x3f947776	1.1598957
99	0x3d0c6818	0.03427896
100	0x3fbcb983	1.4744114
101	0x3f530b94	0.8243954
102	0x3f284308	0.6572728
103	0xbf609d28	-0.877398
104	0x3eb6b1b0	0.3568244
105	0x3f65304e	0.8952683
106	0x3ee99d85	0.4562799
107	0x3dd22cd9	0.1026246
108	0x3ff0521a	1.8775055
109	0xbe27e14e	-0.1639454
110	0xbf8b032d	-1.0860344
111	0xbf8a6eb6	-1.0815036
112	0xc0055beb	-2.0837352
113	0xbe875168	-0.26429296
114	0xbf01cb4c	-0.5070083
115	0xbed01eef	-0.406486
116	0xbf825b17	-1.0184048
117	0x3fdfc5ab	1.7482198
118	0xbf9d34bb	-1.2281717
119	0x3f24ceb3	0.643779
120	0xbe9b5269	-0.3033631
121	0xbf6ceec9	-0.9255186
122	0x3f9269e7	1.1438569
123	0x3faa4c5c	1.3304553
124	0x3e3fa3fa	0.18714896
125	0x3fab6f1d	1.3393284
126	0x3e9a4a81	0.30134967
127	0xbf7a4649	-0.97763497
128	0x3f6e04a2	0.9297582
129	0x3e701bde	0.2344813
130	0xbf779749	-0.9671522
131	0xbea7a310	-0.32741594
132	0x3e0ca642	0.13735297
133	0x3fadec22	1.3587687
134	0x3d23c0a7	0.03997865
135	0x3fdcd4d3	1.7252449
136	0x3e087c35	0.13328631
137	0xbfb31202	-1.398987
138	0xc0119134	-2.2744875
139	0x4002579f	2.036598
140	0x3fac29dc	1.3450274
141	0x3f9ab868	1.2087526
142	0xbfdaeabc	-1.7102885
143	0x3f19cf8b	0.6008231
144	0xbef4e906	-0.47834033
145	0x3e47bd10	0.19505715
146	0x3e041453	0.12898378
147	0x3f9a9b35	1.2078615
148	0x3dedcd20	0.1161139
149	0x3ec0bbe5	0.37643352
150	0xbff076f1	-1.8786298
151	0x3fa96e4d	1.3236786
152	0x3fabb0f3	1.3413376
153	0x3ff59dd4	1.918879
154	0xbf9982fb	-1.1993097
155	0x3fa36821	1.2766153
156	0xbfa10509	-1.2579662
157	0xbeb661a2	-0.35621363
158	0xbf2c15e1	-0.67220885
159	0x40279038	2.6181774
160	0xc02eb16b	-2.7295787
161	0x3f18d776	0.5970377
162	0xbe98d72c	-0.29851663
163	0x3f06e11e	0.5268725
164	0x3e95ee3f	0.2928333
165	0xbe1b6908	-0.15176785
166	0xbea3951f	-0.31949708
167	0xbf263e9f	-0.649393
168	0xbfb2fe44	-1.3983846
169	0x3f4c1fbd	0.7973593
170	0x3f22e497	0.6363005
171	0xbede2df6	-0.4339444
172	0xc0239950	-2.5562325
173	0x3f2468f1	0.6422263
174	0x3deacb4e	0.114645585
175	0x3ff0e2d5	1.8819224
176	0x3f816fa3	1.0112194
177	0xbf26b980	-0.651268
178	0xbec42a56	-0.3831355
179	0x3e72e41e	0.23719832
180	0xbffd1802	-1.9772952
181	0xbfffc084	-1.9980626
182	0xbf8b22ed	-1.0870034
183	0xbf81d92b	-1.01444
184	0x3f313c12	0.69232285
185	0xc03d249d	-2.9553597
186	0xc0067b48	-2.1012745
187	0xbf615f0c	-0.88035655
188	0x3f7c58d6	0.9857305
189	0x3c259d57	0.0101083135
190	0x4015dfd3	2.3417861
191	0xbdf20db9	-0.11819024
192	0x4060e8dc	3.5142126
193	0xbf9c3248	-1.2202845
194	0xbee43189	-0.44569042
195	0xbfdcc54b	-1.7247709
196	0xbf54ab3f	-0.830738
197	0x3fc82957	1.5637616
198	0xbe83d42e	-0.25747818
199	0x3f66ace2	0.9010755
200	0x3f8e8600	1.1134644
201	0x3fa915ee	1.3209817
202	0x3d855ca0	0.065118074
203	0xbfa2bc57	-1.2713727
204	0x3d67ec01	0.056621555
205	0x3f2257bd	0.6341513
206	0xbec9f2f8	-0.39443183
207	0xbeb9dcf9	-0.363014
208	0xbfd022a1	-1.6260568
209	0xc028c34b	-2.6369197
210	0x3ecbb4af	0.39786288
211	0xbedcf50a	-0.431557
212	0x3eaa7386	0.33291262
213	0x3eea41d1	0.4575334
214	0xbf25ba39	-0.6473728
215	0xc083f7c2	-4.123994
216	0x3edc2735	0.42998663
217	0x3ff0df75	1.8818194
218	0xc04a4a5c	-3.1607885
219	0x3f06be29	0.5263391
220	0x3d04e0cc	0.032440946
221	0x3e430a7a	0.19046965
222	0x3f3b0ab7	0.73063225
223	0x3fbefd84	1.4921117
224	0xbf27dea3	-0.6557409
225	0x401643d9	2.347891
226	0xbf55439f	-0.83306307
227	0xbfa0fef8	-1.257781
228	0xbff69a9b	-1.9265932
229	0xbe80dd82	-0.25168997
230	0x40194a08	2.3951435
231	0x40001249	2.001116
232	0xbfc25a73	-1.5183853
233	0xbe19f684	-0.15035444
234	0xbf94997e	-1.1609342
235	0xbfae481f	-1.361576
236	0x3f5b3014	0.85620236
237	0x3f7b987f	0.98279566
238	0xbf889162	-1.0669367
239	0xbd881c61	-0.06646038
240	0xbf7cdd35	-0.98775035
241	0x3f85b8fa	1.0447075
242	0xbf2b886a	-0.67005026
243	0x3f23a5a0	0.639246
244	0xbfcb3a0e	-1.5877092
245	0x3e387273	0.18012409
246	0xbff88436	-1.9415348
247	0x4067bf1b	3.6210392
248	0x400329e1	2.049431
249	0xbec46550	-0.38358545
250	0x3e5187e5	0.20461996
251	0xbf19992e	-0.5999936
252	0x3fe770f3	1.8081344
253	0x3f0c1932	0.54725945
254	0x3ca00535	0.019533733
255	0x3f83ccc2	1.0296862

layers.0.weight f4 [256, 32]
0	0xbf2646cd	-0.64951783
1	0x3e197a34	0.14988023
2	0xbf21ca8f	-0.63199705
3	0xbdf64ca2	-0.12026335
4	0x3eca36f0	0.3949504
5	0x3e16eec7	0.14739524
6	0x3e913cf3	0.28366813
7	0xbeae5856	-0.3405177
8	0x3eb405ab	0.35160574
9	0xbf122849	-0.5709272
10	0x3de66901	0.11250497
11	0x3eed7734	0.46380007
12	0x3d2cf2d6	0.042223774
13	0x3dcdcf58	0.10049313
14	0x3f2ae2f4	0.66752553
15	0x3e7912c1	0.2432356
16	0xbe7119c0	-0.23544979
17	0xbe7bafc7	-0.24578772
18	0x3e30121b	0.17194407
19	0xbe15bd40	-0.14622974
20	0xbd79c14f	-0.06097537
21	0x3ea162f7	0.31520817
22	0x3e330eaa	0.17486063
23	0xbdcb64ab	-0.0993131
24	0xbef319b9	-0.47480562
25	0x3e3de16b	0.18543021
26	0xbe4c6993	-0.19962148
27	0xbe927945	-0.28608146
28	0x3e9f55c2	0.31120116
29	0x3f144d4d	0.5793045
30	0xbd4d77e2	-0.050163157
31	0x3f882983	1.0637668
32	0x3f01bcb4	0.50678563
33	0x3dde914a	0.108675554
34	0x3d5d6477	0.05405089
35	0x3e170acf	0.14750217
36	0xbcf88e2e	-0.030341234
37	0x3f0cb6d7	0.5496649
38	0x3edfbf00	0.4370041
39	0xbd20c2aa	-0.039248146
40	0xbe027ec9	-0.12743677
41	0xbeb5133a	-0.3536623
42	0xbd862feb	-0.065521084
43	0x3e72e117	0.23718677
44	0xbef925bd	-0.48661605
45	0x3c570f8e	0.013126267
46	0xbf6e2125	-0.93019325
47	0xbdc87f52	-0.097899094
48	0x3ec3815f	0.3818464
49	0xbdffd91e	-0.12492584
50	0xbe869a00	-0.26289368
51	0xbe559dee	-0.20861027
52	0x3dc1bd9e	0.09459995
53	0xbea3c59d	-0.31986704
54	0x3f02b0ba	0.51050913
55	0xbf228a28	-0.6349206
56	0x3e9b6d87	0.30357
57	0xbf9d025c	-1.2266345
58	0x3c86644c	0.016405247
59	0xbf1bb41d	-0.60821706
60	0xbf37540c	-0.7161262
61	0x3e2cf38b	0.1688978
62	0xbd90f2c3	-0.07077553
63	0x3f0754fe	0.5286406
64	0xbf1d3cea	-0.6142107
65	0x3ea0c082	0.31396872
66	0x3e77df4e	0.24206278
67	0xbf3d6fc3	-0.7399866
68	0xbf2415a1	-0.64095503
69	0x3ca57b3d	0.020200366
70	0xbe4a7adf	-0.19773434
71	0x3e98cd4a	0.29844123
72	0xbc4fb594	-0.012677569
73	0xbed22599	-0.4104431
74	0xbefb3ad4	-0.4906832
75	0xbebedbc1	-0.37277034
76	0xbe09264d	-0.13393517
77	0x3e2bca5e	0.16776416
78	0x3dfeac4b	0.12435206
79	0xbf01765d	-0.50571233
80	0xbe1142ec	-0.14185685
81	0x3e84d37d	0.25942603
82	0xbf188478	-0.5957713
83	0xbedb3c54	-0.42819464
84	0xbf02b814	-0.5106213
85	0x3d414967	0.047189143
86	0x3f1661aa	0.58742774
87	0xbe8674a2	-0.2626086
88	0xbe047e28	-0.1293875
89	0x3db88bc2	0.09011032
90	0xbe84a3df	-0.25906274
91	0xbe1d5d47	-0.15367614
92	0x3e156280	0.14588356
93	0x3f05ccab	0.52265424
94	0x3f62dd75	0.88619167
95	0xbecfd09d	-0.40588847
96	0xbe2915a6	-0.16512164
97	0xbcd9744b	-0.02654471
98	0x3ed4a0f7	0.41529056
99	0xbe7637b3	-0.24044685
100	0x3e85bf11	0.26122335
101	0xbe9a3f1e	-0.3012628
102	0x3e91763c	0.28410518
103	0xbda6bec5	-0.08141855
104	0x3de665f4	0.11249915
105	0x3f00d91a	0.5033127
106	0x3c6bf4b5	0.014401604
107	0xbe1b74e3	-0.15181307
108	0xbf0e1b1f	-0.55510134
109	0xbdc3bc01	-0.09557343
110	0xbd92c959	-0.0716731
111	0x3ecee0be	0.4040584
112	0xbf0ecf32	-0.55784905
113	0x3f08466c	0.53232455
114	0xbe8ab6c2	-0.27092558
115	0x3e2a5b58	0.16636407
116	0x3e37e6a8	0.17959082
117	0xbeac7dc4	-0.33689702
118	0x3da2b9a1	0.07945562
119	0x3e75df09	0.24010862
120	0x3e716225	0.23572595
121	0x3f12e26d	0.5737675
122	0xbf4cd932	-0.80018914
123	0x3f41274c	0.7545059
124	0xbeaf6acb	-0.34261164
125	0x3d1c93c4	0.038226858
126	0xbe00302c	-0.12518376
127	0x3f52a6bb	0.8228566
128	0x3db50312	0.08838476
129	0xbf3cafbf	-0.7370567
130	0xbf0a634e	-0.54057777
131	0x3e44dff8	0.19226062
132	0xbf18c6f2	-0.59678566
133	0xbe6d76d3	-0.23189859
134	0x3f20757e	0.6267928
135	0x3ea24b96	0.31698292
136	0xbe232677	-0.15932642
137	0x3e18fb20	0.14939547
138	0xbf0aa650	-0.5416002
139	0xbec1c5f6	-0.37846345
140	0xbe9557cb	-0.29168543
141	0x3ea4d839	0.32196215
142	0x3f40ff30	0.75389385
143	0x3bd3fd6f	0.0064694206
144	0xbe438d3c	-0.19096845
145	0x3f233351	0.6375018
146	0x3ea40654	0.32036078
147	0xbeae6df3	-0.3406826
148	0xbc67e0b8	-0.014152698
149	0x3eff0f91	0.49816564
150	0xbe7e166d	-0.24813242
151	0xbef9fb20	-0.48824406
152	0x3e196e5c	0.14983505
153	0x3de66ace	0.1125084
154	0x3ea51c10	0.32247972
155	0xbf832ace	-1.0247438
156	0xbf0bb53d	-0.5457342
157	0x3ef0c55f	0.47025582
158	0xbe77ef63	-0.24212413
159	0xbda2801c	-0.07934591
160	0x3ca95d6f	0.020674435
161	0xbceae875	-0.028675297
162	0x3d669739	0.05629656
163	0x3eaaa57f	0.33329388
164	0xbe887445	-0.26651207
165	0x3f1c7225	0.6111167
166	0xbe1f2db8	-0.15544784
167	0xbec59833	-0.3859268
168	0xbf12b795	-0.57311374
169	0xbda74c49	-0.08168847
170	0x3f0efcb3	0.5585434
171	0x3e60faf6	0.21970734
172	0x3e2ee1f1	0.17078377
173	0x3ea9c0e4	0.33154976
174	0xbe57db73	-0.21079807
175	0x3f37a3ac	0.7173412
176	0xbebd1d60	-0.36936474
177	0x3f2d84eb	0.6778094
178	0x3d930607	0.07178884
179	0xbee2737f	-0.44228742
180	0xbeb23043	-0.34802446
181	0x3ef3b594	0.4759947
182	0x3ee81575	0.4532887
183	0x3e8c2ec9	0.27379444
184	0x3ef25c02	0.4733582
185	0xbed85c18	-0.42257762
186	0xbd92f3f3	-0.07175436
187	0xbeda8a17	-0.4268348
188	0x3eb61878	0.35565543
189	0x3f1ffe28	0.62497187
190	0xbef32e8f	-0.4749646
191	0xbeef904e	-0.46789783
192	0x3b73a22d	0.0037175522
193	0x3ed932a8	0.4242146
194	0x3c21305a	0.009838188
195	0xbd64a49f	-0.055821057
196	0xbf8a29a3	-1.0793957
197	0x3e96a3a5	0.29421726
198	0x3f058403	0.5215456
199	0xbe2df96c	-0.16989678
200	0x3dd1e0e6	0.10247974
201	0xbeb8ec36	-0.36117715
202	0xbd95cb21	-0.073141344
203	0xbe0d6109	-0.13806547
204	0x3ee265f2	0.44218403
205	0xbdd6a872	-0.10481347
206	0x3da68d52	0.081324235
207	0x3ee9b441	0.45645335
208	0xbeafb127	-0.34314844
209	0x3dfaf362	0.12253453
210	0xbd26713a	-0.040635325
211	0x3d8c3486	0.068459556
212	0xbecfb824	-0.40570176
213	0xbe6c8083	-0.23095898
214	0x3e78b41f	0.2428746
215	0xbdc70ad6	-0.09718864
216	0x3e6d88df	0.23196743
217	0x3c11df9c	0.00890341
218	0x3e735edd	0.23766656
219	0x3e2012c1	0.15632154
220	0x3f2c2c62	0.6725522
221	0xbf4d0b66	-0.8009552
222	0xbf0481b8	-0.51760435
223	0x3f1281d1	0.57229334
224	0x3da29fd6	0.079406425
225	0x3e8a5854	0.27020514
226	0xbe81195c	-0.2521466
227	0xbf4a0d9f	-0.78927034
228	0xbefcca43	-0.49373063
229	0xbf25f45f	-0.64826006
230	0x3ea95af5	0.33077207
231	0x3cfff3e8	0.031244233
232	0x3eb0d301	0.34535983
233	0xbe1aedef	-0.15129827
234	0xbe3bb5c4	-0.18331057
235	0x3da6fac5	0.08153299
236	0x3cbad315	0.02280573
237	0xbf3a9ad5	-0.72892505
238	0xbe9d8add	-0.30770007
239	0x3be5f412	0.007017621
240	0x3dd920ed	0.10601983
241	0xbd49bb38	-0.04925081
242	0x3eb1564a	0.34636146
243	0xbe486c9a	-0.19572678
244	0xbd779441	-0.06044412
245	0x3ec2ebd2	0.38070542
246	0xbe6954ef	-0.22786306
247	0xbeeffb72	-0.46871525
248	0x3f18c71f	0.59678835
249	0x3e494eb3	0.19658928
250	0xbd1d9876	-0.038475476
251	0xbe099789	-0.13436712
252	0xbe2ec9de	-0.17069194
253	0x3f1ac087	0.60450023
254	0x3d069f0e	0.03286653
255	0x3f3dc139	0.7412296

layers.0.bias f4 [256]
0	0x3e34f826	0.17672786
1	0x3e21e0ab	0.1580836
2	0xbf0384ac	-0.51374316
3	0x3e6b9d0f	0.23009132
4	0xbd8ff6fe	-0.07029532
5	0xbe2045f1	-0.1565168
6	0xbf01ce13	-0.5070507
7	0x3d44ed4e	0.048077874
8	0xbe6c7b25	-0.23093851
9	0x3ed67e49	0.41893223
10	0x3cb5f93c	0.02221357
11	0x3eb6ea04	0.35725415
12	0xbf47ff4f	-0.78123945
13	0x3e81e5b0	0.2537055
14	0x3eb22a90	0.34798098
15	0x3d95e902	0.07319833
16	0x3dd37a18	0.10326022
17	0x3eb24c1f	0.348237
18	0xbe2ee7e6	-0.1708065
19	0xbe47908d	-0.19488735
20	0x3b16e8a5	0.002302685
21	0x3e4029be	0.18765923
22	0xbf1b1177	-0.60573524
23	0xbf158749	-0.58409554
24	0xbc83022c	-0.015992247
25	0xbe7a720e	-0.24457571
26	0x3e9746b9	0.29546145
27	0x3ecc4a2f	0.39900348
28	0xbe8fe693	-0.28105602
29	0x3e6002fb	0.21876137
30	0x3e8b692d	0.2722868
31	0x3f049e92	0.5180446
32	0x3d5a9a35	0.05336972
33	0xbec7192f	-0.388864
34	0x3d03e5f4	0.032201722
35	0x3eac8c2d	0.33700696
36	0x3e9b5459	0.3033779
37	0x3e1824e7	0.14857827
38	0x3e9c74ec	0.30557954
39	0xbd8cc7d3	-0.06874051
40	0x3eab04a1	0.3340197
41	0x3d014fe5	0.031570334
42	0x3e103b09	0.1408502
43	0xbeb5fc3c	-0.35544002
44	0x3e7cf041	0.24701025
45	0x3c923b6f	0.017850606
46	0x3e668e9a	0.22515336
47	0x3d64fc10	0.055904448
48	0xbe18bad3	-0.14915018
49	0x3eaa5456	0.33267468
50	0xbe86bf12	-0.2631765
51	0xbf1b781c	-0.6073015
52	0x3b5eb238	0.0033980738
53	0xbd466348	-0.048434526
54	0xbef8f144	-0.4862157
55	0x3ee19ec9	0.44066456
56	0xbe8f084b	-0.27936015
57	0xbe8e9ce7	-0.27854082
58	0x3e1ac247	0.15113173
59	0x3e76a5f6	0.24086747
60	0x3e4e8137	0.20166479
61	0x3e539ad4	0.20664531
62	0x3e55fdda	0.20897618
63	0x3f04ba95	0.518472
64	0x3ddfb3ea	0.10922988
65	0x3e2c295d	0.16812654
66	0xbe03c9af	-0.12869905
67	0x3e683489	0.2267629
68	0x3e30bdad	0.17259856
69	0x3e0bef97	0.13665615
70	0x3dc69dc5	0.09698061
71	0x3db72262	0.08942105
72	0xbe9f615a	-0.3112896
73	0xbd9d0342	-0.07666637
74	0x3e3f0a0e	0.1865618
75	0x3dc6dfd9	0.09710664
76	0xbe3c33f3	-0.18379192
77	0x3dde06d9	0.1084115
78	0x3c0cad48	0.008586235
79	0xbc6774d0	-0.014126971
80	0x3e6fcfc3	0.23419099
81	0x3e3fe628	0.18740141
82	0xbe270ebc	-0.16314214
83	0xbeb1ebf1	-0.34750322
84	0x3ea84c16	0.3287055
85	0x3ec27201	0.37977603
86	0x3e65957b	0.22420304
87	0x3d197b68	0.037471205
88	0x3df30777	0.11866658
89	0x3e86bb3d	0.26314726
90	0x3c847af0	0.016171902
91	0xbd9c3075	-0.0762643
92	0xbbace52e	-0.005276344
93	0x3e4481c6	0.1919013
94	0xbed3124e	-0.41224903
95	0xbe51618b	-0.20447366
96	0x3e171648	0.14754593
97	0x3e81347f	0.25235364
98	0x3e7a1860	0.24423361
99	0x3e0dc1a7	0.13843404
100	0x3e1a7ff5	0.15087874
101	0x3d936a1d	0.07197974
102	0x3ecc2461	0.39871505
103	0x3d14146e	0.036152296
104	0xbdc03625	-0.09385327
105	0x3e846bfa	0.2586363
106	0x3dc4a402	0.096015945
107	0x3e7e99e0	0.24863386
108	0xbe7d6b0a	-0.24747863
109	0x3e0d00a8	0.13769782
110	0x3dd28c67	0.10280686
111	0xbd3a1dff	-0.045438763
112	0xbde1b860	-0.11021495
113	0x3e514443	0.20436196
114	0x3ec1c918	0.37848735
115	0x3e101fd5	0.14074643
116	0x3e04d976	0.1297358
117	0xbd9c0ba3	-0.07619407
118	0x3e19891d	0.14993711
119	0x3b80a98b	0.003926461
120	0x3c13f691	0.009030954
121	0x3e648538	0.22316444
122	0xbd6f76ee	-0.05846303
123	0x3de7966d	0.11307988
124	0xbe141193	-0.14459829
125	0xbeee7fab	-0.46581778
126	0xbc9c30fc	-0.019066326
127	0xbedb559a	-0.42838746
128	0x3e4d8d97	0.20073543
129	0xbdd19e51	-0.102352746
130	0xbb9a615f	-0.0047113146
131	0xbeafa1f0	-0.34303236
132	0xbde316bb	-0.1108832
133	0xbeeb4d40	-0.45957375
134	0xbc3cc0cd	-0.011520577
135	0xbee67913	-0.45014247
136	0x3e139916	0.14413866
137	0xbcdf93b8	-0.027292117
138	0x3da4aae2	0.08040406
139	0xbdf62833	-0.12019386
140	0x3ccd1b5c	0.02503746
141	0x3dcf0994	0.10109249
142	0xbeaf1573	-0.34196052
143	0x3e71c980	0.23612022
144	0x3d747314	0.05968006
145	0x3e1cf55c	0.15327972
146	0xbe180c7a	-0.1484851
147	0xbea5c102	-0.32373816
148	0xbeb58d3b	-0.35459313
149	0x3ea8c1bd	0.3296031
150	0xbd5881ad	-0.052858043
151	0x3ac66840	0.001513727
152	0xbcbca65b	-0.023028543
153	0x3e5970ee	0.21234486
154	0xbea766cf	-0.32695624
155	0x3eaa654e	0.33280414
156	0xbf3a0ac1	-0.7267266
157	0xbe4e2da2	-0.20134595
158	0x3e39587c	0.1810016
159	0x3e1aa795	0.1510299
160	0x3da0cfdc	0.07852146
161	0xbe0afef6	-0.13573822
162	0xbe5104a3	-0.20411925
163	0x3e4ed88c	0.20199794
164	0x3e8a4f96	0.27013844
165	0x3d0c5070	0.0342564
166	0x3e2cc6d0	0.16872716
167	0xbe6c69ed	-0.23087282
168	0x3cf31f7c	0.029678099
169	0x3d49704f	0.04917937
170	0xbda848dd	-0.082170226
171	0x3e846d28	0.2586453
172	0xbd5d7d4b	-0.054074567
173	0x3d940b65	0.07228736
174	0x3e274655	0.16335423
175	0xbe3e8378	-0.18604839
176	0xbebac368	-0.36477208
177	0xbef4c589	-0.47806957
178	0x3e853188	0.26014352
179	0xbe5f13d9	-0.21784915
180	0x3e2bf313	0.16791944
181	0x3e74e95c	0.23917145
182	0x3e3de636	0.1854485
183	0x3d1fc08b	0.039001983
184	0xbcd752f1	-0.026284667
185	0xbd36c114	-0.044617727
186	0xbefa1f07	-0.48851797
187	0x3ede6ccf	0.4344239
188	0xbebf50b5	-0.37366262
189	0x3e503a15	0.20334657
190	0xbf016138	-0.5053897
191	0xbea9788d	-0.33099785
192	0xbddd6c1f	-0.10811638
193	0x3da8dede	0.082456335
194	0x3c13d3f0	0.009022698
195	0xbc054d4d	-0.008136106
196	0x3e5e889f	0.21731804
197	0x3e3f6299	0.18689956
198	0x3e7e052d	0.24806662
199	0xbd7b438e	-0.061343722
200	0xbd670576	-0.056401692
201	0xbda64cbc	-0.08120105
202	0xbf11e6ce	-0.56992805
203	0xbe7031c1	-0.2345648
204	0x3e3a38cf	0.18185733
205	0xbed0f0c4	-0.4080869
206	0x3e04b79c	0.12960666
207	0x3e879a41	0.26484874
208	0xbd3bb04b	-0.045822423
209	0xbb1173ec	-0.002219434
210	0xbf193c34	-0.5985749
211	0x3cd3f5fe	0.025874134
212	0xbf078889	-0.5294271
213	0xbee696e5	-0.45036998
214	0x3de550d3	0.111970566
215	0x3d60b4fd	0.054860104
216	0x3e1965ed	0.14980288
217	0xbca09c29	-0.019605713
218	0xbd2cdb17	-0.042201128
219	0xbe8c91a1	-0.27454856
220	0xbe96bef6	-0.29442567
221	0xbd2ed603	-0.042684566
222	0x3debe57d	0.11518381
223	0x3baf70b9	0.0053540138
224	0x3eb90152	0.3613382
225	0x3e5633fc	0.20918268
226	0x3c9b48a0	0.018955529
227	0xbf3bae78	-0.73313093
228	0x3e584953	0.21121721
229	0x3e2cfd77	0.16893564
230	0xbc7fe0a3	-0.015617522
231	0xbefde316	-0.49587315
232	0x3e2105d9	0.15724887
233	0x3d936f8e	0.07199012
234	0x3e8890be	0.2667293
235	0x3dc6c3fb	0.09705349
236	0xbe4832eb	-0.19550674
237	0x3e0b6d4d	0.13615914
238	0xbe2d4e40	-0.16924381
239	0x3dfb028f	0.122563474
240	0x3d83239d	0.06403277
241	0x3ec5291c	0.38507926
242	0x3e4d73e2	0.20063737
243	0x3e70c910	0.235142
244	0xbe2a2c1e	-0.16618392
245	0xbdc93394	-0.09824291
246	0x3dd36240	0.10321474
247	0xbe764504	-0.24049765
248	0xbd7d7754	-0.06188138
249	0x3df23277	0.11826032
250	0xbecee52a	-0.40409213
251	0x3d86501f	0.06558251
252	0x3b940290	0.004516907
253	0x3eb454a3	0.35220823
254	0xbe3f287b	-0.18667786
255	0x3ed88159	0.42286184

layers.2.weight f4 [32, 256]
0	0xbe2765c8	-0.1634742
1	0x3df89b20	0.12138963
2	0xbae29653	-0.0017287232
3	0x3df6f2da	0.12058039
4	0x3cafe037	0.021469219
5	0x3eaecc98	0.34140468
6	0xbc6b4b1f	-0.014361172
7	0xbe204c86	-0.15654191
8	0xbdfd0a8b	-0.123555265
9	0xbdefaad8	-0.11702508
10	0xbdfa3a94	-0.12218204
11	0xbd81591b	-0.06315824
12	0x3f63aace	0.889325
13	0x3f386eff	0.72044367
14	0x3e9f3a73	0.3109928
15	0xbde2631c	-0.1105406
16	0xbd866204	-0.06561664
17	0x3cc61d75	0.024183968
18	0xbc1db450	-0.009625509
19	0xbe23c97f	-0.15994833
20	0xbe3be28f	-0.18348144
21	0x3e9bb1d9	0.30409124
22	0x3e84c7ff	0.25933835
23	0x3d2e9770	0.04262489
24	0x3dc7863a	0.097423986
25	0xbe90ac3e	-0.2825641
26	0xbdb882ae	-0.090093
27	0xbde15d55	-0.1100413
28	0xbd85e06c	-0.06536946
29	0x3eff7d93	0.49900493
30	0xbdd146cd	-0.10218582
31	0xbe890508	-0.2676165
32	0x3daf4d5f	0.08559679
33	0xbdde8ab9	-0.10866303
34	0x3f0b9b28	0.54533625
35	0x3eab48c2	0.33453947
36	0xbe706880	-0.23477364
37	0xbea9dc11	-0.3317571
38	0x3da44c32	0.080223456
39	0xbe4cb46d	-0.19990702
40	0x3e016ee3	0.12639956
41	0x3ea3b258	0.31972003
42	0x3e0a5e93	0.1351264
43	0x3daa0e90	0.08303559
44	0xbeb901f5	-0.36134306
45	0x3ea5de70	0.3239627
46	0xbd0576b8	-0.032583922
47	0x3e6790f8	0.22613895
48	0x3e957de5	0.29197612
49	0x3d632ae4	0.055460826
50	0x3ed5adaa	0.41734058
51	0xbe2a9cf8	-0.16661441
52	0x3e214e8c	0.1575262
53	0xbcf05c9f	-0.02934104
54	0x3e854996	0.26032704
55	0xbe8d607c	-0.27612674
56	0xbedd1834	-0.43182528
57	0xbdda532f	-0.10660397
58	0x3ea987ee	0.3311152
59	0x3d6b3a88	0.057428867
60	0x3e1b489b	0.15164416
61	0x3f02b614	0.5105908
62	0x3e64af88	0.22332585
63	0x3e2b15bf	0.16707514
64	0xbd86c675	-0.065808214
65	0x3d8ab3af	0.06772553
66	0x3d9d538b	0.0768195
67	0x3d101264	0.03517379
68	0x3d94d453	0.0726706
69	0x3d8a9c47	0.06768089
70	0x3dda8b95	0.106711544
71	0x3ec69bdd	0.3879079
72	0xbe5ad5d4	-0.21370631
73	0xbef4c251	-0.47804502
74	0xbe53f3dd	-0.20698495
75	0x3e48dbef	0.19615148
76	0xbee77614	-0.45207274
77	0xbcf66361	-0.030076684
78	0x3e4149ad	0.18875761
79	0x3e77097f	0.24124716
80	0x3e070828	0.13186705
81	0xbea16dba	-0.31529027
82	0x3ee71e7d	0.45140448
83	0xbf3d39ed	-0.7391651
84	0x3e8f791f	0.28022096
85	0xbe156ec2	-0.14593032
86	0xba7bdd6e	-0.0009607886
87	0x3e200560	0.1562705
88	0x3e425d0d	0.18980809
89	0x3eaa40e1	0.33252624
90	0xbe307e01	-0.17235567
91	0xbdb47321	-0.088110216
92	0xbf3733a7	-0.7156319
93	0xbe8c6670	-0.27421904
94	0x3db148a4	0.08656433
95	0xbe86b7bc	-0.26312053
96	0xbd1a09bd	-0.037606943
97	0xbe37c2af	-0.1794536
98	0xbec2626b	-0.37965712
99	0x3e6463e8	0.22303736
100	0x3d74816a	0.05969373
101	0x3f080a75	0.53140956
102	0xbe843f84	-0.2582971
103	0xbdfeb835	-0.124374785
104	0x3e733eaa	0.23754373
105	0xbe8bb059	-0.2728298
106	0xbe0c7cc2	-0.13719466
107	0xbe528c18	-0.20561254
108	0x3da2626e	0.0792893
109	0xbe05f4cb	-0.13081662
110	0x3e568dee	0.2095258
111	0xbf19c614	-0.6006787
112	0xbebbc394	-0.36672652
113	0xbe79cb17	-0.24393879
114	0x3e3efafe	0.18650433
115	0x3bbafd0e	0.005706436
116	0x3eabd7d9	0.33563116
117	0xbe14a1b0	-0.14514804
118	0x3e3ff660	0.18746328
119	0xbf06cd21	-0.5265675
120	0xbe9271a0	-0.28602314
121	0x3e7125ff	0.2354965
122	0xbed89f3d	-0.4230899
123	0xbde7d660	-0.11320186
124	0x3c7958b6	0.015218904
125	0xbef9bc24	-0.48776352
126	0xbe065c86	-0.13121232
127	0x3c88c6ec	0.016696416
128	0x3db799e2	0.08964898
129	0xbee5bbe2	-0.44869906
130	0x3ed855bb	0.42252907
131	0x3e3e3463	0.18574671
132	0x3e6afae8	0.22947276
133	0xbea928a7	-0.33038828
134	0x3d8462e0	0.064641714
135	0x3dd8ea58	0.105915725
136	0xbe05027a	-0.12989226
137	0xbe9c79ab	-0.30561575
138	0x3e849642	0.25895888
139	0x3e0fb956	0.14035544
140	0x3eb0df04	0.34545147
141	0x3b4444ce	0.0029948237
142	0xbe0837c9	-0.1330253
143	0xbd094cd0	-0.03352052
144	0x3e95bf97	0.29247734
145	0x3e32af5d	0.17449708
146	0xbf0354b2	-0.5130111
147	0xbed38475	-0.41311994
148	0xbde275da	-0.11057635
149	0xbdaeda96	-0.08537786
150	0xbdd43b72	-0.10362901
151	0xbe9021e0	-0.28150845
152	0xbe768086	-0.24072465
153	0x3f26b0de	0.6511363
154	0xbe09e57b	-0.13466446
155	0xbdeac552	-0.11463417
156	0x3e69d5fc	0.22835535
157	0xbe08a7db	-0.13345282
158	0x3df5e020	0.12005639
159	0x3e93b71e	0.28850645
160	0x3e9de5af	0.30839297
161	0xbe478e93	-0.19487981
162	0x3e68302e	0.22674629
163	0xbdabdb42	-0.083914295
164	0x3c968945	0.018376002
165	0x3efc6e4b	0.49302897
166	0x3e61cc89	0.2205068
167	0x3c76f741	0.015073598
168	0xbe8cf619	-0.27531508
169	0x3e24e5dd	0.16103311
170	0x3df9f303	0.12204554
171	0xbe80aea8	-0.25133252
172	0x3d7e2b71	0.062053148
173	0x3eceb5dc	0.40373123
174	0x3ea3bdcc	0.3198074
175	0xbe4d888b	-0.20071618
176	0xbdd2be58	-0.102902114
177	0xbdab18d2	-0.083543435
178	0xbeba0af2	-0.36336476
179	0x3e2d8fd1	0.16949393
180	0x3b2158d8	0.0024619605
181	0x3ebee975	0.3728749
182	0x3d12c4b6	0.03583213
183	0x3eca750b	0.39542422
184	0xbde5adb4	-0.11214772
185	0x3da34c18	0.07973498
186	0xbed6f125	-0.41980854
187	0x3e8c8537	0.27445385
188	0x3e68f47a	0.2274951
189	0xbe993f37	-0.29931042
190	0xbed5789b	-0.41693577
191	0xbde1f80a	-0.11033638
192	0x3f12b29d	0.5730379
193	0x3e64f41b	0.22358744
194	0x3e279c87	0.16368304
195	0x3e2161b4	0.15759927
196	0x3ddf404b	0.10900935
197	0x3f1bc299	0.6084381
198	0x3ebb9d7d	0.36643592
199	0x3f08919c	0.5334718
200	0x3f144369	0.5791536
201	0x3dfe694f	0.1242243
202	0x3e3d3130	0.18475795
203	0xbe00ceb9	-0.12578858
204	0x3edba5ce	0.42899936
205	0xbea75fc1	-0.32690242
206	0x3e1f5101	0.15558244
207	0xbe388532	-0.1801956
208	0x3ce735af	0.02822384
209	0x3e156eab	0.14592998
210	0xbe0fa9cd	-0.14029618
211	0xbe2ab3e5	-0.16670187
212	0x3efbcc56	0.49179333
213	0x3ebe07b4	0.37115252
214	0xbe03658f	-0.1283171
215	0x3df77dcb	0.1208454
216	0xbb2803f8	-0.0025637131
217	0x3ceb17f7	0.02869795
218	0x3e8bc0fc	0.27295673
219	0xbd9654e9	-0.07340414
220	0x3e52a1df	0.20569561
221	0xbf00a7e6	-0.5025619
222	0xbf0f6be8	-0.56024027
223	0x3f0994e7	0.5374283
224	0x3d9a0d20	0.07522035
225	0xbed8035b	-0.4219006
226	0xbe8837ac	-0.26604974
227	0x3e08d3de	0.13362071
228	0xbdd5c4e8	-0.104379475
229	0x3ec356c2	0.38152128
230	0x3c7b8e81	0.0153538
231	0xbe3c11d0	-0.1836617
232	0x3c37c978	0.0112174675
233	0x3e09740a	0.13423172
234	0xbeaa9300	-0.33315277
235	0x3dde3428	0.10849792
236	0xbefd437a	-0.49465543
237	0xbefc6a1d	-0.49299708
238	0xbe46c97f	-0.19412802
239	0x3ea881ce	0.32911533
240	0xbeab14de	-0.33414358
241	0xbe1baaba	-0.15201846
242	0x3e150d35	0.1455582
243	0x3e534e62	0.2063537
244	0xbe024fb0	-0.12725711
245	0x3f239dd5	0.6391271
246	0xbe14e403	-0.14540105
247	0xbddfdcc8	-0.109307826
248	0xbe9708dd	-0.2949895
249	0x3e950277	0.29103443
250	0xbdfab3f7	-0.12241357
251	0xbd98e8f5	-0.07466308
252	0x3ed79be2	0.42111117
253	0x3ee193d6	0.44058102
254	0x3edbe663	0.4294921
255	0x3ed84f14	0.42247832

layers.2.bias f4 [32]
0	0x3e18cfee	0.14923069
1	0x3b60f705	0.0034326923
2	0x3da1488b	0.078751646
3	0x3cea43a9	0.028596716
4	0x3d6ac962	0.05732096
5	0x3e339c95	0.175402
6	0x3e5db0bd	0.21649452
7	0xbce98733	-0.02850685
8	0x3e54596d	0.20737238
9	0x3e44b980	0.19211388
10	0x3e19254d	0.14955635
11	0x3dfdca77	0.12392133
12	0x3d3d273c	0.046179995
13	0x3e63aeaa	0.22234598
14	0xbe2ea05c	-0.1705336
15	0xbd77817c	-0.06042622
16	0x3cf241e8	0.029572442
17	0x3da4a53d	0.08039329
18	0x3e41b095	0.18915017
19	0xbc2ae358	-0.01043018
20	0x3f0b95ec	0.5452564
21	0x3e08524e	0.13312647
22	0x3e26b863	0.16281275
23	0x3e89f741	0.26946452
24	0x3df60eef	0.12014567
25	0xbdd992c8	-0.106236994
26	0x3e103f9a	0.14086762
27	0x3dcff98d	0.1015502
28	0x3d43922c	0.047746822
29	0x3b9a1c63	0.004703091
30	0x3e29afcf	0.16570972
31	0x39d4717b	0.0004052034

layers.4.weight f4 [1172, 32]
0	0xbe436b23	-0.19083838
1	0x3d303084	0.043015018
2	0xbb63fbf5	-0.003478763
3	0xbf9133ac	-1.1343894
4	0x3d27813b	0.04089473
5	0x3f016e71	0.50559145
6	0xbdc70bb7	-0.09719031
7	0x3e2ea724	0.17055947
8	0x3e96af5a	0.29430658
9	0xbea4656a	-0.32108623
10	0xbbd3de08	-0.006465677
11	0x3e1ab751	0.15108992
12	0x3e3e1aeb	0.18564956
13	0xbbf182be	-0.007370322
14	0xbed147bc	-0.4087504
15	0x3ebca9b9	0.36848238
16	0x3dfeeaa3	0.12447097
17	0xbf0d8c5b	-0.5529229
18	0xbf16fb80	-0.5897751
19	0x3e9ede20	0.31028843
20	0xbdb9093c	-0.090349644
21	0xbea9c25f	-0.33156106
22	0xbf08dbb1	-0.5346022
23	0xbeadf68a	-0.33977157
24	0xbf24304b	-0.6413619
25	0xbf2f99c5	-0.6859401
26	0x3e956e46	0.29185694
27	0xbef70974	-0.482494
28	0x3e4c463e	0.1994867
29	0x3e82f5c6	0.25578135
30	0xbe83a94b	-0.25715098
31	0xbeda8b2c	-0.42684305
32	0x3e442f1f	0.191586
33	0xbe80d4f7	-0.2516248
34	0xbe24e94e	-0.16104624
35	0x3df957a9	0.12174923
36	0xbd9d6519	-0.076852985
37	0xbeb2aa8b	-0.3489574
38	0x3e190642	0.14943793
39	0xbe165c1b	-0.14683573
40	0xbcbe6daa	-0.023245651
41	0x3ec7c8eb	0.39020476
42	0xbe6d0137	-0.23144995
43	0x3e000e61	0.12505485
44	0x3ea1ed2a	0.31626254
45	0x3d17edfc	0.037092194
46	0xbe013687	-0.12618457
47	0x3d416d44	0.047223344
48	0xbdef6b98	-0.11690444
49	0xbf1f5bb6	-0.62249315
50	0x3eaf90a7	0.34290048
51	0xbe783b01	-0.24241258
52	0xbe2e6a3a	-0.1703271
53	0x3d689086	0.056778453
54	0x3e377f14	0.1791957
55	0xbd636cf7	-0.05552384
56	0x3e63de4b	0.22252767
57	0x3e1273da	0.14302006
58	0x3e1c7272	0.15278032
59	0x3e79e7e3	0.24404864
60	0xbc50b791	-0.012739078
61	0xbed08179	-0.4072378
62	0xbdb15e4d	-0.086605646
63	0x3dd791d4	0.105258614
64	0xbd839dd7	-0.0642659
65	0x3c4788cf	0.012178614
66	0xbec56bcc	-0.38558805
67	0xbe39e083	-0.1815205
68	0x3e9b1649	0.3029044
69	0x3e27f5a2	0.16402295
70	0x3e991591	0.29899266
71	0x3e0e692a	0.13907304
72	0x3e9358c5	0.28778663
73	0xbec11dd5	-0.37718073
74	0xbfb3ca24	-1.4046063
75	0x3eb2ac8e	0.34897274
76	0x3e962711	0.2932668
77	0xbdfbb836	-0.12290995
78	0xbf8633cc	-1.0484557
79	0xbe962081	-0.29321674
80	0x3ea06f4c	0.31334913
81	0xbd8de4b1	-0.06928385
82	0xbc09ccaf	-0.008410617
83	0xbe0b1f5f	-0.13586186
84	0xbe800158	-0.25001025
85	0xbe288900	-0.16458511
86	0xbf2b3617	-0.6687941
87	0x3e19917d	0.14996906
88	0xbe11848e	-0.14210722
89	0xbf9ae678	-1.2101583
90	0xbf00bfc8	-0.50292635
91	0x3f30d280	0.690712
92	0xbe512e41	-0.204278
93	0xbde189eb	-0.11012634
94	0xbcc71b77	-0.024305088
95	0x3e46d396	0.19416651
96	0x3bc2bc6a	0.005942871
97	0xbfa8fed6	-1.320277
98	0xbfd98a87	-1.69954
99	0x3d856a15	0.06514374
100	0xbcc79c7a	-0.024366606
101	0x3d933dc7	0.071895175
102	0xbd8f54c0	-0.06998587
103	0xbea7ee8c	-0.32799184
104	0x3e1bdea8	0.15221655
105	0x3ccddef5	0.025130728
106	0x3d82f659	0.06394643
107	0x3d66cc29	0.056347046
108	0xbf92d8dc	-1.147243
109	0x3dfd4a4f	0.12367689
110	0xbe376c6a	-0.1791245
111	0xb938d211	-0.00017625863
112	0x3d8aaff7	0.06771844
113	0xbe3715d1	-0.17879416
114	0x3e3a70e1	0.18207122
115	0xbfb386ad	-1.4025475
116	0x3defadb8	0.11703056
117	0x3e7d96a5	0.24764498
118	0x3e6d40a4	0.2316919
119	0x3e7062eb	0.23475234
120	0x3d993492	0.0748073
121	0xbd4ba47c	-0.04971741
122	0x3e4b9524	0.19881111
123	0x3c3275c5	0.010892336
124	0xbd1ac78c	-0.03778796
125	0x3de3f211	0.11130155
126	0x3e1b5489	0.15168966
127	0x3d9c7960	0.07640338
128	0x3c3d730a	0.011563072
129	0xbfb804fe	-1.4376523
130	0xbe672d40	-0.22575855
131	0x3df2ed31	0.11861647
132	0x3d43c129	0.047791634
133	0x3d47acf2	0.048748918
134	0xbb946e43	-0.004529746
135	0xbe89bdeb	-0.26902708
136	0x3d925c87	0.071465544
137	0x3d861c7e	0.06548403
138	0x3deefe3a	0.116695836
139	0x3ddc18c2	0.1074691
140	0xbfc57e10	-1.5429096
141	0x3e5c95a5	0.2154146
142	0xbddc6660	-0.10761714
143	0xbd3fd1bc	-0.046830878
144	0xbe032098	-0.12805402
145	0xbe51e825	-0.20498712
146	0x3e82f007	0.2557375
147	0xbe4e2bc2	-0.2013388
148	0x3e22f94f	0.15915416
149	0x3e0eb8b3	0.13937645
150	0x3e56efcf	0.20989917
151	0x3dd74b2a	0.10512383
152	0x3db8bc27	0.09020262
153	0xbe2a9700	-0.16659164
154	0x3dbcde70	0.09222114
155	0x3cd084ae	0.025453892
156	0xbe8b68ab	-0.27228293
157	0xbf853265	-1.0406004
158	0x3defd14f	0.11709844
159	0x3d7faf1e	0.062422864
160	0xbd837b22	-0.0641997
161	0x3e08e848	0.13369858
162	0xbdfd04ad	-0.123544075
163	0x3d8f061d	0.06983588
164	0xbf91a839	-1.1379462
165	0xbe01c7e5	-0.1267391
166	0x3e8bad00	0.27280426
167	0xbf298cf5	-0.6623071
168	0xbf4c88a7	-0.79896015
169	0xbe9cad4b	-0.30600962
170	0x3e96fdf7	0.29490635
171	0x3edef1be	0.4354381
172	0x3e962a6c	0.2932924
173	0xbee34416	-0.44387883
174	0x3e54126f	0.20710157
175	0x3e797e7d	0.24364658
176	0xbe1e7c2d	-0.15477057
177	0xbf6c5a42	-0.9232522
178	0xbf921019	-1.1411163
179	0x3ea8bd1e	0.32956785
180	0x3e18aa30	0.14908671
181	0x3e467eb6	0.19384274
182	0x3f13cce7	0.5773453
183	0x3e0ddb2b	0.13853137
184	0xbefffe62	-0.49998766
185	0xbf20326a	-0.62576926
186	0xbe6a0793	-0.22854452
187	0xbec47f65	-0.38378444
188	0x3eaada41	0.3336964
189	0xbe9ffa80	-0.31245804
190	0xbe781ddb	-0.24230139
191	0xbd6b9a8e	-0.05752044
192	0xbf3cd1a3	-0.7375738
193	0x3e7400d6	0.23828444
194	0x3e44c610	0.1921618
195	0xbe7df0be	-0.24798867
196	0x3e372397	0.1788467
197	0xbf546fa1	-0.8298283
198	0x3ead4a51	0.3384576
199	0xbf0c21ba	-0.5473896
200	0xbdacdee4	-0.084409505
201	0x3d87825c	0.06616661
202	0xbf111d9e	-0.5668582
203	0xbdddd6aa	-0.108319595
204	0x3eb7a0a6	0.35864753
205	0xbe165e59	-0.14684428
206	0x3eae2357	0.34011337
207	0x3e0872ce	0.13325045
208	0x3eb21bf8	0.34786963
209	0xbf4ef251	-0.80838495
210	0xbe07d377	-0.13264261
211	0x3ebaef29	0.3651059
212	0xbe869e0d	-0.26292458
213	0x3d882bfb	0.066490136
214	0xbd3ba9da	-0.04581628
215	0xbf1eb1e2	-0.6199018
216	0x3eb68998	0.3565185
217	0x3e7b2abf	0.24528025
218	0xbe93789b	-0.28802952
219	0x3e1fae23	0.15593772
220	0x3e5e0313	0.2168086
221	0x3e9427f1	0.28936723
222	0x3e336b12	0.17521313
223	0x3e7594f0	0.23982596
224	0xbf19ba9a	-0.60050356
225	0xbeba724f	-0.36415336
226	0x3e2e92aa	0.17048135
227	0xbf1f7308	-0.622849
228	0xbed02595	-0.40653673
229	0x3d1c8d0b	0.038220447
230	0x3e9e3b70	0.30904722
231	0x3db5bc50	0.088738084
232	0x3eaf5522	0.3424464
233	0xbf13a0ff	-0.57667536
234	0xbea0a384	-0.31374753
235	0x3e949a00	0.29023743
236	0x3e49e00c	0.19714373
237	0x3d6bdae9	0.057581816
238	0xbf013e91	-0.50486094
239	0x3dc196a4	0.094525605
240	0x3eb8d7ab	0.36102042
241	0x3e97d346	0.29653376
242	0xbf4d020c	-0.8008125
243	0x3e897133	0.26844177
244	0xbf9754b9	-1.182273
245	0xbc2e4beb	-0.010638217
246	0x3e9d2780	0.306942
247	0xbf1027d9	-0.563108
248	0xbe87cfdb	-0.2652577
249	0xbf13392d	-0.5750912
250	0xbecb67bd	-0.39727584
251	0xbd6e8140	-0.05822873
252	0x3e40d32b	0.18830554
253	0x3e87b972	0.2650867
254	0x3e46d0d8	0.19415605
255	0x3ea179cb	0.31538233

layers.4.bias f4 [1172]
0	0xbe40c4a7	-0.18825017
1	0x3e630c92	0.22172764
2	0xbd825ddd	-0.06365559
3	0x3f1a3628	0.60238886
4	0x3e61efe2	0.22064164
5	0xbd734624	-0.059393063
6	0xbe17f4f6	-0.14839539
7	0xbe2120e5	-0.15735205
8	0xbe0840ba	-0.13305941
9	0xbd95645b	-0.07294532
10	0xb9d17360	-0.00039949547
11	0xbe24fc2f	-0.16111825
12	0xbca7f15f	-0.020500837
13	0xbdcd2821	-0.100174196
14	0xbce234b6	-0.027613025
15	0x3c8011a3	0.01563341
16	0xbe9db939	-0.30805376
17	0xbeed13b4	-0.46304095
18	0xbe5172c1	-0.20453931
19	0xbe2a1fb7	-0.16613661
20	0xbe2fd48d	-0.17170925
21	0xbe104e0a	-0.1409227
22	0xbda649e7	-0.081195645
23	0x3b99a3a9	0.0046886993
24	0x3ea6cdd3	0.32578906
25	0xbe0ee33e	-0.13953874
26	0xbe042410	-0.12904382
27	0xbdff0cc0	-0.12453604
28	0xbe16ad2e	-0.147145
29	0xbe4678f5	-0.19382079
30	0xbe8066cf	-0.25078437
31	0x3cd0e051	0.025497587
32	0xbe41c22d	-0.18921728
33	0xbdcd9656	-0.1003844
34	0xbc8fff81	-0.017577888
35	0xbe274f5e	-0.1633887
36	0x3c914c38	0.01773654
37	0xbe9e5765	-0.30926052
38	0xbe6ea3ea	-0.23304716
39	0xbe8ae0cf	-0.2712464
40	0xbe6ef4d6	-0.23335585
41	0xbe06ec95	-0.13176186
42	0xbdad4c8d	-0.084618665
43	0xbdfb9028	-0.12283355
44	0x3d84284d	0.06452999
45	0xbd9f535c	-0.077795714
46	0xbe8d1c60	-0.2756071
47	0xbe044ed3	-0.12920694
48	0xbd512ca7	-0.051067974
49	0x3bae3b67	0.00531714
50	0x3e6dddca	0.23229137
51	0xbe8762f2	-0.26442677
52	0xbdccfa6f	-0.10008704
53	0xbe9934c1	-0.2992306
54	0xbd82dfe8	-0.06390363
55	0x3c9a30c6	0.018822085
56	0xbe5d971f	-0.2163968
57	0xbe96d23a	-0.29457265
58	0xbd0580be	-0.03259348
59	0x3c87475e	0.016513523
60	0x3d7130fe	0.058884613
61	0xbd5fbb40	-0.054621935
62	0x3e33acc7	0.17546378
63	0x3ded19fd	0.115772225
64	0x3da126c8	0.07868725
65	0xbe5e85b7	-0.21730696
66	0xbe17886b	-0.14798133
67	0xbe06be90	-0.13158631
68	0xbdd40eb9	-0.103543706
69	0xbe775e65	-0.24157102
70	0xbe8da27e	-0.27663034
71	0xbde30f18	-0.11086863
72	0xbe5e45ff	-0.21706389
73	0xbc96d485	-0.018411884
74	0xbe2a6859	-0.16641368
75	0xbeac2f03	-0.33629617
76	0xbe82110a	-0.25403625
77	0x3ed5c9f4	0.4175564
78	0x3cccb53b	0.024988761
79	0xbe27bdfb	-0.16381066
80	0xbd3e33d0	-0.04643613
81	0xbe6ce31c	-0.2313351
82	0xbeb46a28	-0.3523724
83	0x3e9197eb	0.28436217
84	0xbe713d14	-0.23558456
85	0xbe78252b	-0.24232928
86	0x3dbf7e4f	0.09350263
87	0xbe99860d	-0.29985085
88	0x3e0ed5a3	0.13948683
89	0x3dddc594	0.10828701
90	0x3be32c87	0.0069327983
91	0xbeac7789	-0.33684948
92	0xbdd5efdc	-0.1044614
93	0xbe2a2d7e	-0.16618916
94	0xbd9d45c9	-0.07679326
95	0xbe53ad71	-0.20671631
96	0xbea7b41b	-0.32754597
97	0xbe76033b	-0.2402467
98	0x3e89fac3	0.26949129
99	0xbd8eb272	-0.069676295
100	0xbe3a0bd3	-0.18168573
101	0xbe7a0c7c	-0.24418825
102	0xbd3eb2e8	-0.046557337
103	0xbdfa5fce	-0.122253045
104	0xbd916829	-0.07099945
105	0x3b4c45ca	0.0031169527
106	0xbe50101e	-0.20318648
107	0xbcbcd089	-0.023048656
108	0x3cb2300b	0.021751424
109	0x3d8b692a	0.06807168
110	0xbeae50ab	-0.3404592
111	0xbe819d1d	-0.2531518
112	0xbdfcc84c	-0.12342891
113	0x3e37abd7	0.17936645
114	0xbdc75807	-0.09733587
115	0x3db6a268	0.08917695
116	0xbc7b88f5	-0.015352477
117	0xbe5a628d	-0.21326657
118	0x3d91c82f	0.0711826
119	0x3e4669d3	0.19376306
120	0x3ddb8f61	0.10720707
121	0x3e09c1af	0.1345279
122	0xbecb71ed	-0.39735356
123	0xbd861676	-0.06547253
124	0xbdba4fcf	-0.090972535
125	0xbd6d563f	-0.05794358
126	0xbe6cbf0c	-0.23119754
127	0xbe3e4eb5	-0.18584712
128	0xbe30a8d4	-0.17251903
129	0xbe867a8e	-0.26265377
130	0x3c9b2e7e	0.018943068
131	0x3dc10358	0.09424466
132	0xbec7872f	-0.38970324
133	0x3d3da8b9	0.046303485
134	0xbe9224db	-0.28543743
135	0xbe3eda0c	-0.18637866
136	0xbdf02b81	-0.11727048
137	0xbcc01439	-0.023447143
138	0x3d7fb60c	0.062429473
139	0xbe90c5a1	-0.2827578
140	0xbebcda14	-0.3688513
141	0xbdedad50	-0.11605322
142	0xbd54431d	-0.051821817
143	0x3e90660e	0.28202862
144	0xbca6f194	-0.020378865
145	0xbe9ce483	-0.3064309
146	0xbd88ce32	-0.06679954
147	0xbc8d6b44	-0.017263062
148	0xbdfab14a	-0.122408465
149	0xbd6cea38	-0.057840556
150	0xbe5854c5	-0.21126087
151	0x3db0d800	0.08634949
152	0x3dfa7d52	0.12230934
153	0xbdd5c3e0	-0.10437751
154	0xbe07c75b	-0.13259642
155	0xbe10fb62	-0.14158395
156	0xbe84deea	-0.2595132
157	0xbe82be13	-0.2553564
158	0xbd7b07e4	-0.061286822
159	0x3c4188e3	0.0118124215
160	0xbe8fe269	-0.28102425
161	0x3e04f69d	0.129847
162	0xbe38fc2e	-0.18064949
163	0xbe7197ab	-0.23593013
164	0xbe9d3a9e	-0.30708784
165	0xbe97eaa3	-0.296712
166	0x3d5bc66b	0.053656023
167	0x3e08a5b2	0.13344458
168	0xbe24e335	-0.16102298
169	0xbdcc3343	-0.09970715
170	0xbe4f9b07	-0.20273982
171	0xbcb84561	-0.02249402
172	0xbeba7973	-0.36420783
173	0x3d067211	0.032823626
174	0xbce71ff4	-0.028213479
175	0xbda9c575	-0.08289615
176	0xbda462aa	-0.08026631
177	0x3def8d54	0.11696878
178	0xbd411f82	-0.04714919
179	0x3e82fb0d	0.25582162
180	0xbe0725f6	-0.13198075
181	0xbbc7e2d6	-0.006100039
182	0xbea214cc	-0.31656492
183	0xbe786dc5	-0.24260624
184	0xbe84eba5	-0.25961033
185	0xbe838327	-0.25686
186	0xbdcbebf1	-0.099571116
187	0xbc286fc0	-0.0102805495
188	0xbe885a5d	-0.26631442
189	0xba597d08	-0.0008296524
190	0xbdfb1175	-0.12259189
191	0xbe83fcc8	-0.25778794
192	0xbe6b8dd9	-0.2300333
193	0xbe9d0999	-0.30671385
194	0xbec58656	-0.38579053
195	0xbe60100e	-0.21881124
196	0xbc8f5b30	-0.017499536
197	0xbe44c854	-0.19217044
198	0xbdf613aa	-0.12015469
199	0xbe9d5d95	-0.3073546
200	0xbd6b0af1	-0.05738348
201	0xbe6caef9	-0.23113622
202	0xbcb6c962	-0.022312824
203	0xbea27c18	-0.317353
204	0x3b52f4c6	0.0032189353
205	0xbda784cb	-0.08179625
206	0xbe3ae387	-0.18250857
207	0x3cd2c738	0.02572976
208	0xbe194e6b	-0.1497132
209	0xbd993864	-0.07481459
210	0x3d40bf83	0.04705764
211	0xbeeaeaa9	-0.45882156
212	0xbe0644e3	-0.13112216
213	0xbc835b63	-0.016034788
214	0x3b94955c	0.0045344066
215	0xbde95471	-0.11393059
216	0xbcae1ecb	-0.021254918
217	0xbdc2386e	-0.09483419
218	0x3df204ff	0.11817359
219	0xbe70c803	-0.23513798
220	0xbe03c26f	-0.1286714
221	0xbc91bf00	-0.017791271
222	0xbe50001a	-0.20312539
223	0x3e03abad	0.12858458
224	0xbdbeb0c5	-0.0931106
225	0xbdb87e55	-0.09008471
226	0xbe958674	-0.29204142
227	0xbe063855	-0.13107426
228	0x3da99a5d	0.082813956
229	0xbe8bac31	-0.2727981
230	0xbe316cc2	-0.17326644
231	0x3d525cb8	0.051357955
232	0xbe4a3d98	-0.19750059
233	0xbd246e9c	-0.040144548
234	0xbe0cbf83	-0.13744931
235	0xbdda7d50	-0.10668433
236	0xbd613d4f	-0.05499011
237	0xbe633a9e	-0.2219033
238	0xbedff82f	-0.43744037
239	0x3dad7b86	0.08470826
240	0xbe2d42a9	-0.1691996
241	0xbeb89c23	-0.36056623
242	0xbe5f2ecd	-0.21795197
243	0x3dceced8	0.10098046
244	0xbe574665	-0.21022947
245	0xbe914981	-0.28376392
246	0xbe401de3	-0.18761401
247	0xbea173e8	-0.31533742
248	0xbe08b774	-0.13351232
249	0xbe507322	-0.2035642
250	0xbe081230	-0.13288188
251	0x3dc0573f	0.09391641
252	0xbd29f303	-0.04149152
253	0xbe3b2cee	-0.18278858
254	0xbe7275db	-0.23677771
255	0xbe7f5fb1	-0.24938847
