Models/LSTM_Start-ups_32_16.pth (torch, 791187 bytes, 7 tensors)

embeddings.0.weight f4 [1172, 16]
00000000: cb01 1a40 e94f 983f 2fe6 873f 6a61 08c0
00000010: 66a5 4a3e f95e 92bf 6f56 673d e22f e3bf
00000020: 7f20 75bf e1b3 b63f 6582 dbbe 2848 f1bf
00000030: 4e72 72bf 9b5f 01bf cda8 0fbf cc63 b83e
00000040: 7f17 0f40 c26c 97be 496a 5ebf 605c 383f
00000050: be37 90bf 7dcb ca3f 8147 953f 64d9 0240
00000060: bd66 bd3f 35fd b73f bbe1 5d3f f58e dc3f
00000070: 59de 97be d5e2 f73c 26c5 92be b61d 923f
00000080: 43fc a5bf 3d23 33bf c09b 8abe 14c3 0940
00000090: 8be8 2c3f 49ef 5ebf 4192 02be a90a 5fbf
000000a0: 43eb ecbf af94 9f3f af75 19bf 9d0b bcbe
000000b0: 3df4 83bf 2646 1940 9a8e c0bf d6d3 03bf
000000c0: 64b9 93bf b66b 5abf 088b f33e 5bef 633f
000000d0: 3414 10bf ac28 d63f 0751 9ebf 37f1 81bf
000000e0: ea76 e1bf 1d89 fb3d 8711 85be 50cf 593f
000000f0: d716 da3d 86f7 1140 503e cfbf f9e5 f03f
00000100: 640e fb3f 183d 963f f44f 3540 52e3 6b3f
00000110: 5314 033f 7e49 f4be 6f23 c9bf f4ec 9e3f
00000120: 8728 d0be 2c34 ca3e 2e50 b0bd 2769 e23e
00000130: 064c 3a3f ade9 37bf 0a52 29c0 dfeb 33bf
00000140: 710a b23e 1b94 0dbd 2625 eabf c810 31bf
00000150: eb33 4c3f 1b8b 973e ca71 873f b2ac ae3c
00000160: f5b3 883f 385c e6be 36ef 9bbf 4cfd 633f
00000170: 9240 d3bf 61cf 60bf f5c0 d33f c620 d13e
00000180: 162f 31c0 9a01 db3c 925c 083f d3e3 193e
00000190: 6aa6 313f 2916 853e 8265 8d3f ac68 fdbe
000001a0: 5956 453d 6bd3 2e3f 2f67 f53e a077 733e
000001b0: c2d8 473e fd89 843f 0033 f83e e495 bc3d
000001c0: 8fab f2bf aeaa 1d3e 1a63 7fbe 8458 2b3f
000001d0: 8022 f33e dc0e 253e 1058 4ebe f222 2d3f
000001e0: 6783 9a3d c254 343f b687 003f 1b2a e33e
000001f0: 87d1 c23f 3198 ef3e 25a6 953f 1958 f93e
00000200: 8e0b 1540 63af 9e3f 8ccf e9bf 77c1 6abf
00000210: 30d1 53be c369 0840 5f38 763f 6ce6 1b3f
00000220: e0e2 343f 36ec e4bd cca8 05c0 ccd1 563f
00000230: f725 21bf 5448 9e3f 4eac 8dbf 26d9 673f
00000240: a63e 24bf c51c a23f 0f26 0640 45cc 9e3f
00000250: 5d24 7d3c 16ce 59be 1b10 36bf 23fb c93e
00000260: 0196 3cba f160 4b3f cfef 0bbf 77ce b03f
00000270: 969a 38c0 e743 00bf a6e6 71bf 66a5 863f
00000280: 73ec ffbf 6288 d73e 960e b1bd 221c 22bf
00000290: cdbc 123e 8e49 0dbf b0ec 6f3e b13c cbbf
000002a0: c0e6 bebf d161 9d3f 2fb3 9f3f 63ad 15bd
000002b0: 7df7 d2bf 9394 4e3f 1bf7 9f3e 2c42 1540
000002c0: 7e6a d2bd aa8d 8bbd a2fa 2fbf c43d 3c3e
000002d0: 9194 a4bf 9cb5 05c0 2924 37bf 066b a9bd
000002e0: 2e51 41bf 04dd d5bf f3c0 0cc0 431a 103f
000002f0: 8b19 b63f d70d 29bf c1eb 563f 4901 3d3f
00000300: 9eae f83f ba74 a0bf a9d3 893f 1d0f 7ebe
00000310: 52ff aabf d6f1 813e 0db2 c83e 27aa 973f
00000320: 4bf0 e03e 9fdf 0140 ceea f3be 08bc 91bf
00000330: 37cb 8e3e 5298 433f 2fc4 c13f d97e 1a3f
00000340: f2b2 75bf 3bd3 63bf 79cb 1dbf 2812 0cbf
00000350: 8a28 0e3e 813f ad3e cecd f6be 7fc4 0bc0
00000360: a21b 64be 0cc2 a03f 5039 04c0 596e e53f
00000370: b161 163f 5a4c 28bf 6160 c03f a315 e63f
00000380: d196 563e 612c d43f 0b6c af3e d06a 94bf
00000390: 5baf 50bf 793c 2fbe c851 003f bc8d ff3f
000003a0: 2424 a1bd cd00 0ebf b894 0bc0 d15e a1bf
000003b0: a369 e3bc cb03 b1bd 9620 9f3e 6be2 4a3f
000003c0: 12c1 6fbf fd0e 133f 6d3f 20bf cc79 2a3f
000003d0: 2524 44bf 6227 a23e ca77 5abf bf01 dc3f
000003e0: 7c11 b33f a167 72bf 8bb8 563f 426a 323f
000003f0: 8fb2 223e 1440 353f 7347 4e3d 4ed3 323f
2.4063594 1.1899387 1.0617121 -2.1309457 0.19789657 -1.1435233 0.056478914 -1.7748988
-0.9575271 1.4273645 -0.4287292 -1.8850145 -0.94705665 -0.5053651 -0.56116945 0.3601364
2.235809 -0.29575163 -0.8688093 0.72015953 -1.1267011 1.584335 1.1662446 2.0445185
1.4796978 1.4374148 0.8667256 1.7231127 -0.29661825 0.03025953 -0.28666037 1.1415317
-1.2967609 -0.69975644 -0.27071953 2.1525316 0.6754233 -0.8708387 -0.12751104 -0.8712564
-1.8509296 1.246725 -0.59945196 -0.3672761 -1.0308911 2.3949065 -1.5043519 -0.5149511
-1.1540952 -0.85320604 0.4756701 0.890371 -0.5628083 1.6731162 -1.2368478 -1.0151738
-1.7614415 0.12282012 -0.25989935 0.8508196 0.106488876 2.2807326 -1.6190891 1.8820182
1.9613767 1.1737394 2.833005 0.9214374 0.5120289 -0.4771232 -1.5713938 1.2416062
-0.4065592 0.3949293 -0.08609043 0.4422085 0.7277225 -0.71840936 -2.6456323 -0.70281786
0.3477359 -0.034565073 -1.8292587 -0.6916623 0.7976672 0.29598317 1.0581601 0.021322582
1.0679919 -0.44992232 -1.2182376 0.89058375 -1.650408 -0.87816435 1.6543261 0.40845317
-2.768499 0.026734162 0.5326625 0.15028314 0.6939455 0.2599347 1.1046603 -0.4949392
0.04817805 0.6829135 0.47930285 0.23776102 0.1951628 1.0354611 0.4847641 0.09208277
-1.8958606 0.1539714 -0.24940148 0.6693194 0.4748726 0.1611895 -0.2015078 0.6763145
0.07544594 0.7044183 0.5020708 0.4436806 1.5220193 0.467958 1.1691328 0.48700026
2.3288302 1.2397274 -1.8266463 -0.91701454 -0.20685267 2.1314552 0.96179765 0.6089847
0.70658684 -0.11177866 -2.0884275 0.83913875 -0.62948555 1.2365823 -1.1068208 0.9056572
-0.64158094 1.266503 2.096073 1.2406088 0.015450564 -0.21270022 -0.71118325 0.39449415
-0.0007193983 0.79444796 -0.54662794 1.3813008 -2.8844352 -0.5010361 -0.94492567 1.0519226
-1.9994034 0.4209624 -0.0864536 -0.6332418 0.14329834 -0.5519036 0.23430133 -1.5877897
-1.4914169 1.2295476 1.2476557 -0.036542308 -1.6481777 0.80695456 0.31243214 2.3321638
-0.10274218 -0.0681413 -0.6874181 0.18382937 -1.2857839 -2.0892096 -0.7153955 -0.08272366
-0.75514495 -1.6708074 -2.1992767 0.5629007 1.4226545 -0.6603674 0.8395348 0.73830086
1.9428289 -1.2535622 1.0767719 -0.24810453 -1.3359168 0.2537982 0.39198342 1.1848801
0.4393333 2.0292737 -0.4764008 -1.1385508 0.27889416 0.764043 1.5137995 0.60349804
-0.95976174 -0.8899419 -0.616386 -0.54715204 0.13882652 0.33837512 -0.48203892 -2.1838682
-0.22276166 1.2559218 -2.065998 1.79243 0.58742815 -0.65741503 1.5029413 1.7975353
0.2095597 1.6576043 0.34262118 -1.1595097 -0.8151757 -0.17112912 0.5012479 1.9965129
-0.078682214 -0.5546997 -2.180952 -1.2607061 -0.027760332 -0.086433016 0.3107955 0.79251736
-0.93653977 0.57444745 -0.6259678 0.665921 -0.7661765 0.31670672 -0.85339034 1.7188033
1.3989711 -0.94689375 0.8387534 0.69693387 0.15888427 0.708009 0.050361108 0.69853675

layers.0.weight f4 [256, 512]
00000000: b896 89be 4f22 593c a387 a23d 8d73 94be
00000010: 5cd8 50bd 45ca 973e 5b27 39be e3d1 253e
00000020: 19a0 99bd 8677 323e dd94 9cbd 0f77 babd
00000030: d8ea 473c d42e 1a3e 96d8 bdbc 4947 bc3c
00000040: 2db8 2f3e e7b8 ad3d 3f74 223e b972 a33c
00000050: a57f bc3d 1550 65bd 1f0f 313e be5c ddbd
00000060: 2c5e f6bd 0145 243e 168d 563d a37d b23d
00000070: 48ac 323e 1ca1 0c3e 0265 1ebd e82d 1dbe
00000080: cbd6 a1bd 3155 863d edbd 97be 01f6 1abe
00000090: a5cb e73d fcf5 e8bc efbe 453d baf5 48be
000000a0: 18ed 763e ad82 c6bd cab9 0abe 52d0 1fbd
000000b0: 8f85 8dbe 6480 893e f4a5 d63b 9481 213e
000000c0: f968 b93d add2 c6ba 15ac 64bd cae1 ec3d
000000d0: 0ed9 3d3e c9bf 2d3e a9e8 1c3b bfdf 8f3e
000000e0: 76db 56bc e6a4 1dbd 4ce3 3c3e 03eb 183e
000000f0: 292f 293e 94d2 8bbd 67e7 bd3d 72e4 193e
00000100: cab5 8cbd 85a6 c139 9df9 9dbe f954 1bbe
00000110: 952e 4cb9 a3fe ec3d df20 0a3e 4274 f33d
00000120: ac2a a23d e285 85be e59b 9abc 7d8c cbbc
00000130: 0f1f e53d 888d 163e 924f 1abc bd2e f8bc
00000140: 6b91 763e e978 193e edaa 303e 5802 15be
00000150: 8123 65be 0122 e1bc 6b0a 6abe f87b ef3d
00000160: 5ea8 0c3e 8d85 923d 8c4a d03d f585 fc3d
00000170: 8a56 2cbe 4f39 e3be 2b92 1e3e 179b 5fbe
00000180: 61d2 893d 1c67 233e 769f 53be 88e0 e5bd
00000190: 5bcc 353d 460e 103d 010e 86bd 372b 58be
000001a0: 739c 2b3e 38f4 7bbd 87b1 58bd ce5f 643e
000001b0: 1d2d 9a3e 6171 5e3e faa5 af3d 3672 1f3e
000001c0: 90f6 f5bc 91a9 993d d7d0 873c 6d87 133e
000001d0: ab4e b2bb a010 783e 7c52 003e a588 38bd
000001e0: 41be bebc 2c56 86be c0ee c83d 48a0 213e
000001f0: 6bf1 f83d 4273 e4bd d8aa 6cbe 57e9 52be
00000200: 6bad 1a3e f002 65bc eb58 b2bd 83d6 273e
00000210: 3d05 a63e 91d7 0c3e a2e6 48be 23fe 8e3d
00000220: 245f 563d 13bd ffbd dd0f 463d 46c2 c23d
00000230: 84a2 6ebd 2a93 34be 85c6 45be 1454 e23c
00000240: d73f 1ebc 14e7 143e f738 64be 38ad 29bd
00000250: fad5 623e 03ae bfbe 1157 1d3e 478a 9b3d
00000260: 1add 0d3d 9df3 38be b663 223d deb9 0dbe
00000270: eb2c 003e e3ee bf3a 0fbf 663c 9c96 aabd
00000280: b202 483e 522f 0fbe e9d4 f3bd c307 913d
00000290: 2101 4a3e 9569 5e3e f34b 26be aa63 503d
000002a0: 7c13 86be f843 55bc e4b4 243c a4d6 d23d
000002b0: a3f4 fb3d a1c6 91bd 5075 4f3e 0fac 0bbc
000002c0: a53c 1cbe a217 1f3e b783 8bbe 34c4 cebd
000002d0: 17cc 403d e192 2c3d 0307 22be b129 96bd
000002e0: 21b1 0fbe 212a d13d cc21 16be 6fc9 1c3d
000002f0: 7d4a ebbc c36f d2bc 915e 8f3d b48d 123e
00000300: 3ce0 1fbe dc68 28be ef4c 663e 5aa4 36be
00000310: 2ee2 acbe 88d6 20be 03ac 813e efb6 ea3c
00000320: a2d2 1abd 73c3 26be 84ff 113d ad35 953d
00000330: 164f bcbc 2420 5abe 6bd9 64be 6922 4cbe
00000340: 02cf 8c3e cc8e 453e 5670 93bd 0ce2 f03c
00000350: 80bb 7f3d fa3f 4c3e a6c3 0abc 109a 00bd
00000360: 5655 bfbd 6cbd a43d 9e0a 233d bc39 ea3d
00000370: 05db 323e 697d 453e f34a 1fbd 1bbf 5c3e
00000380: b231 013e 8d24 b73c 5b64 17be 64e3 823e
00000390: 5342 2c3e 2daa ca3e 3053 2f3e d874 45bd
000003a0: 060b 26bb 2720 bbba fcce ca3d bf69 23bc
000003b0: 2c66 373e dc31 4b3e e5b5 9a3d 6363 b1bd
000003c0: 2d9b e93d 70a1 5ebe 4304 243e 9a59 353d
000003d0: c53f b5bd 46f3 0cbe eac7 983d ba6a 38bc
000003e0: f833 f1bd b290 03be d697 44bd ae52 b13d
000003f0: e2d1 29bd 8358 333e 96b1 a03d a828 a1bd
-0.26872802 0.013252809 0.07936027 -0.28994408 -0.050987586 0.29646507 -0.18081419 0.16193347
-0.07501239 0.17428407 -0.07645581 -0.0910474 0.012201987 0.15056926 -0.023174565 0.02298321
0.17160101 0.08482533 0.15864657 0.019952165 0.09204034 -0.055984575 0.17290924 -0.10808705
-0.120296806 0.16041948 0.052380644 0.087153696 0.17448533 0.13733333 -0.038670547 -0.15349543
-0.07902297 0.06559218 -0.2963709 -0.15132906 0.11318139 -0.028437607 0.04827779 -0.19624987
0.24113882 -0.09692893 -0.13547435 -0.03901703 -0.2764096 0.26855767 0.006550545 0.15772086
0.09053225 -0.0015168987 -0.055828173 0.11566503 0.18539831 0.16967691 0.0023942387 0.28100392
-0.013113847 -0.038487338 0.18446082 0.149334 0.16521896 -0.06827274 0.09272652 0.15028551
-0.06870611 0.00036935895 -0.30854502 -0.15169133 -0.00019472309 0.115720056 0.13489102 0.11887409
0.07918295 -0.26078707 -0.018873164 -0.024847263 0.111875646 0.14702427 -0.009418385 -0.030295724
0.2407891 0.1498753 0.17252703 -0.14551675 -0.22376825 -0.027482035 -0.22855537 0.11693567
0.13736102 0.07154379 0.10170469 0.12330238 -0.16829887 -0.4437966 0.15485446 -0.21836506
0.0672958 0.15957302 -0.20666298 -0.112244666 0.04438434 0.035169862 -0.0654564 -0.21110235
0.167589 -0.061512202 -0.05290368 0.22302172 0.30112544 0.21722938 0.085765794 0.15570912
-0.030024797 0.07503045 0.016579075 0.1440713 -0.005441507 0.24225092 0.12531465 -0.04505219
-0.02328408 -0.2623762 0.09811163 0.15783799 0.12155422 -0.11154796 -0.23112047 -0.20596825
0.15105216 -0.013977751 -0.08708366 0.16390423 0.32425871 0.13754107 -0.1961923 0.069820665
0.052336827 -0.12487235 0.048354972 0.09509711 -0.058260456 -0.17634264 -0.1931401 0.027627982
-0.009658775 0.14541274 -0.22287355 -0.04142496 0.22151938 -0.37437448 0.15365244 0.07594734
0.034634687 -0.18061681 0.039645873 -0.13840434 0.12517135 0.0014643337 0.014083638 -0.08329508
0.19532278 -0.13982895 -0.11905844 0.070815586 0.19726993 0.21719964 -0.1623991 0.050876297
-0.2618674 -0.013016693 0.010052893 0.10294846 0.1230252 -0.071179636 0.20259595 -0.008524909
-0.15257509 0.15536359 -0.27248928 -0.100960165 0.047069635 0.042132262 -0.15822987 -0.07332171
-0.14032413 0.102131136 -0.1466133 0.03827804 -0.028722042 -0.025688058 0.07000459 0.14311868
-0.15612882 -0.1644625 0.22490285 -0.17836133 -0.3376631 -0.15706837 0.25326547 0.028651683
-0.03779853 -0.16285495 0.03564407 0.072856285 -0.02298693 -0.21301323 -0.22348563 -0.19935001
0.27501684 0.19292754 -0.07199161 0.029404663 0.062434673 0.1994628 -0.008469498 -0.031396925
-0.093424484 0.08043942 0.039805047 0.11436793 0.17466362 0.19286121 -0.038889837 0.21557276
0.12616614 0.022356296 -0.14784376 0.2556411 0.16822176 0.3958296 0.17121577 -0.048207134
-0.002533616 -0.001427655 0.099027604 -0.009973942 0.17910069 0.19843239 0.07554225 -0.08661535
0.114065506 -0.21741271 0.1601725 0.044274904 -0.08850054 -0.13764676 0.074600056 -0.011255914
-0.117774904 -0.12848166 -0.047996365 0.08658348 -0.041459925 0.17514233 0.07846372 -0.07869083

layers.0.bias f4 [256]
00000000: e459 853d a19a 443d ef2e 90bb ae69 a33c
00000010: 08aa 703c 518b ae3d 55b5 543d 2b3f a3b8
00000020: 87cc a3bb fc7e 9c3d 930b 03bd b949 8ebc
00000030: 15e0 173d 45d0 5f3d 0bec 7f3c 5d99 c03d
00000040: e560 063e 2c23 abbb 8780 353d b763 13bd
00000050: 0d58 1abb 85bc ba3d 51ed 953d 9c51 493c
00000060: d088 3b3c 9ac8 183d d225 573d d698 bf3d
00000070: a7fb 4cbc 21c4 4d3b 6c89 3e3d 4401 a7bc
00000080: 427f cb3d 4552 a43d 6633 cfbb d200 803d
00000090: 1e27 823d fee0 833d 442e a93d 3c45 2ebd
000000a0: c394 13bc 7433 b2bc aead df3c 3ee8 913d
000000b0: fe3a b33d 73d9 803d 38f9 5abb bb4e aa3b
000000c0: d2a9 bc3d eb11 a63d b315 a23a e420 b93c
000000d0: 73df a33b 80ac 503c 26e1 b43d d72a 023b
000000e0: 91c3 a2bd f3fa 753d d6d3 78bd 74a0 cabc
000000f0: 8f59 a73d 18f3 423d fa4f 67bc 63d3 15bd
00000100: 037d 4bbd f029 153d 6863 543c c3f0 b43d
00000110: 84a6 d0bc b058 fdbd 5dd7 9ebd 355f 2c3d
00000120: 6e47 00bd 0a58 833d 9474 02bd 9c3f 1c3c
00000130: c2d9 1fbd 76dd 213d 18b9 18bc 1916 73bc
00000140: 10e6 543c 6bd9 de3b 8e66 16bd 736c 123d
00000150: 2877 8ebd c8cd a2bd f4dd 8c3d dc99 063d
00000160: ee1c bc3d 966a 1d3d 1ae1 9139 2196 043e
00000170: 2259 993d cf7d e03a 87a2 973d 376e 603d
00000180: d96e 063c 2321 173e 6afc e33c aafa 023d
00000190: b49b e13c a412 cbbd b688 623d cbde 2aba
000001a0: 9567 a93d 54af 783c 921f 21bc d9ec 353d
000001b0: 8357 503d 7921 be3c 18e7 cdbb 2f80 883d
000001c0: 18ce 0bbc 386d 48bc 5a03 383d 4773 c33c
000001d0: dc22 95bc 0a91 d13a 4b30 ea3c 268c a33d
000001e0: 76be c03d fbde a23d 7620 3f3d d411 8b3c
000001f0: 2e59 8d3d b63d d63c 2375 1dbd e7ab 0bbc
00000200: aa62 963d 5e31 a33d 5b60 98bb 5111 713c
00000210: b31b 843d 0fa5 53bd 018f dc3d d9cd 9a3d
00000220: 420b 8a3d 99b2 afba b3b1 e13d 580f 563d
00000230: e5a3 a63d 8820 e73d e7cf a53c 14f4 1a3d
00000240: eeaf 253c b320 c83d b7ec d83b d8db 133d
00000250: bb22 d53a 8ab1 a8bd b865 90bc 9ed0 59bb
00000260: 239d afbd 3c84 adbb 5796 293d 268b 463c
00000270: e4b9 6d3d 39ba 373d 6ee4 9a3c 32f1 e73d
00000280: 9ced 063d 830c 37bb 629d ae3b 9439 043d
00000290: 2ff5 8d3d 3cee bf3c 45b3 733d 4e89 8d3d
000002a0: 582b 153d 354b 123d 5eb3 56bd a6d0 c73c
000002b0: 3a6c b13c fc33 43bd 7f6a 013d 9634 263d
000002c0: 05fe da3d e8cf 12bd ae77 7e3c ceed 903d
000002d0: da9d a5bb 97d7 da3c 1755 a33c 7cb1 7f3d
000002e0: afe8 6e3d 150a e4bc a738 c73d e8a1 dfbc
000002f0: 9b01 26bc 77e2 7d3d 5aec 0f3d 1b4b 87bc
00000300: 555e 0d3d 7107 33bd 4aed f33a ac96 f13b
00000310: 21f7 89bc 34af 993d 20be 353d 4060 06bd
00000320: 109b 4e3d 7cc4 8b3c 0149 72bb ec3c ae3b
00000330: d61c b23c c590 a23d d45f 78bd 300a 993c
00000340: d3a7 6f3d 59fd 94bb 31f6 8c3b acf4 b03c
00000350: f0ba 4f3d 92d6 083b 234b 873d 2c03 553d
00000360: 0d4a 883d a978 0b3d 1332 c8bb b11c 633c
00000370: 872a 1a3d f47d c1bd e13e 823d 51e9 d63d
00000380: 060d acbc 5a0b 62bd d11c 643d ff72 d93d
00000390: 1b93 d33d ac7a 103e 0e8d 713d 8611 5a3b
000003a0: 8eee 9ebd 64e4 c9bd 5e4c 5a3d 6e87 bbbd
000003b0: 6dd6 d53d d371 8e3d 3c0e 843d fe03 453d
000003c0: 2795 8abd d295 393c 3194 29bd 14e6 2cbd
000003d0: 6a3c dabc 63a8 b43c c616 0c3d bb51 b5bc
000003e0: 5242 b23c a004 d63c 4649 f1bc cdab e4bc
000003f0: 6e9e b6bc eec9 98b9 443f 6838 81e0 163c
0.06511286 0.047999028 -0.004400126 0.019947853 0.014688976 0.08522666 0.051930744 -7.7842116e-05
-0.004998747 0.07641408 -0.03199346 -0.017369138 0.037078936 0.05464198 0.015620242 0.09404252
0.131229 -0.0052226987 0.044312026 -0.035983767 -0.0023551018 0.091179885 0.07320655 0.012287524
0.011446193 0.037300684 0.052526303 0.09355323 -0.0125111705 0.003139742 0.046517774 -0.020386346
0.09936382 0.08023504 -0.006323266 0.062501565 0.06355117 0.06439398 0.082607776 -0.042546496
-0.0090076355 -0.02175305 0.027304497 0.07124375 0.08751486 0.06291475 -0.0033412706 0.0051973737
0.09212078 0.08108886 0.0012366086 0.022598691 0.0050010025 0.01273644 0.08832006 0.001986196
-0.079474576 0.060053777 -0.060748897 -0.024734713 0.08171379 0.047595114 -0.014118189 -0.036578547
-0.049679767 0.036416948 0.012963153 0.08834984 -0.025470026 -0.123704314 -0.07755921 0.042082984
-0.03131812 0.064132765 -0.03184946 0.00953665 -0.03902603 0.039517842 -0.009321474 -0.014836811
0.012994304 0.0068008206 -0.036718898 0.035747956 -0.06956321 -0.07949406 0.06878272 0.032861575
0.091852054 0.038431726 0.0002782427 0.12947895 0.07487704 0.0017127338 0.074040465 0.05479261
0.008205139 0.14758734 0.027830321 0.031977333 0.027540065 -0.09915665 0.05530616 -0.0006518184
0.0827171 0.01517852 -0.009834187 0.04441533 0.050864708 0.02320932 -0.006283652 0.06665074
-0.008533023 -0.012233071 0.04492507 0.02385868 -0.018205099 0.001598866 0.028587481 0.079857156
0.094113275 0.079526864 0.046661817 0.016976275 0.06901775 0.026152473 -0.03844179 -0.008524871
0.073430374 0.079684004 -0.0046501583 0.014713601 0.06450596 -0.051671084 0.10769463 0.075587936
0.067404285 -0.0013404667 0.110202216 0.052260727 0.08136729 0.11285502 0.020240737 0.037830427
0.010112746 0.09771862 0.0066200155 0.03609833 0.0016260961 -0.08236988 -0.017626628 -0.0033235918
-0.08574893 -0.0052953046 0.04140314 0.0121181365 0.058038607 0.04485533 0.018907752 0.11325301
0.032941446 -0.0027931042 0.00532882 0.032281473 0.06931531 0.023429029 0.059497137 0.069109544
0.03641829 0.035716254 -0.05241715 0.024391484 0.021658052 -0.047656998 0.031595703 0.040577494
0.10692982 -0.035842806 0.015531464 0.07076608 -0.0050542178 0.02671413 0.019938035 0.06242512
0.058327373 -0.027836839 0.097276025 -0.027298883 -0.010132219 0.06198355 0.03513751 -0.016515305
0.03451379 -0.04370827 0.0018610146 0.007372698 -0.016841473 0.075041205 0.04437077 -0.032806635
0.050440848 0.017061464 -0.0036969783 0.005317321 0.021742266 0.07937769 -0.060638264 0.018681616
0.05850966 -0.004546803 0.0043018092 0.021601044 0.050715387 0.0020879847 0.06606128 0.052004978
0.06654749 0.034050617 -0.006109485 0.013861821 0.037638213 -0.09447852 0.063596494 0.1049372
-0.021002304 -0.055186607 0.055691544 0.10617637 0.103307925 0.14109296 0.05897241 0.0033274605
-0.077603444 -0.09858015 0.053295486 -0.091566905 0.10441289 0.06955304 0.064480275 0.04809951
-0.0676673 0.011327224 -0.041401092 -0.042211607 -0.026640136 0.02205295 0.034201406 -0.022133699
0.02176014 0.026125252 -0.029453885 -0.027913952 -0.022292342 -0.0002914215 5.537203e-05 0.009208799

layers.2.weight f4 [32, 256]
00000000: 7d11 8e3e fae4 10be 2ce8 c03d 67be 19be
00000010: 47b2 16be ab3a 333e 81ac 25be 13bd 19be
00000020: c52d 833e 8864 7c3e fa08 9f3e a8c0 12be
00000030: 2736 56be 2704 c5bd 7af4 ed3d 539a ca3d
00000040: 5aa7 4c3d 59fa 993e 014f 86be 7de9 203e
00000050: ee65 8f3e 1c1c d0bd 852c 8b3e aede 63be
00000060: 7b83 81bd 72f3 b63e 2d52 d53d 6c8e d63d
00000070: bebb 873e cab5 9e3e 8b05 aa3e afaf d43e
00000080: b6f8 29bd 180d 5bbe 3c64 05be 8b7b 3c3e
00000090: 81db 02be 2db4 08bd 50b1 afbd a31f 373e
000000a0: 3f51 973e 492e c33e 69e3 813c 45de 9cbd
000000b0: 5bf6 143d cdf3 563e 7dfc d6bd 3145 24be
000000c0: 0294 5a3e 850e 84bc fdc7 37be a04d c53d
000000d0: c21a 9c3e 9a64 61be 16e2 15bd 998f 553e
000000e0: f474 d73d a11a fc3e 67a4 433e 9423 aebc
000000f0: daa7 283e 2724 103e f4dc 24be d30e a93e
00000100: 69bc 593d 5648 7f3c ee39 20be e130 b7bd
00000110: 5c01 963e f5da bb3e 2564 29bd a594 883d
00000120: e056 8dbe d324 8ebd e572 273e 26c5 b3be
00000130: 4053 943e 3d63 633e a9dc ad3e 1d3c a83e
00000140: 9509 bdbe 90d2 34be 7f90 a3bd 080b 003e
00000150: 7b3b a03e e6d6 63be 50f2 613e 9ad4 6f3d
00000160: a221 efbd bf22 663e ce8a 143e 0373 3cbe
00000170: ba42 183d 5933 7bbd 8238 98be ff82 173e
00000180: cc51 11be 408a 2d3e 5d53 9c3d bc20 a43d
00000190: 4e6c 6abe 4978 b83c ae6d b13e 0001 1b3e
000001a0: dafc 2d3e 989b 56be 08bd 51be ce12 163c
000001b0: 8d95 2a3e 394e 1dbe 465f 08bd 9abf 83be
000001c0: ffb3 a8be 28b9 ba3e b385 ab3e c02e 91bc
000001d0: d3dd ef3d 846f 7d3e ab9a e2be 941a af3e
000001e0: e62c dc3e 57c2 53bd a024 42be da35 593c
000001f0: ff22 b5be d3a7 62bd 7839 e23c f72f e13e
00000200: 6ff5 8f3c 5525 f1bd 0602 70be 74ec 20be
00000210: 7da6 af3d 17bb 773e 1555 573e d427 0fbd
00000220: e63a fe3d bbd0 fcbc 21ed 9bbd 2703 333e
00000230: 9c0b 69be 46af 0e3b 1107 563d 341c 383e
00000240: a9ef 8ebe 4b87 d7bd 2768 15bd 100c 05be
00000250: de1c 953e ef2c c03e 1e5c cd3d fac7 bc3e
00000260: 9a58 0d3e a853 223e 2519 c93d dac0 6d3d
00000270: 3a3f 01bc c293 2a3e bfef c5bd 9980 d43b
00000280: 5e01 3f3e a73a 2c3e 4a88 3fbd d5f6 6c3d
00000290: 7a5b 9abe 746d 443e 4bd4 46be 1d86 9abe
000002a0: a391 10bd 6f14 e03d e0ef ccbd 8d53 8a3e
000002b0: 5e00 893d 0419 a3be 9fdc e63d 3198 f7bc
000002c0: 9847 6dbe a736 013f 3a40 46be e9ed 73be
000002d0: 950e a4bd aad6 853e 5e85 6a3e b94d 2d3d
000002e0: c4af a3bd 2c17 bd3e 3de6 883e 89d3 ef3d
000002f0: 0ab0 a13e 27e1 3d3e 5716 ddbd d41d 113e
00000300: dfd9 633e 9d41 4bbe 6544 7ebc a835 f73c
00000310: 49fa 57bc 090f 70be c7b4 0c3e 283b 81be
00000320: 84bb 81bd 1f4c 383e 0331 413d 6946 983c
00000330: a648 7d3e ef2d 5cbe bae2 413e a18c 973e
00000340: fb20 62be 1459 34be 510f db3d b9e7 da3c
00000350: c37d 7ebe 0318 61be f183 9bbe 5d6a 2fbd
00000360: 62f0 fbbc 90c8 edbd 83c8 3cbd a57e 68bd
00000370: 973a 9c3e 630a 08be 26f5 fb3d eb7a 87be
00000380: 4e2b eabd 08f6 29be 325e 2cbe 5911 cb3d
00000390: e055 c43d f2d6 fabd af52 7abe f78d 243c
000003a0: ed0a a3be 29f5 52bd 5fd7 613e b25b dc3e
000003b0: 5b67 7fbd 7bae b63e 0c2e f5bd 17d3 e63a
000003c0: 3864 b53e fe8d a7be 8a05 aa3e e166 83bd
000003d0: b476 513e 5c8a 05be bf5b aabe 54d7 283e
000003e0: 1de4 b63e d296 ccbe 5f3b a0bc 364e 463e
000003f0: e84b a8be c14e 173e 7537 a0be c14e bb3d
0.27747717 -0.14149848 0.09419283 -0.15014039 -0.14716445 0.17502849 -0.16179086 -0.15013532
0.25620857 0.24647725 0.31061536 -0.14331305 -0.20919095 -0.096199326 0.11618896 0.09892716
0.049964286 0.30073813 -0.2623215 0.15714069 0.28007454 -0.101616114 0.27182403 -0.22252914
-0.06323906 0.3573261 0.104160644 0.104763836 0.26510423 0.3099807 0.33207354 0.41540286
-0.041496955 -0.21391714 -0.13026518 0.18406503 -0.12779047 -0.033374954 -0.085787416 0.17883162
0.29554173 0.3812125 0.015855508 -0.07659582 0.036367755 0.2099144 -0.10497377 -0.1604202
0.21345523 -0.016120205 -0.17947383 0.096339464 0.30489165 -0.22011033 -0.036592565 0.2085556
0.10520354 0.49239066 0.19105683 -0.0212572 0.1647028 0.14076291 -0.16099912 0.33019122
0.053158198 0.015581211 -0.15647098 -0.0894487 0.29297912 0.36690488 -0.04135527 0.06668977
-0.27605343 -0.069406174 0.16352423 -0.3511135 0.28969765 0.22205825 0.33957413 0.32858363
-0.36921373 -0.17658448 -0.07986545 0.12504208 0.3129538 -0.22249946 0.22065091 0.058552362
-0.11676337 0.22474192 0.14506075 -0.18403248 0.03717301 -0.061328266 -0.29730612 0.14796065
-0.1419136 0.1694727 0.07633088 0.08014056 -0.22892877 0.022518294 0.3465399 0.151371
0.16990986 -0.20957792 -0.20482266 0.009159757 0.16658612 -0.15361871 -0.033293985 -0.25732118
-0.32949826 0.36469388 0.33500442 -0.017722487 0.117122315 0.24749571 -0.44258627 0.34199965
0.43003005 -0.05169901 -0.18959284 0.013257468 -0.35378262 -0.05533583 0.027615294 0.43981907
0.017573087 -0.11774699 -0.23438272 -0.157152 0.08576677 0.24192463 0.2102855 -0.034950092
0.12413578 -0.03086125 -0.07613588 0.17481671 -0.22758335 0.0021771952 0.052252833 0.17979509
-0.2791722 -0.10523852 -0.03647628 -0.12992883 0.29123586 0.37534282 0.100273356 0.3687132
0.1380333 0.15852225 0.09819249 0.058045246 -0.00788861 0.16657928 -0.096648686 0.0064850566
0.18652865 0.16819249 -0.046760835 0.057852585 -0.30147916 0.19182378 -0.19416921 -0.30180445
-0.03529514 0.109413974 -0.1000669 0.2701687 0.06689523 -0.31855023 0.11272549 -0.030223938
-0.23171842 0.5047402 -0.19360438 -0.23821224 -0.08010594 0.26140338 0.22902438 0.04231045
-0.07992509 0.3693174 0.26738158 0.11710269 0.3157962 0.1854292 -0.107952766 0.14171535
0.2225108 -0.19849248 -0.015519236 0.030176952 -0.013182231 -0.23443235 0.13740836 -0.25240445
-0.06334594 0.17997788 0.04716588 0.018588262 0.24734744 -0.21501897 0.18934146 0.2959948
-0.22082894 -0.17612106 0.10696281 0.026721822 -0.24852662 -0.21981816 -0.303741 -0.042826045
-0.030754272 -0.1161052 -0.04608966 -0.056761403 0.3051345 -0.13285212 0.12302618 -0.26460966
-0.11434041 -0.1659776 -0.16832808 0.09915418 0.09586692 -0.12248029 -0.24445604 0.010043613
-0.31844273 -0.051503334 0.22054814 0.43038708 -0.062354427 0.35679993 -0.11971673 0.0017610517
0.35428023 -0.3272552 0.3320735 -0.06416107 0.20455438 -0.13041061 -0.33273122 0.16488391
0.35720912 -0.39958817 -0.01955956 0.19365773 -0.32870412 0.14776136 -0.3129231 0.091458805

layers.2.bias f4 [32]
00000000: 7c29 5d3d aa4e ea3d 62fd ef3d d713 a63d
00000010: 8183 aa3d cf45 9f3c ca81 9a3d 089a da3d
00000020: bbc7 093d 1399 b63d d2d5 f23d b603 433c
00000030: 6361 b53d d68d 9a3d bd11 b43d 3239 12bc
00000040: ece5 ea3d 84d8 88bc 1d55 b73b b17f 94bd
00000050: c403 9d3d d9f0 313d ca55 b23d 6273 253d
00000060: 63eb a93d f59c 7a3d 70d2 9f3d 8e1a 173d
00000070: b1a5 443d 6ff8 f23d 9878 163e 7109 6b3d
0.05399464 0.11440785 0.11718251 0.08109253 0.08325864 0.019442467 0.075442865 0.106739104
0.033637743 0.08915915 0.11857189 0.01190274 0.08856466 0.07546584 0.08792446 -0.008924769
0.11469635 -0.016704805 0.005594863 -0.07250918 0.07666734 0.04344258 0.08707769 0.04039324
0.082968496 0.061184842 0.0780381 0.03689056 0.04800958 0.11863791 0.1469444 0.05738205

layers.4.weight f4 [1172, 32]
00000000: c76a 75be 806f ff3d 6f4a 973d 7c4c a3be
00000010: 0d05 52bd a51b bf3d f933 3e3c df04 56be
00000020: 92b8 88be 955d 113e ae93 2f3d 702a 023e
00000030: 144e e3be 3789 71be 978f 883c 62c1 493d
00000040: 138f 953e d6b3 163e 9ad9 573e d44a 1dbe
00000050: 56b8 a9be 53bb 92be dc3a 1d3e 26b2 38be
00000060: 562a 02bf 0e9b d8be 6379 bfbe 4318 f3be
00000070: a015 96be a306 443e ff08 763e 00a9 03bd
00000080: ef39 0a3e 0e0f 75bd 42a1 90be 06d9 453e
00000090: 9173 613e f25f 0d3d 8e6f 8a3d 2b6a a93e
000000a0: 134c 683e 40e8 8cbe ac05 babe 93c7 49be
000000b0: 4996 ebbe 92c3 463e c9f8 383e ef54 80bd
000000c0: 9c28 e13d 9b09 72be da5b 97be 7b50 d3bd
000000d0: 255b 1dbd 82a4 e83d ecd3 8fbe 076a 55be
000000e0: 24a8 463e 4bc6 373e 751b 093e 6906 433e
000000f0: abfa 803e a5ea 8f3e ae3d 89be 85ea 8d3d
00000100: 5fd1 b6be 3c58 62bd 2e9a a2be 3723 a1be
00000110: d6cf e9bb 32b8 f1bc 83c6 063e 2cb7 35bd
00000120: e54f c2be 7e1c 533e fc83 b7ba ad92 b2bd
00000130: 6c66 b7bd f0d0 ee3d 34bd d5be daa7 a039
00000140: 9f78 0b3d ab9c b63c 2a7e dc3b 945f 813d
00000150: 0f4c ad3d d7cf e73d d144 70bd e111 443e
00000160: 39e1 563e 87fe 7a3e ad7b b23e 448d e7bd
00000170: 28ec 513e 1764 f7be 486b abbe 6bbb f5be
00000180: f990 523e b009 053c 98b0 c93e 1211 84be
00000190: a7fd 36be 5b8e 9a3e 38f9 963e 0bab 753e
000001a0: 025b 4dbe db40 523e af81 3abe d7e6 0b3d
000001b0: 2c5e ddbd 6205 d8be 1535 de3c ecfc babc
000001c0: b2d7 d1bd 04f9 8bbe 1fa8 d03d e9c9 5cbe
000001d0: 1c74 4ebe 5972 8b3e 3780 9dbe cd08 5e3e
000001e0: 9ad4 233e 45cb f23d e2e7 adbd 94fe 9bbd
000001f0: 4af1 8e3e 45de 9cbe 3c73 833d ded2 cb3d
00000200: 87e1 f4bd 8308 bd3e 3803 9e3e 2946 1dbf
00000210: 37cc 5f3c 6984 f4bd 9ce8 0d3e 27bf 6fbe
00000220: e994 aa3e b45f 863e 6f0f f8bd 85de 74be
00000230: 4609 8dbc 05ce b1be f433 50be b836 96be
00000240: 647c 513e fa67 65be cffc ff3d 0aad 97be
00000250: 0d06 0fbe 797a 233d 7608 ddbd fed1 133e
00000260: a0fc 393e 1e81 a9bb eb69 223e edbb e13d
00000270: 8a8c ae3e e34e 343e 43b7 83be 8100 b1bd
00000280: 8f9d 35be dcff 49bd 43e9 e7be 4ae8 c53e
00000290: 6f49 6c3c 4ca4 33be 0c6f 203e a6a5 9a3d
000002a0: 7a31 3ebe 0518 693b ef90 58bd 6993 e6be
000002b0: 7aa4 62be 6cf9 5b3d 2387 85be 0bb1 06bd
000002c0: 7447 203e 8115 873d 75f8 7e3e f25c 91bd
000002d0: 3e60 fcbe d54c 8dbe b9f1 7bbc ff38 833e
000002e0: 8eec cc3e ec14 61be 1f15 a4bc b9fd 40be
000002f0: 2448 4d3b e785 a1be 08c4 893e 7bb4 30be
00000300: 4c64 0bbd 0de0 863d 8439 6bbe 3d6c 143e
00000310: 6c7a eb3d 7844 f43d 0a40 86be 7ec6 d5be
00000320: 6109 583e e309 b7be 5478 643e a1f8 4a3e
00000330: db7d e2be efd1 6a3e 9281 053e 2cf1 a33d
00000340: 2953 fa3d 145e 363e fb73 52be 2b17 663e
00000350: 4f36 86be 7069 92bd b732 6b3e 336c f53c
00000360: c6ce 1ebe b8f6 a7be 690e ddbd de10 8d3d
00000370: f4ec 54be 0a9f 84be 944d f0be 40e3 f5be
00000380: 2001 64be 49c6 86be 8b4e e6be ddc3 f0be
00000390: 0fa1 df3c 69ca 9f3e 8ead 2b3d c25a f5bd
000003a0: 33b3 e9bd 855b be3d d284 9d3e b292 843e
000003b0: ffd3 a1be ca13 0abe 8d47 10bd a8b4 403e
000003c0: 09b8 55be ae14 cbbd faaf 15be 91a3 f73d
000003d0: 590a a23d d418 8fbe 1329 cc3d de5e 84be
000003e0: 6ed0 3d3e e00d 89be 0817 b5bc ab92 0b3e
000003f0: 8868 fdbd b704 e8be 4872 debe e115 973e
-0.23966514 0.12472439 0.07387244 -0.3189429 -0.051274348 0.09331445 0.011609071 -0.20900296
-0.26703316 0.14195855 0.042865448 0.12711501 -0.44395506 -0.235875 0.016670031 0.04925669
0.2921072 0.1471704 0.21079102 -0.15360576 -0.3314845 -0.28658542 0.15354484 -0.18036708
-0.5084585 -0.42305797 -0.37397298 -0.47479448 -0.29313374 0.19143157 0.24026869 -0.032143593
0.13498662 -0.05982881 -0.2824803 0.19321069 0.22016741 0.03451533 0.067595586 0.33088812
0.2268527 -0.27520943 -0.36332452 -0.19705038 -0.46013096 0.19410542 0.18063654 -0.062662
0.10994074 -0.23636477 -0.29562265 -0.10318085 -0.038417 0.113595024 -0.2809137 -0.20841227
0.19400078 0.17946737 0.1338938 0.19045414 0.25191244 0.28108707 -0.2680487 0.06929497
-0.35706612 -0.055259928 -0.31758255 -0.3147218 -0.0071353717 -0.029506776 0.13161664 -0.04436414
-0.3795158 0.20616338 -0.0014001126 -0.087193824 -0.08955082 0.116609454 -0.41745913 0.00030642637
0.03405058 0.022291502 0.006728907 0.06317058 0.08461773 0.11318939 -0.05865938 0.19147445
0.20984353 0.24511157 0.34859982 -0.11306241 0.20500243 -0.4831855 -0.33480287 -0.4799455
0.20563115 0.008119985 0.39392543 -0.25794274 -0.17870198 0.30186734 0.29487014 0.23991029
-0.20054248 0.20532553 -0.18213533 0.034155693 -0.108089775 -0.42191607 0.02712492 -0.02282568
-0.10246219 -0.2733842 0.101883166 -0.21561398 -0.2016148 0.27235678 -0.30761883 0.21683045
0.1599907 0.11855177 -0.08491494 -0.07616916 0.27918464 -0.30638328 0.064184636 0.09952329
-0.119570784 0.36920556 0.3086183 -0.6143518 0.013659528 -0.11939318 0.13858265 -0.23412763
0.33316734 0.2624489 -0.12112319 -0.2391301 -0.017216336 -0.34727493 -0.20332319 -0.29338622
0.20457608 -0.22402945 0.12499391 -0.29624206 -0.13967152 0.03991172 -0.107926294 0.14435574
0.18162775 -0.0051728627 0.15860717 0.11022172 0.34091598 0.17608218 -0.25725755 -0.08642674
-0.17735885 -0.049316272 -0.45295152 0.38653785 0.014421805 -0.17543143 0.15667361 0.07551126
-0.18573561 0.0035567295 -0.052872594 -0.4503434 -0.22133055 0.053704664 -0.26079664 -0.032883685
0.15652257 0.065958984 0.24899466 -0.07097806 -0.49292177 -0.2759768 -0.015377455 0.25629422
0.40024227 -0.21980637 -0.020029603 -0.18846788 0.0031323517 -0.31547472 0.26907372 -0.17256348
-0.034031197 0.06585703 -0.22971159 0.14494415 0.114979595 0.11927122 -0.26220733 -0.41753
0.21097328 -0.3574973 0.22311527 0.19821407 -0.44236645 0.22931646 0.13037708 0.08004984
0.12222893 0.17809325 -0.20552056 0.22469775 -0.2621331 -0.07149017 0.22968565 0.02995882
-0.15508565 -0.3280542 -0.10793764 0.06887983 -0.20793515 -0.25902587 -0.46934187 -0.4802494
-0.22266054 -0.26323155 -0.449818 -0.47024432 0.027298478 0.31209114 0.04191356 -0.11980201
-0.11411133 0.092948 0.30765396 0.2589317 -0.31607053 -0.13484111 -0.035224486 0.18818915
-0.20870985 -0.09916054 -0.14617911 0.12091745 0.0791213 -0.2794863 0.09968772 -0.25853628
0.18536541 -0.26768398 -0.022105709 0.13630168 -0.123734534 -0.45316097 -0.43446565 0.2950888

layers.4.bias f4 [1172]
00000000: 3bd5 54be 909e 383e 4630 54be 1a1c 6f3e
00000010: 48e1 0ebd 4d67 3b3c f033 933c 00d2 77bd
00000020: 18a9 24be b514 4ebe 9b74 74bd 2183 973d
00000030: b66a 2f3c 9f45 783d 651d c13c 6d70 dd3d
00000040: 2701 04be 5513 423d 3d5c 4bbd 2da0 41be
00000050: 9192 83be e3f2 563c 31f4 bf3d 4251 cbbb
00000060: 3557 9fbd 8d4a 593e 63f4 eebd 6420 41be
00000070: 2178 83bd 5500 6d3d 15c9 58be c7bd 9a3c
00000080: 938e 16be d436 5abe 6d26 9abd bc98 253e
00000090: 2306 26be f352 4c3c 6164 12be 30b2 ebbc
000000a0: 5989 1a3d c272 4abe dc2f 94be df90 89bc
000000b0: 9419 3cbe 65de 27bb 0758 8abe b77a 57be
000000c0: 5381 983d 2dce 4f3d 96bf 91bd bd8d d6bc
000000d0: 7de4 843c cc6c cc3d 1790 673c cdb5 d93d
000000e0: 12f2 0b3e 91b4 12bc 0cec 10be 584c 153d
000000f0: 1b68 ab3d 4f52 73bd 8243 1a3e 5aae 7d3e
00000100: 51e1 eebd 44e3 74be f7a0 11be 2296 67bd
00000110: 8e51 8a3d 0629 1fbe ae47 ddbd 8a52 143e
00000120: fdc5 5dbe e7e1 83be a3a4 0cbe f122 91bd
00000130: b075 d1bc 9adc 813e 50c2 8e3d 19e8 7abe
00000140: 0843 0bbe 0347 103d 8e3e 1cbd 5f58 043e
00000150: 7efa 5dbd 35fa fa3d 6fba c6bc 8b55 ebbd
00000160: 83a9 b4bc 440f 3abe 4b80 bd3d feed ab3d
00000170: 9f5c 84bd a99c 3dbe 6ae8 68be 5596 9cbd
00000180: d7ee e5bd f07e 33bc 4699 9c3e 766a c63d
00000190: 7848 a53d 3347 13be 1ad4 00be 906e 3b3e
000001a0: 06de b3bd 6d9f 913c 1031 3dbe 63d1 65bd
000001b0: 78c6 06be 5a41 603e d849 08be 946a 8cbd
000001c0: 1396 babd 9ff3 493e ebfd 17be 45ef e2bd
000001d0: ec02 c3bd 4aa6 f7bd 2b54 7f3c 9473 443e
000001e0: f4e5 643d d085 f33c 19f9 89bd ca6e 23be
000001f0: 4841 ddbd 8069 c6bd e200 b1bd c0de 7cbd
00000200: a5ad 4bbd ca9c 54be 72f7 eebd 5baa b4bd
00000210: 6d3f 4c3c 373a 91bd 629b f33c f68b 1dbb
00000220: bea3 58bd 91fd 443d 335e 153e ccc1 62be
00000230: a928 01be c8fa b63d 71c7 ac3d 5514 0e3e
00000240: 28ee 0a3e faa8 16bd 3f34 7bbe b5ca f7bd
00000250: 2ee2 e93c 43ff 56be aece 18bd 8f7b e83d
00000260: 953c 0dbe 2f43 afbd 1e93 65be bf13 433d
00000270: c727 1dbb d980 8d3d 3133 46be cb92 45be
00000280: 6cea 5cbd 6050 fdbc 25ad 82be 7628 c83c
00000290: 9d73 fbbc eeb7 10be a13b 0ebe 908f 13be
000002a0: 5f73 2ebd f84b 86be 96bb c03d 2e24 f3bb
000002b0: 48e8 1d3d 365e 82bd 45e0 2d3b fc82 433d
000002c0: d830 ef3d 5624 f0bc 6185 28be f42e 44be
000002d0: bd6d 2d3e 4720 a53d 99f5 7d3b 2350 e3bd
000002e0: fe7c dbbd 5589 53bc 9e7f 04bd 870f febc
000002f0: c15d b638 ec06 40bd e250 b6bd 6339 24be
00000300: 93e0 aa3c 3822 39be e272 79bd 6678 29be
00000310: 7b5d fabd fdb8 70be 370f 733d 0389 8f3d
00000320: b116 d63d 616c 49be ceed 18bb 7832 1abe
00000330: 046e b6bd 119a 32be 856b 323e 3cb9 8cbe
00000340: f1c5 61be 9e22 85bc e26c f8bd 8265 f0bd
00000350: 3eaa 8dbd 9ba5 80be 5177 adbd deb7 09be
00000360: 595a f4bd 9885 dfbd e2bf 333c 8dd1 97bd
00000370: b397 053e 7b27 48be 621f cebb b758 823d
00000380: 62d3 e03d 680b 5abe eec2 32bc 9690 bd37
00000390: d378 a23d 120a 2cbe b249 acbd a103 8e3d
000003a0: 7bc7 473d c4c5 a0bd c4da 20bc 521b 96be
000003b0: f4f3 21be 09c3 d33b 7d54 d0bd 5b7c 36bc
000003c0: 09d0 81bd 4302 68be 72d4 e83b 762a 58be
000003d0: 6a3d 71be 9782 86bd d200 143e 77f1 f5bb
000003e0: d10e 963d 6c9b 9d3b 26dd 4cbd 4605 cfbd
000003f0: 71e8 81bd 7c8d 59be 0b8b 9cbd 7f09 12be
-0.20784466 0.18029237 -0.2072154 0.23350564 -0.034882814 0.011438203 0.017969102 -0.060503006
-0.16080129 -0.20125087 -0.059681516 0.07398058 0.010706594 0.06061327 0.023573587 0.10812459
-0.12891065 0.047381718 -0.049648512 -0.18908758 -0.2569776 0.013119432 0.09372748 -0.006204755
-0.07780305 0.21219845 -0.11667707 -0.18860012 -0.06419397 0.057861645 -0.21170457 0.018889321
-0.14702825 -0.21309978 -0.075268604 0.16171545 -0.16213278 0.0124709485 -0.14296104 -0.02877149
0.03772864 -0.19770339 -0.28942764 -0.016792713 -0.18369132 -0.0025614735 -0.27020285 -0.21042906
0.07446542 0.050733734 -0.0711662 -0.026190633 0.016222233 0.09981689 0.014133475 0.10630379
0.13666561 -0.008954183 -0.14152545 0.03644976 0.08369466 -0.059404667 0.15064815 0.24773541
-0.116640694 -0.2391482 -0.1422156 -0.056539662 0.067538366 -0.15542993 -0.108046874 0.14484611
-0.21657558 -0.25758287 -0.13734679 -0.07086743 -0.025568813 0.25363618 0.06970656 -0.245026
-0.13599789 0.035223972 -0.038145594 0.12924336 -0.054193966 0.122547545 -0.02425882 -0.114909254
-0.022053486 -0.18169886 0.092529856 0.08395003 -0.064629786 -0.18516792 -0.22744909 -0.07645861
-0.11227196 -0.010955557 0.30585688 0.096882746 0.08070463 -0.14382629 -0.1258091 0.18303895
-0.08782582 0.017776215 -0.18475747 -0.05610789 -0.13161647 0.2189993 -0.13309419 -0.06856266
-0.09110656 0.1972184 -0.14842956 -0.11080793 -0.09522042 -0.12092264 0.015584032 0.19184715
0.055883363 0.029726893 -0.06736965 -0.15960231 -0.10803467 -0.09688091 -0.086427465 -0.06173587
-0.049726147 -0.20762935 -0.1166829 -0.08821555 0.012466294 -0.07091182 0.029737178 -0.0024039722
-0.05289053 0.048093382 0.14586715 -0.2214424 -0.12613167 0.089345515 0.08436478 0.13874944
0.13567412 -0.036782242 -0.24531649 -0.1209921 0.028550234 -0.20995812 -0.03730648 0.11351692
-0.13792641 -0.08557736 -0.22419402 0.047626253 -0.0023980008 0.06909341 -0.19355465 -0.19294278
-0.0539345 -0.030922115 -0.25522724 0.024433356 -0.030694777 -0.14132664 -0.13889934 -0.14410233
-0.042590495 -0.26229835 0.09410779 -0.0074200844 0.0385516 -0.063656256 0.002653138 0.04773234
0.11679238 -0.029314201 -0.1645713 -0.19158536 0.16936393 0.08062797 0.0038751124 -0.11099269
-0.107172 -0.0129111605 -0.032348268 -0.031013263 8.695899e-05 -0.0468816 -0.08902146 -0.16037516
0.020859038 -0.1807946 -0.060900576 -0.16549835 -0.12224861 -0.23508067 0.059340682 0.07008555
0.10453547 -0.1967025 -0.0023335102 -0.15058315 -0.089077026 -0.17441584 0.17423828 -0.27485073
-0.22048165 -0.016251858 -0.12130143 -0.11738111 -0.06917237 -0.25126347 -0.084700234 -0.13449046
-0.11931295 -0.10914153 0.010971041 -0.074130155 0.1304615 -0.1954631 -0.006290362 0.06364577
0.10977818 -0.21293414 -0.010910733 2.2597884e-05 0.07933202 -0.16800717 -0.08412494 0.06934286
0.048774224 -0.07850221 -0.009817783 -0.2931772 -0.15815717 0.006462459 -0.10172365 -0.011138047
-0.06338508 -0.22657113 0.0071054036 -0.21109948 -0.23558584 -0.06567877 0.14453438 -0.0075055915
0.07327045 0.0048097875 -0.05001559 -0.10108428 -0.06343163 -0.21245378 -0.07643708 -0.14261435
