Models/LSTM_Start-ups_16_16.pth (torch, 529107 bytes, 7 tensors)

embeddings.0.weight f4 [1172, 16]
000000 28 e4 19 40 d6 f7 cf 3f a6 20 98 3f f1 fa 01 c0
       2.4045506 1.6247509 1.1884964 -2.0309412
000010 1c b0 80 3f 75 cb 8b bf 02 cc f6 be fc 04 de bf
       1.0053744 -1.0921465 -0.4820252 -1.7345271
000020 5a 94 51 bf 3b 0c d1 3f b0 eb ad be 88 df ac bf
       -0.8186699 1.6331857 -0.33968878 -1.3505716
000030 43 ce 86 bf 14 fb a7 be 8f 64 6c bf 55 40 37 3f
       -1.0531696 -0.32808745 -0.9234094 0.7158254
000040 1b a4 14 40 c3 09 d5 be 67 6f 68 bf 0e af 6f 3f
       2.3225162 -0.4160901 -0.90794986 0.9362649
000050 c6 2f ac bf ce 80 e9 3f ef fc 98 3f 88 41 0b 40
       -1.3452079 1.8242433 1.1952189 2.1758747
000060 63 8d db 3f 4c 97 d6 3f 3f c2 65 3f 05 02 f7 3f
       1.7152523 1.6764922 0.8974952 1.9297491
000070 31 a8 8a be 88 4b 81 bd 0d ef 5c be 45 9e ae 3f
       -0.27081445 -0.063132346 -0.21575566 1.364205
000080 a3 46 3f bf fa a2 85 bf 17 5a 6a bf cd 53 b0 3f
       -0.7471716 -1.0440361 -0.91543716 1.3775574
000090 3e 74 69 3f 71 73 0d bf 7f 64 9f 3e a9 20 4a bf
       0.91192997 -0.55254275 0.3113136 -0.78956085
0000a0 0a 3d 9d bf d2 1c a2 3f b2 ec 95 bf f3 06 7e bf
       -1.2284253 1.2665045 -1.1712859 -0.99229354
0000b0 f2 c1 bf bf 44 76 04 40 aa d5 a3 bf 0d 05 f4 bd
       -1.4981062 2.0697184 -1.279958 -0.11915026
0000c0 18 6d 8b bf f5 d3 03 bf 3e 0f 29 3f a5 b5 8b 3f
       -1.0892668 -0.51495296 0.6603888 1.0914809
0000d0 f1 80 21 bf d7 d5 f0 3f 5e fd be bf b2 5a 60 bf
       -0.63087374 1.8815259 -1.4921072 -0.8763839
0000e0 ca 3c ec bf c0 8e 80 3b 4d 56 0a be c5 f9 67 3f
       -1.8456051 0.003923267 -0.13509484 0.90615493
0000f0 93 e3 13 3c 3e ac 1f 40 8e 43 e4 bf 1a 7b 02 40
       0.009026426 2.4948878 -1.7833116 2.0387635
000100 7e 05 fa 3f 58 80 a5 3f 94 96 46 40 4d 99 85 3f
       1.9532926 1.2929792 3.1029406 1.0437409
000110 2c 79 56 3f d5 9d 3e be 13 96 e2 bf 4f 9c ab 3f
       0.83778644 -0.18614896 -1.7702049 1.3407077
000120 44 db ae be d7 38 dd 3e ba f7 a7 be 7c a0 b4 3e
       -0.3415166 0.43207428 -0.32806188 0.3527869
000130 af 9a 66 3f 26 d4 39 bf 54 c3 34 c0 b6 46 4c bf
       0.9007978 -0.7258934 -2.824422 -0.79795396
000140 42 a6 09 3f c8 a8 79 3d 0e 46 b5 bf b0 ab 60 bf
       0.53769314 0.060951978 -1.4162004 -0.87761974
000150 10 12 32 3f 46 70 4b 3e 76 e1 7f 3f 0d f1 13 bd
       0.6955881 0.19867048 0.999534 -0.036118556
000160 d8 a4 a5 3f c7 65 cf be 71 12 0c bf 3e a6 c8 3e
       1.2940931 -0.40507337 -0.5471564 0.39189333
000170 aa 58 0f c0 83 cf a1 be ee 8f 87 3f 85 c6 8d 3f
       -2.2397866 -0.3160363 1.0590799 1.1076208
000180 27 1a 07 c0 34 b2 6e 3e c2 50 bf 3e 93 ad 96 3d
       -2.1109712 0.23310167 0.373663 0.073573254
000190 10 eb 0f 3f 37 aa bd 3e cb 36 8a 3f 01 dd 20 bf
       0.5621805 0.37043926 1.0797971 -0.62837225
0001a0 a4 b0 86 3e b7 bc 9c 3e 57 9a 61 3f 06 77 88 3e
       0.2630664 0.30612728 0.8812613 0.26653308
0001b0 31 70 11 3d 44 f4 49 3f fb ac 34 bf 53 c5 14 3d
       0.035507385 0.78888345 -0.7057645 0.036320996
0001c0 16 16 ac bf d7 b9 91 be 27 70 35 bf 84 5a 2f 3f
       -1.344424 -0.28462097 -0.70874256 0.6849749
0001d0 3a 54 af 3e c0 b6 70 3e 11 a5 c1 3b fe d1 a5 3d
       0.34243947 0.23507214 0.00590957 0.080966935
0001e0 a3 ee f9 be 11 ca 1d 3e 41 bd 42 be 06 52 5d 3f
       -0.48814878 0.15409113 -0.19017507 0.8645328
0001f0 42 00 b5 3f 4d bd 3b be 76 5f 3a 3f ab 8a 8a 3e
       1.4140704 -0.18333931 0.7280191 0.2705892
000200 db 5d b8 3f 24 b4 c7 3f 53 e5 cb bf ba e4 8b bf
       1.4403642 1.560185 -1.5929359 -1.0929177
000210 8a 16 66 bf 7f d9 c3 3f 2f a4 52 3f c5 fc 36 3f
       -0.8987814 1.530075 0.82281774 0.71479446
000220 da 4a 4c 3f 30 4e e8 bd 4f db 06 c0 60 8f db 3e
       0.79801714 -0.11343038 -2.1071355 0.42882824
000230 4c d6 e0 3d 23 ed a0 3f 89 27 5a bf 64 76 b2 3e
       0.10978374 1.2572368 -0.85216576 0.3485595
000240 88 34 0e bf 7c a0 8c 3f 8e 4d a9 3f 4f d6 f9 3f
       -0.55548906 1.0986476 1.3226793 1.9518527
000250 c2 05 96 3d 22 f9 37 be f3 12 11 bf 4b 39 57 3e
       0.07325317 -0.1796613 -0.5666954 0.2101795
000260 79 ee c5 3d 95 b6 27 3f a0 cc 26 bf 3c 49 cf 3f
       0.09664626 0.65512973 -0.6515598 1.6194224
000270 d7 8b 3a c0 c1 79 58 bf f0 00 9d bf f2 55 4f 3f
       -2.9147851 -0.8456078 -1.2265911 0.8099052
000280 02 3e b0 bf 27 10 0e 3e 36 82 2d bd 1b 0d 30 be
       -1.3768923 0.13873349 -0.042360507 -0.171925
000290 ab 21 3d 3f c8 52 86 bf d1 95 2c 3e 19 18 c9 bf
       0.738795 -1.0494013 0.16854025 -1.5710479
0002a0 01 ba 98 bf 16 d2 9d 3f 43 91 e6 3f 39 37 01 3f
       -1.1931764 1.2329738 1.801308 0.5047489
0002b0 4e 05 8e bf 4e 2d 5e 3f c5 30 37 3f 6e 3e 29 40
       -1.1095369 0.8678788 0.7155879 2.6444354
0002c0 4e f8 37 bd 68 66 90 3d 2d dd 68 be db 6c d5 3e
       -0.044914536 0.070507824 -0.22740622 0.41684613
0002d0 aa 6d 63 bf 6f 12 f0 bf 99 e7 30 bf 28 6c 69 be
       -0.8883921 -1.8755625 -0.6910339 -0.22795165
0002e0 6c 7d 13 bf 28 c0 b0 bf cd da d9 bf c4 10 cd 3e
       -0.57613254 -1.3808641 -1.7019898 0.40051854
0002f0 08 0b 44 3f 51 a4 1f bf eb 03 8b 3e 93 bc 24 3f
       0.7657933 -0.623601 0.27151427 0.6435024
000300 ed 5e 09 40 e3 8b b5 bf e1 59 73 3f e3 0e 6c bf
       2.1464188 -1.4183315 0.9505902 -0.92210215
000310 f6 5b 7b bf 48 c3 cf 3e 50 30 97 3e ca b2 6b 3f
       -0.98187196 0.40578675 0.29529047 0.92069685
000320 46 b7 19 3f df 12 1c 40 ca 04 6f bf e5 82 c1 be
       0.6004528 2.4386518 -0.9336668 -0.37795177
000330 af fe d5 3e 67 b6 5a 3f 8b 25 80 3f 1f 6e 7a 3f
       0.4179587 0.85434574 1.0011457 0.9782428
000340 73 e2 2c bf 2a 67 00 bf a0 1d 68 bf 27 83 82 bf
       -0.67533034 -0.50157416 -0.90670204 -1.0196275
000350 bc ee 2e 3f 3b e9 14 3f 79 ea dc be a2 d6 15 c0
       0.6833303 0.5816838 -0.43147638 -2.3412251
000360 71 f9 67 be a3 e4 6c 3f f1 05 c7 bf 61 21 c7 3f
       -0.22653748 0.9253637 -1.5548688 1.5557061
000370 f8 de 11 3f f8 89 19 bf 3a 30 6c 3f f6 28 af 3f
       0.5698085 -0.5997615 0.9226109 1.3684375
000380 ef b1 be bd ce f8 99 3f 09 3e 00 3f f2 d9 92 bf
       -0.09311282 1.2029054 0.5009466 -1.1472762
000390 bb 88 f7 3d 29 5b 06 bf bc 1b 59 bc 39 a6 fe 3f
       0.12086626 -0.5248285 -0.013251241 1.9894477
0003a0 80 b4 0d 3f 09 d8 2a bf ca b3 03 c0 05 26 7f bf
       0.55353546 -0.66735893 -2.0578485 -0.9966739
0003b0 63 25 76 3d d6 99 0d be 84 ff 0f 3f 4a b6 6e 3e
       0.06009425 -0.13828215 0.5624926 0.23311725
0003c0 f9 ed 6d bf 06 15 60 3f 07 a1 e1 bb f1 37 15 3f
       -0.9294124 0.8753208 -0.006885651 0.58288485
0003d0 42 ac 03 bf 7b 1e 79 3e 8c c1 81 bf 02 8a 03 40
       -0.5143472 0.24328034 -1.0137191 2.0552983
0003e0 fc 82 c2 3f ad b1 81 bf 25 d6 61 3f 8a 3e dc 3e
       1.5196223 -1.0132347 0.88217384 0.43016464
0003f0 54 9f 7c 3e f0 8c 37 3f 88 1b 98 bd 84 c1 d4 3e
       0.24670154 0.7169943 -0.07427126 0.4155389

layers.0.weight f4 [256, 256]
000000 0b 6e d0 be 61 8e 5e be 5d 48 31 3e c7 b8 81 3e
       -0.40708956 -0.21734 0.1731276 0.25336286
000010 ee 37 50 3e 7b 13 dc 3c 73 a2 b7 be fa dd 37 bd
       0.20333835 0.026864758 -0.35866126 -0.044889428
000020 b5 a0 49 bd 2c 63 03 3c 1d 23 e2 3e ad ec 78 be
       -0.049225528 0.00801925 0.44167414 -0.24309035
000030 10 45 08 3e 96 08 03 3d 50 8e da be c7 e7 53 be
       0.13307595 0.03199061 -0.426867 -0.20693885
000040 40 fe 14 3f 6c 61 59 3e c9 23 8a 3d b5 96 d3 bd
       0.58200455 0.2122857 0.06745107 -0.103314795
000050 d4 0e fe bd bd 53 81 be e4 7b c0 bd f3 33 91 bd
       -0.12405172 -0.252592 -0.0939863 -0.07089987
000060 61 08 47 be 05 e8 d1 bd 9d 17 09 be 61 34 11 be
       -0.1943679 -0.10249332 -0.13387914 -0.14180137
000070 5c e1 80 3d d8 ae ed bd 21 5e 5e be ab 72 c3 bd
       0.06292984 -0.116056144 -0.21715595 -0.095433556
000080 02 a9 68 be 8a 07 57 3e 05 15 0a 3e 32 a2 46 bd
       -0.22720721 0.2099897 0.13484581 -0.048494525
000090 c4 84 3c 3e 49 9e 4c 3b d5 78 0b be 7e ce 48 bc
       0.18410021 0.0031222275 -0.13620313 -0.012256263
0000a0 d8 56 07 bc c4 f9 47 be ce c2 80 3e 9d f5 c5 be
       -0.008260451 -0.19528872 0.25148624 -0.3866395
0000b0 fe 2f e6 be 5d e9 75 bc 89 ea 88 3d ff 1b 1d 3d
       -0.4495849 -0.015009251 0.06685359 0.038356777
0000c0 0d 56 0b 3e 87 f1 86 be 87 1a c4 3e 80 4d 05 3f
       0.13607045 -0.26356146 0.3830149 0.5207138
0000d0 98 bb 64 3e 76 b7 04 be a3 4d 95 bd cf b6 c3 bd
       0.22337186 -0.1296061 -0.07290199 -0.09556352
0000e0 8d 6e d4 bd b5 3c a5 be 15 f0 17 ba 22 a0 26 be
       -0.103726484 -0.32272878 -0.0005795968 -0.16272023
0000f0 5b 3c 83 3e 53 01 51 3e 9a ba 66 3d ca 2a 67 3e
       0.25631985 0.20410661 0.0563303 0.22574916
000100 85 95 ef 3d 74 08 08 3d b2 51 a8 bd 80 fa 08 bd
       0.116984405 0.033211187 -0.08218707 -0.03344202
000110 c7 a3 8f be c5 84 86 3b b2 65 b2 3e c4 2e 1f 3d
       -0.2805464 0.004105183 0.34843212 0.03886296
000120 18 5e 20 be f2 9b f6 bd b8 eb e9 bd a6 50 8c 3c
       -0.15660894 -0.12041463 -0.11421913 0.0171283
000130 5f df 50 3e 53 75 fb bd 03 80 87 be fd ba 44 be
       0.2039771 -0.12278237 -0.26464853 -0.19211955
000140 52 ac ce be 66 e6 4b be ad 30 cc bd 96 f7 5f bc
       -0.40365845 -0.19912109 -0.09970222 -0.013669869
000150 5a f0 a1 be b8 92 cf 3d bd 31 59 bd 08 1d 5c be
       -0.31628686 0.10135406 -0.05302595 -0.2149545
000160 b3 2c 78 3e 0c 69 3d 3e 9e ac f5 3d 2f 98 86 3d
       0.24235801 0.18497103 0.11995815 0.065719955
000170 11 e5 85 be d7 7b 57 bd 31 47 e7 bd 31 d7 05 3e
       -0.26151326 -0.052608337 -0.112928756 0.1307037
000180 7a 9e 6b bd 87 59 75 3e 7f 54 e3 bd 52 4d e6 bc
       -0.057524182 0.23959933 -0.11100101 -0.028113041
000190 81 0d d2 bd b3 ae 2c 3d b7 48 99 be 1f a0 8a be
       -0.10256482 0.042158794 -0.2993829 -0.27075288
0001a0 f4 ae e0 bd 7b 05 06 be a0 6f 8f be 35 d5 bb 3e
       -0.1097087 -0.13088028 -0.2801485 0.36686102
0001b0 3d f5 a8 bb 5b e5 4e bc 21 33 59 bd 08 87 38 bd
       -0.005156188 -0.012627925 -0.053027276 -0.04505065
0001c0 69 d0 67 be 45 b7 39 3e 61 29 d8 bc 84 24 2e 3e
       -0.22638096 0.18136318 -0.026386919 0.17006117
0001d0 f2 ae e9 bd 4e 23 c7 3d 4c cc 76 bd 85 55 96 3c
       -0.11410321 0.09723531 -0.060253426 0.018351326
0001e0 d8 ac d4 3c 27 8b 5f bd 7a 56 dd 3d 2c 22 8b bc
       0.025961325 -0.054576065 0.1080751 -0.016984068
0001f0 c2 00 05 3d 47 d2 7a 3e 5b 15 4c be 12 c2 9d 3d
       0.032471426 0.24494277 -0.19930021 0.077030316
000200 de ea 0f 3e 55 5c 9c 3e 9d 8e 2d 3e be aa b5 3d
       0.14054438 0.30539194 0.16948934 0.08870457
000210 ba 0a 47 be a1 05 84 3d f8 54 ee bd ba c5 c6 3e
       -0.19437686 0.06446386 -0.116373 0.38822728
000220 b1 0b 8f 3e 74 54 7e 3e 65 b6 83 be d7 c7 99 3c
       0.27938607 0.24836904 -0.25725093 0.018772049
000230 93 65 af 3c fe 78 78 be 1f 26 be be 49 6d 75 bc
       0.021410739 -0.24264905 -0.3713846 -0.014979669
000240 71 a0 ac bd dc d0 3c 3e 0d d6 db 3e 2b b7 8e 3e
       -0.08429039 0.18439049 0.42936745 0.2787412
000250 c0 a5 18 3e bd 8b ae be fc fa 21 3e e3 43 9f bd
       0.14906979 -0.34090987 0.15818399 -0.0777662
000260 89 cd 9b bd 3a 14 74 3d 8c 3a 32 bd 8f 5c 77 bd
       -0.07607562 0.059589602 -0.043512866 -0.060391005
000270 66 2e 97 be fd 3a e1 3d d4 e2 90 3d 85 40 86 3e
       -0.29527587 0.10997579 0.07074514 0.262211
000280 cd da 9f 3e 1c 32 e1 3d 0e 19 ee bc 5c cd a4 3e
       0.3122162 0.10995886 -0.029064681 0.32187927
000290 c6 e7 87 3e 25 24 37 3e 69 7a c0 be ab c1 dd 3d
       0.26544017 0.17884882 -0.37593392 0.10827955
0002a0 97 f7 08 be 23 c9 22 be 4b ab b2 3d 01 18 49 be
       -0.13375698 -0.1589704 0.08724078 -0.19638063
0002b0 56 4c 4e 3e 4c 0c 47 bc cd d1 d9 bd 58 bf b5 3e
       0.20146307 -0.012148928 -0.106357194 0.35497546
0002c0 c7 19 b2 3d 9b b0 80 3e a5 05 6c be c3 34 0e be
       0.08696323 0.2513474 -0.23049028 -0.13887314
0002d0 8f 08 3d be fa 6d 1c 3e 81 42 1d bd 15 c5 35 3e
       -0.18460296 0.15276328 -0.0383935 0.17750962
0002e0 08 ba ba bd df 16 2e bd b6 33 2b bb ac 8f 17 3d
       -0.09117514 -0.04250228 -0.0026123351 0.03700225
0002f0 47 c6 8b 3d 19 82 6d 3e 28 87 e2 3c 04 a8 4b 3e
       0.06824928 0.2319416 0.027652338 0.19888312
000300 a5 e1 08 bf 0a c8 0e bd 86 08 3c be 94 e1 82 3c
       -0.53469306 -0.03485874 -0.18362626 0.015976705
000310 49 0e c4 be 33 3b 0b 3e 7e 64 41 3e 8f ee f6 bd
       -0.3829215 0.13596801 0.18885991 -0.1205722
000320 68 58 0d 3e db 53 25 be 00 c6 49 be c7 e8 e6 bd
       0.13803256 -0.1614527 -0.19704437 -0.112748675
000330 84 0a bc 3e 0f ae 40 3e c0 54 9b bd 4c c3 65 bd
       0.36726773 0.18816398 -0.07584524 -0.056094453
000340 3f a3 13 3d 43 db 22 3e e7 57 58 be dd 62 56 be
       0.036044355 0.15903954 -0.21127282 -0.20936151
000350 1d 41 ee bd bb c6 ec 3d 35 e8 80 3e ea 53 56 3e
       -0.11633513 0.11561342 0.2517716 0.20930448
000360 9e 78 a6 bd 09 20 96 bd 50 3c 06 bd 34 a3 4d 3e
       -0.08128475 -0.07330329 -0.032772362 0.20081788
000370 3c 43 5b be 66 92 0b 3e e9 41 da bc 2e a0 b7 3d
       -0.21412367 0.13630065 -0.026642757 0.08966099
000380 86 fb 9a bb 32 ad 7b be ec 6a a7 bd 17 93 65 3c
       -0.004729691 -0.24577788 -0.081746906 0.01401212
000390 eb 98 00 be 52 b9 29 3d f4 f9 fe bd 0b 7f 53 3e
       -0.12558334 0.0414365 -0.124500185 0.20653932
0003a0 f9 a6 fe bd 88 31 4a 3c 6f 66 35 3a 80 04 de 3e
       -0.12434191 0.012340911 0.0006919866 0.43362808
0003b0 94 e9 18 3e f3 03 5f 3e aa 66 de bd 90 46 9a 3e
       0.14932853 0.2177885 -0.10859425 0.3013196
0003c0 cc ec 71 3e 81 61 2f 3e c0 5e 39 3e ad 34 98 3e
       0.23625487 0.17127039 0.1810255 0.29727688
0003d0 b5 21 ee 3e 04 48 2d bd 55 91 38 3e cc 87 63 3e
       0.4651009 -0.042305008 0.1802419 0.22219771
0003e0 d6 af ca 3d fa 19 a1 bd a6 73 d8 be 32 8e 89 3c
       0.09896819 -0.07866283 -0.42275733 0.016791437
0003f0 1c 34 a0 3e c1 ee f9 bd 58 21 3f 3e 93 08 59 3e
       0.31289756 -0.12203742 0.18665063 0.21194677

layers.0.bias f4 [256]
000000 e0 57 0e bd cd 03 e9 bc 45 25 e2 3c 15 9a f0 bd
       -0.034751773 -0.028444195 0.027605662 -0.11748139
000010 62 3b 1e be 02 82 5e 3d c5 43 e1 3d c5 a2 1a 3d
       -0.1545234 0.054323204 0.10999254 0.037752885
000020 d7 82 26 3d 1e 49 4f bd ae 81 59 bd 12 20 7e 3a
       0.040652122 -0.05060684 -0.053102188 0.000969411
000030 38 69 9f 3d 05 b8 e9 bd 98 fa 41 bd cd 5e 12 3e
       0.07783741 -0.11412052 -0.047358125 0.14293976
000040 01 56 6c bd bb 31 43 be 9b 60 f6 3d 60 fa 70 be
       -0.057699207 -0.1906194 0.12030145 -0.2353301
000050 03 68 41 bc 01 1d a9 3d 91 d5 40 bd 95 30 03 bd
       -0.0118045835 0.08257485 -0.047078673 -0.032028753
000060 21 d7 13 3d 1a 56 32 3e 47 62 d2 bc f0 8b a2 bc
       0.036093835 0.17415658 -0.025681628 -0.019842118
000070 41 55 d6 bc b0 25 c6 bd 16 84 f8 3d 06 91 57 3d
       -0.0261637 -0.09675157 0.121345684 0.05262854
000080 12 34 56 3d 84 42 ab 3d 48 99 61 3d 5f 14 e5 bd
       0.052295752 0.08362296 0.05507782 -0.11185526
000090 8e 5a 35 3c 67 65 1f 3c 45 81 e9 bd 95 3b bf 3c
       0.011068953 0.009728766 -0.11401609 0.02334384
0000a0 94 f5 ad bd c8 21 59 3d 0f 89 87 bd 82 6a 37 bd
       -0.08494106 0.053010732 -0.06617939 -0.04477931
0000b0 08 b5 d5 3d 96 8b 05 be 18 19 fb 3b 78 23 4f 3d
       0.104349196 -0.13041529 0.0076629035 0.050570935
0000c0 d3 32 3b bd 06 8a e2 bd 7f 96 5f 3d ff c8 20 bd
       -0.045702767 -0.11061482 0.054586884 -0.039254185
0000d0 d8 e6 be 3c 46 99 79 bd c6 1e 52 bd 58 a5 99 3d
       0.023303434 -0.06093719 -0.05129888 0.0750224
0000e0 78 08 15 bc d1 8b b8 3c 61 66 87 3d 65 70 14 be
       -0.009096257 0.022527607 0.06611324 -0.14496
0000f0 dd 9a 3b 3d 41 20 50 bd 94 cf b9 3d 46 29 64 bc
       0.045801986 -0.05081201 0.090727955 -0.013925856
000100 78 20 30 3e f7 9b 7f 3d 45 f2 9e bc c1 5f b3 bd
       0.17199886 0.0624046 -0.019402632 -0.08758498
000110 85 e7 13 3e 9c 13 cc 3c b2 1f c4 bb 8e cd ac bc
       0.14443786 0.024911694 -0.0059852237 -0.02109411
000120 d7 9d 97 bc 43 9a 50 3d b1 b3 c2 3c c1 a1 e4 bd
       -0.018507881 0.050928365 0.023767324 -0.111636646
000130 5f 3c 74 bd 5d f9 52 bd 9a 50 cb 3d 36 c2 68 bd
       -0.059627887 -0.051507343 0.09927483 -0.05682584
000140 a1 77 3d bd e4 db 41 bd 0a 32 ad bd df 7b a5 3c
       -0.046256665 -0.047328845 -0.0845681 0.020200668
000150 9e 42 62 3d 70 56 fc bd 84 d5 0d be c1 29 ef 3c
       0.055239312 -0.12321174 -0.13850981 0.029194715
000160 b1 c3 a8 bc 65 8e 2c bd 93 6b 55 bd 8e 2d 81 be
       -0.020601125 -0.042127986 -0.052104544 -0.25230068
000170 f9 0e bb 3c 6a 25 b9 bc e0 9d cb 3d e7 6a 2a bc
       0.022834288 -0.022600848 0.09942222 -0.010401464
000180 72 d0 9b 3d 4b f6 cb bc 81 cc b1 ba 1f 0b 1a be
       0.07608117 -0.024897715 -0.0013564975 -0.15043305
000190 40 bc 41 bd 00 1b e1 3d 5d a9 b2 3d 84 03 d3 bc
       -0.04729867 0.10991478 0.0872371 -0.025758512
0001a0 ca 17 c6 3c e2 6c 31 3d d4 54 b7 3b 63 29 ba 3d
       0.024181265 0.04331673 0.005594829 0.09089925
0001b0 c8 1e e2 3b 52 3a c1 3d 8f ae 9d bd 06 ad f0 3d
       0.006900642 0.09434952 -0.0769931 0.117517516
0001c0 a5 84 c5 bc 54 64 94 bd 49 bb a5 bd c5 bc 5b bd
       -0.024111101 -0.072456986 -0.080923624 -0.05364682
0001d0 02 26 f6 3d 82 93 68 bd 29 f4 c5 3a 96 11 89 bb
       0.12018968 -0.0567813 0.0015102673 -0.0041830046
0001e0 6a 75 0f be 96 21 34 3e 48 9c 93 bc 98 40 0e 3e
       -0.14009634 0.17590937 -0.018018857 0.13891828
0001f0 18 2d 55 bd 36 d4 ca 3c 41 9d ed 3c db 2e f7 bd
       -0.052044958 0.024759393 0.029005649 -0.12069484
000200 5a 40 1b bd eb 81 27 3d 97 9c 01 bd e4 c4 61 bd
       -0.037903167 0.040895384 -0.031643476 -0.05511941
000210 17 a5 ba bc e0 d0 b3 3d bb 0f 55 bd 97 b7 34 be
       -0.0227838 0.08780074 -0.052016955 -0.17648159
000220 df da 0c be 3b 90 ae bd b4 fa ca bd b7 8d de bd
       -0.13755368 -0.085236035 -0.09911099 -0.10866874
000230 53 77 f3 3c 5b 7e a7 3d 9c ff bb 3d ac 8d ad bd
       0.029719984 0.08178397 0.09179613 -0.084742874
000240 b4 1f 88 3c 27 04 c6 3c a8 23 61 be 21 de f0 bd
       0.01661668 0.024171902 -0.21986258 -0.11761118
000250 b8 a0 3a 3d 68 b8 8d bd 4b f0 e7 bb e7 07 0f be
       0.04556343 -0.06919938 -0.0070782057 -0.13967858
000260 90 93 60 3d 4a 3f 11 bd 80 3f 7e bc 06 71 49 bd
       0.054828227 -0.035460748 -0.015518069 -0.049180053
000270 99 75 32 3d 9b fd 47 3d 21 68 06 3d 51 5e 60 bc
       0.04356918 0.04882584 0.03281415 -0.013694362
000280 30 8d 05 3e ee ca 00 be 2d 21 99 bd 40 34 73 3d
       0.1304214 -0.12577412 -0.07477031 0.059376
000290 44 db 40 bd ea e1 79 bc 09 51 c5 3c 8b f1 04 3d
       -0.047084108 -0.015251616 0.024086492 0.032456916
0002a0 92 70 b3 3d dd c1 7f 3d ef 08 86 be a2 d1 00 3d
       0.087617055 0.06244074 -0.2617869 0.03144992
0002b0 56 38 f2 3c 37 5c 15 3b cb db 0b be 74 ea 2d bc
       0.029567879 0.002279056 -0.13658063 -0.01061498
0002c0 93 48 db ba f4 4e 30 be 69 fd 66 3c 5a 67 d7 3b
       -0.0016730003 -0.17217618 0.014098504 0.0065735998
0002d0 be 85 6a 3d 28 99 48 bc a9 45 be bd c5 c5 f9 bd
       0.057256453 -0.012243547 -0.0929063 -0.12195925
0002e0 ec 88 49 3d 80 ff 84 3d b0 d0 85 3d 5c e9 d3 3d
       0.049202845 0.06494045 0.065339446 0.10347244
0002f0 f8 e4 64 3d 68 3d 87 3c da e2 8a 3d 31 aa 25 3d
       0.055882424 0.016508773 0.0678155 0.04044551
000300 7b dc ff 3d c0 ca df bc 05 6f dc bd 2c d8 c4 bd
       0.12493225 -0.027318358 -0.10763363 -0.09611544
000310 05 6e 89 3d 88 2d 6d 3d 40 2b ea 3c a4 11 db bc
       0.06710438 0.05790475 0.028585076 -0.02674181
000320 2e 4a 84 3a 7f a2 32 3d 84 b8 17 3e 14 19 ae 3d
       0.0010092908 0.043612 0.14816481 0.08500877
000330 0b b1 7d 3d d8 b6 5e 3b 5f 54 a1 bd d4 35 40 be
       0.06193642 0.0033983495 -0.07877421 -0.18770534
000340 65 5f e8 bd fc e5 25 be e4 45 fb 3c f8 d5 ad bc
       -0.1134632 -0.16201013 0.030672975 -0.021220192
000350 92 a6 42 be 53 86 0e 3d 53 79 13 3d 32 8f e0 3d
       -0.19008854 0.03479607 0.036004376 0.10964812
000360 06 7f 9b 3d b0 05 b4 3d 0c ba b3 bd f6 60 4d be
       0.07592587 0.08790147 -0.0877572 -0.20056519
000370 71 c2 0f bd b8 47 c6 3d 1f ff 91 bc 75 18 86 be
       -0.035097543 0.09681648 -0.017821847 -0.26190534
000380 e3 60 74 bd 3f dd e9 3c 10 b5 c9 bc 67 9d e1 3d
       -0.05966271 0.028547881 -0.02462247 0.1101635
000390 a8 69 99 3d 07 30 55 be f7 43 44 3c 8c 44 46 3d
       0.074908555 -0.20819102 0.011979095 0.048405215
0003a0 67 85 c9 bc 49 f7 86 3d 33 94 67 bd cf 7d 80 be
       -0.024599744 0.06590135 -0.05653782 -0.25095984
0003b0 49 1a 40 3d 77 aa cd 3d 5b 91 0b 3e 17 b3 ed 3d
       0.046900067 0.10042279 0.13629667 0.11606424
0003c0 12 c4 0c 3e 3e ed 19 bc ea e3 8d bc 11 74 fb bc
       0.1374667 -0.009394942 -0.017320592 -0.030694993
0003d0 3b 91 3f bd 76 53 a2 3d b9 d9 b0 3b fa 79 b0 3d
       -0.046769362 0.07926075 0.0053970483 0.08617015
0003e0 06 b5 ea 3d 5a 7e b4 3c 83 67 d2 3b 45 7a 92 bd
       0.11460309 0.022032905 0.006421031 -0.07152227
0003f0 10 35 ca ba 53 ae bc bd 99 50 b7 bd 29 c6 8e 3d
       -0.0015427191 -0.09212937 -0.0895092 0.0697139

layers.2.weight f4 [32, 256]
000000 d3 46 82 bc 1a 51 42 bc 0d ec 30 3e 3b 66 5d be
       -0.015902912 -0.011860156 0.17277546 -0.21621029
000010 ec c2 c4 be e3 c8 4c 3e c1 fb 89 3d ba 1b 7a 3d
       -0.38429964 0.19998507 0.06737471 0.0610616
000020 0f 54 e1 bd 24 c6 32 bd a4 3c 25 3e 5b 51 a1 bd
       -0.11002361 -0.043645993 0.16136414 -0.078768454
000030 8d 74 ef 3c 67 a6 d9 bc 29 e1 2c be d4 a0 43 bd
       0.02923038 -0.026568605 -0.16882767 -0.0477608
000040 d5 bb ba 3c f2 31 fa bd 37 b8 9b 3e 87 42 b1 be
       0.022794643 -0.122165576 0.30413982 -0.3462107
000050 ed 22 18 3e ae b6 69 3e c5 76 52 be c8 06 61 3e
       0.14857073 0.22823593 -0.2055312 0.21975243
000060 41 d4 2a 3e 01 30 39 3e f0 08 9f be 1a 5b b8 bd
       0.16682531 0.18084718 -0.31061506 -0.09001751
000070 78 7d 7f 3e 12 ae c0 be a9 42 69 3e d2 07 a2 bd
       0.24950206 -0.37632805 0.22779335 -0.07911648
000080 41 ae 12 bc 24 99 2a 3e 0a 07 68 3d c7 69 23 be
       -0.008952678 0.16659981 0.056647338 -0.1595832
000090 f2 75 1f be f0 b7 a2 bd 92 ea 20 be 66 a9 62 bc
       -0.15572336 -0.079452395 -0.15714481 -0.013834333
0000a0 7a d4 c0 bd 41 03 8f bd 23 b3 ab bc 64 d3 92 be
       -0.09415527 -0.069830425 -0.020959442 -0.28676903
0000b0 34 61 1f 3d 6e 92 29 be a7 ff d8 bd 5a d8 89 3d
       0.03891106 -0.16559765 -0.10595637 0.06730719
0000c0 6a 58 2a 3e 2e 29 68 3e bb 9a 64 3d e8 93 06 be
       0.1663529 0.22671959 0.055811625 -0.1314236
0000d0 30 c4 2d 3e 87 61 b9 bd 23 1a 25 3e 3a 20 7b 3d
       0.16969371 -0.09051805 0.16123252 0.06131003
0000e0 69 c0 69 3d ee 9d 3e 3e 33 3d 81 3d 91 9c d7 bd
       0.057068262 0.18614933 0.06310501 -0.105279095
0000f0 f4 e0 5e be a3 2d 44 be 86 b0 b3 bd af a3 87 bd
       -0.217655 -0.19158034 -0.087739035 -0.06623017
000100 c1 ad 62 3e e6 31 09 be 03 7d 8e 3d a4 c7 57 be
       0.22136594 -0.13397941 0.06957438 -0.2107225
000110 9d 7b be be e1 dc 6c 3c 9c 63 86 3e 37 9a 8e 3e
       -0.37203684 0.0144569585 0.2624787 0.27852032
000120 2d d5 e7 be d2 c8 2c bc 6b c7 df 3d d8 23 9a bd
       -0.45279828 -0.010545926 0.10926708 -0.07526368
000130 dc af 01 be 11 ef 53 be c4 f2 15 3e 15 b3 0b 3e
       -0.12664741 -0.20696665 0.14643389 0.13642533
000140 57 ae ab 3d 0c 9c 36 3d dd ff b2 3d 36 96 25 be
       0.08382862 0.04458241 0.08740208 -0.16170582
000150 ac a0 b8 3d 05 82 b7 be bd 9a 13 bd 47 8c 47 be
       0.09015021 -0.35841385 -0.03603624 -0.19487105
000160 65 34 a0 be e9 93 8e bd 09 f7 02 be e8 ac 4e 3e
       -0.31289974 -0.069618054 -0.12789549 0.20183146
000170 d3 83 0a bd af 8d 24 3c ee 62 d8 3b 18 84 5e bc
       -0.033817124 0.010043546 0.00660359 -0.013581298
000180 89 98 fa 3b 9e 53 4d be 81 c6 e5 3d 94 8c 7f bd
       0.007647578 -0.20051429 0.11219502 -0.062389925
000190 81 f6 1c 3e 66 f1 f7 3d 89 47 be 3d fd c9 ef bd
       0.15328409 0.1210659 0.09290988 -0.11708448
0001a0 a5 c1 e8 3a c8 2a 08 3e ba 30 46 3e 9d ce 4e be
       0.0017757906 0.1329757 0.19354525 -0.20196004
0001b0 a8 33 01 be 98 08 50 be 55 3a 93 bd 89 13 71 bd
       -0.12617362 -0.20315778 -0.0718886 -0.05885652
0001c0 98 38 aa 3d b2 75 2d 3e 06 b1 c7 bd a8 4a 6a bc
       0.08311576 0.16939428 -0.097505614 -0.014300026
0001d0 4d 81 69 3e a0 a0 a0 bd 0d 52 55 3e 01 20 7e bc
       0.2280323 -0.07843137 0.20832081 -0.01551056
0001e0 9a 50 17 3e 9b a2 ef 3d f1 3a bf 3d 25 f5 69 3d
       0.14776841 0.117009364 0.09337414 0.057118554
0001f0 63 80 70 be fe 38 a7 be 32 da 49 be 65 05 84 be
       -0.23486476 -0.3266067 -0.19712141 -0.25785366
000200 9b aa b1 bd 46 2a aa bd ae 30 24 bd 68 88 bc bb
       -0.086751185 -0.08308844 -0.040085487 -0.0057535656
000210 59 ca 82 3e a7 eb 75 3d a9 81 28 be 4b e4 64 bd
       0.25545004 0.06003919 -0.16455711 -0.05588178
000220 14 3b d3 bd 5f ce 01 3f 11 c8 37 be 7b f3 f1 bd
       -0.10314003 0.5070552 -0.17947413 -0.11814018
000230 c9 c8 2b 3e ae 11 34 be 48 85 d2 3d f9 78 8e bd
       0.16775812 -0.1758487 0.10279328 -0.069566675
000240 db 1e c4 3e b9 3a 35 3e a0 10 0a bc d5 57 a0 3d
       0.3830479 0.17698182 -0.008426815 0.07829253
000250 62 df 4d be 45 6e c5 bd ec bf 83 3e f7 c9 91 bd
       -0.20104745 -0.09640173 0.25732362 -0.071186
000260 83 e8 bf 3e 04 42 70 3e 11 87 8f 3d 8f a8 e9 be
       0.3748208 0.23462683 0.07008184 -0.45636413
000270 40 87 a3 3d 07 9b 85 be 04 8d 78 3e fd ac 1f be
       0.07984781 -0.2609484 0.24272543 -0.15593334
000280 17 f2 ff 3c f8 dc 3e 3c 02 32 5c 3d d4 f4 e7 bd
       0.031243367 0.011649363 0.05375863 -0.11325994
000290 e2 89 a5 3d f0 92 d8 3d 6d de 0a 3c e0 1e 8f 3d
       0.0808294 0.10574901 0.008475882 0.06988311
0002a0 30 fc 64 be 8a 0f d0 3c 51 64 aa bd f2 9e 85 3d
       -0.22361827 0.025398035 -0.08319915 0.06524457
0002b0 58 7d b9 3d 97 38 4a 3c 58 87 b2 bd 95 cb e0 bc
       0.090571105 0.012342594 -0.08717221 -0.027440825
0002c0 e2 ae 9e bd 65 59 90 3e ba 20 0b be f3 7d 39 3e
       -0.077482 0.28193203 -0.13586703 0.18114452
0002d0 04 9e 65 3e 53 75 5a 3e 9e 62 47 3d dd 25 0b bf
       0.2242356 0.21333818 0.048678033 -0.5435465
0002e0 14 e4 94 3e 93 e3 57 3e a0 6f 98 bd 52 94 61 3c
       0.2908026 0.21082906 -0.07443166 0.0137682725
0002f0 ec 9c c0 3e b7 cf 41 be a8 62 7e 3e 1b dc 06 be
       0.37619722 -0.18926893 0.24842322 -0.13169901
000300 9a 45 86 bd 8f 03 17 be 32 e7 13 bd 2f d2 23 bd
       -0.06556244 -0.14747451 -0.036109157 -0.03999537
000310 49 db 3c 3e 28 e7 5c 3e ca 47 16 3d 96 b9 2a 3e
       0.18443026 0.21572554 0.036689557 0.16672358
000320 0a 32 8a 3e 47 de 79 3e c6 7d 64 be 30 fe 6f 3e
       0.26991302 0.24401198 -0.22313604 0.23436809
000330 28 a5 b1 3d 22 ac 6e 3e 48 6d 2e be 8d 49 f0 be
       0.08674079 0.23307851 -0.17033875 -0.46931115
000340 c4 23 ba be ae 26 c7 3d 5e 8e 61 3e 55 b2 24 be
       -0.36355412 0.097241744 0.22026965 -0.16083653
000350 e4 63 ce be 7b 97 09 3e 84 1c c9 bd a2 43 3c bd
       -0.40310585 0.13436691 -0.09819892 -0.045962937
000360 91 70 0e 3d 54 f6 e9 3d 03 92 1c bd 77 e9 51 be
       0.03477532 0.114239365 -0.038225185 -0.20499216
000370 ad 20 aa 3d f3 34 2b be 42 59 04 3e 82 86 b7 be
       0.08307014 -0.16719417 0.12924674 -0.3584481
000380 33 1b 49 be 62 d8 05 bd 61 fd f9 bd 3d 7a 91 3e
       -0.19639282 -0.03267706 -0.12206531 0.28413573
000390 41 9c e6 3d c6 f1 66 be f6 cd 37 be d5 90 43 be
       0.11260272 -0.22553167 -0.17949662 -0.19098218
0003a0 1d 1a 2c 3e dd ed f9 3d af 7e 6a be c5 db 92 bb
       0.16806836 0.12203572 -0.22899888 -0.004481765
0003b0 36 67 a9 3e 9d 04 ae 3d 3b 7a 1a 3e 81 2b 30 3d
       0.33086556 0.08496974 0.1508569 0.04301024
0003c0 b6 31 97 3e f7 7a 9a 3c 9b 00 2d bd f3 15 fa 3d
       0.29530114 0.018857462 -0.042236906 0.12211218
0003d0 16 79 91 bd 64 01 83 be 4d 7c 72 3d 06 cf dc bd
       -0.071031734 -0.25586998 0.059200574 -0.10781674
0003e0 f8 db ec 3c e9 36 ae 3d 05 a3 04 bf 77 67 e8 3d
       0.028913483 0.08506567 -0.5181125 0.11347859
0003f0 00 62 d1 bd bd 93 95 be f4 d0 3c 3c 58 40 09 3e
       -0.1022377 -0.29214278 0.011524428 0.13403451

layers.2.bias f4 [32]
000000 49 59 6d bc 95 2a a7 3d 53 35 a2 3d ba 93 47 3d
       -0.014486619 0.08162419 0.07920327 0.048724867
000010 30 a6 ef 3c 38 2f 34 bc 96 36 c8 3c 91 f7 2f 3d
       0.029254049 -0.010997586 0.024440091 0.042960707
000020 fe 9e b5 3d 2c fa a6 3d 20 4d f6 3d b5 3b 8a bd
       0.08868216 0.08153185 0.12026429 -0.067496695
000030 8c 77 bc 3c c0 73 07 3e 1d 9e b7 3d e6 52 ee 3d
       0.023006223 0.13227749 0.089657046 0.11636905
000040 dd b9 bc 3d 5f cf f8 3d 48 ff 10 3e de b8 f4 3c
       0.09215138 0.12148928 0.14159882 0.029873308
000050 9d 93 2b 3c 98 87 00 3d c4 27 d4 3d b6 8a fe 3d
       0.0104722055 0.031379312 0.10359147 0.12428801
000060 18 cb d9 3d c3 c6 b2 3d 62 fa a2 3c 34 fb 69 3b
       0.1063444 0.08729317 0.019894782 0.0035702707
000070 91 0b a5 bc 6b ea 7a ba ed 3a fd 3c 5e a6 15 be
       -0.020147117 -0.0009571674 0.030911887 -0.14614245

layers.4.weight f4 [1172, 32]
000000 19 34 6a 3c 44 26 19 3e b8 9a 19 3e e5 19 5e 3e
       0.014294648 0.14956003 0.15000427 0.21689565
000010 27 50 fc bd 9c e0 5b 3c 8c 7d b6 be 6f 80 58 bd
       -0.12319975 0.01342025 -0.3564266 -0.05285686
000020 a2 2a 6a 3e 0e df fd 3d ee e6 1a 3e 0a d3 28 3e
       0.22867826 0.1239606 0.15127155 0.16486755
000030 01 c3 bc be 0f 83 3b bf d3 ea 0a 3e ff 7c 07 bf
       -0.36867526 -0.73246855 0.13566141 -0.52925104
000040 db 5c 98 3e 5d 0a 5e bd 56 de 2c be da ee 19 bd
       0.29758343 -0.054209102 -0.1688169 -0.037581302
000050 d7 1e 75 3e cd 93 40 be c7 44 ce be f6 bb 96 3e
       0.23937546 -0.18806382 -0.40286848 0.29440278
000060 bd 4a 34 bf c3 93 cb be 45 c5 41 3e c7 1f 60 bd
       -0.7042654 -0.3976117 0.18922909 -0.054717805
000070 d2 fb 6e 3d 4b bc fc be 9e 31 74 be 2b 95 36 3d
       0.058345623 -0.49362406 -0.23847052 0.04457585
000080 bb 0d 85 3c 0d db 02 3e a3 ce 63 be 98 f9 c3 3d
       0.016241899 0.12778874 -0.22246794 0.095690906
000090 a8 b8 05 bf 6f ae 01 bf b0 b9 41 be 31 23 ad 3e
       -0.5223489 -0.5065679 -0.1891849 0.3381591
0000a0 31 54 1e 3e 29 a3 25 3e 04 c9 e6 bc fc 6b 57 be
       0.15461804 0.16175522 -0.028172024 -0.21037287
0000b0 c5 46 07 3e 41 7a ab 3c db fb 94 be 71 40 0f bb
       0.1321059 0.020932319 -0.290984 -0.0021858478
0000c0 70 a0 c5 be a3 d4 bd 3e 3d 64 a1 be d4 43 3b 3e
       -0.38598967 0.3707629 -0.31521788 0.18287593
0000d0 64 b4 b7 bd ba 34 70 3e 77 ef 96 3e 9c 09 64 bd
       -0.08969954 0.23457614 0.29479572 -0.055673227
0000e0 ef 18 05 bf b6 a2 ba 3e c8 de cd be 1f f7 79 bd
       -0.5199117 0.36452264 -0.4020903 -0.06102669
0000f0 a4 3d a3 be c9 d2 e4 3d 87 23 8a 3d f0 e7 3f be
       -0.31882966 0.111730166 0.067450576 -0.18740821
000100 a2 a9 be 3e 24 b1 39 be 64 24 bd be 1f 04 9b 3e
       0.37238795 -0.1813398 -0.36941826 0.30276582
000110 2d c1 1e bf d1 c6 97 3e 36 cd ba be 7d af bc bd
       -0.6201351 0.29643872 -0.3648469 -0.09213159
000120 bc c6 22 bf bf 38 df bc 31 de 8c be dc d6 b3 3e
       -0.63584495 -0.027248738 -0.2751327 0.35124862
000130 cd 5f 34 3d 41 80 e1 3c 84 22 b3 be 39 04 ec 3e
       0.044036675 0.027526977 -0.3498727 0.46096972
000140 55 89 cf 3d 51 30 07 bf 65 99 2b 3e 2f 61 55 3d
       0.10133616 -0.528081 0.16757734 0.052094635
000150 ed a7 09 be 08 65 41 3e 4e 4a 85 bd 27 56 55 3d
       -0.13442965 0.18886197 -0.06508313 0.052084114
000160 38 cd 29 3d 3b b3 8f 3d 6b 8a 1a be 02 26 66 3d
       0.041455477 0.070166074 -0.15091865 0.05618859
000170 0a 99 e8 3d be 07 08 be 01 a8 29 be f2 02 99 3c
       0.11357315 -0.13284203 -0.16567995 0.018678162
000180 f4 52 d8 bc 19 0d 29 3e b5 f3 bc 3e 3c 56 ac 3e
       -0.026406743 0.16508903 0.36904684 0.33659542
000190 e9 33 3b bf 7a e6 55 3e 83 2d e8 bb 7a 6b 46 3e
       -0.73126084 0.20888701 -0.0070855035 0.19376937
0001a0 0c ed c4 be 96 de 55 3d 7e 82 a6 be 21 dd 14 be
       -0.38462102 0.052214228 -0.32521433 -0.14537479
0001b0 b8 22 39 bf 4c de cc bd 26 d5 82 3d dd d1 85 3e
       -0.723186 -0.10003337 0.06388311 0.26136675
0001c0 b4 30 42 bd 09 67 39 3d 9f 20 d0 bd 63 f1 51 3e
       -0.04740973 0.045264278 -0.10162472 0.20502238
0001d0 9e d6 95 bd 3f 02 79 be 06 a0 27 be 3b ee 8c bd
       -0.073163256 -0.24317263 -0.16369638 -0.06881376
0001e0 af f8 f3 3c 3e 90 d7 3d 58 73 8d bd 88 dd a2 bc
       0.029781668 0.10525559 -0.06906766 -0.019881025
0001f0 b6 ff 01 bf 03 af 2f 3d fa 6f 9f 3e e6 08 26 be
       -0.5078081 0.042891514 0.3114012 -0.16214332
000200 19 51 a0 be d6 78 7b 3e 42 37 c1 bd 4f 19 54 3e
       -0.31311873 0.24557814 -0.09434368 0.2071278
000210 85 94 2f bf 5c 58 30 3d 55 88 d7 be 33 97 d4 bc
       -0.68586 0.043053016 -0.420962 -0.025951004
000220 2b a4 01 3e da c8 fa 3d 77 c2 ba be f6 86 72 be
       0.12660281 0.12245341 -0.3647649 -0.23684296
000230 3a 3e 95 be ed fc a8 bc 71 0d 9b 3c b0 15 d9 3d
       -0.29149038 -0.020628417 0.018927308 0.1059984
000240 eb cf 94 bd db 75 8d 3d 58 eb 6b bd bd 45 79 3e
       -0.0726622 0.06907245 -0.05759749 0.2434301
000250 57 46 08 bf b5 60 7b be e1 c0 09 3d 3d 2e 62 be
       -0.5323233 -0.2454861 0.03363121 -0.22087951
000260 15 99 58 be 9e c6 a2 3d 66 84 6c 3e 91 f0 81 3e
       -0.21152146 0.079480395 0.23097381 0.2537885
000270 d1 2b 55 be 63 f5 ca 3d 0a 6e 9e 3e cd 2f a6 be
       -0.20817496 0.09910085 0.30943328 -0.32458344
000280 4c ab 4b bd db 87 80 3d 62 44 2b 3d da 62 da 3d
       -0.04972391 0.062759124 0.04181326 0.10663386
000290 97 b2 e1 bd 05 5b 3d 3d e6 61 ca be 8b aa b5 be
       -0.110203914 0.04622938 -0.39527816 -0.35481676
0002a0 8f d9 4a 3e c6 63 ff be b1 f8 41 bc 44 d3 e4 3d
       0.19809555 -0.4988081 -0.011839078 0.11173108
0002b0 3e 47 92 be ba 32 d6 bd 08 67 f8 be b1 ed d4 3d
       -0.28569978 -0.10458894 -0.48516107 0.103968985
0002c0 64 f1 34 3e c1 3a 90 3d 4b 4e f4 3c 18 04 bd bd
       0.17670208 0.070424564 0.02982249 -0.092292964
0002d0 0b c8 cb 3e fc f6 8a 3e 86 45 3d bd 42 ab f4 bd
       0.39801058 0.2714156 -0.04620888 -0.11946727
0002e0 cc 14 16 3e 6c 7b 40 3e eb ed 6d 3c f4 48 3b be
       0.14656371 0.18797082 0.014522056 -0.18289548
0002f0 7f 57 0d 3e 8a d1 a2 be 0c a9 30 bf 79 73 81 3e
       0.13802908 -0.3180049 -0.69007945 0.2528341
000300 b4 d1 e2 bb bd 22 9f be ea f2 5b be af 55 64 be
       -0.006921971 -0.3108119 -0.21479383 -0.2229831
000310 bd ab 4a 3e 25 a1 da bd 12 96 b3 be 98 0d c0 bd
       0.19792075 -0.10675267 -0.35075432 -0.09377593
000320 e0 37 7b 3e 89 4d 9b bd 42 bf ef 3d 8e 73 20 bc
       0.24533033 -0.07583148 0.117064014 -0.009793175
000330 05 de 87 be cb 83 1b be 6a 2e c1 3e 1c e2 93 be
       -0.26536575 -0.15186994 0.37730724 -0.28883445
000340 bd da 62 3e ab 12 43 3e 88 3b 93 3e ac 73 69 3d
       0.22153755 0.1905009 0.28756356 0.05699508
000350 e8 b9 c8 3e 82 19 19 3e 69 69 b4 bd 36 f1 94 be
       0.39204335 0.14951137 -0.08809168 -0.2909028
000360 e2 6e eb bc c7 33 dd bd d4 de e9 bd bf 96 8c bd
       -0.028739396 -0.10800891 -0.11419454 -0.0686469
000370 90 4d 4c 3e c8 b6 bb be 9f 05 ce bc 48 58 56 3e
       0.19951463 -0.3666289 -0.025149165 0.20932114
000380 69 8a f2 bd 23 d4 88 be 63 5e 7b bc ba cb 90 3d
       -0.11842806 -0.26724347 -0.015342328 0.07070108
000390 e0 29 cd 3e f0 7f ac bd e1 07 b0 3e 36 16 6d be
       0.4007101 -0.0842284 0.3438101 -0.23153004
0003a0 87 bf 79 3e 8c 1a 27 be 2d 64 26 be 61 72 3e bd
       0.24389468 -0.1631872 -0.16249152 -0.0464958
0003b0 f5 5b 9a 3e 3a 0b f3 be 80 4f 03 bf d7 58 b5 bd
       0.30148283 -0.47469503 -0.5129318 -0.088548355
0003c0 50 6d f7 3d 26 e2 a3 be 79 a2 26 be 41 c1 bb bd
       0.120813966 -0.32008475 -0.16272916 -0.0916772
0003d0 df 23 ee 3d cc cf 84 3d 46 10 79 3d 08 aa 83 be
       0.116279356 0.064849466 0.060806535 -0.2571566
0003e0 de b0 a7 3e 92 08 1b bf 61 d4 74 be 57 3b dd be
       0.32752126 -0.6055995 -0.23909141 -0.43209335
0003f0 11 57 89 3d c2 9d 31 3c 08 d0 16 bd 05 0c 8e 3e
       0.0670606 0.010840835 -0.036819488 0.27743545

layers.4.bias f4 [1172]
000000 dd 7e 19 be b0 5e 25 3e fb 71 ba be bc 29 72 3e
       -0.14989801 0.16149402 -0.36415085 0.23648733
000010 df 55 20 3e 18 da 30 be d4 dc d0 bd 55 d9 10 bd
       0.15657757 -0.17270696 -0.101983696 -0.035363514
000020 25 dd f1 bb 92 35 e0 bc 1e 29 ca 3c a8 20 df 3b
       -0.007381099 -0.027369294 0.02467781 0.006809313
000030 8a 67 4b be 9b cb 41 be b4 a0 88 3c d8 16 0d bd
       -0.19863716 -0.18925326 0.016678192 -0.034445614
000040 b7 63 8b 3d 3f d8 b9 bc c7 6a d8 be 94 91 b3 be
       0.068061285 -0.022686122 -0.42268965 -0.35072005
000050 92 cc c1 bd 94 ad 66 be 3d e7 84 3d d8 ad c8 bd
       -0.09462847 -0.22527152 0.06489418 -0.09798783
000060 52 0b b4 3d 0d 4d 5e be 42 21 10 be a6 b1 e5 bd
       0.08791222 -0.2170908 -0.14075187 -0.112155244
000070 45 7e af 3c 9d 66 97 bc ed cb 84 bd 8e 2f a8 3c
       0.021422515 -0.018481547 -0.06484208 0.020530488
000080 96 db 9f 3c 01 56 75 bc 47 13 4b be 34 ec 9c be
       0.019513886 -0.014974118 -0.19831572 -0.3064896
000090 5b 28 7b be c8 ae 4a be a6 0a 27 bd 96 22 30 be
       -0.24527113 -0.19793236 -0.04078164 -0.17200693
0000a0 25 91 50 be b8 08 62 bc 88 16 21 bd 71 5e ba be
       -0.20367868 -0.013796024 -0.039328128 -0.36400178
0000b0 26 a2 34 3c 9a ad 10 be cb f1 d2 bd 48 20 65 bd
       0.011024987 -0.14128724 -0.103000246 -0.05593899
0000c0 20 d1 60 be 18 42 67 be ea bd 3b 3e 1d ce f6 bd
       -0.21954775 -0.22583807 0.18334165 -0.12051032
0000d0 5c 6e 0e be a4 c4 ea 3c 01 8b 10 3d 8a 21 6a 3c
       -0.13909286 0.028658219 0.035288814 0.014290223
0000e0 4e 5c b8 3d c9 28 ba 3d ae 1c d5 bb 28 51 22 be
       0.09001981 0.090898104 -0.006503663 -0.15851271
0000f0 37 22 76 3d 0d 6d 4d be 5a 39 0d be f0 65 d3 3d
       0.060091224 -0.20061131 -0.13791409 0.103221774
000100 8a c8 36 3e c6 16 30 be 93 db 75 be 03 71 ab bd
       0.17849937 -0.17196187 -0.24009542 -0.08371165
000110 cf 80 c3 bd 53 95 98 3b 68 a7 a3 bd 0a 01 16 bd
       -0.09546053 0.0046564727 -0.079909146 -0.036622085
000120 0e d4 2e be 4a 53 1a be a2 bf 08 bd d6 9c 63 be
       -0.1707308 -0.15070835 -0.03338588 -0.22227797
000130 ee 71 63 3d 33 74 59 3e 12 60 4a be 22 74 37 be
       0.055528574 0.21235733 -0.1976321 -0.17915395
000140 30 74 8b 3d f5 4c 2a bd 8a 04 24 be bb 61 bf 3e
       0.068092704 -0.0415773 -0.16017357 0.3737925
000150 4e f0 53 3d 27 a1 d4 3d a7 d0 2c be b4 21 97 3d
       0.051742844 0.103823 -0.1687647 0.07379475
000160 2c fe 14 3e 09 09 7d 3d 40 b1 64 bc 2b 03 41 3c
       0.14550084 0.061776195 -0.013958275 0.01178054
000170 63 64 d8 bd b7 48 8b be 9e 07 65 bc 92 90 63 bd
       -0.10566022 -0.27203915 -0.013978867 -0.055557795
000180 51 b4 20 be b6 45 01 bd 54 4e 61 3e f0 22 6f be
       -0.15693785 -0.031560622 0.22002536 -0.23353171
000190 8d ed cb 3b 00 02 6d bd ca 76 c4 be 3e 9b 59 3c
       0.0062233866 -0.057863235 -0.3837188 0.0132816415
0001a0 9b 62 c4 3e 8a bf 83 be 2d cf 58 be 54 97 07 be
       0.3835648 -0.2573207 -0.21172781 -0.13241321
0001b0 65 3e 02 be 97 45 8b bd 45 ba 9d bd 37 14 fd bc
       -0.12719114 -0.068003826 -0.07701544 -0.030893428
0001c0 e1 19 93 be 82 df bb 3e 7d 61 96 be 65 08 37 be
       -0.28730682 0.3669396 -0.29371253 -0.17874296
0001d0 b7 c4 44 be ab 08 88 3e 81 8f bc bd 75 8d bc 3e
       -0.19215666 0.26569113 -0.09207059 0.36826673
0001e0 46 f1 76 be 38 2e af 3d d1 d2 3b bd d7 8d 2b be
       -0.24115476 0.085537374 -0.045855347 -0.16753326
0001f0 af fa 5e bd 60 6c c2 bd d0 50 49 be 7c e3 96 bd
       -0.05443829 -0.09493327 -0.19659734 -0.07367608
000200 a5 3e 49 be 04 8f a4 bd c7 b2 23 be 9f fc 77 be
       -0.19652803 -0.080350906 -0.15986167 -0.24217461
000210 ba 9a 60 3d a0 98 a6 be 95 6c 67 be 2e c7 95 3c
       0.05483506 -0.3253832 -0.22600015 0.018283453
000220 74 3c ff 3d a2 fa 70 be b0 ee 7b bd e8 35 29 be
       0.124627024 -0.23533109 -0.061506927 -0.1652447
000230 44 00 33 3d 1d 3e 8b bc e9 67 3a bd a1 c7 0e bd
       0.043701425 -0.016997391 -0.045509253 -0.03485835
000240 ad c9 8b 3e 49 e0 ac 3d 8d 05 88 bc 22 00 a1 be
       0.27302304 0.084412165 -0.01660421 -0.31445414
000250 20 61 9f bc 60 52 9a be 4e e2 6d be 0c cf 9f 3e
       -0.019455492 -0.30140972 -0.2323086 0.31212652
000260 82 61 fc bd ab e2 7f be 15 48 1c 3e 5e 36 9e 3e
       -0.12323286 -0.2498881 0.15261872 0.30900854
000270 4a 86 76 3d 3a 95 37 bd 07 93 45 be 26 b9 e8 bd
       0.06018666 -0.044820048 -0.19294368 -0.11363439
000280 be e0 2b be 44 9f 09 3e 89 cf 7e bd f6 18 bd bd
       -0.16784951 0.13439661 -0.06220964 -0.092332765
000290 e8 a4 81 3d 91 16 48 be fe ce 26 bb 49 28 1f be
       0.063302815 -0.19539858 -0.0025452967 -0.15542711
0002a0 4a 0d 8b be f0 07 92 be 4e 72 8c be 11 5e 6c bc
       -0.27158576 -0.2852168 -0.27430958 -0.014426724
0002b0 87 28 d4 bd ad 20 11 be fc 97 82 be 02 fe 95 3d
       -0.103592925 -0.14172621 -0.2550658 0.07323839
0002c0 59 92 d4 bd d8 50 b9 bd b3 d7 c1 bd 9c 2a c5 3d
       -0.10379476 -0.09048623 -0.094649695 0.09627268
0002d0 a5 3a 89 3e 09 0c 35 3e 3e c5 74 bd c5 d0 93 be
       0.26802555 0.17680372 -0.059758417 -0.28870216
0002e0 18 4b 63 be bd c8 9a bd 7c 48 5c be c9 aa 16 be
       -0.22196615 -0.07557819 -0.21512026 -0.14713587
0002f0 d1 43 a3 be d7 7f 56 be ff 6a a5 be 59 a3 3e be
       -0.31887677 -0.20947205 -0.32308194 -0.18617
000300 41 7e 15 be 51 99 ea 3c fb b3 89 be e8 29 9f be
       -0.14598943 0.02863756 -0.26895127 -0.3108666
000310 a9 47 98 be ba 9b 6c be 12 41 a8 bd f6 39 92 be
       -0.29742172 -0.2310628 -0.08215536 -0.28559846
000320 4d c5 2a be d2 96 cb bb 0e 47 d2 3c 4e 52 8c 3d
       -0.16676827 -0.0062130475 0.025668647 0.06851636
000330 5a 25 94 bd d9 48 af bc aa 11 9a be 09 1d 9c be
       -0.07233687 -0.021397041 -0.30091602 -0.30490902
000340 45 a1 50 be 0e b9 d2 3c 25 62 75 3d 6b 81 95 bd
       -0.2037402 0.025723007 0.05990805 -0.07300075
000350 fc bb da bd a2 ff 9b bc 41 f0 aa 3d a9 28 8d 3b
       -0.106803864 -0.019042794 0.08346606 0.0043078256
000360 a0 c5 6b 3d 25 f2 c4 bc 2d 7b 97 bd 16 3c 89 3c
       0.057561517 -0.024041245 -0.07396541 0.016752284
000370 fd 16 47 3d ce 6a 62 bd 31 02 34 be 0c 70 a4 be
       0.048605908 -0.055277638 -0.17578961 -0.32116735
000380 28 de 55 3c 89 a3 47 be 95 c2 94 be cc bf 2b 3b
       0.013053454 -0.19495977 -0.29054704 0.002620685
000390 57 5f a9 bd 58 3d 28 be ed bf 50 be 1e 46 f2 bd
       -0.08270138 -0.16429651 -0.20385714 -0.1182978
0003a0 ea 06 34 be e7 7f 35 be 8c 14 0a be 76 40 47 be
       -0.17580763 -0.17724572 -0.134844 -0.19458184
0003b0 0b 85 3b be 8e fe 01 3e 15 26 93 3d 3b 9a a6 ba
       -0.1831247 0.12694761 0.07184998 -0.0012710759
0003c0 97 bc 9c 3e 02 94 10 be 79 14 64 3d 9d 04 cd bd
       0.30612633 -0.1411896 0.055683587 -0.100106455
0003d0 ab 58 7f be fd 2e 7c bd c8 b9 95 bd f6 b7 1c bd
       -0.24936168 -0.06156825 -0.073108256 -0.038261376
0003e0 8f c8 8c be d5 a7 b5 bd e2 8e 46 be c9 7f d7 bd
       -0.27496764 -0.08869902 -0.19390443 -0.1052242
0003f0 76 58 7b bd 8c 3a 7c be 69 21 20 bd 4b aa 73 be
       -0.06136366 -0.24631709 -0.039094362 -0.2379543
