Models/LSTM_Start-ups_4_2.pth (torch, 209405 bytes, 7 tensors)

embeddings.0.weight f4 [1172, 2]
000000 1b ae 41 40 f1 ff 4d 3f 3c 98 cf 3f 23 35 34 c0
       3.0262516 0.8046866 1.6218333 -2.8157432
000010 e3 d4 1c 3f f0 fe b3 bf 82 e4 67 bf 8a f4 1e c0
       0.6126234 -1.4062176 -0.9058305 -2.4836755
000020 60 61 cb be b7 94 85 3f 0f 6c a0 3e b7 a4 df bf
       -0.3972273 1.0436009 0.31332442 -1.7472142
000030 d7 22 35 be b0 84 2d 3d 5f 91 53 bf d4 e5 ad 3e
       -0.17689072 0.04236287 -0.82643694 0.33964407
000040 c1 2f 24 40 3e 37 f9 bd 59 a4 37 c0 d0 63 d4 bf
       2.5654147 -0.1216874 -2.869406 -1.659296
000050 bf e0 fc bf ce c8 be 3f ea 83 16 40 3f 66 4d bd
       -1.9756087 1.4905031 2.3518014 -0.050146338
000060 9d 5e 24 3f a6 6b c7 bd d8 23 f7 be 7d 04 13 3e
       0.6420687 -0.09737329 -0.48269534 0.14357181
000070 51 34 dc bf 9f 8b b1 3f 45 bc 8d be eb 7f 15 3f
       -1.7203466 1.3870734 -0.276827 0.5839831
000080 11 95 0c be 42 e4 33 bf d9 e6 9e 3d 8f 74 98 3f
       -0.1372874 -0.7027017 0.077588744 1.1910571
000090 93 ae 2f bf 99 93 d1 bf 6b 9a 26 3f 33 bc 29 bf
       -0.68625754 -1.6373168 0.65079373 -0.66302794
0000a0 32 26 83 bf 8f dc 58 3f 85 d3 c2 3c c4 7d 8b 3f
       -1.0246031 0.84711546 0.023782501 1.0897756
0000b0 c3 d4 94 bf b4 6c 44 40 86 2f 05 bd 56 86 3a bc
       -1.162743 3.0691347 -0.032516025 -0.011384567
0000c0 7d 41 02 c0 7d 65 86 bf 68 6f 30 3d d4 4d 99 3f
       -2.035247 -1.0499722 0.043074995 1.1976876
0000d0 c5 da 67 3e 18 7d 26 3f da 66 57 3f 4d db 30 c0
       0.22642048 0.6503463 0.84141314 -2.763385
0000e0 66 37 dc bf 55 a0 00 3f d8 4c 60 3e e7 85 b4 3d
       -1.7204406 0.5024465 0.21904314 0.08814602
0000f0 43 56 72 be bc 7f 1d 3f c7 06 d5 bf ae 9d e9 3e
       -0.23665719 0.6152303 -1.6642693 0.45628113
000100 55 71 d0 3e 2e 7c b2 3f be 7d a7 3f a0 ec 88 3f
       0.40711465 1.3944147 1.3085248 1.0697212
000110 8b ad 1a bf 6c fe da bf 9a 4b 15 bf a4 94 c0 3e
       -0.60421056 -1.7108893 -0.58318484 0.37613404
000120 78 d4 89 3f 02 cc 85 3e 26 52 42 3f e9 69 34 3e
       1.0767965 0.26132208 0.759066 0.17618527
000130 50 62 8e 3f ea 18 2c bf b4 1c 14 c0 00 3e 0e c0
       1.1123753 -0.67225516 -2.314252 -2.2225342
000140 0a c1 84 3e b7 32 b5 bf 58 d5 3d be c2 23 15 bf
       0.25928527 -1.4156102 -0.18538415 -0.5825769
000150 a7 58 12 40 75 56 81 3e 97 7d b7 3f 9e 46 0e 3f
       2.286661 0.25261274 1.4335202 0.55576503
000160 ef ff c6 3f 09 72 b1 be ce 86 2e bf 3b e3 e4 be
       1.5546855 -0.34657314 -0.68174446 -0.44704613
000170 2f fb 22 c0 c4 76 c8 be d7 66 c8 3f e2 12 c5 3e
       -2.546581 -0.3915311 1.5656384 0.3849097
000180 4c 23 1c c0 c7 07 46 3f 4f ae d1 3f 73 3d 60 bf
       -2.4396544 0.7735562 1.638132 -0.87593764
000190 a1 c9 a8 3f e2 86 97 3e d5 fd f5 3e c1 ac d5 3e
       1.3186532 0.29595095 0.4804522 0.41733363
0001a0 62 09 3d bf 22 d4 b2 3e 61 1d b2 3d a8 ee f7 3f
       -0.7384244 0.3492747 0.0869701 1.9369707
0001b0 06 50 63 3e 59 ac 13 3f 8b 10 e9 3e 30 20 8b bc
       0.22198495 0.57684857 0.45520434 -0.016983122
0001c0 88 45 b2 bf ba 3a d5 3e 57 77 28 bf a9 b9 8a 3f
       -1.3927469 0.41646367 -0.658071 1.0837909
0001d0 c8 96 ed 3e 6a 41 02 3d b7 8c 17 be 6a a8 b0 3f
       0.464041 0.031800665 -0.14799772 1.3801396
0001e0 ef 9e 7e 3f 3b 95 9e 3e 69 e9 d8 3e 11 3f c7 bd
       0.99461263 0.3097323 0.42365578 -0.09728826
0001f0 8e ce 85 3f cb d8 ec 3f 9a 74 5c 3f dc 02 16 bd
       1.045366 1.850366 0.8611542 -0.03662382
000200 8d d5 9f 3f 78 47 08 40 99 25 49 bf 84 60 1d bf
       1.2487046 2.129362 -0.78572994 -0.61475396
000210 79 0c 2a 3e 51 a4 9b 3f 2d 38 cf 3f ec 6b 2b 3f
       0.1660632 1.215952 1.6189018 0.6696155
000220 6b 24 ab be 47 aa 80 3e 1b 4d 27 c0 d9 e0 e1 3f
       -0.33426222 0.2512991 -2.6140811 1.7646743
000230 a6 3e d9 3f cb 36 9b 3f d1 c4 53 bf 8c a4 fb 3e
       1.6972244 1.2126096 -0.82722193 0.49148977
000240 21 40 3c 3f 78 2f d3 3e 82 60 f6 3f a5 9c 2d 3f
       0.7353535 0.41247153 1.9248202 0.67817146
000250 a1 32 0b 3d 92 31 20 bd 1f df 58 bf be 53 7a bf
       0.03398383 -0.039109774 -0.84715456 -0.9778403
000260 ce 3c 08 bf 1c c8 0f 3f 8c 9d 10 bf be f4 e2 3f
       -0.5321778 0.5616472 -0.564904 1.7730939
000270 9f 52 81 bf 9a 38 83 3e f3 d9 7b be fe 69 39 bf
       -1.0103339 0.2562912 -0.2459486 -0.72427356
000280 90 82 18 c0 ef 39 46 bf ec a3 e4 3d f3 1a 88 3c
       -2.382969 -0.7743215 0.11164078 0.016614413
000290 dd e3 5d 3f 69 38 de bd 31 ee 02 3f 9d 35 91 bf
       0.86675817 -0.10850603 0.511447 -1.1344486
0002a0 64 95 82 bf f4 0f 69 3f 07 e3 8b 3f 53 a3 07 3e
       -1.020184 0.9103997 1.0928658 0.13245897
0002b0 f9 4e 3d bf 9e 91 56 3f e9 30 03 40 5c 59 5f 3f
       -0.7394863 0.83815944 2.0498602 0.87245727
0002c0 c3 cd 70 3e 8a a9 86 3f 55 f2 d2 bd 5d eb bc 3e
       0.23515992 1.0520489 -0.103001274 0.36898318
0002d0 7f 48 14 c0 7c e5 87 bf e0 9a e3 bf 9f e9 b7 bf
       -2.3169248 -1.0616908 -1.7781639 -1.436817
0002e0 8c 99 62 bf e1 0c f2 bf 6d 79 3d c0 e9 a4 31 3f
       -0.88515544 -1.891018 -2.9605362 0.6939226
0002f0 43 d6 2c 3f 59 3f ab bf 69 7c be 3f fe a1 84 3f
       0.6751444 -1.3378707 1.4881717 1.0361936
000300 07 87 c1 3e fb 69 fe 3e 39 85 01 40 a4 a5 6f 3f
       0.3779833 0.49690232 2.0237563 0.9361212
000310 ea 13 65 bf e1 ae 3f 3f 42 83 10 40 6f 3a 2e 3f
       -0.8948351 0.7487622 2.2580113 0.6805791
000320 dd d2 f7 3f ed 7f 21 40 c4 98 c4 bf ad d0 2c be
       1.9361225 2.523433 -1.535912 -0.16876478
000330 07 d6 00 3f 1e 8a db 3c 3a 73 97 3f 24 ac aa 3f
       0.5032658 0.026799258 1.1832039 1.3333783
000340 15 ad cc bf 99 3d 0c c0 39 c9 1d be 5a e2 6c bf
       -1.599032 -2.1912596 -0.15408792 -0.92532885
000350 45 cf 79 3f c7 92 f6 3e 2d d4 13 3f 90 8a 2b c0
       0.97581893 0.48158857 0.5774563 -2.6803322
000360 28 3b 4d 3f 82 2d df 3f 7f 20 0e bf 56 2f 79 3f
       0.8016839 1.7435763 -0.55518335 0.97337854
000370 92 01 c1 3f b4 6f 93 3e 57 12 7b 3f c8 94 66 3f
       1.5078604 0.2879616 0.9807486 0.9007077
000380 41 8b 66 bf 10 e7 47 3f cb f5 c9 3e 85 a9 54 bf
       -0.90056235 0.7808695 0.39445338 -0.83071166
000390 f1 5a 4b bf 56 fa 49 bf 36 18 f6 be ca e7 0c 40
       -0.7943564 -0.7889761 -0.48065346 2.2016473
0003a0 ae 4b 83 bf d2 6f af be 25 a0 dd bf cf a1 a4 bf
       -1.0257471 -0.34265 -1.7314497 -1.286188
0003b0 c2 c4 bd 3d 17 db 98 3f 1e 50 63 be ae b7 ae 3f
       0.09266044 1.1941861 -0.22198531 1.3649805
0003c0 d2 65 44 c0 96 ce 45 bf af db 9f bf d1 6a bd 3f
       -3.0687146 -0.7726835 -1.2488917 1.4798223
0003d0 43 2b ae bf 6e 1f 23 3f 2a 2a 6f bf 77 87 38 be
       -1.3606952 0.6371983 -0.9342371 -0.18020426
0003e0 87 2e c9 3f da d4 0f 3f 1c 51 b3 3f 27 16 94 3e
       1.5717324 0.5618416 1.4009128 0.2892315
0003f0 4d c2 d0 bd d7 44 43 3f b1 2b fe bd 15 63 95 3e
       -0.1019331 0.76276916 -0.12410677 0.29177156

layers.0.weight f4 [256, 8]
000000 5b ad 40 be 91 ee 2f be ce 76 5f be 7f 33 74 3d
       -0.1881613 -0.1718085 -0.21822664 0.059619423
000010 7e 84 58 3f b4 67 7a 3f d9 98 fe 3e c7 fa 26 3f
       0.8457717 0.9781449 0.49725989 0.65226406
000020 44 78 a7 be 6f 63 e2 3e 8a 2f 29 3f 09 ea 2b bd
       -0.32708943 0.44216487 0.66088164 -0.04197124
000030 3a 56 b4 be ea 81 46 3d 03 02 b1 be 91 53 11 3e
       -0.35222036 0.04846374 -0.34571847 0.14192034
000040 5a 24 fd be be 88 85 3e 31 39 97 be 44 08 71 be
       -0.49441797 0.26080889 -0.2953582 -0.2353831
000050 33 2d c2 be 70 9d 1d be bd c8 07 bf 4f bb a5 3d
       -0.3792511 -0.15392089 -0.5304068 0.08092367
000060 28 00 83 3e 2f 69 09 3f 43 5e 8d 3f 7f 2a 12 bf
       0.25586057 0.5367612 1.1044391 -0.57096094
000070 30 e4 91 3f 1c 73 26 bf 62 49 b1 be 93 1c 4a be
       1.1397762 -0.6501939 -0.346263 -0.19737463
000080 9c 63 0c bf a7 89 f4 be 3c cb e7 be 7c 7e fa be
       -0.5483949 -0.4776127 -0.45272243 -0.48924625
000090 fc 32 cd 3e 2d ee 89 3e 07 e2 d9 be ed e9 aa be
       0.4007796 0.26939526 -0.42555258 -0.33381596
0000a0 5f be 37 bf 6c 73 f2 be 4d 09 48 be 88 2b 29 3f
       -0.7177486 -0.47353685 -0.19534798 0.6608205
0000b0 4a 2e e6 3e df 01 42 be 19 a3 57 3f 87 2d 28 bf
       0.4495719 -0.18946026 0.8423324 -0.6569447
0000c0 6c d1 cc be ec be d5 3d c6 c6 ac be ff 31 07 3e
       -0.40003526 0.10436806 -0.33745402 0.13202666
0000d0 0d 47 ee 3e 02 3f 92 be fb 60 46 bf 6c 9a a9 3e
       0.46538582 -0.28563696 -0.7749173 0.33125627
0000e0 19 65 d8 be 61 6c 44 3f 2f 74 a3 bd cd 0f b8 3e
       -0.4226463 0.76727873 -0.07981145 0.35949555
0000f0 92 e8 05 bf c2 fd 33 bf 0e 54 11 bd 6b 9f 35 3e
       -0.52308 -0.7030908 -0.03548055 0.17736594
000100 89 d7 61 3e 23 34 ab 3e 17 f3 69 be eb 14 b2 bd
       0.22054876 0.33438215 -0.22846638 -0.08695396
000110 d7 d5 f5 3d aa 45 de bc ee c8 c0 be 3a 46 28 bf
       0.12003677 -0.027132828 -0.37653297 -0.6573216
000120 a7 67 0e bf 49 26 fd 3e 1c 3e 04 bf 2d fc 11 3f
       -0.5562691 0.49443272 -0.5165727 0.57025415
000130 fe a0 ec 3e 1a 91 48 3e 8e b4 4b 3f bd f7 b6 be
       0.46216577 0.19586602 0.7957238 -0.35735884
000140 01 09 06 bf 72 07 af 3e 17 52 3a 3f 39 e0 45 bf
       -0.5235749 0.34185368 0.7278151 -0.7729526
000150 1b a6 6b 3e 7b 6d 8a be 9c c2 87 3d 75 5e 65 3f
       0.23012583 -0.27036652 0.06628916 0.89597255
000160 2d 9d 57 be 4d b5 8d 3d f0 9b b9 3c 18 75 f5 3e
       -0.21056052 0.06919346 0.022657365 0.47940898
000170 33 13 32 3f 69 3c 75 3e 2c b1 53 bf f5 14 36 bf
       0.69560546 0.23948826 -0.8269222 -0.7112573
000180 fd 65 77 3e 5d e0 95 3e 36 5d e1 bd 89 ca 19 be
       0.24159999 0.29272738 -0.11004107 -0.15018667
000190 b9 13 2d 3f e1 9b a8 be 7a 7d 3e 3f c7 61 89 3f
       0.6760822 -0.32931426 0.7441021 1.0732964
0001a0 cf c5 a6 3e f2 0d 2c bf 5c 58 90 3f ae db 20 bf
       0.3257279 -0.6720878 1.1276965 -0.62835205
0001b0 27 ae b7 3e 60 39 11 bf e3 8d de bd 66 92 1b bf
       0.35875055 -0.5672817 -0.108669065 -0.6077026
0001c0 b9 78 64 be ea 07 8d 3e de 2c b6 be ba 21 c8 be
       -0.22311677 0.275451 -0.35581106 -0.3908823
0001d0 65 e1 4c 3e b5 57 25 3f 09 5c b3 3d cf cc 98 bf
       0.20007856 0.64586955 0.08757789 -1.1937503
0001e0 ef c6 7c be dd f4 87 bd 76 c1 fd 3e 9a 48 06 be
       -0.24685262 -0.06638501 0.4956166 -0.13113633
0001f0 a2 58 fa bd 67 c8 a6 be 71 fb d2 be 75 76 d3 3e
       -0.122239366 -0.3257477 -0.4120746 0.41301313
000200 04 fa 21 3f 44 26 8a 3c f7 04 9d 3d e8 37 4a 3f
       0.6327212 0.01686395 0.076669626 0.78991556
000210 aa ff 95 3e a4 7e 21 3e 8b 45 ec be 4e d3 49 bd
       0.2929662 0.15770966 -0.46146807 -0.04927378
000220 ce 47 7e 3e 56 81 d0 3e 6f ad cf 3d 84 fd b4 3e
       0.24832079 0.40723675 0.10140502 0.35349667
000230 54 d5 0d 3f 1f c7 83 bd 52 88 aa bf b5 e4 40 bf
       0.5540364 -0.06434464 -1.3322852 -0.7534898
000240 ae 76 16 bf 92 3a b9 be a3 26 28 bf 4c 3b cd bd
       -0.5877484 -0.36177498 -0.65683955 -0.100210756
000250 fe a6 02 3f ed 50 98 be 57 fb 4a bf 4c 87 53 3f
       0.5103606 -0.2974924 -0.79289764 0.8262832
000260 81 9f 9b be 6f 52 63 3e 72 b1 bc 3d 2f ae 30 3d
       -0.3039513 0.22199415 0.092135325 0.043134864
000270 25 95 3f 3d 25 76 32 3f c8 20 29 3f d1 5d 13 bf
       0.046773095 0.69711524 0.66065645 -0.5756503
000280 ae a7 04 3f 57 c2 9b bd 77 a2 e1 be 70 a9 59 3e
       0.5181836 -0.07605427 -0.44069263 0.21256042
000290 a8 cb 0b 3d c6 a1 29 3f d5 78 c1 be 0f 32 2c bf
       0.03412977 0.6626247 -0.377875 -0.67263883
0002a0 4f b2 9d 3e a1 08 3b 3e da fa 75 be 58 60 8e be
       0.308001 0.1826501 -0.24021474 -0.2780788
0002b0 d6 f5 af 3d f2 09 ec be 2c d7 3c 3e 4b 89 ae bd
       0.08591811 -0.46101338 0.18441457 -0.0852228
0002c0 b8 8e 93 3e 01 40 66 3e 24 52 3a 3e 5b 06 e6 be
       0.28819823 0.22485353 0.18195397 -0.44926724
0002d0 6c bf 02 3f e7 bf 51 3f b9 59 0b bf 2a a4 38 3f
       0.51073337 0.81933445 -0.5443378 0.72125494
0002e0 1e 28 c8 3d df 1b 56 bc 3f 1a 83 be 7c 77 51 bd
       0.09773277 -0.013068168 -0.25605962 -0.05113934
0002f0 07 3a de be 75 d8 15 3e 2c 0e 30 3f e7 c2 68 be
       -0.43403646 0.14633353 0.68771625 -0.227306
000300 7b c7 4d 3f 4e e9 ea be 41 c2 b5 3d 5b 29 ae be
       0.8038251 -0.45881122 0.088749416 -0.34015927
000310 55 27 21 bf 55 fc 0e 3e 21 3a 98 3f f2 52 9c bd
       -0.6295064 0.13963445 1.189274 -0.07633008
000320 ed 25 94 be f7 42 fc 3e 3d d6 bf 3d 54 25 30 bd
       -0.28935185 0.4926984 0.093670346 -0.04300435
000330 f7 f9 e7 be f3 0a 45 bd 2c 00 9b bc d6 e2 25 3f
       -0.45307896 -0.048106145 -0.01892098 0.6479925
000340 b2 e0 6f bd db ea 2a 3e a0 08 46 3d 9d 87 ca 3e
       -0.058563896 0.16691153 0.04834807 0.3955659
000350 7a 91 a0 3d 59 46 b7 3e cd 1f e9 3e 3a 8d 4f bf
       0.078402475 0.35795859 0.45532075 -0.8107487
000360 38 f9 cb 3e 3f 82 c6 be 59 99 6c bf 9e 45 65 be
       0.39838576 -0.38771245 -0.9242149 -0.22389838
000370 2b 10 de 3e 83 99 21 bf 18 5a 6c 3f 58 32 34 be
       0.4337171 -0.63124865 0.9232497 -0.1759733
000380 ec 33 fb be 54 46 c6 bc 71 a7 7b be dc 74 ba bd
       -0.4906305 -0.024203457 -0.24575593 -0.091043204
000390 37 cd 69 3f 31 bb eb bd a1 d7 de be 9f 5c ee 3e
       0.9132876 -0.11510313 -0.43523887 0.4655504
0003a0 7f 91 25 3f 8b a3 9d 3e a7 65 a2 3d 54 57 87 3d
       0.64675134 0.30788836 0.07929545 0.066084534
0003b0 a1 d6 87 3f 60 97 82 3d 74 e6 ae 3e 42 13 89 3e
       1.0612375 0.06376529 0.34160197 0.26772505
0003c0 d7 18 eb be 94 8a 63 be b4 1f 0a 3e fa 67 d2 3e
       -0.4591739 -0.22220832 0.13488656 0.41094953
0003d0 54 70 eb bd 97 1c 62 3e 7b 00 a2 3e 7c 1f c0 bd
       -0.11496034 0.22081219 0.31640992 -0.09381005
0003e0 fb 03 52 3d 19 cf 0d be 64 26 0d 3f e3 11 1c 3e
       0.051273327 -0.13848533 0.55136704 0.15241198
0003f0 19 44 93 3e 9a 53 c0 be 75 c8 0d bf db a3 36 3e
       0.28762892 -0.37563783 -0.55384 0.17835943

layers.0.bias f4 [256]
000000 43 93 78 be 25 ef 19 3f f6 e4 0d bf 29 48 db be
       -0.24274926 0.6013053 -0.5542749 -0.4282849
000010 01 8f 99 3e a6 a8 d9 3d 16 a1 ec 3e 1c 59 82 be
       0.29991916 0.1062787 0.4621665 -0.2545861
000020 de 71 ed 3e 80 f5 80 be 81 d5 d3 be 4f 37 49 3e
       0.46375936 -0.25187302 -0.41373828 0.19650005
000030 0a 9e 07 bf 25 0c 9b be 2a d7 4c bf fa f6 13 3f
       -0.52975523 -0.30282703 -0.80015814 0.5779873
000040 a1 51 71 3e 32 95 3f 3e 88 43 a0 3e 11 bd ff be
       0.23566295 0.18709257 0.31301522 -0.49948934
000050 92 05 31 bf 80 93 f9 be d8 c8 40 bf ea d8 d3 3e
       -0.69149125 -0.48745346 -0.75306463 0.4137643
000060 41 38 a7 be cd 91 83 3d f0 6c fa be 6b ab 2f 3d
       -0.32660106 0.06424294 -0.48911238 0.042888086
000070 f4 da f8 bd 31 d6 0f bf d5 3d ec 3e 29 ec fe 3e
       -0.12151137 -0.56186205 0.46140924 0.4978955
000080 81 e6 07 bf 8d ea e5 3e 13 8e a9 3e 4a 57 1c 3e
       -0.53086096 0.4490551 0.33116207 0.15267673
000090 f7 9a 39 3f bf 6e 5f bd 06 3c 13 3f 86 da a8 3e
       0.7250208 -0.054548975 0.57513463 0.3297922
0000a0 d7 75 2e bf ab c3 06 be 88 55 4f bf 85 f8 69 3e
       -0.6814856 -0.13160579 -0.80989885 0.22848709
0000b0 de ac ea be 0f 3f c4 be 47 37 6d be 97 0f 3c bf
       -0.45835012 -0.3832936 -0.23165618 -0.7346129
0000c0 83 36 35 bf c2 0d 27 3f b4 c0 c9 3e c5 14 06 3f
       -0.70786303 0.6525537 0.39404833 0.5237544
0000d0 9a b5 dd be ed 4e ee be fa b7 92 be 93 0a ae 3d
       -0.43302613 -0.4654459 -0.28655988 0.084981106
0000e0 a3 96 5c bf c9 9d aa 3e 18 0e 02 be 8f 55 75 3e
       -0.86167353 0.33323506 -0.12700689 0.2395842
0000f0 3d eb ee 3e d4 33 e8 3d 77 d2 10 3f 4f 90 06 bf
       0.46663848 0.113380104 0.56571144 -0.5256395
000100 ed 54 ca be ee b0 3c be 3a c9 9b bd af 71 1d bf
       -0.39517918 -0.18426868 -0.0760674 -0.6150159
000110 67 0c fe be 27 3a 11 bf f1 45 f1 be 44 0d a2 3d
       -0.49618837 -0.5672936 -0.47123674 0.079126865
000120 6b 67 6f 3e b0 f2 1f bf f5 7c dd 3e 75 8c f3 3e
       0.23379295 -0.62479687 0.43259397 0.47568098
000130 16 2f 0d bf e8 67 50 3e 5e 88 f0 3e 3e 69 3c bf
       -0.5514997 0.20352137 0.4697904 -0.73598087
000140 05 eb 32 bf 90 d2 99 3e 1a 73 8a bd 69 b8 90 3e
       -0.6988986 0.3004346 -0.06760235 0.28265694
000150 c2 0d 0b bf bf 4b 26 3e 94 05 04 3f 84 1e 39 be
       -0.5431787 0.16239832 0.5157101 -0.18078047
000160 42 50 47 bf 65 c2 52 bf 8d 6b f9 3d 00 02 01 3f
       -0.7785684 -0.8232787 0.12178717 0.50393677
000170 48 01 1f bf 84 af a8 bc 16 ba fc 3e 2e bd b2 be
       -0.6211133 -0.020591505 0.49360722 -0.34909958
000180 fe 58 1b bd 67 41 82 bd f0 ee fe be 5a ba 86 3e
       -0.037926666 -0.06360131 -0.4979167 0.2631405
000190 d9 03 2d bf 0b 6f 8b 3e 3a 8d 3d bd e2 1e c5 be
       -0.67583996 0.27233157 -0.046277262 -0.38500124
0001a0 4f 29 47 3e 88 0f b7 3e 19 e4 73 be c1 32 1c bf
       0.19449352 0.35754037 -0.23817481 -0.61014944
0001b0 54 ae b8 be f0 53 95 be 87 5b 6b bd 22 f2 15 3f
       -0.36070502 -0.29165602 -0.057460334 0.5857259
0001c0 e5 83 31 be d4 23 e8 be 75 ea 46 be 75 4b 9a be
       -0.1733547 -0.45339835 -0.19425376 -0.30135694
0001d0 89 6e 7f 3e aa 27 6e be d7 cc 0c 3e 71 41 92 3e
       0.2494451 -0.23257318 0.13750015 0.28565553
0001e0 29 8e 8a bd 30 71 91 3e 14 b7 72 3e 16 15 29 3f
       -0.06765396 0.28406668 0.23702651 0.660478
0001f0 f6 be 57 be 29 72 24 3f 30 47 16 3f b0 b3 fb 3e
       -0.2106894 0.64236695 0.58702374 0.49160528
000200 92 bc c5 3e bd c5 fa be b7 c1 fb be 01 70 88 3e
       0.3862043 -0.48978987 -0.4917123 0.26647952
000210 7e c4 b1 3e e5 04 0c 3f 84 08 d2 be e0 5e a3 be
       0.34720224 0.5469497 -0.41022122 -0.3190832
000220 18 03 e2 3e 8b ac 79 3e b3 91 12 3f f0 85 66 3d
       0.44142985 0.24382226 0.5725357 0.056280077
000230 bd 50 dd be 86 08 1f 3e 37 7f ce 3e 65 ea 5c bf
       -0.4322566 0.15530595 0.40331432 -0.8629516
000240 02 d2 f8 3d 16 da e9 3e 20 67 72 3e 1d 61 ce 3e
       0.12149431 0.456742 0.23672152 0.40308467
000250 65 a2 0b bf 02 d3 18 be 3b 85 ce be b6 ad 0f bf
       -0.5454467 -0.14924243 -0.40336022 -0.56124437
000260 46 48 e7 be 69 69 e0 3e be 85 1c 3e 28 a4 ac be
       -0.45172328 0.43830422 0.15285394 -0.3371899
000270 39 0a 17 3f 36 b0 54 3e 6c 90 ae 3e 57 d7 8b be
       0.58999974 0.20770344 0.3409456 -0.2731273
000280 6d c9 eb 3e 71 59 ff be 10 03 f5 3e 82 10 0e be
       0.46052113 -0.49872926 0.478539 -0.13873485
000290 fa b9 b3 3e ff ef 1d be 18 83 f3 3e 19 51 94 be
       0.35102826 -0.15423582 0.47560954 -0.28968123
0002a0 22 57 65 bd b0 e7 21 be e8 dd b7 be fc 6c 09 bf
       -0.0559913 -0.15811038 -0.3591149 -0.5368192
0002b0 bf fe da bd 96 fa 43 3e 86 34 f1 3e 22 5a ae bd
       -0.1069312 0.1913856 0.47110385 -0.08513285
0002c0 8d 27 eb 3e bb cd 09 bf 52 42 69 be 86 f4 13 3e
       0.45928612 -0.53829545 -0.22779205 0.14448747
0002d0 be 33 bc 3e 98 11 a7 3e cc 3a 11 3f 45 47 b5 3e
       0.36758226 0.3263061 0.5673034 0.35405937
0002e0 29 0a 2a bf 60 e9 11 be 70 0c 02 3d 5f 80 1d bf
       -0.66421753 -0.14249182 0.031750143 -0.61524004
0002f0 70 38 a3 3e 34 05 1d 3f f8 1c 78 3e 99 97 08 3b
       0.31878996 0.61336064 0.242298 0.0020842312
000300 c8 2f a9 bd 05 cf cc be 3c ef 5e be b0 34 17 3f
       -0.08261067 -0.40001693 -0.21770948 0.5906477
000310 e7 93 ae be bd 45 19 3e 15 2d 10 bf 10 c0 fb 3d
       -0.34097216 0.1496801 -0.5631879 0.122924924
000320 c1 ff 6a 3e c7 29 78 be d7 65 bd 3e bd 4d 1d bf
       0.22949125 -0.24234687 0.3699176 -0.61446744
000330 f8 18 b7 be 8a 8f d8 3e f5 45 1e 3f 26 28 1d bf
       -0.35761237 0.42297012 0.61825496 -0.61389387
000340 5e 92 08 bf 7f 87 2c bf 92 80 c1 be 07 9b 21 be
       -0.5334834 -0.6739425 -0.37793404 -0.15781794
000350 34 ac 0e 3f 32 95 3d bf 55 e7 0b 3f da ff ba 3e
       0.5573151 -0.7405578 0.5464986 0.36523324
000360 22 9c ef bd 83 40 2a 3f d4 ef 01 3f c5 a3 fc 3d
       -0.11699702 0.6650469 0.50756574 0.12335924
000370 b4 b3 7a be 6e 2e 9c be e8 4e 92 3e 97 44 16 3f
       -0.24482614 -0.30504173 0.28575826 0.5869841
000380 1f 46 62 be 4f 41 01 be e0 2b 15 bf 1d 73 05 3f
       -0.22097062 -0.1262257 -0.5827007 0.52128774
000390 48 75 29 3f 4c 10 f0 3e 77 e3 3e be 7b 1a 0c 3f
       0.6619458 0.46887434 -0.18641458 0.54727906
0003a0 a5 79 95 3c 62 f9 d1 3e d2 86 d0 3e 10 72 cc be
       0.018246481 0.41010576 0.4072786 -0.39930773
0003b0 62 13 99 3e 70 cd e1 3e 31 5c 8f be 01 64 14 3f
       0.298976 0.4410205 -0.28000024 0.57965094
0003c0 d5 26 f2 3e 0d 4d 0d 3f ea 6e cc 3e 58 e8 1b bf
       0.4729525 0.55195695 0.3992837 -0.60901403
0003d0 80 9b 1d bf 2d d7 7f 3e 12 b0 af 3c 18 c3 09 3f
       -0.615654 0.24984427 0.021446262 0.53813314
0003e0 07 44 04 3f 02 1f d1 bb 21 2a 12 bf ce aa f4 3e
       0.516663 -0.0063818702 -0.57095534 0.47786564
0003f0 d5 6c 01 3f 02 ba 49 be 0d 27 ec be 21 76 0c bc
       0.5055669 -0.19699863 -0.46123543 -0.008573086

layers.2.weight f4 [32, 256]
000000 3c 88 78 3d 95 02 aa 3d 1e 62 ac be e2 2e df 3e
       0.0606768 0.08301274 -0.33668607 0.43590456
000010 ce 5a 13 bd 14 40 d6 bc a4 b4 86 bd 28 0b 8f 3e
       -0.03597527 -0.026153602 -0.06577423 0.279382
000020 41 b3 79 3e 06 c6 b8 3c 55 a5 41 bd 82 b9 12 3e
       0.24384786 0.022555362 -0.047276814 0.14328578
000030 aa 29 89 3e 3d 39 8a bc d6 96 e1 bc 96 e2 f5 3c
       0.267896 -0.016872996 -0.027537744 0.030015271
000040 c7 1e c7 bd b9 53 3e be bf a1 84 be 19 99 2d bd
       -0.09722667 -0.18586625 -0.25904652 -0.042382333
000050 f7 e7 19 3c ef d4 6b 3d 22 8e ad 3c 76 97 79 3e
       0.009393684 0.057576116 0.021185938 0.24374184
000060 b6 4e 4b be 5f 78 a0 3c 92 51 ca bd e3 7e 8c be
       -0.19854245 0.019588647 -0.098788396 -0.27440557
000070 b2 31 09 be 80 6e 89 bc 46 a1 9e 3e 0f 37 76 bd
       -0.13397864 -0.016776323 0.30982417 -0.0601111
000080 86 4c d6 3e 0c 37 c0 3e 50 d4 86 3e 3e 84 21 be
       0.41855258 0.37541997 0.26333857 -0.15773103
000090 16 71 27 3e 82 9d 2a be b9 7f e9 3d d4 6a 21 3d
       0.16351733 -0.16661647 0.11401314 0.03940852
0000a0 1d 24 f0 3e ef 7e 28 3d 25 5f 93 3d b2 70 04 3e
       0.46902552 0.04113668 0.07195882 0.12933615
0000b0 8e 7d c3 bd 31 b3 c1 3d 40 81 8d 3d 49 7a 47 bd
       -0.09545432 0.09458006 0.06909418 -0.048700605
0000c0 fa 3f ec bd 4d e4 ea 3e 84 ab 30 3b 2e a8 03 3e
       -0.1153564 0.45877305 0.00269577 0.12857124
0000d0 8d 74 9f 3d 3c a0 83 be af 59 a9 be fc 53 ea 3e
       0.07785902 -0.25708187 -0.33076236 0.457672
0000e0 c3 cc 9b 3e b6 d9 a1 3d b5 dd af 3d ce e0 dd bc
       0.30429658 0.07902853 0.08587209 -0.027084734
0000f0 d0 2d dd 3c 49 56 af 3e 03 7f 6a 3d e3 36 c3 3c
       0.026999384 0.34245518 0.057250034 0.023829883
000100 c2 0a 9f 3e a0 a7 27 be 46 61 74 bd e0 5f e2 bd
       0.31062895 -0.16372538 -0.05966308 -0.11053443
000110 e0 f2 6a 3e 31 27 39 3e a8 16 44 be 90 9b 77 3c
       0.22944212 0.18081357 -0.19149268 0.015112773
000120 04 b0 86 3d 18 a5 b2 bd 28 70 8d 3e 5a 13 59 bd
       0.06576541 -0.087228954 0.2762463 -0.05299697
000130 fa e1 2a be e5 83 3f bd f1 77 01 3c 2f 1f 00 be
       -0.16687766 -0.046756644 0.007902131 -0.12511896
000140 6a 75 18 be cc 78 40 3e 01 15 95 3d 79 81 a6 3e
       -0.1488854 0.1879608 0.07279397 0.32520655
000150 8f 5b 70 be 4c 2a 31 3e 7c 68 c2 3c 17 2a 60 3e
       -0.23472427 0.17301291 0.023731463 0.21891056
000160 7e 25 ab bc 04 93 dc be df 50 0c 3e 30 2a 24 3e
       -0.020891901 -0.43080914 0.13702725 0.16031718
000170 51 52 bf be 60 47 12 bc a8 75 26 3e ec d7 97 be
       -0.3736749 -0.00892815 0.1625582 -0.29656923
000180 ee d9 b6 bd 68 43 a2 be 21 aa c1 3e 83 e9 09 3e
       -0.089282855 -0.31692052 0.3782511 0.13467984
000190 8b bd 25 bd 5f e7 c9 bd b5 93 d6 be 3c ec e1 bd
       -0.040463965 -0.09858584 -0.41909567 -0.11031386
0001a0 01 af 59 3e 06 a1 47 3e d1 d8 2d bf 3e 34 25 bd
       0.21258165 0.1949502 -0.6790896 -0.040333025
0001b0 e5 c1 27 bc 05 42 c3 bc 6f 35 c3 bd c7 2f a2 3d
       -0.010239099 -0.023835192 -0.09531676 0.07919269
0001c0 11 0a 77 be 94 40 5c 3e 6c 51 6a be 7f 9d 81 3d
       -0.24124934 0.2150901 -0.22882622 0.06328868
0001d0 2a 5c 10 3e 93 ab e2 3e 3f bb b6 3d df fd 92 3e
       0.14097658 0.44271526 0.08922433 0.28709313
0001e0 79 10 68 be c9 07 1f 3e 6d 8b df 3d af c7 6c 3e
       -0.22662534 0.15530314 0.10915265 0.23123048
0001f0 16 a9 a8 3d 19 a5 a0 3e c0 9c c5 3e 96 e6 27 3e
       0.082353756 0.3137596 0.38596153 0.16396555
000200 ec 88 eb 3d 80 46 71 be dc aa f3 bd a4 90 04 3e
       0.11500725 -0.2356205 -0.11897823 0.12945801
000210 74 25 8a 3e ff 3e 22 3d 9f 14 8b bc 66 ca e3 3c
       0.269817 0.03961086 -0.016977606 0.027806472
000220 00 bf b7 bb 91 e1 83 3d d8 f3 92 3d b9 15 6d bd
       -0.005607486 0.06439508 0.07175416 -0.057882044
000230 77 ea b0 bd 03 78 8a 3d b2 41 bf 3d 7b 2d 79 be
       -0.086384706 0.06761172 0.09338702 -0.24333756
000240 f4 d8 86 3e f4 14 14 3f 6e 7d b0 3d 62 39 b0 3d
       0.26337397 0.5784447 0.08617674 0.08604695
000250 0b 3e 30 be fb ef 6f be 5e 78 33 bd cf 9b 6b 3e
       -0.17211168 -0.23431389 -0.043815963 0.23008655
000260 dc 78 1c bd 5b 95 a9 3c e0 4e 6e 3d 03 74 c7 be
       -0.038201198 0.020701101 0.05818069 -0.38955697
000270 24 d5 00 3d 38 c7 55 3e 75 37 89 3e 35 5e 57 be
       0.031453267 0.20876777 0.26800123 -0.21032031
000280 57 04 ab 3c 89 66 20 be a1 8d ce bd de 10 e4 be
       0.020876093 -0.15664114 -0.10085607 -0.4454412
000290 b7 82 e2 3d a1 31 27 be 3b 12 6d 3e ab 99 41 be
       0.11060088 -0.16327526 0.23151486 -0.18906276
0002a0 70 02 c4 3d 16 8a 3a be f0 92 90 3e c9 81 30 3e
       0.095707774 -0.18216738 0.28237104 0.17237009
0002b0 b0 df 85 be ac cb 6a 3e c3 df 95 3d 7f 79 30 be
       -0.26147223 0.22929257 0.0731807 -0.17233847
0002c0 3b d8 63 3e a8 43 84 be 42 83 bc 3e 2e 26 6f 3d
       0.22250454 -0.25832868 0.36818892 0.05838602
0002d0 7d 75 bb 3d 39 37 03 3d be fc 57 3e f7 31 08 3e
       0.091532685 0.032035086 0.21092507 0.1330031
0002e0 6c 09 f1 bd e0 67 46 be f7 16 0a 3d 8a 77 85 be
       -0.11769375 -0.19375563 0.033713307 -0.26067764
0002f0 7d bc 8e bc 6f d6 60 3e b0 e5 12 3e b4 6d 10 3c
       -0.017423863 0.219568 0.14345431 0.008815218
000300 cb b9 0b be de 92 30 bf 26 b8 a8 3d 22 79 f8 3d
       -0.13645093 -0.689741 0.082382485 0.12132479
000310 28 68 ce 3c 04 c2 8c 3d b4 50 be be 14 0b 74 be
       0.02519615 0.06872943 -0.37170947 -0.23832351
000320 29 0b 8a 3e b9 3b ee bd 17 1c 81 3e 97 84 ed bd
       0.2696164 -0.11632485 0.25216743 -0.11597555
000330 07 e3 63 be 6b c3 dd 3e f5 9d 17 3e 13 6b ec 3e
       -0.22254573 0.43313155 0.1480635 0.4617544
000340 fa cb bb be 6e 47 f3 be 57 96 37 3d 7c 2b c8 bb
       -0.3667906 -0.47515434 0.04482111 -0.0061086994
000350 86 4e a2 3e f9 76 23 bd ee 65 61 3d dd f1 6f bd
       0.31700534 -0.039908383 0.05502885 -0.05858027
000360 4a 58 7d 3d 45 62 69 bd 8d 71 fd bd ad d9 ee 3d
       0.061851777 -0.056978483 -0.12375174 0.11662612
000370 05 84 0a 3d 65 79 2a 3e 8e e3 9c 3e 6a 0a 59 3e
       0.03381731 0.16647871 0.3064236 0.21195379
000380 b2 01 84 3d 29 a2 72 bd 67 45 49 bd 71 70 63 3e
       0.06445636 -0.05923668 -0.049138453 0.22210862
000390 69 cf 21 3e 68 c9 75 3d 36 bd 93 be 39 67 88 b9
       0.15801777 0.06000653 -0.28855294 -0.00026016848
0003a0 01 73 81 3d 97 ab d5 3d 5d 4d 07 3e 81 f5 ad bd
       0.063207634 0.10433119 0.13213105 -0.08494092
0003b0 e1 ac 21 3e 34 95 0f bc 13 ac 59 3e f3 af 90 3d
       0.15788604 -0.0087636 0.21257047 0.0706481
0003c0 b1 ac 06 3e 03 10 52 3e a3 b2 ae 3e 11 83 a8 3e
       0.13151814 0.2051392 0.34120664 0.32912496
0003d0 42 68 78 3c 3f bd 14 3e 0e 2d 03 3e 62 e0 98 3e
       0.015161576 0.14525317 0.12810156 0.2985869
0003e0 6f 4d 33 3e d0 17 e5 3d c7 6f 91 be bb 9e 9f bd
       0.17510007 0.111861825 -0.28405592 -0.07793947
0003f0 19 aa 88 3d 41 b0 65 3e d4 26 14 3f 83 f4 a1 3c
       0.066730686 0.22430517 0.57871747 0.019769913

layers.2.bias f4 [32]
000000 d6 79 85 3e 43 8b 08 3e 5f 0a 71 bd ed 51 59 3b
       0.26069516 0.13334374 -0.05884778 0.0033160404
000010 cf 1a 17 3d 6e 97 8e 3e 77 99 ca 3e af 61 47 3e
       0.0368908 0.27849907 0.3957021 0.19470857
000020 db e1 0e bd bd f3 1e bc 5b d3 f3 bd 7c 85 b8 bd
       -0.03488336 -0.009701666 -0.11905547 -0.09009835
000030 0a b9 88 3c a0 35 0b be 9f ec e2 3d bf f7 b0 3d
       0.016689796 -0.13594675 0.11080288 0.08641004
000040 c6 68 a0 3d d7 a4 41 3e 8d 18 53 3e b3 0a 28 3e
       0.07832484 0.18910538 0.20614834 0.16410331
000050 08 82 cc bd fd 97 01 3e 53 a5 c2 be 16 9c 16 3e
       -0.09985739 0.12655635 -0.38016757 0.1470798
000060 9e a1 42 3e 92 44 95 3e 4a 93 34 bd 67 e5 ad 3c
       0.19006965 0.29153877 -0.04408578 0.021227552
000070 2b 7c 04 3e c8 45 8b 3e 89 a6 3e 3e 4a 0b 2b bd
       0.12937991 0.27201676 0.18618216 -0.041758813

layers.4.weight f4 [1172, 32]
000000 93 a9 f3 bc c9 05 dc bd 0f 75 a0 3d 79 ae 35 bf
       -0.029743945 -0.10743291 0.07834827 -0.7096935
000010 9c 1a 12 bf e4 82 fe bb c8 4b 2d 3d 9e af bf bd
       -0.5707185 -0.007767068 0.0423086 -0.09359668
000020 04 17 1d 3e 1f 4e 69 3e fd 18 9f 3e be 70 38 bf
       0.15340811 0.22783707 0.31073752 -0.7204703
000030 58 f3 70 be fb 23 69 3e 82 6f 27 3c 82 2a 8c be
       -0.23530328 0.22767632 0.010219457 -0.2737618
000040 e6 8a 82 bd cd f1 c4 be 58 b8 88 bc 26 fa ae bd
       -0.06374149 -0.3846573 -0.016689464 -0.08543806
000050 a0 ba c1 3d 8e 18 03 3f 6e 71 98 be de e5 69 3e
       0.09459424 0.5120934 -0.2977404 0.22841594
000060 a7 f6 13 bf 09 54 9e 3e f6 d9 c5 3e 33 46 42 bf
       -0.57798237 0.3092349 0.38642853 -0.75888366
000070 3d 93 c6 be c5 b2 b4 be 96 56 19 bf a3 72 00 be
       -0.3878421 -0.3529264 -0.59897745 -0.1254373
000080 65 8a 5e 3e e8 69 62 3e 62 ad ee bd 0a 47 36 3d
       0.21732481 0.22110713 -0.11654164 0.044501342
000090 77 d1 0b 3e 8e bd 11 3e e2 1f 8c 3e 9a d4 fe bd
       0.13654123 0.14232466 0.27368075 -0.12442894
0000a0 86 02 00 be 81 2d f4 be 12 d8 b5 bd 51 dd a1 be
       -0.12500963 -0.47690967 -0.08879103 -0.31614164
0000b0 a2 01 0f 3e cd 5b b8 bd 2d 3b c9 bc 92 6b 45 3e
       0.13965467 -0.090018846 -0.02456435 0.19279316
0000c0 b2 73 2e 3e 2b 66 dc 3d 18 92 79 bf 06 63 f6 3d
       0.17036322 0.107616745 -0.97488546 0.12030606
0000d0 fa 67 44 be fb 32 41 be eb 23 ef b8 f2 b0 4f 3e
       -0.19180289 -0.18867104 -0.00011403098 0.20282343
0000e0 61 02 80 bd e9 5b 91 3e 6f 37 18 bf cb a3 83 be
       -0.06250454 0.28390434 -0.59459585 -0.25710902
0000f0 22 94 19 3e 1a 59 24 3e e6 32 27 3e 3e e1 79 3e
       0.14997914 0.16049615 0.1632801 0.2440233
000100 a9 3f c7 3e ae 70 81 3e d9 ac 03 3f af ca 5f bd
       0.38915756 0.2528128 0.5143562 -0.054636654
000110 4d 65 30 bf 99 ef 39 3d 07 bc 7b be 8f bf 3e be
       -0.6890457 0.045394514 -0.24583445 -0.18627761
000120 3c 31 9b bf 0a 09 dd be 1f 4a 8e 3e 42 c7 80 3d
       -1.21244 -0.4317096 0.27790925 0.062880054
000130 75 32 01 3e cd 49 1d bf 8d e3 10 be 85 28 c1 3d
       0.12616904 -0.61440736 -0.14149304 0.094315566
000140 8e e3 ba 3e 5a b0 4a be 0c 93 19 bf b4 e8 0d 3e
       0.36501735 -0.19793835 -0.5999 0.138583
000150 73 16 94 3e 4b 05 1a 3d db f2 0f bf 6c e6 fc bd
       0.28923377 0.037602704 -0.56229943 -0.12348637
000160 cd 40 ed be f9 7f 72 3e 25 c0 24 3f b4 12 4d bc
       -0.46338502 0.2368163 0.6435569 -0.012516666
000170 83 16 01 3e f2 04 90 be f0 87 8e 3e b7 6f 08 3f
       0.12606244 -0.28128773 0.27838087 0.53295463
000180 22 79 8b 3c 24 19 14 3e e0 77 5e be be 0c d7 3d
       0.017025534 0.14462715 -0.21725416 0.10500477
000190 bd c0 8d 3d 0c e0 bf 3d 68 57 2a 3e 50 4d 86 3d
       0.069215275 0.093689054 0.16634905 0.06557715
0001a0 98 d3 cf bd 36 dd 7e bd e9 b3 8d 3d 72 e1 c0 bd
       -0.1014778 -0.062222682 0.06919081 -0.09418
0001b0 4c 11 e0 3c b9 ab e2 bb 61 c6 46 3e 9c 6c 70 bd
       0.027351998 -0.0069174436 0.19411613 -0.058697328
0001c0 22 6e ca 3d 1f 85 c2 3d 70 56 c4 ba 74 a9 bb 3d
       0.098842874 0.09498047 -0.0014979374 0.0916318
0001d0 3d bb ca 3b 1e 2e c8 bd bd 59 74 be 88 bf 41 3d
       0.0061868713 -0.09774421 -0.23862357 0.0473018
0001e0 d6 a7 40 3e 4f e5 f1 3d a5 00 79 be 79 5b 74 3d
       0.18814024 0.11811315 -0.24316652 0.059657548
0001f0 43 4d a5 3d 1e d2 85 bb 48 80 6c 3d d6 aa 0b be
       0.08071377 -0.004083886 0.057739526 -0.13639387
000200 49 76 ce 3d 6c f6 11 3e fe 4d 76 bd 3d be 9e 3d
       0.10081155 0.14254159 -0.060132973 0.07751129
000210 a5 9d 87 3d 12 dc 25 3e 71 ee 27 3e d2 2d a2 3d
       0.06621865 0.16197231 0.16399552 0.07918896
000220 f7 76 5a be 98 e7 67 be 93 bb a1 3d 0b 6f f4 bd
       -0.21334444 -0.2264694 0.07897105 -0.11935242
000230 54 be e3 3c 64 33 d7 be 9b 20 32 3e 37 b1 8a bc
       0.027800716 -0.42031395 0.1739525 -0.016930206
000240 f1 44 0d 3e a2 6d 99 3d bc f7 7e bd c7 7c 02 3d
       0.1379583 0.07491614 -0.062247977 0.03185728
000250 a3 2f 6b be 47 32 48 be 4f c5 bf bd 5d bd 29 3d
       -0.2296739 -0.1955043 -0.093638055 0.041440357
000260 f4 d8 08 3e 30 3a c4 3d d5 1b df be fb 9c ab 3c
       0.13364011 0.09581411 -0.43575922 0.020948878
000270 69 f3 97 3d 29 e8 ac 3d 42 00 27 3e 6f 0e 1b bd
       0.07419474 0.084427185 0.16308692 -0.03785556
000280 fd 12 87 3e 89 a9 e1 bd 14 d3 c3 3e f0 12 1f bd
       0.26381674 -0.110186644 0.38246977 -0.03883642
000290 75 f4 36 bf a8 cb ef be 36 6b e1 be 66 45 33 3d
       -0.7146676 -0.46835065 -0.44027108 0.043767355
0002a0 f4 58 c0 3d 43 ad d1 be 93 8f a0 3d 68 21 74 bf
       0.093919665 -0.409525 0.078398846 -0.95363474
0002b0 e9 20 2f 3d 7f 8a 3a 3e 14 98 20 be 54 88 89 3e
       0.042755995 0.18216895 -0.15683013 0.26861823
0002c0 f7 74 34 3e ab ab 1c 3e 88 e5 e0 bd 4c e1 09 be
       0.17622744 0.15299861 -0.109812796 -0.1346485
0002d0 76 d2 ec bc 62 93 41 3e 2b 18 ba 3d 2a 3e dd bc
       -0.02890895 0.18903878 0.09086641 -0.027007181
0002e0 26 10 4f 3e d0 29 3b 3d a6 5f aa be c9 2d 86 bf
       0.20221004 0.045694172 -0.332761 -1.0482723
0002f0 a9 4a fa bc d4 4c c4 3e 05 90 50 bc f4 8f 3b be
       -0.030553179 0.38339865 -0.012729649 -0.18316633
000300 ed bd 61 be d8 20 b8 be 49 1b 94 bd f4 3a 7f 3e
       -0.22045107 -0.35962558 -0.07231767 0.24924833
000310 1f b8 5f bf f4 e3 86 3e 00 5e 60 3e 7f 9b 18 bf
       -0.8739032 0.2634579 0.21910858 -0.5961227
000320 1f 36 e5 3d 35 94 72 bd 24 22 39 3e 72 c1 fe be
       0.111919634 -0.059223372 0.1807943 -0.49756962
000330 ba a8 9f bf b0 ea 11 be e3 77 9d be c3 17 8b be
       -1.2473366 -0.14249682 -0.3075553 -0.27166566
000340 89 ee 4f 3d aa 91 00 be b2 64 5b bd a6 79 a7 3e
       0.050764594 -0.12555566 -0.053562827 0.32709998
000350 d5 c2 9c 3d 8e d9 2a be 56 fb 82 bf b3 75 da 3e
       0.07654349 -0.16684553 -1.0232952 0.42667922
000360 27 11 43 bf 37 c9 45 bf e9 39 ef bd 1c 9a 50 bf
       -0.7619805 -0.77260154 -0.11680967 -0.8148515
000370 0b f3 6a 3e 9a f0 d8 be e2 18 64 3d 42 78 2b be
       0.22944276 -0.42371064 0.055687793 -0.16745093
000380 cc 01 3d 3e 2d 57 ff be e5 b3 12 be 10 e7 81 be
       0.18457717 -0.49871197 -0.14326437 -0.253716
000390 cb 88 c5 3d c3 0d 31 be 23 1c 37 3d 7c 44 6e be
       0.09645232 -0.17290406 0.044704568 -0.23268312
0003a0 8b 0c 79 3e 63 18 12 bf b4 63 44 bf 0b b8 3f bf
       0.24321191 -0.5706846 -0.76714635 -0.748902
0003b0 9f a0 da be 0f f1 02 3e 35 8b c0 be fb e9 d9 be
       -0.4270067 0.12787269 -0.37606207 -0.42561325
0003c0 7c 4a d8 bc 0d f8 d9 3e a2 a6 92 be 13 73 c9 bd
       -0.026402704 0.4257206 -0.28642756 -0.09836402
0003d0 3d 00 cc be a0 95 95 3e ec 2f 42 3e 18 8a 76 3e
       -0.39843932 0.29215717 0.18963593 0.24076116
0003e0 22 1b a4 bd 0d 12 5a bd 4c c6 36 3f 3d 48 07 3e
       -0.08012988 -0.05323987 0.71396327 0.1321115
0003f0 00 0e 62 3e 39 f5 fa 3d 45 b1 5d bf e9 df 0d bf
       0.22075653 0.12253804 -0.86598617 -0.55419785

layers.4.bias f4 [1172]
000000 5c 99 b6 be a1 07 6e 3e d9 1b 3a be b7 6e ea 3d
       -0.3566388 0.23245098 -0.18174686 0.114468984
000010 ed 49 5a 3e 97 a8 d6 3b 82 35 36 be d3 8a be bd
       0.21317263 0.006550859 -0.17793849 -0.09303822
000020 e5 55 90 3d 8c be 00 be 39 08 ed 3b d6 6c 88 be
       0.07047633 -0.12572688 0.007233646 -0.26645535
000030 80 fc 1d be 9a e7 da bd 5f 11 8c be a1 7a e0 3d
       -0.15428352 -0.10688706 -0.27357003 0.109608896
000040 76 74 36 3e 90 4c 0a bd 54 cc c5 3d bf 9a ea bd
       0.17817864 -0.033764422 0.09658113 -0.11455297
000050 02 55 d7 3d 62 27 aa bd 45 66 c8 bb 7f 05 bf bd
       0.10514261 -0.08308293 -0.006115707 -0.0932722
000060 dd 29 85 3d 05 1b 5e bd 49 d5 68 be fa fc ad bd
       0.065021254 -0.054224987 -0.22737612 -0.08495517
000070 13 7a d6 bd f8 8d 2f be a2 14 68 bd a6 b7 ad bc
       -0.104725026 -0.17144 -0.056660302 -0.021205734
000080 41 df e6 bd c7 12 90 be 7a cb 98 be 63 ac 18 3d
       -0.11273051 -0.28139326 -0.2984274 0.037273776
000090 79 76 25 be 6f 8d 24 bd c9 c4 96 bd cc 7d 31 be
       -0.16158475 -0.040173944 -0.073617525 -0.17333144
0000a0 04 d1 1b 3d cc 83 28 be 8b 6a ac bc b4 f4 ae bd
       0.03804113 -0.16456527 -0.021046897 -0.08542767
0000b0 b8 f3 3d be 96 e9 fe 3d 42 33 43 be f1 98 db be
       -0.18550003 0.12446897 -0.19062522 -0.42890123
0000c0 87 e3 56 be 37 4b cb bd 8d 7d 56 be 19 8f da 3d
       -0.20985232 -0.099264555 -0.20946331 0.10671825
0000d0 01 4d 74 3d 51 8f f2 bc 67 cc 71 bd 06 da ec 3d
       0.05964375 -0.029609354 -0.059032824 0.11565022
0000e0 18 05 d6 3d 7c 7d 23 3e de fe 87 3d c4 0c cb bd
       0.1045019 0.15965837 0.06640409 -0.09914544
0000f0 d5 db 99 bd 39 48 8d be 9a 11 87 3d 43 5d 6d 3e
       -0.07512633 -0.27594164 0.06595154 0.23180108
000100 ea 02 f0 bc a0 c9 70 bd d7 17 96 bd 5d d6 26 bd
       -0.029298265 -0.058786035 -0.07328766 -0.040731777
000110 c6 87 59 3c f3 d0 64 3e e1 53 01 bd dc bf 66 3e
       0.013277 0.22345333 -0.031574134 0.22534126
000120 88 7c de bd be e6 2c be 3e 23 2a 3d 30 3a 43 bd
       -0.10863596 -0.16884896 0.041537516 -0.047662914
000130 8a f3 45 bd c6 91 41 3e 4f e8 df bd ae ea b5 be
       -0.04832796 0.18903264 -0.10932981 -0.3553061
000140 3b 2f 7a bd da 4b 26 3b 18 a7 ab bd 73 9b dd bd
       -0.0610802 0.00253748 -0.0838148 -0.10820665
000150 75 9c 76 3e c5 d1 7a bd 3d ed 80 3d 79 c6 f2 bd
       0.24083121 -0.061235208 0.062952496 -0.11854262
000160 b8 8b 43 3e 22 b6 9f 3d 86 ec b1 3d da 48 1e be
       0.19096267 0.07798411 0.086876914 -0.15457478
000170 e9 38 c1 be a4 84 36 be e3 71 a5 be 51 54 ec bd
       -0.37738732 -0.17824036 -0.3231345 -0.115395196
000180 ed 78 34 bd a3 36 3e bd 12 5d e3 be 97 1c 5a be
       -0.044060636 -0.046438824 -0.44406945 -0.21299969
000190 39 6b 44 be 1a ed 08 be 9c 55 6a be c0 76 4d 3c
       -0.19181527 -0.13371697 -0.2288422 0.012540519
0001a0 cb f2 9c bc c7 3e 56 be ab bd 98 be 64 c1 07 be
       -0.019158741 -0.20922385 -0.29832205 -0.13257366
0001b0 5c 0b b7 ba f5 7c 9c be 54 81 30 be d5 09 4f bb
       -0.0013965177 -0.30564085 -0.17236835 -0.0031591554
0001c0 5d ba 7e 3c 9d 44 46 3d eb 2d 29 be b1 f3 e6 bd
       0.015547362 0.04840528 -0.16521423 -0.11276949
0001d0 1c 9f c0 bd a8 ba 17 be de 9f 6e bd 57 f2 7d 3e
       -0.09405348 -0.14817297 -0.05825793 0.24799477
0001e0 46 a1 86 be 70 b6 df bd 4a 99 64 bc b4 8f 32 bd
       -0.26294917 -0.10923469 -0.013952563 -0.043594077
0001f0 3b 41 92 bd c5 e5 05 be be ca 90 be 53 14 1e be
       -0.07141348 -0.13075931 -0.2827968 -0.1543744
000200 a7 0c 20 be 68 9a 6e be 49 f0 6e be a2 85 79 be
       -0.15629826 -0.23301089 -0.23333849 -0.24367383
000210 75 e8 89 be 49 8b a8 bd a9 b1 dc bd a7 a0 e1 bd
       -0.26935163 -0.082296915 -0.107760735 -0.1101697
000220 38 5c c5 3d f8 3f 8c bd 38 fc c1 3d cf 3a 8b 3d
       0.0963673 -0.068481386 0.09471935 0.06798326
000230 fd bb aa bd 91 78 0a 3d d4 35 f7 bb d0 19 80 3d
       -0.08336637 0.033806387 -0.0075442586 0.06254923
000240 d2 fc 9d 3e d5 8f d8 be ae cf 51 bd 65 19 ca 3d
       0.3085695 -0.42297235 -0.05122345 0.09868125
000250 ac 06 3d bd 9e bf a2 be 53 40 06 bd 0d 90 ce be
       -0.04614894 -0.31786817 -0.032776188 -0.40344277
000260 ed 45 b1 bd 2e e9 32 be 96 61 55 3e d7 a7 9e 3e
       -0.086559154 -0.17471763 0.20838007 0.30987427
000270 06 39 09 be 85 19 e3 3b 84 b1 dc bc 70 84 c4 be
       -0.13400659 0.0069305324 -0.026940115 -0.38382292
000280 f2 f0 45 be 9e d6 65 be 88 c4 bd bd 05 73 1b be
       -0.19330195 -0.22445151 -0.09266001 -0.15180595
000290 d9 cc ba 3d 70 63 90 be 60 0f a0 be ca a5 41 be
       0.09121103 -0.28200865 -0.3126173 -0.189109
0002a0 43 49 3f be 18 bd d7 bd 3b a5 63 be da 9c 56 be
       -0.18680291 -0.10534114 -0.22230999 -0.20958272
0002b0 06 24 d7 3d de 9f 03 bc b6 c8 76 bd 2d 4b 13 3c
       0.10504918 -0.008033721 -0.060250007 0.008990091
0002c0 86 71 b7 bd c5 64 c6 3b e3 c9 71 be ca aa 94 bd
       -0.089572 0.006054493 -0.2361217 -0.07259138
0002d0 fe 4e 6c bd 43 8b 84 3e 47 31 cf bd f5 c6 a6 bd
       -0.05769252 0.25887498 -0.10116821 -0.08143417
0002e0 e0 c8 cc 3c 01 01 26 bd 16 4c 0c be e0 8f a4 bd
       0.024998128 -0.0405283 -0.137009 -0.080352545
0002f0 f3 b5 37 bd fa ee 13 be 2b b0 84 be 3e 68 2b be
       -0.044851255 -0.14446631 -0.25915655 -0.16738984
000300 16 74 d6 bd 83 9b 13 be be 11 2e be 50 72 51 3d
       -0.104713604 -0.14414792 -0.16998956 0.051134408
000310 65 19 54 3d 93 3f 79 be 15 94 7e bd 5b 89 b8 bd
       0.05178203 -0.24340658 -0.06215294 -0.090105735
000320 58 a6 78 be 92 cf ae bd 7e b1 3f be 2f 5a 41 be
       -0.24282205 -0.08535685 -0.18720052 -0.18882059
000330 29 a1 8f bd ed 00 26 bd 46 4d bb 3c b0 0d be 3d
       -0.07013161 -0.040528227 0.022863995 0.092799544
000340 14 d5 ac bd f9 1b 6f 3a 7b e9 26 3d e3 2f bb bd
       -0.08439079 0.0009121295 0.040750008 -0.09139993
000350 9c 4c 9b bd 87 1e b5 be 3b 12 4e be 07 ef 94 bd
       -0.075829715 -0.35374853 -0.20124142 -0.07272153
000360 72 67 d4 bc ad 01 2a bd 2a 66 5c be a2 c6 1b be
       -0.025928233 -0.041505504 -0.21523347 -0.15212491
000370 ff d9 04 3e 8a 87 8f bc 6b 4a f6 3d d3 71 25 3e
       0.12973784 -0.017520685 0.12025913 0.16156702
000380 07 6d 65 be e1 62 11 be 4c 51 38 be e7 9c 24 be
       -0.22404872 -0.14197876 -0.17999762 -0.16075478
000390 32 6a 76 be 56 43 16 ba 95 e4 84 bd 33 dc a6 3c
       -0.24063948 -0.000573208 -0.06488911 0.020368671
0003a0 b7 d6 67 bd 4c b2 eb b9 71 cf dd bd 47 1a 72 bc
       -0.056601252 -0.00044955534 -0.10830582 -0.014776773
0003b0 03 14 48 be ba 2d be bd 6b 5e ce bd 3b 2a 44 be
       -0.19538884 -0.092860654 -0.100766025 -0.19156735
0003c0 92 cf c8 bb 29 0f 3a be db 6c a4 3b e7 06 a9 3d
       -0.00612826 -0.18169846 0.0050178594 0.0825327
0003d0 0e bc cf 3d 1d ee 67 bd d6 16 94 bd 16 43 e8 bd
       0.101432905 -0.056623567 -0.07230918 -0.113409206
0003e0 71 a9 08 bc b9 fc 92 3c 15 c8 f5 bd 07 5d 43 bc
       -0.008341179 0.017942773 -0.12001053 -0.011924035
0003f0 ed 68 c6 bc eb b6 35 be 2f e8 7d be 4d dc 0d bd
       -0.024219954 -0.17745559 -0.24795602 -0.034633923
