Models/LSTM_Start-ups_4_16.pth (torch, 332424 bytes, 7 tensors)

embeddings.0.weight f4 [1172, 16]
000000 8b 6a fc 3f d0 4d 11 3e 14 a7 fc 3f 8e f4 bc bf
       1.9720014 0.1418984 1.9738488 -1.4762132
000010 ed 5c b1 3f f6 8f 52 bf ba a2 3e bd 4e 53 9d bf
       1.3856484 -0.82250917 -0.046541907 -1.2291048
000020 40 98 51 3c 7c 05 2f 40 46 35 18 bf c5 09 97 bf
       0.012792647 2.7347097 -0.5945629 -1.1799856
000030 f6 6e 78 bf be 17 8e bf c5 ea b7 bf 59 72 9b 3f
       -0.9704431 -1.1100996 -1.4368521 1.2144271
000040 5a 17 06 40 c8 44 67 be e0 ce 6e bf 69 9c 57 3f
       2.0951753 -0.22584832 -0.93284416 0.8422304
000050 cd 8e af bf 4b 9f cf 3f 9f b5 97 3f ef ed f9 3f
       -1.3715454 1.6220487 1.1852301 1.9525737
000060 5d 63 b9 3f 55 89 a8 3f 89 3d 2b 3f d9 c9 c4 3f
       1.4483448 1.316691 0.6689077 1.5374099
000070 d1 53 19 bf d0 9a 30 3d 90 f7 88 be 78 92 81 3f
       -0.5989352 0.04311639 -0.26751375 1.0122824
000080 8a 5c 37 bf 3a b6 94 bf 0c d7 16 3f 4a 8a 16 40
       -0.7162558 -1.1618111 0.58921885 2.3521905
000090 01 fa 37 3f eb 62 b5 bf 10 47 bd 3f 2d 0f 98 bf
       0.7186585 -1.4170812 1.4787312 -1.1879631
0000a0 dd 1e 10 c0 21 9b cb 3f d5 95 65 bd cb 87 52 bf
       -2.2518837 1.5906717 -0.056051094 -0.82238454
0000b0 cf 18 ee bf f4 28 1e 40 db b9 b3 bf 09 5e 1f bf
       -1.8601321 2.4712496 -1.4041094 -0.6225286
0000c0 41 37 98 bf 4e f8 6f bf af 03 d3 3e 84 39 8b 3f
       -1.1891862 -0.9373826 0.41213748 1.0876927
0000d0 67 4e 0b bf 78 a1 e6 3f 8d 6b cf bf 6d cf 83 bf
       -0.5441651 1.8018026 -1.6204697 -1.0297676
0000e0 58 b7 e1 bf 7f 59 fc 3e 2f 2e 9b bd 24 5d 61 3f
       -1.7634077 0.4928703 -0.07577168 0.88032746
0000f0 c5 1e 44 3d 1d 64 12 40 c1 d6 c7 bf 75 e9 fe 3f
       0.047880907 2.2873604 -1.5612413 1.9914995
000100 33 4b c3 3f c7 73 8e 3f 0d 07 47 40 18 bc 86 3f
       1.5257324 1.1129082 3.1098053 1.0526152
000110 d5 38 75 3f 62 88 07 be 14 b7 e2 bf 82 db 96 3f
       0.95789844 -0.1323562 -1.7712121 1.1785738
000120 83 b7 86 be 7a 61 59 3f f8 c5 79 be 78 b5 0c 3f
       -0.26311883 0.8491436 -0.24391925 0.549644
000130 6c 88 fd 3e c6 23 5d bf d2 90 32 c0 0d 01 32 bf
       0.49518144 -0.8638271 -2.7900891 -0.69532853
000140 b1 81 04 3f d1 15 42 bf 9c 8b b6 be 62 d5 95 bf
       0.51760393 -0.7581454 -0.35653389 -1.1705744
000150 01 4b 9a be 43 0f ad 3f fe e8 01 3e 2d 4d 4e 3f
       -0.30135348 1.3520283 0.12686536 0.8058651
000160 f2 a0 72 3f 2d 23 9a 3e 66 6f b9 bf 65 15 b6 3f
       0.94776833 0.30104962 -1.4487121 1.4225279
000170 f3 c6 e5 bf 97 61 54 3c 6b d8 4e 3f b3 e2 ae 3f
       -1.795134 0.01296272 0.8079898 1.3662933
000180 5c dd 39 c0 6b fb 75 bd 1b 21 55 3f ce 7a c9 3e
       -2.9041357 -0.060054224 0.8325364 0.39351505
000190 55 ae af 3e d9 2a ab be e3 92 12 bd dd 23 a9 bf
       0.34312692 -0.33431128 -0.035784613 -1.321407
0001a0 db 19 ee be e8 65 95 3e e8 82 5d bf 2d e8 77 3d
       -0.465041 0.2917931 -0.8652787 0.060524154
0001b0 f1 9a 8e 3d 45 61 83 3f ab ff 10 3f d3 2c 2c 3e
       0.069631465 1.0264059 0.5664012 0.16813974
0001c0 22 ac e7 bf 66 bb bb be e9 0c c7 be d9 d0 11 bf
       -1.8099406 -0.3666641 -0.38877037 -0.569593
0001d0 4b 10 59 3e 07 7f 21 3f 6a bc 24 bf 9e 48 a1 3f
       0.21197622 0.63084453 -0.6435 1.2600286
0001e0 5e ad e7 be 14 7b 82 3d 79 55 9a bf ed 80 09 3f
       -0.45249456 0.063711315 -1.2057334 0.5371235
0001f0 c5 28 0f 40 49 2e 6b be 50 f7 01 40 c1 a1 cd bd
       2.2368634 -0.22966875 2.0307198 -0.10040618
000200 ff 5b ee 3f d7 a5 a0 3f 9a 66 25 bf bd d8 c1 bf
       1.8621825 1.255061 -0.6460968 -1.5144268
000210 69 dd 72 3e c2 b6 b0 3f b4 44 11 40 56 9c a4 3f
       0.23717274 1.3805773 2.2698183 1.286021
000220 37 83 1b 40 65 5a 51 bf f2 aa 42 c0 dc 10 8c 3f
       2.4298837 -0.81778556 -3.0416837 1.0942645
000230 12 e7 93 bf 5d b6 d2 3f 36 b6 e3 be 1c f4 84 3d
       -1.1554892 1.6461903 -0.44474953 0.06491873
000240 b4 49 07 c0 45 f0 21 40 d5 4b 06 3f 18 08 e9 3f
       -2.1138735 2.53029 0.5245946 1.8205595
000250 42 e8 9f 3e 11 99 07 bf 02 a0 6d bf 07 05 0b 40
       0.31231886 -0.52967936 -0.9282228 2.1721818
000260 35 b4 81 bf 15 7d e5 3d 1c 4b ac bf e0 f4 8a 3f
       -1.013312 0.11205498 -1.3460422 1.085598
000270 47 28 43 c0 9c d1 46 bf bc 15 91 bf 9e aa b1 3f
       -3.0493333 -0.7766359 -1.1334758 1.3880193
000280 e4 6b df bf 3b 7f e2 3e de 6c 02 3f ca d3 33 3f
       -1.7454801 0.44237694 0.5094737 0.7024504
000290 57 19 eb 3e 84 b2 00 c0 35 bc 69 bd 0a 2c 09 c0
       0.4591777 -2.0108957 -0.057064254 -2.143313
0002a0 8f 2c bc bf b7 3f 61 3f 93 59 9b 3e ba d0 48 3f
       -1.4701098 0.87987846 0.30341777 0.7844349
0002b0 b6 be 9a bf 3d 01 60 3f fb 9c 69 3d 08 20 39 40
       -1.208945 0.8750189 0.057034474 2.89258
0002c0 f6 c1 31 3e ed 4a 93 3f 2d fa f4 bd ab 91 93 be
       0.17359146 1.150724 -0.1196178 -0.28822073
0002d0 0a d1 94 bf 82 a6 62 bf b0 93 4a bf 96 34 3b 3f
       -1.1626294 -0.8853532 -0.79131603 0.73127115
0002e0 c8 a6 78 bf 62 ec fa bf c3 63 50 c0 ab 96 22 3f
       -0.9712949 -1.9603388 -3.256089 0.6351115
0002f0 c0 d2 c4 3f 8d e5 b6 be 18 4d 32 3f 20 f3 35 3f
       1.5376816 -0.35722008 0.69648886 0.71074104
000300 82 1b 6b 3f 55 da 6a bf 07 c6 04 40 19 50 9b bf
       0.9183885 -0.917394 2.0745866 -1.2133819
000310 14 b3 4e bf 4b ca dd bc 5f b4 e1 3e 23 cc bc 3f
       -0.80742 -0.027074 0.44082925 1.4749798
000320 f0 21 88 3e 42 10 41 40 d2 f8 b6 bf e1 ab f8 bd
       0.26588392 3.0166173 -1.4294684 -0.12142158
000330 8b f6 f5 3e d3 5d cb 3f 57 b4 08 3f de a5 cc 3f
       0.4803966 1.5888008 0.53400177 1.5988119
000340 ad f5 2c bf 21 97 b3 be b1 b0 0e bd 7e 6d 27 bf
       -0.6756237 -0.3507624 -0.034836475 -0.65401447
000350 95 39 f1 3e 16 25 5f 3e 1c 80 58 bf 63 40 33 c0
       0.47114244 0.21791491 -0.8457048 -2.8008049
000360 1f 5d 45 bf 05 d0 81 3f 47 e8 07 c0 74 b7 18 40
       -0.77095217 1.0141608 -2.123552 2.386197
000370 86 48 16 3f ea ea d9 bd 50 20 02 40 66 95 0d 40
       0.5870441 -0.106405094 2.0332222 2.2122436
000380 10 c9 f1 be df e7 bc 3f 9c 95 d3 3f f0 89 63 bf
       -0.4722371 1.4758261 1.6530032 -0.8888235
000390 af 4c c0 3d 1e d3 7c bf c4 ea c7 be 1f 71 1a 3e
       0.09389626 -0.9875964 -0.390463 0.15082215
0003a0 47 7e 16 be 2a 43 cb be 66 9a 94 bf 48 e6 e6 be
       -0.14696608 -0.3969968 -1.1609619 -0.45097566
0003b0 83 8a 09 bf 8d d5 99 bf 98 bf 64 3d 06 d5 a6 3d
       -0.5372698 -1.2018296 0.05584678 0.081461
0003c0 0b 6a a3 bf 90 c9 87 3f 62 4d 64 3f f2 b3 c7 3f
       -1.2766737 1.0608387 0.89180577 1.560179
0003d0 6f da d8 3e cd 0b 41 3f f6 46 aa bf b5 ce a3 3f
       0.42354152 0.7540863 -1.3302906 1.2797457
0003e0 4a 24 c3 3f 86 b2 b3 bf ce 8b 87 3f 52 78 ac 3f
       1.524545 -1.4038856 1.058954 1.3474219
0003f0 c8 00 87 3f 33 32 6f 3f b0 1f d4 be 71 10 b8 3e
       1.0547113 0.9343597 -0.41430426 0.35950044

layers.0.weight f4 [256, 64]
000000 49 96 93 be 98 40 c3 3b d3 df 7d 3e 22 44 e4 be
       -0.28825596 0.005958628 0.24792413 -0.4458323
000010 66 dc 07 bf ea 84 4a 3d bd 90 b6 be ef f2 a6 bd
       -0.53070676 0.049443163 -0.35657302 -0.08151805
000020 8e 4d c8 bd 90 80 31 3e 35 a4 10 be f3 f4 d3 3d
       -0.097804174 0.17334199 -0.1412514 0.10349455
000030 23 b1 a8 bd 1b 06 0d 3e 1a 0d 21 be 1c 56 3f bf
       -0.08236911 0.1377186 -0.15727654 -0.7474077
000040 ee f1 a0 3e 9b 67 86 be f9 57 83 be 41 16 9f bd
       0.31434578 -0.2625092 -0.25653055 -0.077679165
000050 10 d8 ea 3e b7 73 e7 be cf fb 3b bf 8f 6b 78 be
       0.45867968 -0.4520547 -0.73431104 -0.2425978
000060 39 f9 70 3e 58 0a 9c 3e ec 9d 6d 3c 29 18 c6 3e
       0.23532571 0.30476642 0.014502984 0.38690308
000070 d4 d5 2c 3f 72 d9 49 3f a2 57 87 3e 3d 43 37 3e
       0.67513776 0.7884742 0.26434046 0.17896743
000080 68 b5 b2 be 23 a6 0b be 9c 43 ca be d3 14 ab be
       -0.34904027 -0.13637595 -0.39504707 -0.33414325
000090 a8 f8 40 3e 50 16 84 be d5 9c c3 be 93 84 31 3e
       0.18844855 -0.25798273 -0.3820559 0.1733573
0000a0 64 28 00 3f 2c 21 b0 be 19 ab 40 3e 83 39 44 bd
       0.5006163 -0.34400308 0.18815269 -0.04790641
0000b0 a9 f3 a2 be cc 3e 88 3e 63 76 75 3d 42 dd 29 be
       -0.31826523 0.2661041 0.059927355 -0.1658831
0000c0 bb e0 9d 3e cb 01 8e 3d 7b 72 05 bf 69 35 f6 3d
       0.30835518 0.06933936 -0.5212781 0.12021906
0000d0 61 f2 1e bf 84 a5 79 3e 35 13 09 be 63 e8 02 3f
       -0.6208859 0.24379545 -0.13386233 0.51135844
0000e0 f0 96 8b 3e f6 20 fc bd b7 32 d2 be 3c 5a ed 3e
       0.27263594 -0.12310974 -0.41054317 0.46357906
0000f0 8a e2 54 3e d9 e2 5d be 57 1a ee 3e b1 e7 62 3d
       0.20789543 -0.21668567 0.4650447 0.05539674
000100 5c f9 aa 3e df 6c fb bd c8 57 a9 be 27 b0 07 3e
       0.3339337 -0.12276625 -0.33074784 0.1325079
000110 30 e8 ca bd 32 3d 3a 3a ee db 97 be ef b0 d6 3e
       -0.099075675 0.0007104456 -0.2965998 0.41931865
000120 a3 9d a4 be b7 ac 29 bf 6d ec 26 bf 4e af ad be
       -0.32151517 -0.66279167 -0.6520451 -0.3392281
000130 27 8e d8 3d 8c 0c 94 3e 50 55 da be 0f be 77 be
       0.105739884 0.28915823 -0.42643213 -0.24193595
000140 e2 a5 17 bf f1 bf ca 3e fc 88 b9 be a0 6b aa be
       -0.5923749 0.39599565 -0.36237323 -0.33285236
000150 72 87 10 bf 18 af e7 3d 5f 6a 26 3e a9 40 52 bd
       -0.56456673 0.11312693 0.16251515 -0.051331196
000160 aa 13 8a 3e e8 73 20 3e bf 41 c0 bc dd 74 fe 3e
       0.26968127 0.15669215 -0.02346885 0.49698535
000170 f0 54 0c bf 9f f8 14 be 0e a7 92 be f7 9b 2a be
       -0.54817104 -0.14547966 -0.28643078 -0.16661058
000180 41 a5 35 3f 4e f7 14 3f b5 9c 0f 3e bc 02 bb 3d
       0.7095528 0.58189857 0.14024623 0.09131381
000190 22 cb 91 be 32 ef fc 3d 43 6f 36 bf 43 a0 b4 be
       -0.2847529 0.123503104 -0.7126352 -0.3527852
0001a0 ec 5f c9 3c 76 93 d6 3d 6e 6d df be 81 5e 97 3e
       0.024581872 0.10477345 -0.43638176 0.29564288
0001b0 77 35 52 3e 0f 9a 18 3e de 05 7c be 15 73 74 3e
       0.20528208 0.14902519 -0.24611613 0.23872025
0001c0 ab fe b7 3e e2 7f 5d 3e 32 4d a1 be d0 22 92 3e
       0.35936484 0.21630815 -0.31504208 0.28542185
0001d0 8c e5 72 be 38 28 d0 3d ef 00 82 3e fa f6 13 3e
       -0.23720378 0.10163921 0.25391337 0.14449683
0001e0 e4 84 91 3e 79 44 76 3e 26 b7 65 3f bb 31 b0 bd
       0.284217 0.24049558 0.8973259 -0.08603235
0001f0 1f 35 08 bf 01 c0 6d be b7 97 29 bf bd aa 60 3e
       -0.53206056 -0.23217775 -0.66247123 0.21940131
000200 31 12 87 3e d9 d4 e7 3e 24 9c 28 3f cd 3b c3 3e
       0.26381066 0.45279577 0.6586325 0.38131562
000210 52 31 ae bc 8c f7 66 3e 0a f0 00 bf c2 23 41 3d
       -0.021263752 0.22555369 -0.5036627 0.047153242
000220 f2 52 49 3e bc 3c 2a 3e b7 51 3f 3e 64 10 e2 3c
       0.19660547 0.16624731 0.18683515 0.027595706
000230 47 f1 39 3e 30 ad 1d bf 70 1e 5f 3e f4 84 c1 bc
       0.18158446 -0.6159239 0.21788955 -0.023622967
000240 dd c9 83 be 34 f7 56 be 60 5d 78 bd 90 51 0b 3f
       -0.25739947 -0.20992738 -0.060635924 0.5442133
000250 91 7f c3 3d 44 21 f9 be 86 db da bd dc 5a 04 be
       0.09545816 -0.48658192 -0.10686402 -0.12925285
000260 91 05 a6 3d 01 6e 0d be b3 37 65 bf d8 5d 9a be
       0.081065305 -0.13811494 -0.89538115 -0.30149722
000270 91 d0 84 be 12 ff 4e bd 7c 8e 82 3e 58 33 05 be
       -0.25940374 -0.050536223 0.25499332 -0.13007867
000280 0c fe 80 3e e2 2c 1f be f1 ed 3b be 22 5f 47 be
       0.25193822 -0.15544465 -0.18352486 -0.19469884
000290 96 95 30 be 91 1f df bc 5f 99 64 3e 8a 34 8b be
       -0.17244563 -0.027236732 0.22324131 -0.27188522
0002a0 76 88 01 bf 68 ba 16 be c0 b1 0b bf e7 d3 0f be
       -0.5059885 -0.14719546 -0.545681 -0.14045678
0002b0 fa e6 14 3f 1a 80 a7 be c4 a5 98 3e d4 5a ce 3e
       0.5816494 -0.3271492 0.2981397 0.4030367
0002c0 8d aa c8 be 4a f9 ca 3e 39 64 27 bf a6 db 6a be
       -0.3919262 0.39643317 -0.653873 -0.22935352
0002d0 be a6 99 bd e3 a2 ba 3e 2d f6 c4 3e 3d 04 0d be
       -0.07502507 0.36452398 0.38469067 -0.13771148
0002e0 3e 8c dc bd 62 49 47 be e7 72 70 3e 30 04 d3 be
       -0.107689366 -0.19461587 0.23481332 -0.41214132
0002f0 c4 32 95 bd c4 a3 cf 3e ae 5a 86 3e 0c 4c e1 3e
       -0.072850734 0.4055463 0.26241058 0.44003332
000300 13 70 4b be 02 35 a3 bd 27 0b cd 3e c5 7c 4d bd
       -0.19866972 -0.07969095 0.4004757 -0.050167818
000310 0f 53 64 be c5 a1 2b bf f4 6a 8d 3e 1d 20 c5 3d
       -0.2229731 -0.67043716 0.2762066 0.09625266
000320 34 d3 32 be 14 03 5d 3e 08 88 0c 3d fb 66 b9 bd
       -0.1746338 0.21583205 0.034309417 -0.09052845
000330 4c 26 44 3e 54 5a 64 bd 4b c8 56 bc fb 1e 34 3c
       0.19155234 -0.055750206 -0.013109277 0.010993714
000340 74 63 75 be e8 1c 14 3f 52 ca a4 bd 8d f5 ab bd
       -0.2396372 0.5785661 -0.08046402 -0.083964445
000350 68 76 e4 bb a9 c3 cc 3e 08 74 ea 3e 40 2c 87 3e
       -0.006972123 0.39993027 0.4579165 0.26400948
000360 78 d3 a6 be ed 3f ab be 31 75 79 be 94 36 0f bf
       -0.32583213 -0.3344721 -0.24361111 -0.55942655
000370 5d 3d 59 3d 9f 8d e3 3c e0 d2 50 be 5b 18 fa 3e
       0.053037036 0.027777491 -0.20392942 0.48846707
000380 75 3f ad bd c8 49 d8 3e 91 c2 65 be a1 c0 44 3c
       -0.08459369 0.4224379 -0.22437502 0.012008817
000390 39 30 a0 be 58 3d 27 3e f5 bd 05 bf 04 f0 b1 3e
       -0.3128679 0.16331995 -0.52242976 0.3475343
0003a0 72 e0 7c be dd 04 07 3e 9e fd af 3e 53 d1 e0 be
       -0.24694994 0.13185449 0.34373182 -0.43909702
0003b0 9c 7f f9 3d d7 49 24 3e 41 b0 ad 3d 3d fe 38 3f
       0.12182543 0.16043793 0.084808834 0.72262937
0003c0 a1 37 2f be 1c ca 6a 3f 5d 1f de 3e bb 5d b7 3e
       -0.17111064 0.91714644 0.43383303 0.35813698
0003d0 d0 9e 45 3d f1 8c 3a 3e 0a 76 25 3f b4 be 80 be
       0.04824716 0.18217827 0.6463324 -0.25145495
0003e0 c1 f0 8c be f5 ea 36 be 31 67 d1 3d 06 12 f4 be
       -0.2752743 -0.17863066 0.1022476 -0.4767
0003f0 14 df 59 3d 22 ca 63 3e 4c ac eb 3e ef da b2 3e
       0.05319126 0.22245076 0.4602989 0.34932658

layers.0.bias f4 [256]
000000 ec 5b 30 3e f1 40 33 3d 3e 6a 1b 3c cb 67 d2 3d
       0.17222565 0.043763105 0.009485779 0.10273703
000010 bd 34 e1 bb 1c 37 a9 3c 49 ce d6 bd bb 59 ae 3c
       -0.006872742 0.020656161 -0.104885645 0.021283021
000020 84 3e f3 bd ea 3e aa bc c9 fc 59 3d 41 d4 2f bd
       -0.11877158 -0.020781953 0.05321959 -0.04292703
000030 24 7a 4e be 22 f9 04 be 74 dc a7 3d 4d 7a 0d 3e
       -0.2016378 -0.12985662 0.08196345 0.13816185
000040 7a c6 d8 be 18 19 46 3e 8b 48 a6 3c 88 0e 2e bc
       -0.42338926 0.1934551 0.020298263 -0.010623582
000050 24 cb 98 bd aa 79 96 bc 53 c0 0d be 22 94 db 3d
       -0.07460621 -0.01836856 -0.13842897 0.107216135
000060 16 60 14 3b 10 e3 91 be 22 bc d5 3b 8f b6 67 be
       0.002264028 -0.28493547 0.0065226713 -0.22628234
000070 ea 64 b3 ba 98 c1 07 3d 6a 2c db be 1e 71 a5 bd
       -0.0013686691 0.03314361 -0.42807323 -0.08078216
000080 b5 8c 46 3c bc bc 9b 3d 0a 28 93 3d 91 72 87 be
       0.012118508 0.076043576 0.07185371 -0.26454595
000090 43 ff ff 3d 0c 7a 02 3e ed 00 ea bd 84 9c b5 3c
       0.12499859 0.1274187 -0.11425958 0.022169359
0000a0 29 7c f9 3c ff 4b e8 3c b2 e0 51 be 13 6f f7 bd
       0.030454712 0.02835655 -0.2049587 -0.120817326
0000b0 12 f5 52 3e d1 93 a1 bd 96 c3 32 be ba 90 e4 3b
       0.206013 -0.07889522 -0.17457423 0.0069752606
0000c0 aa 6f f0 3d 77 ef 0c be 6b 55 d9 bc 72 fe 2a be
       0.11740048 -0.13763224 -0.026529988 -0.16698626
0000d0 c5 5b e2 be c2 ee 72 3d fb ae 63 3b de 7d 27 be
       -0.4421064 0.05930973 0.0034741748 -0.16356608
0000e0 91 c2 0d 3e 65 6b c1 3c 58 63 0d 3d 20 9b 78 be
       0.13843752 0.02361078 0.03451857 -0.24277925
0000f0 de 99 a4 bd a5 8f 91 bd b2 12 bf 3d ee 2c 8a bc
       -0.0803716 -0.07107476 0.09329738 -0.016867127
000100 87 fa fa 3d 6c b7 3a 3e 02 2c 65 bd d4 c4 ff 3d
       0.122548155 0.18234032 -0.055950172 0.12488714
000110 ee 99 f5 3d 6c 44 13 3e 51 11 39 3e cb af d3 3d
       0.119922504 0.1438157 0.18073012 0.10336264
000120 c4 d2 3f be 16 74 34 3e 33 17 c8 bb ca 0e de 3d
       -0.18732744 0.17622408 -0.006106281 0.108426645
000130 6e 6c 93 be 71 46 ea bc b2 22 1c 3e b7 4d c9 3d
       -0.28793663 -0.028598042 0.1524761 0.09829276
000140 21 a2 49 3e 19 59 0f 3e 3e 9a 04 be 91 dc 00 3e
       0.19690754 0.13998832 -0.12949464 0.1258414
000150 5d d9 2d 3e 17 5e f3 bd 4e 1c af bd 39 4d e6 bd
       0.16977449 -0.118831806 -0.085503206 -0.11245198
000160 e5 20 fc 3d 16 39 c0 3d 12 a1 5d 3d 7c 19 0f bb
       0.12310962 0.09385888 0.054108687 -0.0021835258
000170 8b 39 5d bd 9d 07 16 3e 77 af 42 bd 85 98 2f 3d
       -0.054009955 0.14651342 -0.047530618 0.042870063
000180 7b a9 3c be 6c 06 23 be 06 5f e0 bd 6e 2d 03 3b
       -0.18424027 -0.15920419 -0.10955624 0.0020016092
000190 19 38 c3 be 24 38 b8 bc 0f 7f 82 be b0 f1 2e 3e
       -0.38128737 -0.022487707 -0.25487563 0.17084384
0001a0 2f f6 af 3d e9 a3 3b 3e da 88 32 3d c3 78 07 be
       0.08591878 0.18324246 0.043587543 -0.1322966
0001b0 67 5c 2e 3e 82 25 3d be 57 8d 49 be 12 e4 f3 bd
       0.17027436 -0.1847134 -0.19682823 -0.11908735
0001c0 cb 2d 84 bd d8 fd 0d be 12 4b 43 3d 55 53 0e 3d
       -0.06454047 -0.13866365 0.047679015 0.03474744
0001d0 52 db 31 be b1 f1 48 3c 31 3b bd bd fa cb 28 3e
       -0.1736882 0.012264655 -0.092398055 0.16484061
0001e0 13 c3 a5 3d 12 fa 47 3e d4 ef 5c 3d 25 74 42 bd
       0.08093848 0.19528988 0.053939655 -0.047474045
0001f0 e2 02 b4 be b4 e7 38 be 53 98 3c 3d 2f 11 af bd
       -0.3515845 -0.18057138 0.046043705 -0.085481994
000200 09 b7 79 be 6d 87 64 3b a2 86 c6 bd d5 e7 0b be
       -0.24386229 0.003487076 -0.09693648 -0.13662656
000210 7c 42 31 3d b2 ba 70 be 55 7e e0 bc 01 c3 3a bc
       0.043276295 -0.23508719 -0.02740399 -0.011399032
000220 10 e9 49 3d b9 0c 73 3e a6 d6 b1 3d 5b c1 61 3d
       0.04929453 0.23735322 0.08683519 0.05511604
000230 ed 5b 09 bf 4c 84 47 3d a3 9e 4d bd fa 5a 7a be
       -0.5365589 0.048710153 -0.050200116 -0.24448767
000240 0b a0 9d bd 46 9e 3b be 65 ed 4a 3e 88 3a c6 3d
       -0.076965414 -0.18322095 0.19817121 0.09679133
000250 24 af 59 be 17 3f dc bd 66 12 57 3d 51 ef 1d 3e
       -0.21258217 -0.10754221 0.05250778 0.15423323
000260 fd a1 ad bd ea 2e f2 3d 08 71 9d bd e0 fc 29 3d
       -0.084781624 0.118253544 -0.076875746 0.041500926
000270 d8 49 42 be 30 84 0b be 9e 6d 32 be 4f 82 91 be
       -0.18973482 -0.13624644 -0.17424628 -0.2841973
000280 57 da 28 3e 49 46 ee 3d 76 08 51 be 77 92 eb be
       0.1648954 0.116344996 -0.20413384 -0.4601018
000290 19 fb 59 be d3 09 04 bf 10 ed df bc 3c 39 89 be
       -0.21287192 -0.5157749 -0.02733472 -0.2680148
0002a0 4d d1 5e 3d 8b fc 06 3e 3f 4d 96 3e d9 ce ce bb
       0.054398824 0.13182275 0.2935581 -0.0063112793
0002b0 1d 3e ae 3d a1 dd 3e be 4b c6 fd bd 84 77 78 be
       0.08507941 -0.18639232 -0.12391337 -0.24264342
0002c0 37 ed 06 3e 73 b3 1b 3c 06 58 3e bc af c4 42 be
       0.13176428 0.009503233 -0.011617666 -0.19020341
0002d0 96 95 23 3d d7 ab ec be ca 50 00 bd 7d 60 9b be
       0.03993758 -0.46224853 -0.031327046 -0.30347052
0002e0 4f c5 11 be fe 8c 86 bd 82 9b f2 bd 93 12 2f 3e
       -0.14235424 -0.06569861 -0.11846067 0.17096929
0002f0 5e 94 59 be 2e a8 05 3e a2 54 37 bd 2c c6 98 3d
       -0.21248004 0.13052437 -0.044758447 0.07459673
000300 05 8e 58 be f6 75 ce 3c 4a 62 83 3d 96 15 85 be
       -0.21147926 0.025202733 0.064152315 -0.2599303
000310 dd da 29 3e 9b 5e 25 3e 82 b1 af 3d bf e8 2a 3e
       0.16587396 0.1614937 0.08578779 0.16690348
000320 f6 8a 7c 3b 74 9c db bd 0a a1 46 3e 48 17 89 be
       0.0038534976 -0.107232004 0.19397369 -0.26775575
000330 58 d3 ae 3d 9f 46 a3 3d be 18 0b be 5d 8b ab 3c
       0.08536404 0.07972454 -0.13583657 0.020940477
000340 04 2e 0d bd 11 81 13 3e cd c0 a2 bd 32 1a c1 bd
       -0.034467712 0.14404704 -0.0794693 -0.094288245
000350 b0 26 d8 ba b3 6d fa bd 57 80 d0 3c b9 18 81 3e
       -0.0016491022 -0.12227955 0.025451822 0.25214174
000360 a3 95 4b 3e f7 21 7d 3e f3 5b 0e 3e 2b 5b 5e 3e
       0.198813 0.24719988 0.13902263 0.21714465
000370 86 86 d9 3d 75 31 23 3e 00 64 b5 bc dd eb 91 3d
       0.106213614 0.15936835 -0.02214241 0.071250655
000380 16 1f 2e 3e 47 d6 77 3c 23 ab 5c bd 61 8f 0d 3d
       0.17004046 0.015126771 -0.053874146 0.034560565
000390 ca a1 3f 3d af 78 e9 3d bb 8c 4a 3e 64 11 0e 3e
       0.046785153 0.11399972 0.19780247 0.13873821
0003a0 2e c4 75 bd 4d eb 33 be c1 e3 38 be cb 1a 65 3e
       -0.060001545 -0.17570229 -0.18055631 0.22373502
0003b0 3e 44 7c bd b4 99 84 bd 9c a4 d6 bd 7a 0e e6 3c
       -0.06158852 -0.06474629 -0.104806155 0.028083075
0003c0 ae 23 59 3e fa e5 0f 3d 0d 68 2f be c6 c3 09 be
       0.21205017 0.035131432 -0.17129536 -0.13453588
0003d0 e2 f3 10 bd f5 b2 73 bd f0 ff be bd a1 66 7c bd
       -0.035388835 -0.05949684 -0.0932616 -0.061621312
0003e0 34 12 2c 3d 30 81 ef 3b 72 1b d2 be c7 0a 53 bc
       0.042009547 0.0073091015 -0.41036564 -0.0128809875
0003f0 4e 6a 4b ba 47 6f c6 bd eb 25 20 3e c9 90 b4 bd
       -0.0007759676 -0.09689193 0.15639465 -0.08816678

layers.2.weight f4 [32, 256]
000000 fc e6 b8 3e 53 10 ab 3e 3b 82 08 3f 0b b0 c8 bd
       0.36113727 0.33410892 0.53323716 -0.097992025
000010 54 0e 83 3d 7f 76 90 3e 91 db 8b bc 04 37 b8 3e
       0.06399217 0.28215405 -0.01707247 0.35979474
000020 ec d6 68 3f 6f 14 e1 3e 6d c9 b5 3e 2e ab ff bd
       0.90952945 0.43960902 0.35505238 -0.12483822
000030 a1 a3 3b 3d 3c ce ee 3d 57 a0 31 bf ac 8c 25 bd
       0.045810346 0.1166043 -0.69385284 -0.04041736
000040 95 d2 28 bc a5 89 c7 bc 1f 7d ee 3e f3 11 02 3e
       -0.010304113 -0.024357626 0.46579835 0.1270216
000050 e2 af 3d 3e db e5 17 bf ca e4 4e 3e 2e 44 8b be
       0.18524125 -0.59335107 0.20204464 -0.27200454
000060 42 21 22 bf 17 4e 8f 3d 74 64 a8 be 0a c0 9e 3e
       -0.63332 0.06997316 -0.3288914 0.3100589
000070 fe 9d 1e be 2d 8d 33 3e 26 51 94 be 50 76 f0 bd
       -0.15489957 0.17534323 -0.2896816 -0.11741316
000080 1b 8e d6 bd 71 33 05 3e 99 4f 84 bd 00 98 d4 ba
       -0.10476323 0.13007905 -0.064604945 -0.0016219616
000090 a7 ac 66 3e 23 34 ee 3d fa 5e 42 3f f0 60 43 3e
       0.22526799 0.11631038 0.7592617 0.19079947
0000a0 3d 3e 3d 3e b7 25 0a bf e9 f7 22 be 99 0b 1b bf
       0.18480773 -0.539638 -0.15914883 -0.6056457
0000b0 79 08 0a bf 8e cc b7 3e 41 c5 ef 3e 2e 6a 8c be
       -0.5391918 0.3589825 0.4683018 -0.2742476
0000c0 9f f6 ad be e1 47 6e 3d a5 8c 6f 3e b5 f6 a6 3e
       -0.3397722 0.058174018 0.23393495 0.32610098
0000d0 b1 c6 8a be 2a 3f 07 3e f8 37 97 3d 33 87 a9 3e
       -0.27104715 0.13207689 0.07383722 0.3311096
0000e0 e4 34 c0 3c 4d 5e 8c 3d a7 0a 14 be 0f 66 e6 bd
       0.02346272 0.06853924 -0.14457189 -0.11249935
0000f0 91 89 85 be 30 b6 4a 3e b0 7a ba 3c f9 cf da 3e
       -0.26081517 0.19796062 0.02276358 0.42736796
000100 09 f6 bf bd 1a c3 01 3e b0 73 64 3d d5 2f 9a 3e
       -0.09373099 0.12672082 0.05577439 0.30114618
000110 2f cc 87 3e 6b 97 9e 3e 12 45 5a be 68 64 e0 3c
       0.26522967 0.30974898 -0.2131541 0.027391627
000120 bd 19 0d 3e 02 ff be 3c 71 de ef 3d 21 05 f8 bd
       0.1377935 0.023314957 0.11712349 -0.12110353
000130 bf 2b ab 3e fb 7d a6 be 7d b1 ae 3d e5 9e 44 be
       0.33431813 -0.3251799 0.08529947 -0.19201238
000140 fb e7 09 3f 24 a8 68 bd 00 eb 2e bd 83 61 28 3f
       0.538696 -0.056800976 -0.042704582 0.6577379
000150 5e 91 e5 be 35 70 0b 3f 7b d2 10 3c ff e4 3b bf
       -0.4483747 0.5446809 0.008839245 -0.73396295
000160 9c 28 2e be 71 ba a8 3d 41 e4 c0 3d ba 90 04 bf
       -0.17007679 0.08238686 0.09418536 -0.51783335
000170 0e 59 46 bf dc 18 01 be 3c 74 dd 3d dd 1b a1 3e
       -0.77479637 -0.1260714 0.108131856 0.3146657
000180 44 d4 31 3e 40 2c 65 be e3 b8 d6 3e 4c 9f 91 bd
       0.17366129 -0.22380161 0.41937932 -0.071104616
000190 59 16 b2 3e 27 60 94 be b7 b2 df 3e 58 d5 c4 3c
       0.34782675 -0.28979608 0.43691036 0.024027511
0001a0 a5 8e 30 be 97 09 58 be 4f 34 b9 3e cc 0c 9f 3e
       -0.17241915 -0.21097408 0.3617272 0.3106445
0001b0 cc d8 bd be 32 92 7f bf f9 cb 09 3e fa df b5 be
       -0.37079465 -0.9983245 0.13456716 -0.35522443
0001c0 34 c9 05 bd c4 8f 60 3f 6e 27 29 3d 07 3d 13 be
       -0.032662585 0.8771937 0.04129737 -0.14378749
0001d0 92 c6 23 be 8f f5 10 3d 1a ee 50 3e f2 05 91 3e
       -0.15993717 0.035390433 0.20403329 0.28324848
0001e0 8d 11 3b be c2 11 3d be 19 c5 de be 50 a6 2d be
       -0.18268414 -0.18463805 -0.4350975 -0.16957974
0001f0 ae 67 fb bd 7a a4 04 3e f3 35 18 bd b5 28 45 bf
       -0.12275635 0.12953368 -0.037160825 -0.7701524
000200 d5 c3 ea be 78 15 4b bd 8e 2d be 3e a1 a0 11 3f
       -0.45852533 -0.04958102 0.3714413 0.56885725
000210 0b 52 8b bd 61 54 b9 3c d9 20 3e be 7e e0 3a bd
       -0.06802758 0.022623243 -0.18567218 -0.04562425
000220 4f f0 62 3c e3 8a 1d 3e cf d1 b8 3d 30 cc 5f bb
       0.013851239 0.15385012 0.09024393 -0.0034148805
000230 d9 e3 8a 3d 85 ec d6 be a7 14 ae 3e df 6c e8 3e
       0.0678174 -0.41977325 0.3400013 0.45395562
000240 c2 8f 3c bc 0a ff 19 bf 61 67 37 3e 11 fa b6 3d
       -0.011508884 -0.60154784 0.1791053 0.08934415
000250 db 7d 01 be 1c a7 2f bf 68 9a 75 bd ec d0 16 bf
       -0.12645666 -0.68614364 -0.059961706 -0.5891254
000260 9a f4 4b be 12 81 27 be 6f f1 23 3d 7e 0b 8e bd
       -0.19917527 -0.1635783 0.04002517 -0.06935786
000270 b4 39 2e 3f 9a 8b 6c bf 20 c3 7c 3e 40 2a 30 3e
       0.680568 -0.92400515 0.2468381 0.17203617
000280 03 a3 8a 3e 0f c0 44 3f 92 2c d2 bd 63 b4 25 3f
       0.27077493 0.7685556 -0.10262407 0.64728373
000290 8c 7a 8f 3d 2a 9c e4 3e 53 9e 54 3e 38 45 a6 3e
       0.07005796 0.44650394 0.20763521 0.32474685
0002a0 91 d7 d0 bd ec 42 04 3e 0d de 96 3e 20 13 a7 3d
       -0.10197366 0.12916154 0.29466286 0.08157945
0002b0 a4 5d 32 3c 41 03 68 3e 87 92 95 be 81 25 17 bf
       0.0108865835 0.22657491 -0.29213354 -0.590416
0002c0 49 8e 04 bf c5 17 90 be 34 6e a9 3e a2 ae 03 3f
       -0.5177961 -0.28143135 0.3309189 0.51438344
0002d0 5a 80 0b 3f c1 c4 d5 be cf 1a a3 3d b8 f7 94 be
       0.54492724 -0.41751674 0.07964098 -0.29095244
0002e0 73 22 76 3d 44 eb 95 3b ae dc 29 3d 16 58 83 3e
       0.060091447 0.004575165 0.041470222 0.25653142
0002f0 d4 b6 84 3d 12 36 67 3d 27 b2 10 3e 28 70 cb bd
       0.06480184 0.05644805 0.1413046 -0.099335015
000300 d8 fe 6b be ec 3d 3a 3e ef af 1b 3e a8 61 57 3e
       -0.23046434 0.18187684 0.15203832 0.21033347
000310 b8 3b 80 3e b8 32 f4 3e 6b 64 b6 bd 11 99 62 3e
       0.25045562 0.47694945 -0.08905872 0.22128703
000320 62 dc 47 3f 3e ae c8 be b4 e2 ea bd 2d 93 d3 3d
       0.7807065 -0.39195436 -0.114690214 0.10330806
000330 f0 fd 74 3e 22 48 9b bd 16 59 e3 3e 9b 61 0e 3f
       0.23924994 -0.075821176 0.44403905 0.55617684
000340 c7 b9 99 3e 8c 3b b9 3e b0 fc ed 3e 0c 05 04 3f
       0.3002455 0.36178243 0.46481848 0.515702
000350 ce a7 53 be eb 70 60 3d e2 0c c9 3e cf fb 28 3e
       -0.20669481 0.054795187 0.3926764 0.16502307
000360 9e 04 9d be 30 40 98 3e df fe 02 3e 0d 99 ee be
       -0.30667585 0.2973647 0.12792538 -0.46601143
000370 1d 7c fd 3d 86 a3 39 be 21 94 d4 3e ff 9d 8d 3d
       0.12377188 -0.18128785 0.41519263 0.06914901
000380 34 85 e7 3c da c3 18 3f 72 cb c0 bb 80 e3 7e be
       0.028261758 0.59673846 -0.0058836276 -0.24891472
000390 56 c3 21 bf 46 2b dc 3e 07 b8 ec bd 2f 23 9d 3e
       -0.63188684 0.43001765 -0.11558538 0.30690905
0003a0 c2 be ba 3e 0e 09 b2 be a1 96 c2 3e 8d 75 15 bf
       0.36473662 -0.34772533 0.38005546 -0.58382493
0003b0 cd cd b9 3d cb ae 17 3f fd 94 b7 3e 00 75 75 be
       0.090724565 0.5925109 0.35855857 -0.23970413
0003c0 06 2e 33 3f 22 7b da be 6b 62 08 3f ea c7 95 3d
       0.699921 -0.42672068 0.53275174 0.07313521
0003d0 d9 bd d7 bd 20 5d 12 3d 3a d8 4d 3e c5 d9 05 be
       -0.105342574 0.035733342 0.20102015 -0.13071354
0003e0 c9 74 47 3e 1a 94 c7 bc 93 3f 1c be dc e0 2f bf
       0.19478144 -0.024362613 -0.15258627 -0.68702483
0003f0 e3 2a d4 be 84 0f 9c be aa 3b 0d be 7f 43 3d bf
       -0.4143897 -0.30480587 -0.13792291 -0.73931116

layers.2.bias f4 [32]
000000 b5 aa 3d bb df ed 28 3d 52 bc df bd 01 67 e0 3d
       -0.002894086 0.041242477 -0.10924591 0.109571464
000010 b5 0c 05 3d 02 34 c1 3d c7 c4 17 3e fe 5e eb 3d
       0.03248282 0.09433748 0.14821158 0.11492728
000020 75 7f ac 3d 6c db c2 3d 76 c4 b7 3d a0 d1 bb 3d
       0.08422748 0.09514508 0.08973019 0.09170842
000030 f6 0b 9a 3d b8 8b ac bd 17 f9 25 3e c7 62 ed bd
       0.075218126 -0.08425087 0.16208301 -0.11591106
000040 85 4e 2d 3d 08 4a c5 3d ab 55 86 3d 16 30 f5 3d
       0.04231121 0.09633261 0.065593086 0.11972062
000050 48 74 e5 3c b6 93 39 3e 67 9c 1a 3d 53 74 20 3d
       0.028009549 0.18122754 0.037746813 0.039173435
000060 d0 02 06 be f1 0a 5f 3e 78 f7 d1 3d 8d 52 0a be
       -0.1308701 0.21781518 0.10252279 -0.13508053
000070 f7 8f be 3d f4 5a 01 3e b9 24 a6 bc 3a 1c bb 3d
       0.09304803 0.12632352 -0.020281183 0.09136243

layers.4.weight f4 [1172, 32]
000000 e1 d8 28 bd 6f 57 9a 3c 7f 33 93 3d 74 01 79 3d
       -0.041222457 0.01884052 0.071875565 0.0607924
000010 3c cb 0f bd 0f b6 d9 3e 08 bc e8 bc a8 35 16 bf
       -0.03510593 0.42521712 -0.028409973 -0.5867562
000020 8a 2f 13 be a1 a8 24 bf ad 41 60 bf 57 6d 95 3e
       -0.14373603 -0.6431981 -0.87600213 0.29184982
000030 0d 23 46 bf fd 4a 91 3e 47 29 44 3e 14 c2 f8 3d
       -0.77397233 0.28377524 0.19156371 0.121463925
000040 a9 6d 23 bf c1 4d 0c bf a2 eb 2e be 81 4f 89 3d
       -0.63839203 -0.54806143 -0.17082074 0.06704617
000050 4e 6c 23 3e 3e ea 95 be 68 27 91 3e ac bd df 3d
       0.15959284 -0.29280275 0.28350377 0.10924849
000060 87 6d 59 3e 20 e7 21 bf 03 65 1b bc 4d 81 b7 3e
       0.21233188 -0.63243294 -0.009484532 0.35840836
000070 05 2d 46 be b6 0a 8b be 55 60 ee 3d 28 3e c2 bd
       -0.19353111 -0.2715661 0.116394676 -0.094845116
000080 81 7a 90 3e 96 5e 32 bd d7 6d 43 bf a0 17 33 3e
       0.28218463 -0.043547235 -0.7633948 0.17489481
000090 77 00 5f 3e 1b bc 2f bf 7a 89 3b be 82 cc 6b 3e
       0.21777521 -0.686464 -0.18314162 0.23027232
0000a0 6d 3f 98 3d e1 12 c6 bc 66 93 51 3e 53 a7 ea bd
       0.074339725 -0.024178924 0.20466384 -0.11457696
0000b0 41 09 2b 3d f3 fc e6 be 04 f3 6c 3e 74 15 99 be
       0.041756872 -0.4511486 0.23139578 -0.2989918
0000c0 ad 05 02 3e 5e 2e 06 bf 30 94 99 bd 43 31 1e 3e
       0.12697478 -0.524145 -0.07498968 0.1544848
0000d0 52 72 45 be 6b 24 04 bf 38 91 99 3d 63 69 86 3e
       -0.19281891 -0.5161807 0.074984014 0.2625228
0000e0 a6 a7 4c be 4f e7 3f bf c0 72 71 be e1 a2 e3 be
       -0.19985828 -0.74962324 -0.2357893 -0.44460204
0000f0 24 a7 80 3d 0e b2 75 3e 9f 80 03 bf b8 c7 cd 3a
       0.062818795 0.23993704 -0.51368135 0.001569978
000100 a7 79 50 3e 52 0a ad bc 3e c1 e9 be 0b 6f 0b bf
       0.20358907 -0.021123085 -0.45655245 -0.54466313
000110 3f 86 f5 3d de cc 54 3d 16 a0 cd 3e 1a 67 5e bd
       0.11988496 0.05195319 0.40161198 -0.054297544
000120 40 90 a1 3e 55 b3 a0 3b f4 d1 ac 3c d6 06 85 be
       0.31555367 0.0049041905 0.021096207 -0.25981778
000130 45 a1 a3 3e c7 5d 45 3e 8a d6 bb bb 2b 8c 87 3e
       0.31958976 0.19274054 -0.005732362 0.26474127
000140 4c 34 39 be ba ea 53 bf 1e 9e 47 bf dc 08 6e 3e
       -0.18086356 -0.8278004 -0.7797564 0.23245567
000150 fd f9 81 be b0 92 ed 3d 9e f1 b3 bd e4 76 dc 3e
       -0.25386038 0.11600244 -0.08786319 0.43059456
000160 01 ba a3 3e 1d 1d 5f bf a2 d5 54 be dd 8c 5b bd
       0.31977847 -0.871538 -0.2078462 -0.053601135
000170 a5 c1 97 bf 2f 4e 41 bf 2a ea 3c 3e f7 95 67 bf
       -1.1855971 -0.75509924 0.18448702 -0.90463203
000180 f2 f0 d1 3d 77 ed 11 3d d5 f2 7b bf 79 ab d8 be
       0.10251035 0.035626855 -0.9841741 -0.42318323
000190 61 6f 6e 3e 61 c2 e8 3d 56 a8 50 3d 28 01 f3 3c
       0.23284675 0.113652 0.050941788 0.029663637
0001a0 29 8b f8 3d 9d 83 6e be 9c 09 d9 be 95 95 b6 3e
       0.12135918 -0.23292394 -0.42390144 0.35660997
0001b0 bd 9a 21 be bb 90 c5 be be 4c f6 be 6b f9 95 be
       -0.15781684 -0.38586983 -0.48105425 -0.29291853
0001c0 eb 84 1d 3e 1f b9 bc be f6 9c 64 be 0e 05 1b 3e
       0.15382735 -0.36859986 -0.22325501 0.15138647
0001d0 4a df 9f 3d a0 cb 4c 3e 80 c9 40 3e 7a 3c 3b 3e
       0.07806261 0.19999552 0.18826866 0.18284789
0001e0 5b 86 32 be 04 87 46 bf 23 2f 30 3e bc 92 2e 3c
       -0.17434065 -0.7754977 0.17205481 0.010655101
0001f0 eb 42 01 3f d6 34 b2 3e a7 0f a0 bb 30 7e 37 bf
       0.50492734 0.34805936 -0.0048846784 -0.7167692
000200 ce 83 90 3d fc 47 6e 3e e4 52 98 be 9a 13 a4 3e
       0.0705639 0.23269647 -0.2975074 0.32046205
000210 84 f7 7c 3e 50 9a 8e 3e 6f 52 8e 3e 4e 64 3d be
       0.24703795 0.27852106 0.27797267 -0.18495294
000220 f2 76 75 3e 78 83 14 be e8 c8 d4 be 48 1a 7b 3e
       0.23971155 -0.14503276 -0.4155953 0.24521744
000230 c5 f0 07 bc 34 a6 f3 be 8b 7d b7 be b1 f9 5b be
       -0.00829715 -0.4758774 -0.3583797 -0.21481968
000240 69 b1 47 3b ec 75 f2 3d 19 17 eb bd 88 52 c3 3d
       0.0030470735 0.11838898 -0.11479015 0.09537226
000250 91 76 8c be eb 03 3a bc 91 e0 eb 3d be 7b 94 bd
       -0.2743421 -0.011353473 0.11517442 -0.072501644
000260 2a f2 a1 be 6f 83 94 bf 94 3d 8e 3d 9b ea 72 3e
       -0.3163007 -1.160261 0.06945339 0.23722307
000270 18 e7 36 3e 15 d4 0a 3e c8 ab fc be e0 c9 92 be
       0.17861593 0.13557465 -0.4934981 -0.28669643
000280 ff 6d 83 3e a7 0b 85 be 6d ac 75 bf f9 e1 80 3e
       0.25669858 -0.25985453 -0.95966226 0.25172403
000290 3d 14 7f 3d d4 f6 cc be b4 ea 9f 3e 4f 9c 39 3e
       0.06227516 -0.40032065 0.31233752 0.18126033
0002a0 fe 19 0c 3e f0 32 48 bf 6e f4 42 3d 0d a3 96 be
       0.1368179 -0.78202724 0.047596388 -0.29421273
0002b0 ec 4a 53 3d 4a 89 77 3d df 25 95 3e 88 0f 47 3e
       0.051585123 0.060433663 0.29130456 0.19439518
0002c0 7d fa 35 3e 42 20 9b be 0d e4 9b 3d 9d c7 2f bd
       0.17771335 -0.30298048 0.076118566 -0.042914975
0002d0 70 69 2b 3e 14 59 b0 3d 3b cd 85 3d 2d 63 b7 be
       0.1673944 0.0861074 0.06533285 -0.35817853
0002e0 c2 91 77 bd fb e0 bc 3e 0d 13 a0 3d 63 41 58 3c
       -0.06044174 0.36890396 0.07816134 0.013199183
0002f0 33 41 e0 be 9b 53 95 be 6f 3f 64 be d6 49 6c bf
       -0.43799743 -0.29165348 -0.22289823 -0.92300165
000300 86 98 80 be 0e 95 f0 be 78 e2 8a 3e e8 a1 d7 be
       -0.25116366 -0.4698872 0.27125907 -0.42115712
000310 3f 97 bc be d8 fc 4c bf b0 07 02 3d 5e 42 5a 3e
       -0.36834142 -0.8007331 0.031745613 0.2131438
000320 1d 65 2e be 2e c3 dc be d7 5d 56 be 29 c5 24 be
       -0.17030759 -0.4311766 -0.20934235 -0.16090836
000330 ae 1b 4d 3e d8 72 9a 3e 54 8c e0 be 11 cc c2 3d
       0.2003009 0.30165744 -0.43857062 0.09511579
000340 22 18 cb be d5 47 86 3e ac 59 80 be 0d b9 9e 3e
       -0.3966685 0.26226678 -0.25068414 0.31000558
000350 4d 06 9f be 0b 0a 70 3d e0 0e 93 bd fe 64 e0 3d
       -0.31059495 0.058603328 -0.071805716 0.10956763
000360 89 25 23 3d c0 45 3d 3e 4f e0 f6 be d2 6f 58 3e
       0.03983072 0.18483639 -0.4821801 0.21136406
000370 bc e0 15 bf 29 38 64 3e b2 47 76 bc a8 8f 92 3b
       -0.5854604 0.22287048 -0.015031742 0.0044726916
000380 0c 4b 86 be 77 85 29 be e2 71 9a 3e 8a 67 9c 3e
       -0.2622913 -0.16554819 0.3016501 0.30547744
000390 6d 01 04 3e 80 bb 7b 3e be af 17 be 96 76 ce 3e
       0.12891169 0.24583244 -0.14813134 0.4032485
0003a0 80 26 fc be 58 59 a2 be 7e 29 9f be a0 74 f0 be
       -0.49248123 -0.3170879 -0.31086344 -0.46963978
0003b0 49 e4 bf bd d5 1d 92 be 07 b1 02 be b3 ad 99 3e
       -0.09369714 -0.28538385 -0.12762843 0.30015334
0003c0 8d 77 97 be c2 5b aa be 26 c4 7f be 4b 63 ea be
       -0.29583398 -0.3327313 -0.24977168 -0.4577888
0003d0 81 1f 95 3e 5e 1d 31 be 8f f4 0c be dc 5c 83 be
       0.29125598 -0.17296359 -0.13765167 -0.25656784
0003e0 74 43 39 ba a4 db 5d 3c 35 53 22 be e8 40 8a 3e
       -0.0007067241 0.013541136 -0.15852053 0.27002645
0003f0 65 5b 19 bf e1 88 a9 3e 62 80 01 be eb 2c cb 3d
       -0.5990508 0.33112243 -0.1264663 0.09920677

layers.4.bias f4 [1172]
000000 fb 66 31 be 46 74 d8 3d 76 8b 5a be d7 6a 92 3d
       -0.1732444 0.105690524 -0.21342263 0.07149284
000010 38 3f dd 3c 34 6f 97 bd 88 56 fb bd de 93 40 be
       0.027007684 -0.07394257 -0.12272364 -0.18806407
000020 0b f4 1c 3d 10 48 c1 bd 22 76 55 be 50 0e 40 be
       0.038318675 -0.09437573 -0.20845845 -0.1875546
000030 99 cb 5d be fc 82 8a bd 3e e3 13 bb 98 45 17 be
       -0.21659698 -0.067632645 -0.0022565867 -0.14772642
000040 e2 df c0 be 5f 89 2a be 10 66 00 be 87 b8 be be
       -0.3767081 -0.16653965 -0.12538934 -0.37250158
000050 d7 b4 c0 be 83 3a 6f be 88 13 ee 3d ad 7d b0 bc
       -0.3763797 -0.23362164 0.11624819 -0.021544302
000060 22 86 bc 3d f3 86 3a bc d1 42 e8 bd 7e a8 de bd
       0.09205271 -0.011384713 -0.11340869 -0.10871981
000070 2d ad b6 3d ba 70 6a bd 3e 56 83 bd c7 e7 62 be
       0.089197494 -0.05723641 -0.06412934 -0.22158729
000080 9c 4b 49 be 5c cd c8 bd dc 90 40 be 6f 7c 24 be
       -0.19657749 -0.09804794 -0.1880526 -0.16063093
000090 fa d1 6b 3b 17 bf 34 be 57 fa 35 bc fe aa 9d 3d
       0.003598331 -0.1765102 -0.011107049 0.0769863
0000a0 d7 39 90 be ee 90 7a be c3 18 06 be 9c 2c 08 bd
       -0.28169128 -0.24469349 -0.13095383 -0.033245668
0000b0 2b 84 e5 3b c4 3d ec bc 17 c8 5c be ad 5c 35 bd
       0.007004281 -0.028838046 -0.21560703 -0.044277836
0000c0 6f af 8a be bf ed 98 bb d0 84 08 3e 9d ba 46 3d
       -0.2708697 -0.0046670134 0.13331914 0.048517812
0000d0 44 b5 ff bd 4d 0a ac be a6 74 6c bd f9 86 8b 3e
       -0.124857455 -0.3360161 -0.057728432 0.27251413
0000e0 be 12 33 3e 11 3f 03 3c 55 99 66 be bd 3b bc be
       0.17487618 0.008010642 -0.22519429 -0.36764327
0000f0 02 cf 89 bd 59 7f 84 bd a2 26 a0 3e 99 67 3d bd
       -0.06728937 -0.06469602 0.31279474 -0.046241377
000100 ce 7a 9a 3d 77 6d 36 3d d8 af 81 be 01 35 bd bc
       0.075429544 0.044537988 -0.2532947 -0.023096563
000110 10 a6 64 be 5c af 27 3e 3d 93 f2 bd 18 13 40 be
       -0.22328973 0.16375488 -0.1184449 -0.18757284
000120 dd 61 68 3c 4e 6b 2b bc dd 00 3b be f7 a9 a3 bc
       0.014183489 -0.010462595 -0.18262048 -0.019978506
000130 77 ca ae 3d 6b a4 13 3d 2a 51 31 be 86 dd eb bd
       0.08534711 0.036045473 -0.17316118 -0.115168616
000140 18 59 6e be ec 39 89 be fc a3 75 be c1 42 96 3d
       -0.23276174 -0.26802003 -0.23988336 0.07336951
000150 01 61 53 be ed ec 6c bc 9b c3 62 bd 7c 43 c0 bd
       -0.20642473 -0.014460784 -0.055362325 -0.093878716
000160 0a bc 5f 3e ce d5 a3 bd 20 2a d7 3d 2e af 61 be
       0.21849075 -0.079997644 0.105060816 -0.22039482
000170 15 8a 63 be ee a2 94 be b4 2c 84 bd d5 54 d7 bd
       -0.22220643 -0.29030555 -0.06453839 -0.10514227
000180 6b 41 9e bd 48 b3 91 bd 0e 7c b3 3c 5a ac a5 be
       -0.07727321 -0.07114273 0.02190974 -0.32358056
000190 f7 2e bd bd fd 7c e3 bd b4 06 4d 3c 8e 04 4e 3e
       -0.092374735 -0.11107824 0.012513805 0.20118925
0001a0 c1 a6 c3 3d 41 c3 6b 3d a4 12 97 bc 19 88 4a 3d
       0.0955329 0.057559256 -0.018441506 0.0494462
0001b0 1a d5 8b 3e 53 d0 c1 3b 40 c1 fd bd 06 ca bf bd
       0.2731102 0.0059147268 -0.12390375 -0.09364705
0001c0 85 63 25 bd 67 ef 4f 3e 46 ed c1 bd dd b0 a1 bd
       -0.040378112 0.20306168 -0.094690844 -0.07895062
0001d0 79 09 44 3e 67 b4 d3 3c 97 e8 c3 bc 9d 12 eb bd
       0.19144239 0.025842858 -0.023914618 -0.114781596
0001e0 cc 5c 7c bd 40 f8 f2 bc 36 12 80 be 30 92 83 be
       -0.061611935 -0.02965939 -0.25013894 -0.2569747
0001f0 13 f9 13 3d b1 83 22 be 57 b3 dc bd 13 7b 27 be
       0.036126208 -0.15870549 -0.10776394 -0.16355543
000200 ac a5 a7 3d 93 d9 92 bd 03 f1 4e be b1 4c 84 bc
       0.08185896 -0.07170405 -0.20209126 -0.01614985
000210 e8 7b 4f be d9 6a e4 3d 16 ad 34 3c 72 4b 77 be
       -0.2026211 0.11153192 0.011027595 -0.24149874
000220 c2 21 f9 3d 8c 2c 66 bc 1a f9 62 3e aa 98 d1 be
       0.12164642 -0.014048707 0.22165337 -0.40936786
000230 96 6d 4d be 9e f1 19 be 0f 69 ef bd 31 f7 9f bd
       -0.20061335 -0.15033576 -0.1168996 -0.0781082
000240 e6 56 95 3e 42 8c e7 bd dc 8b e4 bd d3 5b c4 bd
       0.2916786 -0.11306049 -0.111594886 -0.095878266
000250 94 6e 06 be 32 c9 fc 3c c6 c0 db bc ce 05 1a be
       -0.1312812 0.030857656 -0.02682532 -0.15041277
000260 00 62 8b 3d d7 b7 c0 bc f6 fd 12 bd 59 d8 16 3e
       0.068058014 -0.023525162 -0.035886727 0.14730968
000270 a7 4c 82 bd 63 5d 70 3d 94 bd a1 be ee 85 00 bd
       -0.063622765 0.05868281 -0.3158995 -0.031377725
000280 c4 f6 e9 bd f9 ec 8f 3d a5 81 1d be fc 03 5c bc
       -0.1142402 0.07027621 -0.15381487 -0.013428684
000290 c2 1b 60 3b e8 97 0b be b4 b5 63 3c be ef 94 bd
       0.0034196232 -0.13632166 0.013898302 -0.0727229
0002a0 15 11 a5 bc 72 9e 64 be ef 58 1e be 7a a0 8d be
       -0.020149747 -0.22326067 -0.15463613 -0.27661496
0002b0 92 1c ac be cd 9a 23 be 68 04 09 bd 23 32 cf 3c
       -0.33615547 -0.1597702 -0.033451468 0.025292462
0002c0 62 bd ac bc 10 9b 9a 3c 32 be 84 3d 65 ee c7 3d
       -0.021086399 0.018872768 0.064815894 0.09762267
0002d0 64 1b ba 3e 62 a8 e0 3d 17 12 81 be fa 54 00 be
       0.36349022 0.109696165 -0.25209114 -0.12532416
0002e0 5e 4b 22 3e 0e a1 12 be 4c 84 60 be 73 8d 44 be
       0.15849063 -0.1431925 -0.21925467 -0.19194584
0002f0 1f d2 3c 3d 21 d5 43 be 5d fc 89 be a1 b8 24 3d
       0.046098825 -0.19124271 -0.2695035 0.04021514
000300 63 ce 8a bc 39 b4 00 bd 1a f6 d1 3c 63 1f 91 bd
       -0.016944116 -0.031421874 0.025630046 -0.07086065
000310 f6 70 c1 3c 6d ee 92 bd 56 b6 00 bc 5a dc 86 be
       0.023613434 -0.07174382 -0.007855972 -0.2633999
000320 29 65 43 3d 7b 2f 97 be 3a e5 68 be 7b 20 7c be
       0.047703896 -0.29528412 -0.22743693 -0.24621765
000330 2b 3d 08 3d fa 75 8a bd 29 b3 cb bd 09 58 54 be
       0.03326146 -0.067607835 -0.099462815 -0.20736708
000340 f1 bd 91 3e 3b 37 67 be c6 ca 0f be f5 b9 a7 be
       0.28465226 -0.22579663 -0.14042196 -0.3275906
000350 3b b1 af be 00 04 8a 3d 94 2e d2 bd 0d 19 a0 bd
       -0.34314904 0.06739044 -0.1026279 -0.07817278
000360 19 ed 4c be 3f a6 7a be cc 40 29 be 7c 46 c0 be
       -0.2001232 -0.2447748 -0.16528624 -0.37553775
000370 3b a9 2b be 1b 86 04 be ec 1f bc 3c 1c ad 6d bc
       -0.16763775 -0.12941782 0.02296444 -0.0145066045
000380 ef a0 18 be 79 fb ab bd 6c 99 96 be ba dd 32 3d
       -0.14905141 -0.08397574 -0.29413927 0.043668486
000390 40 fe ae 3d 68 b6 15 be 04 eb dd 3b 5a 61 1f bc
       0.08544588 -0.14620364 0.006772401 -0.0097278
0003a0 17 99 13 bd 1d 9a c3 3b e9 89 e5 3c 4c 9a 4d bd
       -0.03603467 0.0059692995 0.028019862 -0.050195977
0003b0 b7 0c 65 3c b0 d8 ca bd 7a ef bd 3d a9 fa 25 bd
       0.013980082 -0.09904611 0.09274192 -0.04052225
0003c0 cc 70 44 be 5a e5 ca be 09 9e 2a be f2 59 61 be
       -0.19183654 -0.39628106 -0.16661848 -0.22006968
0003d0 59 8e 9b bd e7 ae 08 3f 20 bf 50 3e 91 54 82 bd
       -0.0759551 0.5339188 0.20385408 -0.06363786
0003e0 4d 73 1c be 18 0a 7f bc 37 1a 93 be a3 21 92 bd
       -0.15278359 -0.015566371 -0.28730938 -0.07135322
0003f0 27 ab 32 bd 4f de 26 be 33 16 88 be b0 19 ab bd
       -0.043620255 -0.16295741 -0.26579437 -0.08354509
