Models/LSTM_Start-ups_8_32.pth (torch, 604040 bytes, 7 tensors)

embeddings.0.weight f4 [1172, 32]
0	0x40084b36	2.1295905
1	0x401254e3	2.286431
2	0x3f6cc215	0.92483646
3	0xbfe0097e	-1.7502897
4	0x3f01ec34	0.5075104
5	0xbf8668c8	-1.0500727
6	0x3f06ea67	0.5270142
7	0xbfdb33d9	-1.7125198
8	0xbf4d88d9	-0.8028694
9	0x401c1a15	2.439092
10	0xbf028d4c	-0.5099685
11	0xbf285271	-0.65750796
12	0xbeb1555d	-0.3463544
13	0xbe0c2edf	-0.13689755
14	0xbf9349c6	-1.1506889
15	0x3f8d59b0	1.1042995
16	0x3f92f3f4	1.1480699
17	0xbeac7096	-0.33679646
18	0xbe5145ec	-0.2043683
19	0x3f8888e0	1.0666771
20	0xbf1951fc	-0.59890723
21	0x3f12e0e9	0.57374436
22	0x3e9dde64	0.30833733
23	0x4016ca24	2.3560877
24	0x3fed678d	1.8547226
25	0x3fd6b6dc	1.6774554
26	0x3dccd4f8	0.10001558
27	0x3fbaf6ef	1.4606608
28	0x3e3d2ab0	0.18473315
29	0x3f295af9	0.6615444
30	0xbea5c2b7	-0.32375118
31	0x3f9dd192	1.2329581
32	0xbfc12437	-1.5089177
33	0xbf90ce7c	-1.1313014
34	0xbec393eb	-0.3819879
35	0x4008e22b	2.1388042
36	0x3e9697dc	0.29412735
37	0xbf319937	-0.6937441
38	0x3e309b2a	0.1724669
39	0xbf3257de	-0.69665325
40	0xbfd62c2e	-1.6732233
41	0x3f988ddd	1.1918293
42	0xbf9acf3c	-1.2094493
43	0xbf4756c7	-0.77866787
44	0xbfb42c10	-1.4075947
45	0x400e3402	2.2219243
46	0xbfa7c901	-1.3108217
47	0xbf5d8c90	-0.86542606
48	0xbf81a074	-1.0127091
49	0xbf361ad5	-0.7113469
50	0xbbe58b36	-0.0070051206
51	0x3f3357c4	0.70055795
52	0xbf29deb9	-0.6635547
53	0x3fc070e2	1.5034449
54	0xbf8aba5c	-1.0838122
55	0xbf8211ca	-1.0161679
56	0xbfdb2c78	-1.7122946
57	0xbc9a9647	-0.018870486
58	0xbd94533e	-0.0724244
59	0x3f556e03	0.8337099
60	0xbdafa7c8	-0.085769236
61	0x400d3a06	2.2066665
62	0xbfac548e	-1.3463304
63	0x3fd09ab8	1.6297216
64	0x3fad7320	1.3550758
65	0x3fabf405	1.3433844
66	0x402d7d7e	2.7107844
67	0x3f52bb86	0.8231739
68	0x3f385b76	0.7201456
69	0xbd4e26eb	-0.050330084
70	0xbfa426d8	-1.2824354
71	0x3f9d7ce1	1.2303735
72	0xbe6c5acd	-0.23081513
73	0x3f2e82f5	0.68168575
74	0x3bd9c444	0.006645711
75	0xbad638c4	-0.0016343822
76	0x3ea3c99f	0.31989762
77	0xbefc3408	-0.49258447
78	0xc01711f6	-2.3604712
79	0xbf93809f	-1.1523627
80	0x3ecfb509	0.40567806
81	0xbf312fd5	-0.6921361
82	0xbfac90c5	-1.348168
83	0xbf71475a	-0.942495
84	0x3f55939e	0.8342837
85	0x3e6393c6	0.2222434
86	0x3f41982e	0.7562283
87	0x3e0f45e4	0.13991505
88	0x3f04545c	0.5169122
89	0xbf2c3623	-0.67270106
90	0xbf5b12ed	-0.85575753
91	0x3ee35a33	0.44404754
92	0xc00b010f	-2.1719396
93	0xbee3b146	-0.44471186
94	0x3f707eaf	0.93943304
95	0x3f537480	0.8259964
96	0xc032d6b6	-2.794355
97	0x3f109747	0.5648083
98	0x3f4ec21b	0.8076493
99	0x3d9be899	0.07612724
100	0x3f77ad71	0.96749026
101	0x3f97d44f	1.1861666
102	0x3fb568e9	1.4172641
103	0xbee17a88	-0.44038796
104	0x3daa296a	0.0830868
105	0x3f8872f8	1.0660086
106	0x3ea4e7af	0.3220801
107	0x3f1cc088	0.6123128
108	0x3e5d5a9a	0.21616593
109	0x3fa3d77b	1.2800134
110	0xbe43ecd4	-0.19133312
111	0xbed9dfea	-0.42553645
112	0xbfd98396	-1.6993282
113	0x3de4aabc	0.111653775
114	0xbf1dfaf2	-0.6171104
115	0x3f42b0e2	0.7605115
116	0x3f647d40	0.89253616
117	0xbd9bf8e9	-0.07615835
118	0xbf27e67e	-0.6558608
119	0x3f67cd07	0.9054722
120	0xbed9dbca	-0.42550498
121	0xbd922c91	-0.071374066
122	0x3e0ef2fd	0.1395988
123	0x3fa0f30e	1.2574174
124	0x3fb9fd16	1.4530361
125	0x3f4c9c1d	0.7992571
126	0x3f142520	0.5786915
127	0x3f7bb792	0.9832698
128	0x3ff902c7	1.9453973
129	0x3fa40c1e	1.2816198
130	0xbfccf6e9	-1.6012851
131	0xbf8a4b76	-1.0804279
132	0xbe8ed4dc	-0.27896774
133	0x3ff02135	1.8760134
134	0x3f5dc20f	0.86624235
135	0x3f15c2a7	0.5850014
136	0x3fa4e415	1.2882105
137	0xbe81113c	-0.2520846
138	0xc0046eff	-2.0692747
139	0x3f9c92ee	1.2232339
140	0xbea3a9c7	-0.31965467
141	0x3f8f36f2	1.1188643
142	0xbf2e183d	-0.68005735
143	0x3f3f46be	0.7471732
144	0xbf91b8c1	-1.1384507
145	0x3f877f07	1.0585641
146	0x3ff0c3fa	1.8809807
147	0x3ff1a9b4	1.8879914
148	0x3ed5721c	0.4168862
149	0xbf064d08	-0.5246129
150	0xbf556a3f	-0.83365244
151	0x3eb56dcc	0.3543533
152	0x3e132700	0.14370346
153	0x3f76c0c3	0.9638788
154	0xbf048c66	-0.5177673
155	0x3fe8c1af	1.8184108
156	0xc02b2904	-2.6743784
157	0xbee3dfa5	-0.44506565
158	0xbfc0249d	-1.5011173
159	0x3fa9d4c1	1.3268052
160	0xbfe9f04b	-1.8276457
161	0x3f2a7dce	0.6659821
162	0xbe728ce4	-0.23686558
163	0xbee878d0	-0.45404673
164	0x3e99f5a1	0.30070212
165	0xbf4255f9	-0.75912434
166	0xbe8f9b7d	-0.28048316
167	0xbfdedd7f	-1.7411345
168	0xbfccf6d6	-1.6012828
169	0x3f7e08bf	0.99232095
170	0x3faf7f24	1.3710675
171	0xbdb02709	-0.08601195
172	0xbfef5876	-1.8698871
173	0x3f46100b	0.7736823
174	0x3fa50724	1.2892804
175	0x3feee119	1.8662444
176	0x3f2a8bcb	0.6661956
177	0x3e4bf6bd	0.19918342
178	0xbef097f5	-0.46990934
179	0x3d8bf8a0	0.06834531
180	0xbecddd30	-0.40207815
181	0xbf914c70	-1.1351452
182	0xbfa7b03d	-1.3100659
183	0xbeb003cf	-0.34377906
184	0xbec120d1	-0.3772035
185	0xbfe1cd12	-1.7640707
186	0xbfdf7fbd	-1.7460858
187	0xbe35803c	-0.17724699
188	0x3fdacd3b	1.7093881
189	0xbf92e27f	-1.1475371
190	0x3f1dd16d	0.61647683
191	0x3e288a0e	0.16458914
192	0x3fddcfbc	1.732902
193	0xbfbfa2e3	-1.4971584
194	0x3f8ffe3a	1.1249459
195	0xbeaa6230	-0.33278036
196	0xbf22c6c2	-0.6358453
197	0xbec5de20	-0.3864603
198	0x3f50e8bf	0.8160514
199	0x3f6ee9af	0.9332532
200	0x3f1bd0f4	0.6086571
201	0x3ff55fb6	1.9169834
202	0xbe865ab5	-0.2624108
203	0xbf254f56	-0.6457418
204	0xbe8ae4ec	-0.2712778
205	0x3f315f7a	0.6928631
206	0x3fdd6244	1.7295613
207	0x3ecf2876	0.40460557
208	0xbefece5e	-0.4976682
209	0xbf00d3b7	-0.5032305
210	0xbf5918e8	-0.8480363
211	0xbdd0b3b1	-0.101905234
212	0x3e5a1e12	0.21300533
213	0x3f181477	0.59406227
214	0xbef29ce1	-0.47385314
215	0xc02995e7	-2.6497743
216	0xbf2e3b90	-0.68059635
217	0x3f6c6e32	0.92355645
218	0xbfff15f7	-1.9928578
219	0x3fe45026	1.7836959
220	0x3f360c8d	0.711129
221	0xbeae0d43	-0.33994493
222	0x3fb4338e	1.4078233
223	0x3fc105e5	1.5079924
224	0xbef09d19	-0.46994856
225	0x3fb792f9	1.4341727
226	0x3eb0a0e0	0.34497738
227	0xbf93e97b	-1.1555628
228	0xbe04aab7	-0.12955748
229	0xbef7410c	-0.48291814
230	0xbe475ea5	-0.19469698
231	0x3fee49be	1.8616254
232	0x3e37fb7e	0.1796703
233	0xbf357aa1	-0.7089024
234	0xbfb991a3	-1.449757
235	0xbf9dda1f	-1.233219
236	0xbe0b6972	-0.13614443
237	0xbee4c9ad	-0.44685116
238	0x3ee7f7c7	0.45306227
239	0xbe1046ed	-0.14089556
240	0xbf69ed30	-0.91377544
241	0xbec1abf6	-0.37826508
242	0xbf49c8f0	-0.7882223
243	0x3dcf22a0	0.10114026
244	0xbf018211	-0.5058909
245	0x3e6582da	0.22413197
246	0xbf594634	-0.84872746
247	0x3fc1ac14	1.5130639
248	0x3fbb7f3e	1.4648206
249	0xbe69c3f0	-0.2282865
250	0x3f59007d	0.8476637
251	0x3ec60eee	0.38683265
252	0x3f1e5492	0.61847794
253	0x3eb504e0	0.35355282
254	0x3f957278	1.1675558
255	0xbe080816	-0.13284335

layers.0.weight f4 [256, 256]
0	0x3e2a036b	0.16602866
1	0x3eae0b57	0.33993027
2	0xbd251751	-0.04030544
3	0x3c44eb8f	0.012019052
4	0x3e00d563	0.125814
5	0x3c52f88c	0.012876641
6	0x3eb85c06	0.36007708
7	0x3ebf4b32	0.37362057
8	0xbd4ec321	-0.05047906
9	0x3e82c825	0.25543323
10	0xbd98c6e2	-0.07459809
11	0x3d32d8b4	0.043663695
12	0x3ea1f06a	0.31628734
13	0xbe73e298	-0.23816907
14	0xbe44915e	-0.19196078
15	0x3e7cca71	0.246866
16	0x3e0e663a	0.13906184
17	0x3e4940d6	0.19653639
18	0x3dd5dec7	0.10442882
19	0xbe78cbde	-0.24296519
20	0x3e8912c9	0.26772144
21	0xbecef3a4	-0.40420258
22	0xbe6ff97a	-0.23435012
23	0x3d93ba3c	0.07213256
24	0xbea58d75	-0.32334486
25	0xbe4cb6a5	-0.19991548
26	0x3eab519b	0.33460698
27	0xbccd6452	-0.02507225
28	0xbef23640	-0.47307014
29	0xbd576cde	-0.05259406
30	0x3df904d0	0.12159121
31	0x3bb4d36a	0.0055183666
32	0x3dced82a	0.10099824
33	0xbf0c582e	-0.5482205
34	0x3e040be4	0.12895161
35	0x3d1ec918	0.038765997
36	0xbdbff105	-0.09372143
37	0x3e5c5f0b	0.21520631
38	0xbe739532	-0.23787382
39	0x3e9facf6	0.31186646
40	0xbe53ae6a	-0.20672002
41	0x3e6a86b2	0.22902945
42	0xbeb2727f	-0.3485298
43	0x3e9c1d77	0.3049123
44	0x3d3a1794	0.045432642
45	0x3d3c2cd8	0.045941204
46	0x3d02318c	0.031785533
47	0xbe06e86d	-0.13174601
48	0x3e04e811	0.12979151
49	0x3e75780b	0.23971574
50	0xbc3516e4	-0.011052821
51	0x3e3254b5	0.17415126
52	0x3e847cc1	0.2587643
53	0x3e5f1d2b	0.2178847
54	0x3ead8b1d	0.33895198
55	0x3d2fc547	0.042912748
56	0x3e903e9e	0.28172773
57	0x3e0b8198	0.13623655
58	0xbd036d5a	-0.032086708
59	0x3d7f0878	0.062263936
60	0x3e55a7bd	0.20864768
61	0xbea5d5cc	-0.32389677
62	0x3ce42b09	0.027852552
63	0xbe166be6	-0.14689597
64	0xbd9f8b7f	-0.07790279
65	0x3e645438	0.22297752
66	0xbeabefd9	-0.33581427
67	0x3d746aa6	0.05967202
68	0xbce93587	-0.028467907
69	0x3e951293	0.29115734
70	0xbe8f0f1b	-0.27941212
71	0xbe7633c0	-0.24043179
72	0x3e2e50dd	0.17023034
73	0x3d064cb8	0.03278801
74	0x3e5a1afe	0.21299359
75	0x3e631133	0.2217453
76	0xbe649776	-0.22323403
77	0xbc66eb0c	-0.0140941255
78	0x3e4cf437	0.20015036
79	0x3e8cac41	0.2747517
80	0xbd6df529	-0.05809513
81	0xbe97d595	-0.29655138
82	0x3e783fb6	0.24243054
83	0x3e88c98a	0.26716262
84	0xbdc38eac	-0.09548697
85	0xbd67e642	-0.056616075
86	0x3e495546	0.19661435
87	0x3d1f524b	0.03889684
88	0xbdd55ff5	-0.10418693
89	0x3e48ef16	0.19622454
90	0x3c8199e0	0.015820444
91	0xba9c4638	-0.0011922782
92	0x3e8399a8	0.25703168
93	0x3e5b51dc	0.21417946
94	0xbea70dad	-0.3262762
95	0xbd60085b	-0.05469547
96	0xbe6f502c	-0.23370427
97	0xbdf99e94	-0.121884495
98	0x3e60ccb7	0.21953093
99	0x3d46b104	0.04850866
100	0xbe7a5646	-0.24446973
101	0x3df5e6fe	0.12006949
102	0xbecc3310	-0.39882708
103	0x3d8a46bc	0.06751773
104	0x3e3a1bd0	0.18174672
105	0x3d7daa39	0.061929915
106	0xbdc43672	-0.09580697
107	0x3ed4692c	0.4148649
108	0x3e43c8fa	0.19119635
109	0x3bdb6175	0.0066949674
110	0xbde9ab37	-0.1140961
111	0x3e7a19a3	0.24423842
112	0x3e276c98	0.16350019
113	0x3e591b51	0.21201827
114	0x3d1be9b8	0.03806469
115	0x3de1dcf1	0.11028469
116	0x3dbcb32d	0.092138626
117	0xbee81e06	-0.45335406
118	0xbe5b12bc	-0.21393865
119	0x3eebc4ea	0.4604867
120	0xbe5b292f	-0.21402429
121	0xbc6eecfb	-0.014582868
122	0x3e54854a	0.2075397
123	0xbe0fe3b8	-0.14051712
124	0xbd6bed28	-0.057599217
125	0x3e869a05	0.26289383
126	0xbce74ef2	-0.028235886
127	0x3dcf15d6	0.10111587
128	0xbec6abf1	-0.38803056
129	0x3e5e1a1c	0.21689647
130	0xbdece1da	-0.11566515
131	0xbed72f73	-0.42028388
132	0xbde3af4d	-0.1111742
133	0xbc464086	-0.0121003445
134	0x3dbcaf55	0.092131294
135	0x3d4a925a	0.049455978
136	0xbeb0df62	-0.34545428
137	0xbba16cf9	-0.0049263206
138	0x3ddb07d1	0.1069485
139	0x3d3289b2	0.043588348
140	0x3e37097a	0.17874709
141	0x3e257644	0.16158396
142	0x3d239770	0.039939344
143	0x3f0ab644	0.54184365
144	0x3e947637	0.2899644
145	0x3cbd82da	0.023133684
146	0x3eaacb10	0.3335805
147	0xbeff8112	-0.4990316
148	0x3e3c611d	0.18396421
149	0xbd8fe107	-0.070253424
150	0x3dab226e	0.08356176
151	0x3e54420e	0.20728323
152	0x3d3a0972	0.045419164
153	0xbdda48df	-0.1065843
154	0x3e18fa8a	0.14939323
155	0x3ee31afe	0.4435653
156	0xbd349526	-0.04408755
157	0xbe94911c	-0.2901696
158	0x3d8c8b15	0.06862465
159	0xbdbe0be0	-0.09279609
160	0xbdef3fda	-0.116821006
161	0x3ddd2aee	0.10799204
162	0x3e4520f2	0.19250849
163	0x3e60e1ad	0.21961088
164	0xbecd56fa	-0.4010542
165	0xbdef866c	-0.11695561
166	0x3f27c712	0.6553813
167	0xbbdd7012	-0.0067577446
168	0x3d593059	0.053024624
169	0xbe7fa9c9	-0.24967112
170	0x3e11199f	0.1416993
171	0xbe648e8a	-0.2232
172	0xbe349a9b	-0.17637102
173	0x3e30a2e2	0.17249635
174	0x3e0cf2fe	0.13764569
175	0xbe0f7330	-0.14008784
176	0xbe08d2a9	-0.1336161
177	0x3e41b016	0.18914828
178	0x3e1fb93a	0.15598002
179	0x3c0bf225	0.0085416185
180	0x3d249087	0.040176895
181	0xbdf8adc3	-0.121425174
182	0x3e919e63	0.28441152
183	0x3eac33ba	0.33633214
184	0xbdf9b644	-0.121929675
185	0xbe2bbe91	-0.16771914
186	0xbd046210	-0.032320082
187	0x3e15f26c	0.14643258
188	0x3ea3d2fd	0.3199691
189	0xbd4a3838	-0.04937002
190	0x3eb0d495	0.34537187
191	0x3c89c2ff	0.016816614
192	0x3dd28e0e	0.10281001
193	0x3ed23639	0.41056994
194	0xbe316169	-0.17322315
195	0x3e773dc0	0.2414465
196	0x3e728f94	0.23687583
197	0xbc5cc609	-0.01347495
198	0x3e97323b	0.2953051
199	0xbe6ffa24	-0.23435265
200	0xbea4847c	-0.32132328
201	0x3e0c6ecc	0.1371414
202	0xbed2c6dc	-0.41167343
203	0xbe611771	-0.21981598
204	0xbecfb025	-0.40564075
205	0x3cf445c8	0.02981843
206	0xbc5d21ef	-0.01349686
207	0xbe5bbd56	-0.21458945
208	0xbe120d05	-0.14262779
209	0x3d49ac43	0.049236547
210	0x3e9d18b7	0.30682918
211	0xbec1b403	-0.3783265
212	0x3ea5656a	0.32303935
213	0x3e4307eb	0.19045989
214	0x3efd601e	0.49487394
215	0x3ea32f57	0.31872055
216	0x3c4e6baa	0.012598911
217	0x3e5f787d	0.21823306
218	0xbe4f9bb9	-0.20274247
219	0x3d84808e	0.06469832
220	0xbe2a8f51	-0.16656233
221	0x3e2f2cb1	0.17106892
222	0xbf1e756b	-0.61897916
223	0x3f1d2377	0.6138224
224	0xbdbc5eed	-0.09197793
225	0xbdcb0d0b	-0.09914597
226	0x3e7dec21	0.24797107
227	0x3e6c7600	0.23091888
228	0xbea88c4a	-0.32919532
229	0x3e12a86a	0.14322057
230	0xbe7072ee	-0.23481342
231	0xbe6b873f	-0.23000811
232	0xbe8cc612	-0.27494866
233	0xbdaaf424	-0.083473474
234	0x3dc43433	0.09580269
235	0xbdefe78e	-0.117140874
236	0x3e71fd5f	0.2363181
237	0x3d513b6e	0.051082067
238	0xbcdb3c4b	-0.026762148
239	0xbd3ef9eb	-0.04662506
240	0xbc6c6442	-0.0144282
241	0xbe75525e	-0.23957202
242	0x3e2b75a8	0.16744101
243	0xbe9d8ff3	-0.30773887
244	0xbe0d8d44	-0.1382342
245	0x3c9a5774	0.018840529
246	0xbe15ca50	-0.14627957
247	0x3d0366ab	0.032080334
248	0x3eb86b44	0.36019337
249	0x3e3786a5	0.17922457
250	0xbdd516a2	-0.104047075
251	0x3cf16a22	0.029469553
252	0xbedb315d	-0.428111
253	0xbef6dac6	-0.48213786
254	0x3c62e404	0.0138483085
255	0x3e1134b7	0.14180265

layers.0.bias f4 [256]
0	0x3d0b02e5	0.033938307
1	0x3dc5e38b	0.09662541
2	0x3d82f51c	0.06394407
3	0x3e033081	0.12811472
4	0x3d9c2427	0.07624083
5	0xbcb53624	-0.022120543
6	0x3cf24aea	0.029576737
7	0xbe0df525	-0.13863046
8	0x3e019c55	0.12657292
9	0xb9f17427	-0.00046053642
10	0x3d079ac2	0.033106573
11	0x3dee87b6	0.116469786
12	0x3d1f824d	0.038942624
13	0xbd3708b1	-0.044686023
14	0x3db76e31	0.08956564
15	0xbd84c629	-0.064831086
16	0x3cfa512e	0.030556288
17	0xbc38f74d	-0.01128943
18	0x3d5c387d	0.05376481
19	0x3cf16428	0.029466704
20	0x3c8d8bec	0.017278634
21	0x3db1978a	0.08671482
22	0x3d37ed7e	0.044904225
23	0x3d8d79b9	0.069079824
24	0xbdbcfe0d	-0.09228144
25	0x3be7d06c	0.0070744064
26	0x3d4a742f	0.049427208
27	0xbb2e478b	-0.0026592936
28	0x3dd8bba2	0.10582663
29	0x3d10bb6d	0.035334993
30	0x3dc87834	0.09788552
31	0x3e3d4bb8	0.18485916
32	0x3d70ac21	0.058757905
33	0x3df48cda	0.11940928
34	0xbd188657	-0.03723749
35	0xbdf01bdc	-0.11724064
36	0x3c966ff9	0.01836394
37	0xbbdd9d89	-0.0067631644
38	0x3d490bf8	0.04908368
39	0x3d486623	0.04892553
40	0x3e18f599	0.14937438
41	0xbc2cb034	-0.010540057
42	0xbe2cf4ca	-0.16890255
43	0x3d6bf505	0.057606716
44	0x3ce5cba3	0.028051203
45	0x3e19bf0f	0.1501429
46	0xbdbc5b19	-0.09197063
47	0x3bbb4e04	0.0057160873
48	0x3e49d20b	0.19709031
49	0x3da77155	0.08175913
50	0x3e22a3f6	0.15882859
51	0x3d82e72c	0.06391749
52	0xbd236133	-0.03988762
53	0x3d477684	0.04869701
54	0x3db7c332	0.089727774
55	0x3e165d9a	0.14684144
56	0x3db4ca0f	0.08827602
57	0x3db830fc	0.08993718
58	0x3e020f98	0.12701261
59	0xbbb51bfc	-0.0055270176
60	0x3d5a2ef9	0.053267453
61	0x3cc5cf9d	0.02414685
62	0x3d91188d	0.07084761
63	0xbd4735cd	-0.048635293
64	0x3b908dde	0.004411443
65	0xbd26f143	-0.04075743
66	0xbdfe33a4	-0.124121934
67	0x3c71bb43	0.014754119
68	0x3de7c160	0.1131618
69	0x3da12074	0.07867518
70	0x3e035c83	0.12828259
71	0x3db9d7d8	0.09074372
72	0x3da44b6f	0.080222
73	0x3d45008e	0.048096232
74	0x3bc7fc58	0.0061030798
75	0x3b0db580	0.0021623075
76	0x3df314c1	0.11869193
77	0x3d068910	0.032845557
78	0xbe384260	-0.1799407
79	0x3d00100e	0.03126531
80	0xbe262b89	-0.16227545
81	0x3c3fe5cc	0.011712503
82	0xbe38636b	-0.18006675
83	0x3d93bec9	0.07214124
84	0x3d810e0b	0.063015066
85	0xbe137eee	-0.14403889
86	0x3d9793c3	0.0740123
87	0xbe3fdbb6	-0.18736157
88	0x3d0228f2	0.03177733
89	0xbdfa07fd	-0.12208555
90	0x3db73b78	0.0894689
91	0x3e452894	0.1925376
92	0x3de95963	0.11394002
93	0x3deef586	0.11667924
94	0x3d8cc498	0.06873435
95	0xbd63dd94	-0.055631235
96	0xbd41b801	-0.04729462
97	0x3d9ef229	0.07761032
98	0xbd88e6b8	-0.06684631
99	0x3d926a1a	0.071491435
100	0xbd95b910	-0.073106885
101	0x3dbe373a	0.092878774
102	0x3e1394cf	0.14412235
103	0xbbd9c458	-0.0066457205
104	0x3dcbde7e	0.099545464
105	0x3d82bd8d	0.0638381
106	0x3da22c17	0.07918566
107	0xbd81b7d5	-0.06333891
108	0x3dfe6918	0.12422389
109	0x3e354db7	0.17705427
110	0x3b9a86be	0.0047157696
111	0xbd243cfa	-0.040097214
112	0x3caba304	0.020951755
113	0xbceca384	-0.028886564
114	0x3cd21643	0.02564538
115	0x3d8749aa	0.06605847
116	0x3d90e477	0.07074826
117	0xbda09459	-0.07840795
118	0xbb56be3c	-0.0032767197
119	0xbd0d3fae	-0.034484558
120	0x3b7f51ee	0.0038958746
121	0x3c4e71f7	0.0126004135
122	0xbd1c9d8a	-0.03823618
123	0x3d4e8dd8	0.05042824
124	0xbdcc16da	-0.09965296
125	0xbde1e2b9	-0.11029572
126	0xbc88d507	-0.016703142
127	0x3e100ec0	0.14068127
128	0x3db961cc	0.090518564
129	0x3d9f33c8	0.07773548
130	0x3d38a95b	0.045083385
131	0x3e00a139	0.12561502
132	0x3d32d27f	0.043657776
133	0x3bc528a2	0.0060168067
134	0xba247b8a	-0.0006274512
135	0x3dd21948	0.10258728
136	0xbe061c20	-0.13096666
137	0xbe06fb17	-0.1318172
138	0x3da0184d	0.07817135
139	0x3dc73b7c	0.097281426
140	0xbde220ed	-0.11041436
141	0xbc6f4732	-0.014604377
142	0x3c9b2cce	0.018942263
143	0x3e395d99	0.18102111
144	0x3cf93ff7	0.030426009
145	0x3d182748	0.037146837
146	0x3da6c195	0.081423916
147	0x3e0fdd89	0.14049353
148	0xbdfa0ce9	-0.12209494
149	0x3dd343af	0.10315644
150	0x3df3e12c	0.119081825
151	0xbd515fb9	-0.05111668
152	0x3d05b1f0	0.032640398
153	0x3db8dfab	0.09027036
154	0x3d150ad9	0.0363873
155	0x3dee07e9	0.116226025
156	0xbdb6ec32	-0.089317694
157	0x3df3ab08	0.11897856
158	0xbc093a99	-0.008375787
159	0x3dcac328	0.09900504
160	0x3d20c155	0.039246876
161	0x3d5f30e4	0.054489985
162	0x3d37b5db	0.044851165
163	0xbd8eecc1	-0.06978751
164	0x3d16fffb	0.036865216
165	0x3d6fd1a1	0.058549527
166	0x3dca940b	0.09891518
167	0x3b625df8	0.0034540873
168	0xbdda3d29	-0.106561966
169	0x3dce0edb	0.10061427
170	0x3e11af91	0.1422713
171	0xbd84c3ce	-0.06482659
172	0x3de6c99c	0.11268923
173	0xbc160a38	-0.00915771
174	0x3d70a7be	0.05875372
175	0x3d129da6	0.035794877
176	0xbe6c253f	-0.23061083
177	0x3db150c4	0.08657983
178	0x3db7b5f1	0.089702494
179	0xbdccec91	-0.10006059
180	0x3d714c0a	0.058910407
181	0x3d9b917a	0.07596107
182	0x3d0d8fd8	0.03456101
183	0x3dcec2b9	0.10095734
184	0xbd15f305	-0.036608715
185	0x3d6b0cd4	0.05738528
186	0x3d74e82f	0.05979174
187	0x3d53bbe1	0.051692847
188	0x3d63d5f0	0.05562395
189	0x3d187108	0.03721717
190	0xbd720ce1	-0.059094314
191	0xbd2650e1	-0.040604476
192	0x3d19bd40	0.037534
193	0x3dc64a02	0.096820846
194	0x3d86378a	0.06553562
195	0xbd19b188	-0.037522823
196	0x3e13577f	0.14388846
197	0x3dd4ffa6	0.104003236
198	0x3e0829b0	0.13297153
199	0xba0e9d63	-0.00054403226
200	0x3e048774	0.12942296
201	0x3de37e9a	0.11108132
202	0x3c889c20	0.016676009
203	0x3e04055d	0.12892671
204	0x3d50938b	0.050921958
205	0x3dc22b37	0.09480899
206	0x3d9d598f	0.076830976
207	0x3dce58d4	0.10075536
208	0x3d06fbdc	0.032955036
209	0xbe1ee6c5	-0.15517719
210	0x3d24713a	0.040147044
211	0xbe5f2546	-0.21791562
212	0xbcdbaa45	-0.02681459
213	0x3e43595f	0.19077061
214	0xbdb70ea5	-0.0893834
215	0xbb93ff7f	-0.0045165415
216	0x3dd95ea8	0.10613757
217	0xba9961b7	-0.0011702095
218	0x3d0b2226	0.033968113
219	0x3bfcad2e	0.0077110743
220	0x3da84cab	0.08217748
221	0x3ccdb6d3	0.025111591
222	0xbceedbfb	-0.02915763
223	0xbb725f28	-0.0036982987
224	0x3cb8ae08	0.022543922
225	0x3d506f72	0.050887533
226	0xbca54d52	-0.02017847
227	0xbc5f5638	-0.013631396
228	0x3cbe22d7	0.023209972
229	0x3df04fea	0.117339924
230	0x3c274476	0.010209193
231	0x3dacd4af	0.08439004
232	0x3c785d52	0.015158968
233	0x3cb4a377	0.022050602
234	0x3c5a6719	0.013330244
235	0x3de3080d	0.1108552
236	0xbaf8591b	-0.0018947454
237	0xbd2d57a0	-0.042319894
238	0x3d379051	0.044815365
239	0x3c9e251b	0.019304803
240	0x3c8c07ab	0.0170935
241	0x3d9d89c8	0.07692295
242	0x3d2e28e8	0.04251948
243	0x3d832556	0.06403606
244	0x3d239c0e	0.039943747
245	0x3d6b353e	0.057423823
246	0xbe7b112c	-0.2451827
247	0xbd05fed0	-0.03271371
248	0x3dd3eede	0.10348295
249	0x3cfcd6e8	0.030864194
250	0x3dd09eee	0.101865634
251	0x3d8c4a25	0.068500794
252	0x3dc50102	0.09619333
253	0xbaac022f	-0.0013123209
254	0x3dcc8049	0.09985406
255	0x3e0d969e	0.13826987

layers.2.weight f4 [32, 256]
0	0xbe8152bb	-0.2525843
1	0xbe134dc4	-0.14385134
2	0xbde3ac22	-0.11116816
3	0x3e8b179e	0.27166456
4	0x3d91f364	0.07126501
5	0xbe368b42	-0.1782656
6	0xbd0baaa5	-0.034098286
7	0x3ea5e170	0.32398558
8	0x3e78d956	0.24301657
9	0xbc410c6e	-0.011782749
10	0xbe50de64	-0.20397335
11	0x3e4b42bb	0.19849674
12	0xbd8291c3	-0.06375458
13	0x3d062069	0.032745752
14	0xbd7287e7	-0.059211638
15	0x3e656903	0.2240334
16	0x3e9e4d9f	0.30918595
17	0x3ee23b7d	0.4418601
18	0x3dac9ca9	0.08428318
19	0xbcba543f	-0.02274525
20	0xbe2ab7de	-0.16671702
21	0x3bce20c0	0.006290525
22	0x3e99fb04	0.30074322
23	0xbe72b705	-0.23702629
24	0xbd820a44	-0.06349614
25	0xbd3d4f5e	-0.04621827
26	0xbe47b4c5	-0.19502552
27	0xbe0bf0b6	-0.13666043
28	0xbe38b57d	-0.18037982
29	0x3ee72544	0.4514562
30	0xbbfff09f	-0.0078106667
31	0xbda1a8b7	-0.07893508
32	0x3e10467f	0.14089392
33	0xbe48ee14	-0.1962207
34	0x3f10a596	0.56502664
35	0xbe3d8338	-0.18507087
36	0x3e9570ba	0.29187566
37	0x3eb741cf	0.35792395
38	0xbe4660d7	-0.19372879
39	0x3e97bd4c	0.2963661
40	0xbde6cb02	-0.112691894
41	0x3eaf6b1a	0.342614
42	0x3e9b479a	0.30328065
43	0x3dbd4c62	0.092430845
44	0xbdd8b191	-0.10580743
45	0x3ba0b10c	0.004903918
46	0xbf032f86	-0.5124439
47	0xbd8a0f4d	-0.067412
48	0xbe7ac81a	-0.24490395
49	0xbe48cd75	-0.19609626
50	0x3d882daa	0.06649335
51	0xbd5ba073	-0.053619813
52	0x3f0d18cb	0.55115956
53	0x3e3e210d	0.18567295
54	0x3e66ab6e	0.22526333
55	0xbe68e6b6	-0.22744259
56	0xbd3fda5b	-0.0468391
57	0x3e77c26f	0.24195264
58	0x3d11822a	0.035524525
59	0x3c51e43b	0.012810762
60	0x3e9984a2	0.29984003
61	0x3ef67a9e	0.48140424
62	0x3e5b2f5f	0.2140479
63	0xbe2ffab8	-0.17185485
64	0x3e94195f	0.28925607
65	0x3c424a6c	0.011858564
66	0xbee092f8	-0.43862128
67	0x3e6e376d	0.23263331
68	0x3e2959a0	0.16538095
69	0x3e00dc4c	0.12584037
70	0x3d8c2905	0.06843761
71	0x3e1e8a01	0.15482332
72	0x3ec6a3cb	0.3879684
73	0x3e314d4e	0.17314646
74	0x3c88f22e	0.016717043
75	0x3dec069c	0.11524698
76	0xbebad1c8	-0.36488175
77	0xbe005432	-0.12532118
78	0xbe842f80	-0.2581749
79	0x3d83f959	0.06444044
80	0x3e806864	0.25079644
81	0x3eb57e31	0.3544784
82	0xbde93160	-0.11386371
83	0x3d285a42	0.0411017
84	0x3e2651a5	0.16242082
85	0xbef36201	-0.4753571
86	0xbe05c6e6	-0.13064155
87	0xbb3a3b0e	-0.0028416547
88	0x39f1e67f	0.00046138835
89	0xbe979945	-0.29609123
90	0xbe559029	-0.20855774
91	0xbd22bc3b	-0.03973029
92	0xbe221929	-0.1582991
93	0x3e0b8f66	0.13628921
94	0xbd447a13	-0.04796798
95	0xbe2ec9d5	-0.1706918
96	0x3e5d10f2	0.21588495
97	0x3e41df84	0.1893292
98	0xbe674fb5	-0.22589
99	0xbdd25288	-0.10269648
100	0x3e84c707	0.25933096
101	0xbe8a2b0c	-0.26985967
102	0xbe1d7327	-0.15375958
103	0xbcae2974	-0.02126
104	0x3e0b46dc	0.1360125
105	0x3e99e621	0.30058387
106	0x3e22decf	0.15905307
107	0xbece3993	-0.402783
108	0x3e596920	0.21231508
109	0x3bb724f4	0.005589122
110	0x3e2276a2	0.15865567
111	0xbd1e6fe3	-0.038680922
112	0x3e4e4774	0.20144445
113	0x3e2f8f64	0.17144543
114	0x3e442baf	0.19157289
115	0x3ee6972e	0.45037216
116	0xbe3c0780	-0.18362236
117	0xbf12eb8b	-0.5739066
118	0x3c36783d	0.0111370655
119	0x3d27218c	0.040803477
120	0xbe5ea253	-0.2174161
121	0xbd6a713b	-0.05723689
122	0x3ed031d3	0.40663013
123	0x3d200cab	0.03907458
124	0xbe691894	-0.22763282
125	0x3e25fed2	0.16210487
126	0x3d5a70f0	0.05333036
127	0xbdc475db	-0.09592792
128	0x3e93ef9a	0.2889374
129	0xbd161697	-0.036642637
130	0xbe7668c1	-0.24063398
131	0x3e4419a2	0.19150403
132	0x3e849d8b	0.25901446
133	0x3e32a4d8	0.17445695
134	0x3da8c08a	0.08239849
135	0x3dc6f1b9	0.09714074
136	0x3e823bf3	0.25436363
137	0xbe67f25a	-0.22651044
138	0xbee53681	-0.44768146
139	0x3e0c0d36	0.13676915
140	0xbee60cfd	-0.44931784
141	0x3e22e8de	0.15909144
142	0x3e4ca913	0.19986372
143	0x3e44e90b	0.19229524
144	0x3e759b2d	0.23984976
145	0xbdf81734	-0.12113801
146	0x3df66c5e	0.12032388
147	0xbe50f5ef	-0.20406316
148	0xbe26a9f7	-0.16275774
149	0x3f0d41a3	0.5517828
150	0xbe361c73	-0.1778429
151	0xbcc1e516	-0.023668807
152	0xbe6fa392	-0.23402241
153	0xbe521233	-0.20514755
154	0x3cbc36f1	0.022975417
155	0xbca88796	-0.020572465
156	0xbf24f6ab	-0.64438885
157	0x3eaba68d	0.33525506
158	0x3e11ac3a	0.14225855
159	0x3e5f3519	0.21797599
160	0x3ec305f8	0.3809049
161	0xbe29dd1f	-0.16588257
162	0xbdc891bb	-0.09793421
163	0x3e3efb51	0.18650557
164	0xbd2f4b34	-0.04279633
165	0xbe87c458	-0.26516986
166	0xbd343456	-0.043995224
167	0x3e147cec	0.14500779
168	0x3c81f7d4	0.015865244
169	0x3ea05c98	0.31320643
170	0x3e8486b9	0.25884035
171	0xbea5e135	-0.32398382
172	0xbc803fd8	-0.015655443
173	0xbe46bfa0	-0.19409037
174	0x3d384114	0.04498394
175	0x3eb5e03d	0.35522643
176	0xbe383fa2	-0.17993024
177	0xbe7d1c1a	-0.24717751
178	0x3dd3da9e	0.10344432
179	0xbefd52e4	-0.49477303
180	0xbe9734a3	-0.29532346
181	0xbdb02fb7	-0.08602851
182	0xbe8c1914	-0.27362883
183	0xbb88326c	-0.0041564014
184	0xbe619ea3	-0.22033171
185	0x3dbb973d	0.09159706
186	0xbe02c7f9	-0.12771596
187	0xbb8953b9	-0.0041908887
188	0x3d30e766	0.04318943
189	0x3e7ddd3f	0.2479143
190	0xbe7a1920	-0.24423647
191	0x3dab34fa	0.08359714
192	0x3e6569c6	0.2240363
193	0xbe118dc8	-0.14214242
194	0xbb13e612	-0.0022567553
195	0xbe2b3d58	-0.1672262
196	0xbdaaa94a	-0.083330706
197	0x3e49f3b5	0.19721873
198	0x3e565438	0.20930564
199	0x3b8dc4bc	0.004326431
200	0x3dcdb3cc	0.10044059
201	0x3e2546ce	0.16140291
202	0x3e7c64b4	0.2464779
203	0x3e9a3577	0.30118915
204	0x3e9fea75	0.31233564
205	0x3d901c72	0.070366755
206	0xbd805bd5	-0.062675156
207	0x3e1913b9	0.1494893
208	0xbde41588	-0.11136919
209	0x3ecf1fc9	0.40453938
210	0xbda34acf	-0.07973253
211	0x3e8b46c9	0.27202442
212	0xbef465a5	-0.477338
213	0xbea2fa4a	-0.3183158
214	0x3f4cd7e1	0.80016905
215	0x3e94435c	0.2895764
216	0x3e5340d3	0.20630197
217	0x3e1949b5	0.14969523
218	0x3c82de7e	0.015975233
219	0x3ea8ec8d	0.32992974
220	0x3dd4a814	0.10383621
221	0x3ed15063	0.40881643
222	0xbb7fab58	-0.003901204
223	0xbe0ddc7b	-0.13853638
224	0x3db9a07d	0.09063814
225	0x3e845296	0.25844258
226	0x3f18dc62	0.5971128
227	0xbe2ac9f9	-0.16678609
228	0x3eb1eb04	0.34749615
229	0x3d83c43f	0.06433915
230	0x3d4cb925	0.049981255
231	0x3e8f2ad1	0.27962354
232	0xbe3691fa	-0.17829123
233	0x3bdf80b0	0.0068207607
234	0x3e9fee23	0.3123637
235	0x3db05ff7	0.08612054
236	0x3e903cc5	0.28171363
237	0xbe8b105b	-0.27160916
238	0xba2b22b7	-0.0006528305
239	0xbe580533	-0.21095733
240	0x3daaed87	0.08346086
241	0x3e3e8ff2	0.18609598
242	0x3d8f12e7	0.06986027
243	0x3ec13c50	0.37741327
244	0xbd81e75b	-0.06342956
245	0x3e166548	0.14687073
246	0xbda14ec0	-0.078763485
247	0xbe0032f9	-0.12519445
248	0x3ed63def	0.41844127
249	0x3e5208a7	0.20511113
250	0xb99f5268	-0.0003038824
251	0xbc1671f7	-0.009182445
252	0xbbeab0b8	-0.00716218
253	0xbe6c34a3	-0.23066954
254	0xbbad563b	-0.0052898205
255	0x3dcba219	0.09943027

layers.2.bias f4 [32]
0	0x3d93d3bb	0.07218119
1	0x3bcf75a8	0.0063311644
2	0x3e393a74	0.18088704
3	0x3d452fe3	0.04814137
4	0xbdf36398	-0.118842304
5	0x3c99c9f9	0.018773066
6	0xbc7a26cb	-0.015268038
7	0xbcbeedcb	-0.023306748
8	0x3cc5341d	0.024072701
9	0x3dce199e	0.1006348
10	0x3e2d2dbc	0.16911978
11	0xbad165a1	-0.0015975722
12	0x3cd4a96b	0.025959691
13	0x3e274f24	0.16338784
14	0x3e252873	0.16128711
15	0x3d409ac5	0.0470226
16	0x3bfbc80d	0.00768376
17	0x3cf239c6	0.029568564
18	0x3d355093	0.044266295
19	0x3db38e9a	0.087674335
20	0x3dc3d4d2	0.09562077
21	0x3e23a9fb	0.15982811
22	0x3d86fe4b	0.06591471
23	0x3de6a5f7	0.11262124
24	0x3c65ac42	0.01401812
25	0xbc944eef	-0.018104045
26	0x3e23264f	0.15932582
27	0x3de42a3a	0.111408666
28	0xbd3b634c	-0.045748994
29	0xbb777631	-0.0037759657
30	0x3e0ef26a	0.13959661
31	0x3ddf8e0b	0.109157644

layers.4.weight f4 [1172, 32]
0	0x3e87894b	0.26471934
1	0xbe8f39c4	-0.2797376
2	0xbe8e9aad	-0.27852383
3	0x3dab243d	0.08356521
4	0xbcd5146a	-0.02601071
5	0x3e53c44e	0.20680353
6	0x3cd95066	0.026527595
7	0xbf13ce41	-0.57736593
8	0xbe03a256	-0.12854895
9	0x3e33d5f5	0.17562087
10	0xbe8044d8	-0.25052524
11	0x3e849085	0.2589151
12	0xbe6d2a0b	-0.2316057
13	0xbe5d657b	-0.21620743
14	0xbd86b4e3	-0.0657747
15	0xbf0c6d44	-0.54854226
16	0xbe73ab62	-0.23795846
17	0xbe8f95a9	-0.2804387
18	0xbead3ce4	-0.33835518
19	0xbe954ce9	-0.2916024
20	0x3ea7bb6f	0.32760188
21	0x3db3e78e	0.087844
22	0xbe3e134d	-0.1856205
23	0xbe67a9b8	-0.22623336
24	0xbe400fa3	-0.18755965
25	0xbd9607e7	-0.07325726
26	0x3d0e79a9	0.034783993
27	0xbec140e7	-0.3774483
28	0x3ebefbfe	0.3730163
29	0xbeb26aef	-0.3484721
30	0xbddb99a7	-0.10722666
31	0x3e67b400	0.22627258
32	0x3de28640	0.110607624
33	0xbec7273e	-0.38897127
34	0xbdc861b5	-0.09784261
35	0x3c41dafa	0.011831993
36	0xbe3dd034	-0.18536454
37	0xbdf10e94	-0.11770359
38	0xbeaa41c9	-0.33253315
39	0x3e12ef62	0.1434913
40	0x3e2e9c9a	0.17051926
41	0x3e56da71	0.20981766
42	0xbd9a4bff	-0.07534026
43	0xbeb70111	-0.35743
44	0xbdc57f28	-0.09643394
45	0x3b126625	0.0022338715
46	0x3e19e03e	0.15026948
47	0x3e0c9a81	0.13730814
48	0x3dbc3e37	0.09191554
49	0x3e60a13a	0.21936503
50	0xbf059a70	-0.5218878
51	0xbe81256f	-0.25223872
52	0xbb612b96	-0.0034358255
53	0x3dc58159	0.09643812
54	0xbcd53049	-0.026024
55	0x3e2a7c95	0.16649087
56	0xbedd8ce3	-0.4327155
57	0x3e94c37d	0.29055396
58	0x3c009cd4	0.007849891
59	0xbd095df7	-0.033536877
60	0xbe50222b	-0.20325534
61	0x3d977217	0.07394808
62	0x3e1b7329	0.15180649
63	0x3e3634d3	0.17793588
64	0xbe9ead1c	-0.30991447
65	0x37178e36	9.033412e-06
66	0x3d31f923	0.043450486
67	0x3e5b8bdb	0.2144007
68	0x3d53dd05	0.051724453
69	0x3e856bd2	0.26058823
70	0xbcef2300	-0.029191494
71	0x3d89e09c	0.06732294
72	0xbe2a3cba	-0.16624728
73	0xbe80ca1c	-0.25154197
74	0x3d1981c6	0.037477277
75	0x3e6d8f67	0.23199235
76	0xbefe7f17	-0.49706337
77	0xbeaee122	-0.34156138
78	0xbe5787b3	-0.21047859
79	0xbe851169	-0.25989845
80	0xbf1458f9	-0.5794826
81	0x3df42fdb	0.1192319
82	0xbebeca43	-0.37263688
83	0x3ea6b8a4	0.32562745
84	0x3ebe2836	0.37140054
85	0xbf19ee0a	-0.60128844
86	0xbe66b699	-0.22530593
87	0xbe47d8a3	-0.19516234
88	0x3d1e0631	0.038580123
89	0xbec687ce	-0.38775486
90	0xbeb4add8	-0.35288882
91	0x3e15b9b5	0.14621623
92	0xbeaa3123	-0.33240613
93	0x3e061b05	0.13096245
94	0x3d4bdd58	0.049771637
95	0x3e812fc2	0.2523175
96	0x3e515ce6	0.20445594
97	0x3e6cc57b	0.23122208
98	0x3e152514	0.14564925
99	0xbd8264af	-0.0636686
100	0xbe14e4bc	-0.1454038
101	0xbe26dae6	-0.1629444
102	0x3da7f39e	0.08200763
103	0x3e084eda	0.1331133
104	0x3d7ebd17	0.06219205
105	0x3e64ad8e	0.22331831
106	0x3d9fa3ae	0.07794891
107	0xbe13797b	-0.1440181
108	0xbc7a8a6f	-0.015291794
109	0x3e9da219	0.30787733
110	0xbce5d4d1	-0.02805558
111	0x3ea62d21	0.32456306
112	0xbf004ff6	-0.5012201
113	0xbe50f779	-0.20406903
114	0xbe8afb37	-0.27144787
115	0xbf1bd9e1	-0.6087933
116	0x3eab2d34	0.33432925
117	0xbf5d93ca	-0.86553633
118	0xbf24efce	-0.6442841
119	0x3e8b9f3c	0.27269924
120	0x3e664829	0.22488464
121	0xbee203ec	-0.44143617
122	0xbe225874	-0.15854055
123	0x3ccacd94	0.02475623
124	0xbe8ceec9	-0.2752593
125	0xbe96760f	-0.29386947
126	0x3e9de2b0	0.3083701
127	0x3e8a155c	0.2696942
128	0xbe17c457	-0.14820991
129	0x3cb7d34b	0.02243962
130	0x3a8ae8fe	0.0010598002
131	0xbe89c041	-0.2690449
132	0xbe88f978	-0.2675283
133	0x3d71011a	0.05883894
134	0xbf091d68	-0.53560495
135	0x3ed1b5f5	0.40959135
136	0x3e77a870	0.24185348
137	0x3e85b54d	0.26114884
138	0x3ed3f702	0.4139939
139	0xbf2052df	-0.6262645
140	0xbec4ed39	-0.38462237
141	0x3ec53be3	0.38522252
142	0x3e953692	0.29143196
143	0xbe31f51d	-0.1737866
144	0x3d94823a	0.07251401
145	0xbe29a530	-0.1656692
146	0xbec25122	-0.37952524
147	0xbeb0c552	-0.34525543
148	0xbc4967cc	-0.0122928135
149	0xbf2a6639	-0.6656223
150	0xbe7793d3	-0.24177484
151	0x3cb2ba10	0.021817237
152	0xbeaf07a9	-0.34185532
153	0xbf04ef67	-0.519278
154	0x3e88ada9	0.26694992
155	0x3d89b32c	0.067236274
156	0xbe2765f5	-0.16347487
157	0xbe83c244	-0.2573415
158	0x3eb84c76	0.35995835
159	0x3da77a42	0.08177616
160	0xbe7293be	-0.23689172
161	0xbe8c3178	-0.27381492
162	0x3dcdd19f	0.10049748
163	0x3d0fa22b	0.035066765
164	0x3e5a3701	0.21310045
165	0xbc34fb4b	-0.011046241
166	0x3e0a133e	0.13483903
167	0x3d54e7b5	0.051978786
168	0x3dedc5ba	0.11609979
169	0xbeb225f6	-0.34794587
170	0xbbe2b881	-0.0069189672
171	0xbb86ebe3	-0.0041174754
172	0x3cc8c4d9	0.024507927
173	0x3d604340	0.054751635
174	0xbe38520a	-0.18000045
175	0xbed03310	-0.40663958
176	0x3e1693dd	0.14704843
177	0x3e9da74d	0.30791703
178	0xbe67aca9	-0.22624458
179	0x3c0049f4	0.007830132
180	0xbebb548d	-0.36587945
181	0x3e459f87	0.19299136
182	0x3e00e2fb	0.12586586
183	0xbcdc59b3	-0.02689824
184	0x3d7ff01a	0.062484838
185	0xbf21f9f9	-0.63272053
186	0xbe0967bf	-0.13418482
187	0x3d93d95d	0.07219193
188	0x3eb2802d	0.34863415
189	0x3e439ee8	0.19103587
190	0xbea5ec11	-0.32406667
191	0xbe00f6f8	-0.12594211
192	0xbd10dbb0	-0.03536576
193	0xbf2d4ea4	-0.6769812
194	0xbd6b75cb	-0.057485383
195	0xbe9211c4	-0.2852918
196	0x3eacf2ab	0.3377889
197	0x3d8aff59	0.06786985
198	0xbb1611f8	-0.0022898894
199	0x3d2c9005	0.042129535
200	0x3e0a79a6	0.13522968
201	0xbed130d8	-0.40857577
202	0x3e46239c	0.19349521
203	0x3e36e426	0.17860469
204	0x3dab7a41	0.083729275
205	0x3dee804c	0.116455644
206	0xbdf88bef	-0.12136065
207	0xbf0502ee	-0.51957595
208	0x3dab5a7b	0.08366867
209	0xbea28515	-0.3174216
210	0x3e17e669	0.14833988
211	0xbeb9b7b2	-0.3627296
212	0x3d5486a5	0.05188622
213	0x3e3b711c	0.18304867
214	0xbec8af92	-0.3919645
215	0xbebe52aa	-0.37172443
216	0xbd1444c4	-0.036198393
217	0xbeaf6073	-0.34253272
218	0xbe91c376	-0.28469437
219	0xbd3bff3c	-0.045897707
220	0x3eb40159	0.35157278
221	0x3d957534	0.07297745
222	0xbec1d1ac	-0.3785528
223	0xbdfe3ebd	-0.1241431
224	0x3e8aa3df	0.2707815
225	0x3e7336fd	0.23751445
226	0xbebaa3bc	-0.36453044
227	0x3ea81bdf	0.32833764
228	0x3e798dc9	0.24370493
229	0x3d78a5be	0.06070494
230	0xbc839b98	-0.016065404
231	0xbde28e54	-0.11062303
232	0xbea5cc7b	-0.3238257
233	0x3cad0c79	0.021124111
234	0xbeab00a6	-0.33398932
235	0x3e490d94	0.19634086
236	0xbe457bec	-0.19285554
237	0xbcab756b	-0.020930013
238	0xbf033351	-0.5125018
239	0xbd0288b1	-0.03186864
240	0x3dc0b995	0.09410397
241	0xbe617f2c	-0.22021168
242	0x3e0cbb36	0.1374329
243	0xbd47f8f8	-0.04882142
244	0xbefd23df	-0.4944143
245	0xbea76060	-0.32690716
246	0xbd692f91	-0.05693013
247	0xbbffc8aa	-0.0078059034
248	0xbec7d60c	-0.39030492
249	0x3e444b60	0.19169378
250	0x3d8e4ccc	0.069482416
251	0x3e490ebb	0.19634525
252	0xbeafda53	-0.34346256
253	0xbecbfa24	-0.3983928
254	0xbeb7f4a5	-0.35928836
255	0x3e638993	0.22220449

layers.4.bias f4 [1172]
0	0xbe6a0d02	-0.22856525
1	0xbc2514c2	-0.01007575
2	0xbdfac855	-0.122452416
3	0x3d964240	0.07336855
4	0x3e20bedd	0.15697809
5	0xbb8155d0	-0.003946997
6	0xbe4158c0	-0.18881512
7	0xbe69f7f9	-0.228485
8	0xbe37135d	-0.1787848
9	0xbe63d8de	-0.22250697
10	0xbea56ed3	-0.32311115
11	0xbe1d32e2	-0.15351442
12	0xbe88dbe0	-0.2673025
13	0x3dc9774c	0.09837207
14	0xbd8f658a	-0.07001789
15	0xbd5f6c06	-0.05454638
16	0xbe15cc62	-0.14628747
17	0xbdb5c09f	-0.0887463
18	0xbe9286ad	-0.28618374
19	0xbc43b2af	-0.011944457
20	0xbe576c76	-0.21037468
21	0xbd4870e2	-0.04893578
22	0x3e0432c5	0.12909992
23	0xbe059a94	-0.13047248
24	0x3df2b97a	0.11851783
25	0x3cc6e9ba	0.024281371
26	0x3c6e9e83	0.014564159
27	0xbdf1004d	-0.117676355
28	0xbd6a7b7e	-0.057246678
29	0xbcde860a	-0.027163524
30	0xbd9bfaf2	-0.076162234
31	0xbdfab4aa	-0.1224149
32	0xbd6c06d6	-0.057623707
33	0xbc3015f5	-0.010747422
34	0x3ca6496a	0.020298678
35	0xbd41afcd	-0.047286797
36	0xbd97ab71	-0.07405747
37	0xbc61f387	-0.013790972
38	0xbd203d06	-0.039120696
39	0x3d988b60	0.07448459
40	0x3d2c4952	0.04206211
41	0xbdf6858c	-0.12037191
42	0x3dcef783	0.10105803
43	0xbe4636e9	-0.19356884
44	0xbd6d56c0	-0.05794406
45	0x3d983515	0.074319996
46	0xbe0408c9	-0.12893976
47	0x3c5e7995	0.013578792
48	0xbd232dc9	-0.039838586
49	0xbc9575bc	-0.018244617
50	0x3eabcb20	0.3355341
51	0xbdf840fd	-0.121217705
52	0x3d1b7ac9	0.037958894
53	0xbe63109f	-0.22174309
54	0xbe3ed00a	-0.18634048
55	0xbd943d4f	-0.07238256
56	0x3e8167ec	0.252746
57	0xbdb9e62d	-0.09077106
58	0x3e01f1b1	0.12689854
59	0xbd7c6efa	-0.061629273
60	0xbe0a75fc	-0.1352157
61	0xbeae757e	-0.34074014
62	0xbe3274d9	-0.17427386
63	0x3d65dc3a	0.056118228
64	0xbe01806d	-0.12646647
65	0xbe2b56a0	-0.16732264
66	0xbd0d4be4	-0.034496203
67	0x3d028e2f	0.031873878
68	0x3ce55b1d	0.027997548
69	0xbd0c4bb2	-0.034251876
70	0x3bd22cb5	0.006414021
71	0xbe4f628c	-0.20252436
72	0xbdb0914d	-0.08621464
73	0xbe22ab97	-0.15885769
74	0x3c3589e9	0.011080244
75	0xbc86ac3a	-0.016439546
76	0xbcb3bede	-0.021941599
77	0x3e45492d	0.19266196
78	0xb8399c42	-4.4252964e-05
79	0x3cefc675	0.029269436
80	0xbe7a9599	-0.2447113
81	0xbe551198	-0.20807493
82	0x3e0bf256	0.13666663
83	0x3de2b2dd	0.11069272
84	0xbe98c66c	-0.29838884
85	0xbe115215	-0.14191468
86	0x3dbc639d	0.09198687
87	0xbe731b60	-0.23740911
88	0x3e2f0413	0.17091398
89	0xbdd894e3	-0.10575273
90	0x3d824158	0.063601196
91	0xbe8abefc	-0.27098835
92	0xbdea9e80	-0.11456013
93	0xbe261d57	-0.1622213
94	0xbe6218cf	-0.22079776
95	0xbd96ff5a	-0.07372923
96	0xbe0ee158	-0.1395315
97	0xbd6525ed	-0.055944372
98	0x3df2d5b1	0.11857165
99	0xbe35fde0	-0.17772627
100	0xbe737312	-0.23774365
101	0xbe818d14	-0.25302947
102	0x3d186687	0.037207153
103	0x3e231f24	0.15929848
104	0xbdc3d41d	-0.09561942
105	0xbeb87e7b	-0.36033997
106	0x3cff92c5	0.031197915
107	0xbd095d93	-0.033536505
108	0xbddb3ab3	-0.10704555
109	0xbd12ec85	-0.035870094
110	0xbe874ccd	-0.26425782
111	0xbe109d7a	-0.14122573
112	0xbe6967d2	-0.2279351
113	0x3deaf0f0	0.114717364
114	0x3d6bf1ec	0.05760376
115	0xbbb2ca64	-0.0054562557
116	0x3ed65848	0.41864228
117	0x3ef704ca	0.4824584
118	0x3e5105e7	0.20412408
119	0x3eb17c6d	0.34665242
120	0xbd5b6c4d	-0.05357008
121	0xbbd65bba	-0.0065416964
122	0xbe02b307	-0.12763606
123	0xbe06c860	-0.13162374
124	0xbe6393c4	-0.22224337
125	0xbdf626ad	-0.120190956
126	0xbd7cf9fb	-0.061761837
127	0xbe6e9d95	-0.233023
128	0x3b03fd33	0.0020139932
129	0xbd4a3382	-0.049365528
130	0xbdf9155b	-0.12162276
131	0xbdacda8b	-0.08440121
132	0x3d341fa4	0.043975487
133	0xbd1fd91c	-0.03902541
134	0x3d5b977c	0.053611264
135	0x3d350518	0.04419431
136	0x3dc56f91	0.0964042
137	0xbc78cff8	-0.015186302
138	0xbd709e8f	-0.058744963
139	0xbe32e3fb	-0.1746978
140	0xbe1dc23e	-0.15406129
141	0x3ead7c41	0.3388386
142	0xbc770de4	-0.015078995
143	0xbe16cbdf	-0.14726208
144	0x3e908af8	0.28231025
145	0xbe007e6f	-0.1254823
146	0xbe3fcc1a	-0.18730202
147	0xbc33a0dc	-0.010963645
148	0xbe4332a0	-0.1906228
149	0xbe3639c4	-0.17795473
150	0xbe3c0201	-0.1836014
151	0x3c538c46	0.012911862
152	0xbe59ff24	-0.21288735
153	0xbe5f4348	-0.2180301
154	0x3d48422e	0.04889124
155	0xbe08b687	-0.13350879
156	0xbe83ce4c	-0.2574333
157	0x3cf8dd35	0.030378917
158	0xbe777d66	-0.2416893
159	0xbe573ac0	-0.21018505
160	0xbe7d9425	-0.24763544
161	0xbd6562bb	-0.05600236
162	0x3d50c695	0.050970633
163	0xbe707b0a	-0.23484436
164	0xbdf69631	-0.120403655
165	0xbe818876	-0.25299424
166	0xbc8affb3	-0.01696763
167	0xbd1dcd28	-0.03852573
168	0xbc6d8921	-0.014498026
169	0xbe4a89b3	-0.1977909
170	0x3e0a65c1	0.13515379
171	0xbe0814c9	-0.13289179
172	0x3e86deac	0.2634176
173	0x3d2a66aa	0.041601814
174	0xba5a7d1a	-0.00083346816
175	0xbebacf23	-0.36486158
176	0x3da8fe18	0.082515895
177	0xbe0ac216	-0.135506
178	0x3cd5fcca	0.026121516
179	0x3dee2325	0.11627797
180	0x3e929d72	0.28635746
181	0x3e42b6c3	0.1901503
182	0xbe66bec3	-0.22533707
183	0xbeb95483	-0.3619729
184	0xbbc1dd7d	-0.005916296
185	0xbe361ec0	-0.17785168
186	0xbbb89deb	-0.0056340597
187	0xbe8a4ad6	-0.2701022
188	0xbe32efe1	-0.17474319
189	0xbdc2e9f4	-0.09517279
190	0xbd871412	-0.06595625
191	0xbcda8378	-0.026674017
192	0xbe6a3a1f	-0.22873734
193	0xbe14a93b	-0.14517681
194	0xbe8f37cc	-0.27972257
195	0xbdd49789	-0.103804655
196	0xbe6def84	-0.23235899
197	0xbde12868	-0.10994035
198	0x3e8e1d8d	0.2775692
199	0xbe447bf4	-0.1918791
200	0xbe050a9b	-0.12992327
201	0xbda72339	-0.08161015
202	0xbe792ed7	-0.24334274
203	0xbd0c94e5	-0.034321684
204	0x3df106cd	0.11768875
205	0xbb502283	-0.0031758852
206	0x3d2a533f	0.041583296
207	0xbe40f77f	-0.18844412
208	0xbc60ac96	-0.013713023
209	0xbc69a7d6	-0.014261207
210	0x3c1eded5	0.009696682
211	0xbe91aaaa	-0.2845052
212	0xbd82d53f	-0.0638833
213	0xbd470b68	-0.048594862
214	0x3d0e5c82	0.03475619
215	0xbd9fae60	-0.07796931
216	0xbe8a7d31	-0.27048638
217	0x3d0d9ced	0.034573484
218	0x3d8e74b7	0.06955855
219	0x3cdcf4e6	0.026972245
220	0xbdb75085	-0.08950905
221	0xbc30a4f8	-0.010781519
222	0xbe3a5786	-0.1819745
223	0x3e11261b	0.14174692
224	0xbe673c75	-0.22581656
225	0xbe0c0572	-0.13673952
226	0xbe9b5c43	-0.30343828
227	0xbe0d7ed4	-0.13817912
228	0xbe020a5e	-0.12699267
229	0xbd9ea62e	-0.0774654
230	0xbe2ac520	-0.1667676
231	0xbde1df91	-0.1102897
232	0xbe1f9f67	-0.15588151
233	0xbea07023	-0.31335554
234	0x3d0cd7ad	0.034385372
235	0x3d80ded1	0.06292499
236	0x3de6d525	0.11271123
237	0xbe8c9508	-0.27457452
238	0x3e51c2e5	0.20484503
239	0x3ca80c16	0.020513576
240	0xbe3f872e	-0.1870391
241	0xbe34ab1a	-0.17643395
242	0x3eaaa0c6	0.33325785
243	0x3d207076	0.03916975
244	0x3db9fce2	0.09081437
245	0x3e178aaa	0.1479899
246	0xbd98a875	-0.07454006
247	0xbd83da37	-0.064381056
248	0xbe164672	-0.1467531
249	0xbe3e0052	-0.1855481
250	0xbd69c027	-0.057068016
251	0xbe09dc5a	-0.13462964
252	0xbe893696	-0.26799458
253	0xbe801e32	-0.25023037
254	0xbe2c517b	-0.16827957
255	0x3d4c4f19	0.04988012
