Models/LSTM_Start-ups_4_8.pth (torch, 262205 bytes, 7 tensors)

embeddings.0.weight f4 [1172, 8]
00000000: 39d3 e63f 5611 583e 47d2 afbe 205a 81bf
00000010: c043 6a3e 6ea4 f2bf 4c08 8d3e fc84 03c0
00000020: 158c 9abf e6ee 1c40 98f2 f5be 8b69 f3bf
00000030: 6614 8abf fba8 59bf ffe9 adbf fe2f 8f3f
00000040: 85a7 dc3f 2020 b8be 20ac e83d a37a f73e
00000050: 8672 95be 4b78 463f f5c7 eabe 0fa9 093f
00000060: a1aa d13f 56ee 1540 e277 803f 3c58 3140
00000070: aa75 f43c ffb1 ac3d c06b babe 1472 de3e
00000080: 3b0b 09c0 53e7 febf d54f dabe 1168 3740
00000090: 9a3b 813f 20b4 6bbf 4237 283f d775 98bf
000000a0: bf31 9fbf a044 763f 4ef1 aabf f06e 7abf
000000b0: cadd c6bf 8fac d53f 6f0f d43e 60c5 88bf
000000c0: 8763 90bf dac3 dfbb 6066 57bf ad67 1b3e
000000d0: 0e4e 8ebf 8701 683f 3e7e dbbf cc87 6fbf
000000e0: 2bea 14c0 a7ed 60bf ea37 9f3f 3957 143d
000000f0: 4840 e73e d3e2 2440 b23c fbbf 61c2 ce3f
00000100: 404c 1f40 9a7d d73f dc08 4f40 13d8 64bf
00000110: 8134 373f 32c1 843f 7375 95bf fd76 c5bd
00000120: 064b 8b3f bbc6 1c40 a87c 093f 5954 9b3f
00000130: 1623 0140 ab02 e03c f9da f4bf e603 aa3e
00000140: 9411 6ebf ea64 55bf ae52 f3bf df87 cebf
00000150: 5343 203f 2d1f 4d3e b592 68be e5f2 34bf
00000160: e1fb 2fbf f8f5 163e 4452 d7bf 9e2c 8ebf
00000170: 83c3 1ec0 262b d5be 9cd0 2840 b1eb eebd
00000180: da25 07c0 5d1c cdbe 54d1 8cbe 53a7 98bf
00000190: 2b0e 103f f71f 69bf 1eed 1b3f e87f 323e
000001a0: 402b 81bf 6485 c6be 5d28 1ebf 9012 373f
000001b0: e970 abbf a988 893f d8f2 bdbe c6e8 bbbe
000001c0: 8c22 a8bf 25a1 663e 62ab 713e ae88 41bf
000001d0: f332 b43d 046f e43e fedc afbf 15ee 1bbf
000001e0: e19b bbbf 0e88 2abf 12bf f13d 6891 733f
000001f0: 3d05 643f 9aa1 93bf b68d b3bd 1b72 c8be
00000200: 448e 033f ee8e 36be 6383 eabf 10cb 49bf
00000210: f997 a2bf 038c 0a40 f4d3 f33e ba68 b63e
00000220: 9c25 07bf d3ae 8d3f 5458 e6bf 79fe 2040
00000230: 20f2 aa3e 8021 443f 50dc 0fbf 2546 8dbe
00000240: ca1e 1bbf d4dd e73e bf84 213f 0df3 3440
00000250: 49f3 8b3e d055 94be 1529 1ebf 0b3b 1ebf
00000260: 0269 5ebf 9a95 12bb a7f7 413d c69a ea3f
00000270: a8d8 83c0 5dab 843e 8ab5 a2bf 2cfd 963f
00000280: b432 bebf 79ef 1c3f 540c adbf 4fee febf
00000290: 514d 933f 1384 b9be bd15 a8be 95d1 5dbf
000002a0: 5dbd 10c0 99fa b73e 50eb b03c e0a2 b9bf
000002b0: 1185 f2be f87f 233f c127 bcbe b24a 2b3f
000002c0: 9251 a83e e546 753d 2ef7 a4bf 95fa 39bf
000002d0: e02f 9fbf eb09 2ec0 4daa 06c0 d9cc 98bf
000002e0: db44 9b3f 615c d5bf d4e6 06bf 6dc5 b4bf
000002f0: 8b52 06be cae2 d93f 8e4d a43f 5251 583f
00000300: 91c5 3040 4655 f2be 1ca4 1340 1c23 06c0
00000310: afc2 f8bf 47fa 4e3e c135 fbbe dc18 e73f
00000320: 8316 17bf 6ba6 1940 c806 bdbf c18f c4bf
00000330: a6ed c23e 94cd 953f 005d f43e 7a12 8dbf
00000340: 1dcf 07c0 2188 c0bf cdfe 23be 8522 ecbe
00000350: 4ea7 c53f 8fcd e6be a1af 693f dd87 bebf
00000360: 94f9 65bf 0b31 7d3f a248 00c0 cc2f 2abe
00000370: bf0c d73e 0875 66bf 3eff 5e3f 7e39 f83f
00000380: bd39 d4bd 8c1d eb3e da5f 46be acc0 09c0
00000390: e5fb 8cbf 1faa 29bf 2a8a 12bf 93a4 0540
000003a0: e972 63bf ec07 c7be f99c 92bf 318f 84bf
000003b0: acdb 0ec0 f7cd ec3e a68b b93f 2277 853f
000003c0: 21bf aabe 19e6 18bc ae3a eebd 6535 6c3e
000003d0: af26 30be 7c1c 69bf d78d 913f 783e 7b3f
000003e0: f582 67be 2b66 e9bf e792 e63d 49cf 403e
000003f0: fb49 1fbf 52d1 3240 4a1b c5be b08e ea3e
1.803321 0.21100363 -0.34340116 -1.0105629 0.22877407 -1.895643 0.27545393 -2.0549917
-1.2074 2.4520812 -0.48036647 -1.9016584 -1.0787475 -0.8502347 -1.3587035 1.1186521
1.7238623 -0.3596201 0.11360955 0.48335752 -0.29188937 0.775273 -0.4585568 0.5377359
1.6380197 2.3426719 1.0036585 2.7710104 0.029841263 0.084323876 -0.36410332 0.4344641
-2.1413105 -1.9914345 -0.42639032 2.8657267 1.0096314 -0.92071724 0.65709317 -1.1910962
-1.2437056 0.96198463 -1.335489 -0.9782553 -1.5536435 1.6693286 0.41418025 -1.0685234
-1.1280373 -0.0068287672 -0.84140587 0.15176268 -1.111757 0.9062733 -1.7147901 -0.93566585
-2.3267925 -0.8786263 1.2438939 0.036215995 0.4516623 2.5763443 -1.9627898 1.615307
2.489029 1.6835206 3.2349157 -0.89392203 0.7156449 1.0371459 -1.1676468 -0.09641836
1.088227 2.4496295 0.53705835 1.2135116 2.0177665 0.027345022 -1.9129325 0.332061
-0.9299557 -0.8335711 -1.9009607 -1.6135215 0.6260273 0.20031424 -0.22712214 -0.7068313
-0.6874371 0.14742267 -1.682198 -1.1107366 -2.480683 -0.41634482 2.6377325 -0.11666048
-2.1116853 -0.40060702 -0.27503455 -1.1926063 0.5627162 -0.910644 0.6090869 0.17431605
-1.0091324 -0.38773644 -0.6178034 0.715127 -1.3393832 1.074483 -0.37099338 -0.3670103
-1.3135543 0.2252241 0.23600534 -0.7559918 0.0879878 0.44615948 -1.3739316 -0.6091016
-1.4656945 -0.6661385 0.11804022 0.9514375 0.89070493 -1.1533692 -0.087672636 -0.39149556
0.51388955 -0.17827961 -1.8321346 -0.78825474 -1.2702628 2.1647956 0.47622645 0.35626775
-0.5279176 1.1068977 -1.7995706 2.5155318 0.33387852 0.76613617 -0.56195545 -0.2759258
-0.60593855 0.4528643 0.6309318 2.8273346 0.2733405 -0.2897172 -0.61781436 -0.6180884
-0.8687898 -0.0022367002 0.04735532 1.8328483 -4.1201973 0.2591199 -1.2711651 1.1796012
-1.4859223 0.61302906 -1.3519387 -1.9916476 1.150797 -0.36233577 -0.32829085 -0.8664792
-2.2615578 0.35933378 0.02159658 -1.450283 -0.47367147 0.6386714 -0.3674908 0.6691085
0.32874733 0.059882063 -1.2887933 -0.7264798 -1.2436485 -2.7193553 -2.1041443 -1.1937515
1.2130388 -1.6668817 -0.52695966 -1.412275 -0.13117425 1.7022336 1.2836168 0.84499085
2.7620585 -0.47330683 2.3068914 -2.095893 -1.9434413 0.2021266 -0.49064448 1.8054461
-0.59018725 2.4007823 -1.4767694 -1.535637 0.38071936 1.1703362 0.47727203 -1.1021264
-2.1220162 -1.5041543 -0.16015168 -0.46120086 1.5441682 -0.45078704 0.91283613 -1.4885212
-0.8983395 0.9890296 -2.0044332 -0.16619796 0.42001912 -0.90022326 0.8710822 1.9392545
-0.10362575 0.4592098 -0.19372502 -2.1523848 -1.1014372 -0.6627521 -0.5724207 2.0881698
-0.88847214 -0.3887323 -1.1454154 -1.0356199 -2.2321577 0.4625089 1.4495742 1.0426981
-0.33348945 -0.009332203 -0.11632286 0.23067243 -0.17202257 -0.9105909 1.1371411 0.98142195
-0.2260855 -1.8234304 0.11258488 0.18829073 -0.6222226 2.794026 -0.38497382 0.45811987

layers.0.weight f4 [256, 32]
00000000: d1cd 32be 1068 90be a8c1 6f3d 9d41 6cbf
00000010: cd55 193f 6d50 16bf 52ce 7bbf 6a81 adbe
00000020: cb60 d6be 4add 183e 9bad 84be 468d 6e3e
00000030: 518c fa3e 6a9e 923e ae8d c23e 943f d13d
00000040: 3995 1dbf 9f7e a4be b32e 233e 3967 4bbe
00000050: d790 ac3e 364b 63be a4dd 47bf 7062 09bf
00000060: 72f2 80be acc4 5ebf 14d8 4a3e 4fda ae3d
00000070: 0be0 e63e 828f 88bf 93d3 913d b785 533f
00000080: 7b86 8fbe 56c4 cd3e 7252 2bbd fdd6 eabe
00000090: 9581 143f c53b 84be e2a8 ebbe a9e0 313e
000000a0: 7da5 0a3f 78f1 82be 15a6 9dbe dea7 113e
000000b0: 267c 1fbe c658 34be 1259 9bbf 0ead 433e
000000c0: 66ed d1be a26d 7d3e 6127 c63e 74aa 903d
000000d0: c21d 443d 5569 6abe 8e1a 153f 7d0a 9fbd
000000e0: 94f1 70bf d21f af3e 3b76 173f 3532 63be
000000f0: 6ba1 b7be 1c66 b43e b70c c8be 3e04 21bf
00000100: 4fd1 bfbe f7d0 cfbc 8928 1abe 2805 71be
00000110: a820 9b3e e2d8 88be c9c2 91be 181f 373e
00000120: 2ca1 d8be 52af ba3e a773 01bf 2f28 ff3d
00000130: 234c 8cbe 7ffb e1be 4146 d9be a146 5fbf
00000140: 8740 01be 5cf9 d33e cc91 013e 7aab 873e
00000150: 18c4 ec3e 18d7 353e e339 b7bd f1e2 d8be
00000160: e7ba 8b3d f9b0 80bf 0f57 103e 5890 12bf
00000170: 8336 b0be acb5 053f 44e9 ba3d ac9f 363f
00000180: 3344 b0be e1a6 9d3c 03ab 03be e966 133d
00000190: cd44 0b3e 24a8 903d 752a 21be 2fb8 0dbe
000001a0: e3ff 34be 6347 173f dff5 543c 0ce5 b0be
000001b0: f0c0 5abe ed1b d53e 490c bb3e 4d2f 8b3a
000001c0: 6be9 73bb a28c abbe 4ce0 b73e b343 3cbf
000001d0: ae73 60be b033 2abd 564d b0bd acf0 0ebe
000001e0: 2660 28be ec6c 293f 5564 5dbf cd90 fdbe
000001f0: 5c8e 11bf 8a24 1dbf 28d9 35be a1d6 453f
00000200: cb5d 813e 0d52 893e c1b4 5fbe f10a f8bd
00000210: 1473 483d 503e f4bd c987 2f3e 714a 9a3e
00000220: 2eda 5fbe 34f8 fc3d 7328 bdbe d5fb fb3e
00000230: 0a2c 0e3c 9fa5 413f c82d d1be e965 b83e
00000240: 0960 973e 2730 fabd 8690 bc3e 23f9 0a3d
00000250: 508a 893d 8586 583e 3ef3 ef3e 5f86 b2be
00000260: 0bd0 183f c736 e03e c9a5 203f 81ca 71bf
00000270: ae52 5f3e f278 4d3e 0040 c13e fccd 753e
00000280: 1953 163f c9b1 22bd ebe7 6a3e 4e8f 4d3e
00000290: ab3a b33e 4f64 ab3e 11ea 58bd c31c edbe
000002a0: 97f1 f3be 9c14 a2be f2e0 e33d 39ce 983e
000002b0: 1dbe 82bd df41 4c3e fdc4 213f 51a3 7d3e
000002c0: 3683 09bf 5879 373d 0e3c 0d3f b8e4 47be
000002d0: d0fb ccbe 35c0 14bf 5f71 813f b424 2abd
000002e0: 7be6 fabe e86f 19bf b7cd c5be a54c 433e
000002f0: a9ee b7be cf17 293d 9017 e93e dc8d 95be
00000300: b7a3 003f f7a6 0f3f 7c99 02bd fc82 31be
00000310: 1e47 02bf 033d 0c3d 1ad0 09be d5da fa3e
00000320: 569e 76be ffd5 f13d d1f4 223c 6d11 97bd
00000330: 1804 6abe 4302 8dbe cfbb 2fbf 2e67 81be
00000340: 5f78 cfbd 5af6 74bf 8838 96be 3a1e 9c3d
00000350: c3a7 f3bd 8e1f cdbd 6346 223e 33cf 28be
00000360: 0a60 a1bf 2ead 0dbf e0cf 6f3e c5b9 efbe
00000370: 6525 a9be 08f0 0b3f da06 0dbf 4ad2 873e
00000380: d176 d13d 995c 203d 6255 72be c0fd 923d
00000390: 9410 fc3e 167a c03e 79a8 06bd a508 6e3f
000003a0: 2a6b 59be 698a 663e 13df fc3e c024 08bf
000003b0: c83f 9a3e f8e8 64be 4e45 25bf 9c48 123f
000003c0: 8a78 e2be 0435 eb3e 72ec d43e 9669 98bc
000003d0: ee9b d9be b54b 193e 686d 043c e0a9 973e
000003e0: fa1e 87be ea30 e73c 9eee 70bf 752d 123e
000003f0: 7562 383e 4a5a 4fbe 151b d6bd 258e 8fbd
-0.17461325 -0.28204393 0.058534294 -0.9228762 0.59896547 -0.5871647 -0.98361695 -0.33887798
-0.41870722 0.14928165 -0.259137 0.23296079 0.48935178 0.28636485 0.37998718 0.10217205
-0.6155582 -0.32127854 0.15935783 -0.19863595 0.33704254 -0.2219666 -0.7807257 -0.5366583
-0.2518497 -0.8701885 0.1980899 0.08537733 0.45092806 -1.0668795 0.07120433 0.8262591
-0.28032288 0.40188855 -0.041826673 -0.45867148 0.58010226 -0.2582685 -0.46027285 0.17370857
0.54158765 -0.2557485 -0.30790773 0.14224193 -0.15574703 -0.1761199 -1.2136557 0.19108984
-0.41001433 0.24748853 0.3870192 0.07063761 0.04787994 -0.22891743 0.58243644 -0.07765672
-0.9411862 0.34203964 0.5916478 -0.22187121 -0.3586534 0.35234153 -0.390722 -0.628971
-0.37464377 -0.025368197 -0.15054525 -0.23537123 0.30298352 -0.26727968 -0.28468922 0.17882955
-0.42310464 0.36461884 -0.50567096 0.12458836 -0.27401838 -0.4413719 -0.42436412 -0.87217146
-0.12622271 0.41401184 0.12653273 0.26498014 0.46243358 0.17757833 -0.08946588 -0.42360643
0.06822758 -1.0054008 0.1409571 -0.572515 -0.3441659 0.52230334 0.09126523 0.7133739
-0.34427032 0.019244613 -0.12858205 0.035986815 0.13600464 0.0706332 -0.15738852 -0.13839792
-0.17675738 0.590933 0.012998073 -0.3454975 -0.21362662 0.41622868 0.3653281 0.0010618955
-0.0037217985 -0.33505732 0.35913312 -0.735408 -0.21919128 -0.0415532 -0.08608501 -0.13958997
-0.16442928 0.66181827 -0.8648122 -0.49524537 -0.5685785 -0.6138388 -0.1775862 0.7728062
0.2526687 0.26820412 -0.21846296 -0.12111462 0.048937872 -0.11925948 0.17141642 0.3013492
-0.21860573 0.123520285 -0.36944923 0.4921557 0.008677492 0.7564334 -0.4085524 0.3601525
0.29565457 -0.122162156 0.36829013 0.033929 0.06715834 0.21145065 0.46865267 -0.34868142
0.5969245 0.43791792 0.6275297 -0.9444962 0.21808884 0.20065668 0.3774414 0.24004358
0.58720547 -0.03972033 0.22940032 0.20074198 0.35005698 0.33474967 -0.052957598 -0.46311006
-0.47645256 -0.3165635 0.11126889 0.29844835 -0.063839175 0.19947003 0.63191205 0.24769332
-0.53715837 0.044793457 0.5516976 -0.19520843 -0.40035868 -0.58105785 1.0112723 -0.04153891
-0.49003968 -0.5993638 -0.3863351 0.19072206 -0.3592427 0.04128247 0.4552579 -0.29209793
0.5024981 0.56114143 -0.031884655 -0.17335123 -0.50889766 0.034237873 -0.1345829 0.4899508
-0.24083838 0.11808395 0.009946064 -0.073763706 -0.22853124 -0.27540788 -0.6864595 -0.25274032
-0.10130381 -0.956884 -0.29340005 0.07622953 -0.118972324 -0.10015784 0.15847163 -0.1648529
-1.2607434 -0.55342376 0.23419142 -0.46821418 -0.33036342 0.54663134 -0.5508858 0.26527625
0.102277406 0.039150808 -0.23665383 0.07177305 0.49231398 0.37593144 -0.03287551 0.9298194
-0.21232286 0.22513737 0.49388942 -0.53181076 0.30126786 -0.22354496 -0.64558876 0.57142043
-0.4423259 0.45938885 0.41586643 -0.018605035 -0.42501777 0.14970286 0.008082725 0.29621792
-0.2639082 0.028221566 -0.941141 0.14275153 0.18006308 -0.20249286 -0.10454384 -0.07009534

layers.0.bias f4 [256]
00000000: 9b36 0bbf db4a 8dbe 3e5e 0a3e 8a45 f2bd
00000010: ec6b 2d3e 5c07 833e 5983 ed3d 51d5 f0bd
00000020: 052d af3c 6d49 cbbd 3d5e 5abe d3dd 5bbe
00000030: 7a26 a03d 0034 a83e feab 2a3e 75bb 5cbc
00000040: 224d b8be f5b5 f63d 4d54 b23c e4e4 91be
00000050: 996b 663e 2443 e83d d250 d73d 505f e03d
00000060: 6f57 12bd 8455 2ebe 4630 ac3d ef23 09be
00000070: be55 51be 318f 543c 91a3 adbe 9d09 3c3e
00000080: 93fc 37be 4b97 ebbc e9bb d5be aaa1 9d3c
00000090: 7d4f 1ebf 0aa3 493d a725 1c3e 3782 ca3d
000000a0: 3b91 703e 6056 143e c2c8 1bbe c38c 89be
000000b0: 0ff6 ecbe d524 74be 5ce1 233e 9d81 fb3d
000000c0: 2221 e93b bf8c 513b 97e5 e1bc 23b8 223e
000000d0: c5b1 163e 127f f63e aa04 88be 7be8 10be
000000e0: e9c1 0bbd 117d a73d f5e0 e63b cffc 9e3d
000000f0: 770f 70be 50e1 47be 9d40 1abe dbce 30bf
00000100: ac8e d6bd 7773 093e 2dd9 02be a302 40bd
00000110: edfa 763e b3ba 4ebe 0fc3 b0bc 8f92 26be
00000120: 96c3 cabd 90fa afbe f5a0 abbe 382e b53e
00000130: ee28 2d3d dfa6 0e3c fccf 18be 5a8c ae3e
00000140: 001b eb3d 87c9 1cbf b5f9 293e 2453 e3bd
00000150: bfd6 8ebe cda0 393c 7913 6ebc bbd4 1a3e
00000160: 5828 93be 3e62 1ebd d2c8 32be 00a0 6d3c
00000170: 9c07 913d 9b52 a93d cb8a 9bbd da25 7b3e
00000180: 8f31 ab3d 304b a8be e062 913e 3670 c53d
00000190: f657 513d ede5 b0ba 9272 d0bd f05c dfbe
000001a0: 6cec 0e3e f409 353e ba0b a6be 8619 5a3d
000001b0: 315f dbbd b724 273e 6d9f 2bbe 9bf7 cdbd
000001c0: 4d17 6bbd 09c4 0abd 6f37 a3bc 817e fcbc
000001d0: 3650 013e 3daf 24be b276 503c 0de2 83be
000001e0: 2c06 323e 135f c1be b8c1 e03d a9b2 253d
000001f0: 0b92 033e df5f 51be 657e 1dbe 3e66 93be
00000200: 614c 78bd f0dc 57be 4471 c73d 23aa bf3c
00000210: d73b 223d 5ec8 263d 407b b73e 1ccd f33a
00000220: 59f1 0c3c e970 743d 9a59 593e e3c9 5fbe
00000230: 1b59 c7bd c3cb 8b3d 3803 a83d 99dc bd3e
00000240: 814f 75bd b25f 553d f5fa 273c c32f a1bc
00000250: c551 033e 6698 ac3e 49c1 95bb 8b2c ea3b
00000260: c101 f7bd 19fc c1bd ea39 b0bd d027 9d3d
00000270: 33b7 ffbb e6ce 4d3e e016 92bd 4c55 013e
00000280: e872 cdbd 4b62 d7bd 2ef2 a63e 26c0 cfbd
00000290: b63d f1bd 051b 8cba 694e 523e e9fd 4c3e
000002a0: a1b9 763c 2902 71bc c8df 4a3c 66f1 55bd
000002b0: 1322 863e 96b1 5abe 3ac5 2cbe 4506 2bbe
000002c0: 5b03 ce3d f1d6 0abe bd5a 51be 876c 153e
000002d0: 67bb 863d 7ff2 34bd 5167 0d3e 6c1f 12bb
000002e0: 86c8 67be d9ab 14bf 844e 163e ae31 a0be
000002f0: a271 8ebd b71f ff3d d080 653e af20 96be
00000300: 0629 523e c104 483e 182c 213d 39a7 5fbe
00000310: 1883 583e 8080 eb3d d879 9c3e 2279 d03e
00000320: 9120 27bd ba78 abbe 7219 983d 3ed0 693e
00000330: 7c20 383d 59bf 973d 3bb9 acbd 1097 ed3e
00000340: 7df5 dbbc dbfc d3bd f80c 193e 34f9 c2be
00000350: 43eb c53d 9eb2 b6be b5e1 fc3c b2d0 a83e
00000360: 4200 c2be b2a3 853d 1a19 b43d 1180 903c
00000370: 93ec ac3d 3c2e 9bbc b05d d2bb 80f1 493d
00000380: ed41 29be a5de ffbc 0edf 8c3e dfc2 ad3d
00000390: a0a3 a33e 25e2 a93e 0583 17be 291a f0bb
000003a0: 7807 893c eba5 c6bd bb9d 093d d6a7 213e
000003b0: d283 373e aed4 bebc 35af 503d c114 babe
000003c0: a68f 8bbe 93ef 52bc 9bbd cbbd 1af1 c7bd
000003d0: ef26 fdbd 21ca a13e 4a48 a23e fbb3 9e3d
000003e0: 8a4f 9c3e 29c8 273e 031a b43e 7fbc 273d
000003f0: e420 70bd ba97 f2be 82ba e13a 37c2 01bf
-0.54380196 -0.27596173 0.13512513 -0.1182967 0.169357 0.25591552 0.11597318 -0.11759437
0.021383772 -0.09926114 -0.21325012 -0.21471338 0.07819839 0.32852173 0.16667172 -0.013472428
-0.35996348 0.12046424 0.021768713 -0.28494942 0.22501983 0.11340931 0.10513462 0.109556794
-0.035727914 -0.17024809 0.08407645 -0.13392614 -0.20442864 0.012973593 -0.33913854 0.18363042
-0.17967443 -0.028758666 -0.41744927 0.019242126 -0.6184004 0.04922775 0.15248738 0.09888118
0.23492901 0.14486074 -0.15213302 -0.26865205 -0.46281478 -0.23842175 0.16003937 0.12280581
0.0071145454 0.003197476 -0.027575297 0.15890555 0.14716251 0.48143822 -0.26566058 -0.14151184
-0.034120474 0.081781514 0.00704586 0.07763063 -0.234434 -0.19519544 -0.1506371 -0.69065636
-0.10476431 0.13422953 -0.12778158 -0.046877515 0.24119158 -0.20188408 -0.021577386 -0.16266845
-0.09900586 -0.34370852 -0.33521238 0.35386825 0.04227536 0.008706777 -0.1492309 0.34091455
0.11479759 -0.61245006 0.16599162 -0.11099842 -0.27898213 0.011329842 -0.01453101 0.15120213
-0.28741717 -0.03866791 -0.1745942 0.014503479 0.070815295 0.08267709 -0.07594832 0.24526158
0.08359062 -0.32869864 0.28395748 0.09640543 0.051109277 -0.0013496258 -0.101781026 -0.43625593
0.13957375 0.17679578 -0.32430822 0.053246997 -0.10711516 0.163226 -0.16760035 -0.100569926
-0.05739527 -0.03387836 -0.019923894 -0.03082204 0.12628254 -0.16082473 0.012723612 -0.257584
0.17385167 -0.37767848 0.10974449 0.040453587 0.1284868 -0.20446728 -0.15380247 -0.28788942
-0.060619716 -0.21080375 0.097384006 0.023396557 0.03960785 0.04071843 0.3583622 0.0018600556
0.008602464 0.059677992 0.21225587 -0.21854357 -0.097337924 0.06825974 0.08203739 0.37082365
-0.059890274 0.052093215 0.010252704 -0.019676095 0.12824161 0.3371002 -0.0045701605 0.007146423
-0.120608814 -0.09471912 -0.08604796 0.07673609 -0.0078038215 0.20098457 -0.07133269 0.12630194
-0.10031682 -0.10516795 0.32606643 -0.10144071 -0.117793486 -0.0010689205 0.20537724 0.20018734
0.015058906 -0.014709988 0.012382455 -0.05223217 0.26197872 -0.21356806 -0.16872111 -0.1670161
0.10059234 -0.13558556 -0.2044477 0.14592181 0.06578713 -0.044176575 0.13808943 -0.002229656
-0.22635087 -0.5807472 0.14678389 -0.31287903 -0.069552675 0.12457221 0.2241242 -0.2932181
0.20523462 0.19533063 0.03934869 -0.21841134 0.21143758 0.11499119 0.3056171 0.40717417
-0.040802542 -0.33490545 0.07426728 0.22833344 0.044952855 0.074095435 -0.084337674 0.46404314
-0.026850456 -0.10350963 0.14946353 -0.38080752 0.09664013 -0.3568315 0.030869344 0.32971722
-0.37890822 0.06525363 0.0879385 0.017639192 0.084435605 -0.018942945 -0.00641986 0.049302578
-0.16529055 -0.031234095 0.27513927 0.08484434 0.31960773 0.33180347 -0.14796074 -0.0073273373
0.016727194 -0.09699615 0.03359769 0.1578668 0.17921379 -0.023294773 0.05094834 -0.3634396
-0.27258033 -0.012874502 -0.09948274 -0.09762783 -0.123609416 0.31599525 0.31695777 0.07749172
0.30529433 0.16384949 0.35176095 0.04095125 -0.058625117 -0.47381383 0.0017221721 -0.50686973

layers.2.weight f4 [32, 256]
00000000: 9e9c c53e fc4f d0be ded7 cfbe c4ca 1fbd
00000010: 637c ec3e c4af 2cbd e370 90bd 9b58 37be
00000020: f5c4 20be 686a 8e3d d656 14bf 3378 00bf
00000030: c6c4 3e3e 8d33 0fbf 0817 27be 4697 3f3d
00000040: 17d7 253f 90ba 8ebd 8a3d 7c3d 1b66 ecbe
00000050: 4b8d d23d c519 3abd 1813 e5bc 44e5 93be
00000060: 15ab 873e c022 123e 0bb2 8ebe e214 fc3e
00000070: 45fb 903e 4a77 cebc 5307 bf3c be40 d73e
00000080: c1ae 0fbe a914 f93e 5f34 963e 4a2d d73e
00000090: 3d44 9abe 759d b5be 6031 2ebb 0fce 8d3d
000000a0: 5e2f 913e 6fd0 94be 94bd 0a3f 1454 3f3f
000000b0: 59ba 48bc 12cb 04be 6d36 0fbe 0519 e9bd
000000c0: 538b a43e cf87 893e 133c 913e 0652 0f3e
000000d0: a44d 80bd b04e 113f 1f06 a2bd 4051 19be
000000e0: 82e6 043f a2aa f43d a22d 00be a566 89bd
000000f0: aadc 9e3c f3c4 0abd 110c 0ebe 5f61 803e
00000100: b9ec 983e 1235 53be e891 5b3e d4ca 743e
00000110: 5116 b8be dddd 4abd 9276 30bd 18d6 2ebf
00000120: 4b6a 933e c6f7 873c 52ff a3be f956 3cbf
00000130: c360 a23d 5ac8 413d 1af9 323e 5ab0 093f
00000140: 28f7 8c3e 8086 4dbe b21f 6dbe 0d9b 25bf
00000150: 91d4 2e3f 0f99 0d3c e082 ee3e 2000 9a3b
00000160: e6b1 71bf 3955 d7bc 7e6a b93e a2be c73e
00000170: 2662 c83e bc0e e2bd 7de1 e13b 6563 c9bd
00000180: bac7 dcbe f2da 10bd 6334 b63e 3d68 f7be
00000190: a99d c83e b097 9bbe 984b 413f 1615 20be
000001a0: 04a6 b63d e225 2a3f c37a 8f3e 0df5 373d
000001b0: 9c0d 9c3e 0fec 203d 46bb 31be 5384 093e
000001c0: 161d 3f3e 3eb4 a13e 4240 dabd bcea a9be
000001d0: 642a a43e 2ef7 dbbe 8608 323e ff13 abbe
000001e0: 5749 d2bd c78e 583e d3e4 c03d e5bb 7c3e
000001f0: 4e13 a13e 45ff 60bf fbb9 a23d 9001 bebd
00000200: 0621 5a3e 74af f53e 94fb f4bc 763b 9c3d
00000210: 0a0f c93e 1f5a c83d 5841 6b3d 7a96 68be
00000220: e17c 3f3d 3f51 883c b4f9 f8bd 2487 c0bd
00000230: f8ef fcbd d91d de3e 2d6d 72bc 06cd f13e
00000240: e643 c43e 4aa3 54bd 3753 88be de35 203e
00000250: 0a91 b1be 6988 f53d 0e66 6fbd 1017 043f
00000260: b7f3 0e3e b96a 2ebe 3f19 4b3e ae98 d2be
00000270: 7533 93bd 67f0 ed3e 10a9 cfbe 1c1a b2be
00000280: 1f2c bebe a691 b23d c451 713e 6d40 f33d
00000290: 3ca9 f33d 8611 e0be d45c d33e 2f1f 0bbe
000002a0: d910 1e3d 7e61 5ebe 12b7 88be e196 633d
000002b0: b359 853e 76be 9abe 780e 2d3e c258 65be
000002c0: bccc 8a3e 82bb 2d3f 9d1e 8c3e 2b06 0ebd
000002d0: 5f28 fd3e eef6 a3bd 0a54 be3e eb81 f53d
000002e0: 480a c43e 614b 18bd 4aec 4dbd 7c1d 0c3e
000002f0: da7f 0fbe ad9a 9f3e fd6f 54be 19fd 203e
00000300: 1ab1 60bd ec68 17bd 862a eabe 6b12 b1bd
00000310: aba0 903e c891 bdbd f328 e33d 3711 d73e
00000320: 9820 07be 65ec 993e ed47 ae3c e743 1ebf
00000330: 4fd5 453e d989 b03d a559 0bbf c011 f0bb
00000340: 34ba 813c 0932 a6be 8655 a9be 5cc0 073e
00000350: b9d8 b7bc 75cd 8d3d da58 6d3e be52 403e
00000360: 86be 72be 9efc abbe 0c09 37bf 0cdd 6f3e
00000370: 5390 2b3d d38f ab3e 5ad2 b4bd 10aa 343c
00000380: 0b49 b0be 23e4 2ebe 8649 f53e 3a2f 483c
00000390: 269d 113e 6726 813e da7b 5c3e 9ed3 e53c
000003a0: 6b61 d63d 34a8 bf3c 5723 1e3f 6649 0b3e
000003b0: 848c 28bf 21b0 28be b13e 03bf b920 34bf
000003c0: 5fcf 7bbe cf12 17bf 37a6 b9be 3f80 05be
000003d0: f51b 33be e008 08be b3d2 c63e e986 65be
000003e0: c6ba 8dbe f73c 013e 050f 033f 42c9 50be
000003f0: 52b6 0c3e 9ef4 303d bd99 4b3f 5b09 a4bd
0.38596052 -0.40686023 -0.4059438 -0.03901173 0.4618865 -0.04215981 -0.070527814 -0.17904894
-0.15700133 0.06953889 -0.57945 -0.5018341 0.1862975 -0.55938035 -0.1631738 0.046775125
0.64781326 -0.06969178 0.061582126 -0.4617165 0.10280856 -0.045434732 -0.027963206 -0.28885853
0.26497713 0.14271069 -0.2787021 0.49234682 0.28316703 -0.025203366 0.023318922 0.42041582
-0.14031507 0.48648575 0.2933683 0.4202674 -0.30130187 -0.35471693 -0.0026579723 0.06924068
0.2835645 -0.29065272 0.54195523 0.7473767 -0.01225146 -0.1296809 -0.13985606 -0.11381725
0.32137546 0.26861426 0.28366145 0.13996133 -0.06264809 0.5676069 -0.07911324 -0.149724
0.51914227 0.11946608 -0.12517408 -0.06709031 0.01939233 -0.03387923 -0.1387179 0.25074288
0.29868105 -0.20625713 0.21442378 0.23905498 -0.35954526 -0.04952799 -0.043081827 -0.6829543
0.28792033 0.01659764 -0.3203073 -0.7357021 0.07928612 0.04731021 0.17477837 0.53784716
0.27532315 -0.20070839 -0.23156622 -0.64689714 0.682931 0.008642449 0.46584225 0.004699722
-0.94412076 -0.026285755 0.3621406 0.3901263 0.3913738 -0.110379666 0.0068933354 -0.09833411
-0.4312113 -0.035365053 0.35586843 -0.48321715 0.39182785 -0.30389166 0.7550597 -0.15633044
0.08918384 0.66464055 0.28023347 0.044911433 0.30479133 0.039287623 -0.17356595 0.13429384
0.18663439 0.31582826 -0.106567875 -0.331869 0.3206359 -0.4296202 0.17386064 -0.33413693
-0.10267895 0.21148215 0.09418645 0.24681051 0.3146004 -0.8788951 0.07945629 -0.09277642
0.2130166 0.47985423 -0.029905118 0.07628529 0.39269286 0.09782814 0.057435364 -0.22713652
0.046749953 0.016640304 -0.12157002 -0.09400776 -0.12350458 0.43382147 -0.014796537 0.47226733
0.38333052 -0.051913537 -0.26625988 0.15645549 -0.3468097 0.11988909 -0.058446936 0.5159769
0.13960157 -0.17032899 0.1983385 -0.4113211 -0.07187549 0.46472475 -0.40558672 -0.34785545
-0.37143037 0.087191865 0.23566347 0.118775226 0.11897513 -0.4376337 0.4128176 -0.13586114
0.038590286 -0.21716878 -0.26702172 0.05556381 0.26044998 -0.30223435 0.1690005 -0.2239714
0.27109325 0.6786424 0.27367106 -0.03467385 0.49444863 -0.080060825 0.37173492 0.119876705
0.38289094 -0.037181262 -0.05027417 0.13683122 -0.14013615 0.31172696 -0.20745845 0.15721549
-0.054856397 -0.036965296 -0.45735568 -0.08646091 0.2824758 -0.09256321 0.11091795 0.4200532
-0.13196027 0.30063167 0.021274531 -0.6182236 0.19319652 0.08620042 -0.5443366 -0.0073263347
0.015835859 -0.3246005 -0.33073062 0.13256973 -0.022442209 0.069239534 0.23178425 0.18781564
-0.23705491 -0.3359117 -0.7149818 0.23424166 0.041885685 0.33508167 -0.08829184 0.011026874
-0.34430727 -0.17079215 0.47907656 0.012218291 0.14220104 0.2522461 0.2153162 0.028055009
0.104678 0.023395635 0.61772674 0.13602218 -0.6583941 -0.16473438 -0.51267534 -0.7036243
-0.24590825 -0.59013075 -0.36259624 -0.13037203 -0.17491134 -0.13284636 0.38832626 -0.22414745
-0.2768156 0.12620912 0.51194793 -0.20389274 0.13741425 0.043202035 0.7953146 -0.08009597

layers.2.bias f4 [32]
00000000: 9f2b 213e 3f96 9d3d 049f f3bd 431d a6bd
00000010: cfd5 ef3b 32a1 1c3d e9e2 fd3d df38 c93d
00000020: 026e 27be b939 183d dd60 8abd 50f0 35ba
00000030: 6212 123e 6e48 803e eefe 213e c683 453e
00000040: f945 bb3d f9ec 2e3e db5a 4b3e 7f97 fb3c
00000050: 02ea 343b 5ab5 a23d 6561 023e 6a6e 1cbe
00000060: 40d5 123e 3d51 b53d c0d3 243d e6e8 443d
00000070: 57e7 e13d 5866 7c3d 63f9 d73d 2623 073e
0.15739296 0.07694673 -0.11895564 -0.0811105 0.007319189 0.038239665 0.12396795 0.098253004
-0.16350558 0.037164424 -0.067567565 -0.00069404114 0.14264825 0.2505526 0.15819904 0.19288549
0.091442056 0.17082585 0.19858877 0.030711887 0.00276053 0.07944746 0.12732466 -0.15276495
0.14339161 0.088533856 0.040241003 0.04807367 0.11030453 0.06162104 0.105456136 0.13197002

layers.4.weight f4 [1172, 32]
00000000: 59d8 01bf 95c0 033e a69d ab3e 4da3 9e3e
00000010: 6a8b 2abd ebf2 373e 4161 6dbf 8dfd 48bc
00000020: 3b0d f1be 50f1 37be 5405 f13d a563 08be
00000030: 22e6 e7be 1a67 b1be 626a 5ebe 0917 843e
00000040: 9841 18bf a885 013e 7624 19be c762 9a3e
00000050: 81de 2f3e 46e1 5b3e da1b 7fbe 17c3 023f
00000060: c2df bdbe 54a8 17bf acf0 b0bd d464 8f3e
00000070: 8d2c 203e bcd0 9ebd 5b09 cfbd 472b 15bf
00000080: d4b4 533e 5198 28bf 6597 e5be aebc b8bd
00000090: ece9 84be 427f 593e c014 643e 14b7 dbbd
000000a0: abce 88be 6702 d63c 772c bdbe 2090 20be
000000b0: a7a9 5bbe 1847 103e 83ea 603c 2935 6abc
000000c0: 8b51 32bf 6830 403e e5d9 123e 7b86 c9bc
000000d0: f36f 0bbe 9578 b0be 45e2 87be 40b5 d1be
000000e0: 2776 c93b 7959 5ebe 9a3c 3abe d6c4 973e
000000f0: d457 b53e f2a2 9abe 082c bdbe cc69 1cbd
00000100: d1c1 0bbf d02d c8be 401f 0bbd ae51 363f
00000110: 2570 5e3f 56a0 29be 9a4d c73c 5f44 d43d
00000120: e5c3 fe3e 8e9d 85bf 18c3 debe 1bd3 9a3d
00000130: 4597 34be 714a 553e 6c17 173a 59ef f2be
00000140: 04f0 27be f176 023e 45e6 d63c a3c7 723e
00000150: 2d7d 19bf d520 82bd d294 84be 072c 76bf
00000160: 5812 18bf 343c a7bc 2424 6ebd 00e7 9b3e
00000170: a424 0c3e bd9e 9d3f 4940 66be beb3 1f3f
00000180: f146 9ebd f4ae 0d3e fe45 11bf 45ab 7a3e
00000190: 1e5c f1be 093d d43d 9c75 afbe 1da4 293e
000001a0: 8745 aabe 124c 7abd d2d1 bf3e 55b5 e9bd
000001b0: da4c 343e 4f91 183e 84ae 033e 6ed1 30bd
000001c0: 5dca af3d ee9b 9e3e 6899 a53d 80d0 b03e
000001d0: cdbd 60bf 2977 a83d 7226 54bd 2141 0d3e
000001e0: 5217 69be fd08 ca3e 958a 09bf 4431 c23d
000001f0: 006b 993d b72b 61bf b35c 5ebe e0e1 14be
00000200: 17ff 723d d586 1c3e 049a d33e 3479 89bf
00000210: 45bb 50bf 8aab 2f3e 46a8 aebe 56e7 c93d
00000220: 5ab9 e3bd bf60 f6bc 57ff 31be 2586 4bbf
00000230: 8bcc af3c 0d54 cf3d 9a04 393d d1e6 ac3b
00000240: 9442 71bc b6d2 6d3e c81b 543e e680 05bf
00000250: bee0 6e3d 096a 123d f792 19bd 6011 41bd
00000260: 23a9 42be 8fc4 7c3e 1316 41bf 73e3 7d3e
00000270: 00b4 263d 2055 14bf b304 e3bd 4178 4f3e
00000280: 3ba7 c8bd 9229 a4be a643 c53c b041 c2be
00000290: 6d60 f2bb 2c58 36bf 8fbc 15bd d2ff 0bbf
000002a0: 1b5e b03e b0a7 3fbd c206 b2be ca66 d9bc
000002b0: 42d6 01be 468e 9fbd b359 42be ddcc 5cbf
000002c0: f33e a2be 5827 683d 6745 24bd fc53 733e
000002d0: f54e 3abe d509 b83e d859 6fbf 016b 81bf
000002e0: 13ae 71be 695c 073f 4af9 81be 3e38 9ebf
000002f0: c999 c13d cb8f d23d a24d 8a3e 5075 e43e
00000300: 5779 7cbe f576 28bf 7b41 513d bf2b f73d
00000310: 2cab bd3c 4009 a43b f0bd 10bf c5eb cc3d
00000320: 2309 c2be 12f3 3fbf 2950 2a3e 3101 e73d
00000330: 8bc8 943b 47ce 59be 12db a7be 3d65 093f
00000340: ab14 843e b5ef 82be c44e fbbe 6796 093d
00000350: 1950 2abd aef3 3c3e 436d ee3d 5d2e 0bbf
00000360: c90e bbba 5e76 37be 5623 293e b302 b03e
00000370: a4a8 78bd 6ec1 973e 2075 503e 478f 2c3e
00000380: 0d7b 62bf 31fc 0ebd c141 923c 01aa cdbb
00000390: f77f 283e 2def 663c 58b0 2bbf a64a 893d
000003a0: 6605 623e b289 3dbc 66a2 ee3c 9964 9e3d
000003b0: 5192 493e fbcf d6be e2f6 20bf 7a2d b7be
000003c0: 4a6e 4cbf 845f 59ba b2b0 7dbf 1ae7 503e
000003d0: 8f97 963d 316e 633e 2a99 bfbd 894a 48bf
000003e0: 3421 a03e 4d34 cabe 5f2a d1bc edea d63e
000003f0: b52d e3be 70cf c1bc c06e 6e3e 66ca a93d
-0.50720745 0.12866433 0.33518714 0.30983964 -0.04163686 0.1796376 -0.9272652 -0.0122674825
-0.47080407 -0.17963147 0.117685944 -0.13319261 -0.45292765 -0.34648973 -0.2172027 0.25798824
-0.5947509 0.12648642 -0.14955315 0.30153486 0.17174722 0.21472654 -0.24912968 0.51078933
-0.37084776 -0.59241223 -0.086396545 0.28006613 0.15641995 -0.07754657 -0.10109206 -0.5826916
0.20674449 -0.65857416 -0.44842067 -0.09020363 -0.25959718 0.21239951 0.2227354 -0.10728279
-0.26720175 0.026124192 -0.36947986 -0.1567998 -0.21451436 0.1408962 0.013727787 -0.014294901
-0.69655675 0.18768466 0.14340933 -0.024600258 -0.13616924 -0.34466997 -0.26539817 -0.40958595
0.006148118 -0.21713819 -0.1818718 0.2964236 0.3541857 -0.30202442 -0.36947656 -0.038186833
-0.54592615 -0.39097452 -0.03396535 0.71218383 0.8688987 -0.1656507 0.024328995 0.10364603
0.4975883 -1.0438707 -0.4350822 0.075597964 -0.1763583 0.20829178 0.0005763683 -0.47448233
-0.16400152 0.12740685 0.026232848 0.23708968 -0.5995663 -0.063539185 -0.2589479 -0.9616093
-0.5940299 -0.02041445 -0.058139935 0.30449677 0.13685852 1.2314068 -0.2248546 0.6238364
-0.07728375 0.1383627 -0.56747425 0.24479397 -0.47140592 0.10363204 -0.34269416 0.1656651
-0.3325617 -0.061107703 0.37464768 -0.114115395 0.17607442 0.14899181 0.12859541 -0.043168478
0.085835196 0.3097834 0.080859005 0.34534073 -0.87789613 0.08225853 -0.051794477 0.13794376
-0.22762802 0.39459983 -0.53727084 0.09482053 0.07491112 -0.8795733 -0.2171505 -0.1453929
0.059325304 0.1528581 0.41328442 -1.0740113 -0.8153575 0.1715528 -0.34112757 0.09858577
-0.111193374 -0.030075429 -0.1738256 -0.79501563 0.021459838 0.10123453 0.045170404 0.005276539
-0.014725346 0.23224911 0.20713723 -0.5214981 0.0583198 0.035745654 -0.037493672 -0.04713571
-0.19009833 0.24684356 -0.7542431 0.24793796 0.040699005 -0.5794239 -0.11084881 0.20260717
-0.09797522 -0.32062966 0.024080109 -0.3794074 -0.0073967488 -0.7122829 -0.036556777 -0.54687226
0.34446797 -0.04679078 -0.3477078 -0.026538271 -0.12679389 -0.077908084 -0.1897953 -0.86250097
-0.3168865 0.056678146 -0.04010525 0.23762506 -0.18194182 0.35945 -0.93496466 -1.011078
-0.2360156 0.5287538 -0.25385505 -1.2360914 0.0945316 0.102813326 0.27012354 0.44620752
-0.24655662 -0.65806514 0.051087838 0.12068891 0.02315291 0.0050059855 -0.5653982 0.10005907
-0.37897596 -0.7498027 0.16632141 0.11279524 0.004540508 -0.21270095 -0.32784325 0.536701
0.25797018 -0.25573507 -0.4908353 0.0335907 -0.041580293 0.18452331 0.11641934 -0.5436762
-0.0014271374 -0.17916247 0.16517386 0.3437706 -0.060707703 0.29639763 0.2035718 0.16851531
-0.8846901 -0.034908477 0.01785362 -0.0062763696 0.16455065 0.01409511 -0.67065954 0.06703691
0.22072372 -0.011568474 0.029130172 0.07734031 0.19684722 -0.41955552 -0.62876713 -0.35776883
-0.7985579 -0.0008292126 -0.9909774 0.20400658 0.07353126 0.22210003 -0.093553856 -0.7823873
0.31275332 -0.39493027 -0.0255329 0.4197611 -0.4437081 -0.023658484 0.23284435 0.082905576

layers.4.bias f4 [1172]
00000000: 1e87 56be 6492 7abd 64e3 103d 7779 64bd
00000010: 0620 a03e 022a 3fbe b7e6 adbe 1b65 09ba
00000020: 68a4 06be 99fa b63c dfa5 d3bd eb4f 56bd
00000030: 97aa 68be d985 c7bd 4766 a0be e671 dabd
00000040: 4f81 45be 5ff3 dcbe db01 52be 706b 13be
00000050: f77a 74bd 5878 22be 3c77 3d3e 61e2 62bd
00000060: 309d 77be b0f5 383e 1e71 39be bf85 37be
00000070: 8ba1 5fbd d035 3dbd 3cc3 28be 4f30 0fbe
00000080: e611 02be f565 85bd e0be 01be 4f82 0dbf
00000090: cf61 18be a68e 183d 0dda d7bc a847 d1bd
000000a0: 21b5 33be 7c95 0dbd 1ce1 86be 1e4f 93be
000000b0: 550f a2bc 423e 0c3d 6880 8cbe 7673 26be
000000c0: 978c 52bd 46ea 8a3d d6be e8bd 963a fdbd
000000d0: 8647 e8bd 1c99 b1be c39f 883d b1d5 443e
000000e0: e9c3 9bbd 923c 57be 1916 843b c542 99be
000000f0: 75b3 febc ae26 91be 667f d13e efae 2fbc
00000100: ca66 ab3d c5d2 a23d 1073 0fbe 0cbb 19be
00000110: 169d be3d f34b d43d 3db0 09bd 27af b3be
00000120: 0d83 a8be b1f9 90bd 896c 51be df33 4ebe
00000130: 7dab 7ebe 151f 02be 84f9 80bd c20d d9bd
00000140: edb1 8bbe 96f5 b23d 2671 56be 6d4a 693e
00000150: f893 98bd c375 83be ce4a a93d 4a57 98bd
00000160: 2b3a ebbd 5d84 ee3d f020 463d f4f4 793d
00000170: 727f 7dbe 4265 abbe 631b 80be f423 c2bd
00000180: f7a4 8cbe 11cf b2be b90c 9cbe 7675 4ebd
00000190: 199b 04be 7655 48be bcc7 95be 1dea d33d
000001a0: e2e1 5ebe 6e17 32be 3a76 053c 349f 13be
000001b0: 462e 173b d6bc e5be a8d7 2cbe f1e5 e43c
000001c0: 5728 813d 571f 933e 7cd7 26be a1ba 65be
000001d0: bc38 d83d 0dc1 cd3e 793e 9f3e 53b6 01bd
000001e0: ecab fdbc e4ec 7a3e 2bba 39bd dba8 24bd
000001f0: 3d36 33be f6b8 dd3c 40c3 0fbe 4561 2b3d
00000200: 1cce 1bbe 0fba 28be 0acf 8a3d bd47 703d
00000210: ed6a 8a3d c0aa a2bd 1944 4bbd 24fb f4bc
00000220: db2a f9bd a699 973d 7bec 4fbc eb56 733d
00000230: 2e9f fcbd 70f6 2fbe 8aab 94bd de32 2abc
00000240: e787 5d3e 51f4 7bbe 173d 8abd 7baa 68bd
00000250: 4e1e 03be f54e 92bd 1b4f 6bbe e697 76be
00000260: bae7 99be 5b3d 6fbe e3bb 13be 16a2 b1be
00000270: 36c0 82be ae94 4abe 7bd1 68be cb99 c1bc
00000280: a68c 8dbc 1972 a6ba 4463 febd 4a4e 063d
00000290: eb30 ba3d 555c d6be 5dd1 35be 2b64 94bd
000002a0: 0833 243e aa2a 99be 20c2 2fbe 34bd a6bd
000002b0: b545 f2bd 3394 72bd 36a7 cebd c524 21bb
000002c0: e42a 6cbe b279 a73b 5b23 433c adc4 0ebe
000002d0: a3f0 733e 65e0 6c3e 038e 73be e5ab 8dbe
000002e0: 2e51 2dbe 1928 a7be e70c 3ebe db3d 683d
000002f0: 5d7f c1be 6d38 acbc 2a02 59be 3cd7 933d
00000300: ab04 67be 908f 4dbe 45b8 8ebe 7f18 62be
00000310: ec90 e9be 70d7 aabc 0c52 73be 84c6 09be
00000320: 42ab dcbc d66a 9abd 1cb6 a4be e199 4d3d
00000330: 872b 913d 1af1 c7bd 013d 1bbe aaf3 00be
00000340: 3faf 9abe 1f9b c9bd b064 7ebd ed0a 07be
00000350: fac2 8cbd 8336 aebe 97b6 1b3e 79e6 50be
00000360: e077 1a3d a0b3 9dbd 01ec 1c3d 8fde 32be
00000370: 8a86 9dbe caf6 40bd 57a8 47be fd8f 0a3e
00000380: 7c82 8abe 670d 2dbe 000b 95be 6d97 3abe
00000390: 23fc e4bd d96d 5ebe 9bde 67bd 06bb 793b
000003a0: 7ed7 9fbd c019 7fbd 344c 07bc d9bb f93d
000003b0: dd6c 973b acd0 d7bd 4672 33be 8142 88be
000003c0: 2b4a 33bd 5a87 73be ed7f 13be 46d8 6dbd
000003d0: 8741 54be d89e 313e 4246 83be a972 44be
000003e0: 4965 233e 0bbd 0cbf c268 b0bd 9387 6fbd
000003f0: c860 fd3d 0f0f 56be 1483 89be 9eba 35be
-0.2094998 -0.061174765 0.035373107 -0.0557799 0.31274432 -0.18668368 -0.33965084 -0.0005241201
-0.13148654 0.022336291 -0.10334372 -0.05232231 -0.22721325 -0.09742326 -0.3132803 -0.10666256
-0.19287609 -0.43154427 -0.2050852 -0.14396453 -0.05968758 -0.1586622 0.18502516 -0.055391673
-0.24181056 0.18062472 -0.18109557 -0.17922114 -0.05459742 -0.046193898 -0.16480726 -0.13983272
-0.1270214 -0.065135874 -0.1267047 -0.5527696 -0.14881061 0.037245415 -0.026349092 -0.102187455
-0.17549564 -0.034566388 -0.2634362 -0.287713 -0.019782702 0.03423906 -0.27441716 -0.16254982
-0.05140361 0.06782965 -0.11364524 -0.1236469 -0.11341767 -0.34687126 0.06671097 0.19222142
-0.07605726 -0.210192 0.0040309546 -0.29933754 -0.031091431 -0.28349823 0.4091751 -0.01072286
0.08369215 0.07950357 -0.14008737 -0.15012759 0.093073055 0.10366049 -0.03361534 -0.35094568
-0.32912484 -0.07078875 -0.20451559 -0.20136975 -0.24870105 -0.1270717 -0.06297591 -0.10598327
-0.27284184 0.08738248 -0.209416 0.22782297 -0.07450098 -0.25675783 0.08266221 -0.07438524
-0.11485704 0.1164634 0.048371255 0.06102462 -0.24755648 -0.3347569 -0.25020894 -0.09479514
-0.27469608 -0.34923604 -0.30478457 -0.05040499 -0.1294979 -0.19563851 -0.29253948 0.10347388
-0.21765855 -0.1739175 0.008145863 -0.144162 0.0023068353 -0.44870633 -0.16879141 0.027941676
0.06306522 0.28734848 -0.16293138 -0.22434475 0.10557696 0.4018635 0.3110235 -0.03166802
-0.030965768 0.24504429 -0.04534356 -0.040200096 -0.17501159 0.027065735 -0.14039326 0.04184081
-0.15215343 -0.16477226 0.06777771 0.058662165 0.06758676 -0.07942724 -0.04962549 -0.02990491
-0.12166377 0.07402353 -0.012690659 0.059409063 -0.123350486 -0.17183852 -0.07259281 -0.010388104
0.21633874 -0.24604918 -0.06749933 -0.056803208 -0.12804529 -0.07143966 -0.22979395 -0.24081382
-0.30059606 -0.23363249 -0.14427142 -0.34693974 -0.2553727 -0.1978328 -0.2273616 -0.023632905
-0.01727898 -0.0012698799 -0.12421277 0.032789506 0.090913616 -0.4186732 -0.17755647 -0.07245668
0.16035092 -0.29915363 -0.17163897 -0.081415564 -0.11829702 -0.059223365 -0.10090487 -0.0024588567
-0.23063236 0.0051109428 0.011910285 -0.13942213 0.23822264 0.23132475 -0.23784642 -0.27670208
-0.16925499 -0.3264778 -0.1855961 0.056699615 -0.37792483 -0.021023 -0.21192232 0.07218787
-0.22560374 -0.20074296 -0.27874961 -0.22079657 -0.4561838 -0.020854682 -0.23761767 -0.13454634
-0.02693713 -0.075399086 -0.32170188 0.05019558 0.0708838 -0.09762783 -0.1515999 -0.1259295
-0.30211827 -0.0984404 -0.06210774 -0.13187762 -0.06873126 -0.34025964 0.15206371 -0.20400418
0.037711978 -0.077002764 0.03831101 -0.17467712 -0.30766708 -0.047110356 -0.1949781 0.1353149
-0.27052677 -0.16899644 -0.29109955 -0.18221827 -0.11180904 -0.21721591 -0.056608777 0.003810586
-0.07804774 -0.062280416 -0.008257914 0.12194032 0.004621132 -0.10537848 -0.1752406 -0.26613238
-0.043771904 -0.23782101 -0.14404269 -0.058067583 -0.20728122 0.1734575 -0.2563954 -0.19184364
0.15956606 -0.54975957 -0.08613731 -0.058478903 0.12371975 -0.20904182 -0.26857817 -0.1774697
