Models/LSTM_Start-ups_2_2.pth (torch, 205373 bytes, 7 tensors)

embeddings.0.weight f4 [1172, 2]
000000 01 ad fc 3f ba bf 77 3f f7 1c b3 3f 44 bc 34 c0
       1.9740297 0.96776927 1.3993214 -2.8239908
000010 bf 50 a2 3e d8 cf a1 bf 63 ce 07 bf 76 c6 13 c0
       0.3170223 -1.2641554 -0.53049296 -2.308988
000020 b8 f8 92 bf ed 96 8b 3f 1f 41 35 3f b2 46 64 bf
       -1.1482153 1.0905434 0.7080249 -0.8917037
000030 a0 fb 57 bf ce 2c a8 bf b5 68 c0 3f 9b 4a 45 3f
       -0.84368324 -1.3138673 1.5031954 0.77066964
000040 6b b3 f3 3f 46 7d 48 bf 0b 26 0a bf 8d 17 0d 3f
       1.9039129 -0.7831615 -0.539643 0.5511406
000050 14 7c 05 c0 35 1f c5 3f f2 86 a8 3f 97 0d 14 3f
       -2.0856981 1.5400149 1.3166182 0.57833236
000060 cf 68 fa 3f 34 3d 06 3f 83 f3 c9 3e 00 34 3f be
       1.9563235 0.5243714 0.39443597 -0.1867218
000070 4b a8 6f 3f 85 1a 68 bf c4 af 5f bf 39 e4 89 3f
       0.9361617 -0.90665466 -0.8737757 1.0772773
000080 57 b9 0a bf 4d 5c 81 bf ff 83 3d bf 5c 48 64 3f
       -0.54189056 -1.0106293 -0.74029535 0.8917291
000090 ee 64 01 bf db 3c 42 bf 5b 8c e7 3e e9 a4 d4 be
       -0.5054463 -0.7587411 0.4522427 -0.41532066
0000a0 9e d5 16 bf 6c 56 82 3f 30 10 a3 bf db eb 4f bf
       -0.58919704 1.0182624 -1.2739315 -0.8121926
0000b0 26 9a 6b bf 09 c5 34 40 f5 3d 37 3e b9 a2 49 bf
       -0.92032087 2.824526 0.17894728 -0.7876392
0000c0 ea c2 25 c0 b7 af 82 bf dc 00 13 3f 91 8f dd 3e
       -2.5900216 -1.0209874 0.57423186 0.43273595
0000d0 7c 6f ee be 7f d6 96 3f 50 40 ec 3e 53 f0 b9 bf
       -0.4656943 1.1784209 0.46142817 -1.4526466
0000e0 1f 6c 26 c0 a0 69 a8 3f e3 51 fd be 63 ce 98 3e
       -2.6003492 1.3157234 -0.49476537 0.2984496
0000f0 f5 0f 98 be 2a ed c8 3f 2f 0e 3c c0 a3 3d fd 3e
       -0.29699674 1.5697377 -2.9383657 0.49461088
000100 78 b4 fc 3f 41 e9 00 40 be 76 f0 3f 77 a0 0d 40
       1.9742575 2.0142367 1.8786237 2.212919
000110 1e 29 d9 be 43 8a 02 bf fb b2 b9 bf 76 7d 0c 3f
       -0.42414182 -0.5099222 -1.4507746 0.5487894
000120 b1 47 c2 be a8 0f 96 3e 89 16 d1 3f 50 e0 97 be
       -0.3794532 0.2930882 1.6335002 -0.29663324
000130 45 41 08 3f 58 75 b5 bf bd 68 a0 bf 89 ec 21 bf
       0.53224593 -1.4176435 -1.2531964 -0.6325155
000140 5d 0f 77 3e 80 50 97 bf 2d b7 42 bf f5 19 ae bf
       0.24126954 -1.1821442 -0.76060754 -1.3601671
000150 84 60 b3 3f 30 96 ea 3e 9d 36 b0 3f 9d e8 45 3f
       1.4013829 0.4581771 1.3766667 0.77308065
000160 fe f1 39 3f c4 ae a8 bf 87 8f 34 bf 62 aa 8f 3e
       0.72634876 -1.3178334 -0.70531505 0.2805968
000170 df 64 16 c0 b9 e7 c0 bd 41 ad ae 3f dc 7f 17 3f
       -2.3499067 -0.094191976 1.3646623 0.5917947
000180 70 43 f2 bf 11 83 85 3f 66 5a df 3f d1 ce cb bc
       -1.892683 1.0430623 1.7449462 -0.024878891
000190 63 15 5d 3f 75 7b 88 3f 3e b5 b4 3e d4 34 cf 3f
       0.8636076 1.0662676 0.35294527 1.6187997
0001a0 e5 3e 06 bf dd 6b 04 3f 70 57 27 be d5 60 a4 3f
       -0.5243972 0.51727086 -0.16341949 1.2842051
0001b0 c8 b2 ed be 6e 44 5a 3f cf 5b 10 bf 5a de 45 3e
       -0.46425462 0.85260665 -0.5639009 0.19323102
0001c0 9c 9b 23 bf 3d 21 cc 3d d7 eb fe be 41 3b ef 3f
       -0.63909316 0.09967277 -0.49789307 1.8689958
0001d0 d6 37 71 3f 4d 8a 43 bf b6 1e c1 bc c2 03 4b 3f
       0.94225824 -0.76382905 -0.023574214 0.7930261
0001e0 0a df 03 40 7c ea 61 3e cd 5a ef 3f 85 48 46 bf
       2.0604882 0.22062105 1.8699585 -0.77454406
0001f0 14 71 95 3f 23 10 0d 3f b1 b9 85 3f c9 44 44 be
       1.1675134 0.5510275 1.0447294 -0.19166864
000200 6e c0 07 40 39 c3 d6 3f bc 8c 01 bf fe 8e 39 bf
       2.12112 1.6778327 -0.5060537 -0.72483814
000210 ab 49 58 bf e3 bd 00 40 91 d3 23 3e 96 e2 9f 3f
       -0.8448741 2.0115898 0.15998675 1.2491024
000220 80 e4 38 bf f8 48 e7 3d 5b 44 e0 bf fc 36 d8 3f
       -0.72223663 0.112932146 -1.752086 1.689178
000230 18 36 93 3f cf 81 86 3f 6a af f1 be ff 88 06 3f
       1.1500883 1.0508364 -0.47204143 0.5255279
000240 c7 19 1b bf f2 05 5e 3e 54 81 3d 3f 0f fa 9f 3f
       -0.6058621 0.21681955 0.74025464 1.2498187
000250 87 f5 ef be a8 9f 8f be 46 cd 87 be 19 bf 72 bf
       -0.4686701 -0.28051496 -0.265238 -0.9482284
000260 95 be 06 3f c0 c6 c0 3e 6d 82 2f be 6e 29 e0 3f
       0.52634555 0.37651634 -0.17139597 1.7512643
000270 57 a5 e7 be 8f e2 a5 be 38 47 82 bf 80 3d 8f bd
       -0.45243332 -0.32399413 -1.0177984 -0.06994152
000280 9e 7c 83 bf 09 c2 f5 3e 44 b4 85 bf 6b 61 5a bd
       -1.0272405 0.479996 -1.0445638 -0.05331556
000290 d9 12 89 3f 3d 70 a3 3d b1 61 7e be 03 6e b0 bf
       1.0708877 0.07980392 -0.24841954 -1.3783573
0002a0 9d bd fc bd fe 52 76 3e 48 54 a6 3f fb 36 8c 3e
       -0.12340853 0.24055097 1.2994471 0.27385697
0002b0 3e af 91 bf 16 57 82 3f f4 7d 8a 3f e8 bd e0 3f
       -1.1381605 1.0182827 1.0819688 1.7557955
0002c0 cc c7 63 3e a0 f4 0d 3f ce 16 62 be 2e a3 0e 3f
       0.22244185 0.55451393 -0.22079012 0.5571774
0002d0 23 5f d4 bf af db d4 be 03 35 00 c0 b0 fb 07 c0
       -1.6591533 -0.41573855 -2.0032356 -2.1247368
0002e0 f6 e6 ac 3e a6 b1 22 bf be 3f 0d c0 3d 7f 90 3f
       0.3376996 -0.6355232 -2.2070155 1.128883
0002f0 5c 31 33 40 f8 1e a3 be 1a e8 e8 3f c2 3f b7 3f
       2.7998877 -0.31859565 1.8195832 1.4316332
000300 95 2e e1 3f 91 c5 9a 3e e7 2d 89 3e 54 72 80 3f
       1.7592341 0.30228856 0.26792833 1.003489
000310 71 3a de be 24 45 54 3f 87 8c 08 40 d2 c3 4e 3f
       -0.43403962 0.82918 2.133577 0.8076755
000320 73 9c c0 3f 47 a7 1c 40 4e 71 c8 bf e3 51 09 be
       1.5047745 2.4477098 -1.5659578 -0.13410144
000330 15 54 d9 3f f3 04 57 3f 24 22 66 3f 40 1e 2d 3f
       1.6978785 0.83991927 0.89895844 0.6762428
000340 b7 97 0e c0 b3 a0 ff bf c8 fa b7 be 8a fc 7b bf
       -2.22801 -1.9970917 -0.35933518 -0.9843222
000350 46 db 45 bf 4c 47 8e 3f e1 60 73 3e d2 80 13 c0
       -0.7728771 1.1115508 0.23767425 -2.3047376
000360 21 ad 63 3e dc 4d 00 40 74 ea a9 bf 47 48 a3 3f
       0.22234012 2.0047522 -1.3274674 1.2756432
000370 2c ff a9 3f b0 7d a8 bf e9 bc 73 3e 8b c3 a1 3f
       1.3280997 -1.3163357 0.23802532 1.26378
000380 a9 01 c8 3f 2c ca 01 40 51 12 03 3f e8 42 27 bf
       1.5625507 2.0279646 0.51199824 -0.65336466
000390 3f 83 25 be 96 1b 4a bf cb c0 85 3e f3 94 b3 3f
       -0.16163348 -0.7894834 0.26123652 1.4029831
0003a0 f1 43 f7 3e 7c 87 33 bf 8c 14 5b bf 0c bc d4 bf
       0.48294023 -0.7012861 -0.8557823 -1.6619887
0003b0 f1 a1 1a 3f 5b 76 0d 3f ac 21 ad 3e 01 df d6 3f
       0.6040335 0.5525872 0.33814752 1.6786805
0003c0 6b 25 67 be d5 43 30 bf 33 00 0b bf a7 7c 05 40
       -0.22572868 -0.68853503 -0.5429718 2.0857332
0003d0 32 2f 80 bf b8 e5 d7 3e 05 74 26 bf b7 f0 37 3d
       -1.0014403 0.4216745 -0.6502078 0.044907298
0003e0 d9 53 55 3f 90 e5 c1 bf 25 22 98 3f 37 27 5f bd
       0.83331066 -1.5148182 1.188542 -0.054480758
0003f0 02 3c a2 3f bb 89 b0 3f 26 85 a2 be 91 83 0c 3e
       1.2674563 1.3792032 -0.3174221 0.13722064

layers.0.weight f4 [256, 4]
000000 55 60 f2 3d d1 d9 2f bf ac 41 16 3e f0 68 0f bf
       0.1183478 -0.68691736 0.1467349 -0.56019497
000010 2c 04 75 3f 87 07 af 3f 78 dd 4a 3f 54 77 6d 3f
       0.9570949 1.3674172 0.79244184 0.92760205
000020 d1 57 0e bf 2b a7 5e 3f d6 b0 99 3f 05 17 a4 3e
       -0.5560275 0.8697383 1.2007091 0.32048813
000030 a4 5d 52 bf 0e 73 5c be 36 30 8c be 27 26 cf 3d
       -0.82174134 -0.21528265 -0.27380532 0.10114699
000040 fc 13 23 bf 47 7b 41 3e 7e f3 af be 1b 69 c6 be
       -0.6370237 0.18894683 -0.34365457 -0.38752064
000050 01 42 d6 be 64 c5 de bd bc 46 4d bf 28 4e f8 be
       -0.41847232 -0.10877493 -0.8018606 -0.48497128
000060 8d 7b 91 3e 54 de 9d 3e 9b 74 aa 3f 7a a6 1b bf
       0.28414574 0.30833685 1.3316835 -0.608009
000070 fd c8 86 3f 0a 52 51 bf e9 09 fe be fe 0a ea bd
       1.0530087 -0.81765807 -0.49616936 -0.11427878
000080 2f 71 86 be 04 9d 17 bf 67 95 35 bf 17 60 58 bf
       -0.26258227 -0.5922396 -0.70931095 -0.8452162
000090 94 dd 7f 3f 4f 62 e1 3e 0b ae 22 bf 7d f8 2a bf
       0.99947476 0.44020316 -0.6354682 -0.66785413
0000a0 0e df 51 bf be 28 e7 be c5 bf 00 be cc db 09 3f
       -0.8198098 -0.4514827 -0.12573154 0.5385101
0000b0 6d 97 94 3e ba 16 cc bc d6 e1 9d 3f 1b b4 0b bf
       0.2902178 -0.02491318 1.2334545 -0.54571694
0000c0 40 66 34 bf 13 4a 3f 3e 70 c2 b7 be 3e f8 75 3e
       -0.7046852 0.18680601 -0.35890532 0.24020478
0000d0 22 01 c3 3f cf 24 1a bf e9 f7 ed be ae 93 81 3e
       1.5234721 -0.60212415 -0.46478203 0.25307983
0000e0 23 6e 29 bf f2 5e 19 3f 82 b2 87 be 2d 09 9f 3e
       -0.6618368 0.599105 -0.26503378 0.31061688
0000f0 f3 63 11 bf d3 f7 fe be 39 ad 2c 3e 66 23 8d 3e
       -0.56793135 -0.4979845 0.16862954 0.2756607
000100 2c f7 3c 3f 80 0f 67 3f fe 8d d4 be d8 8d c7 3c
       0.73814654 0.90258026 -0.4151458 0.024359629
000110 60 12 c7 be ac d5 e8 be fd 55 c7 3e e2 92 76 bf
       -0.38881207 -0.4547552 0.3893279 -0.96317875
000120 46 49 f4 be aa 03 b2 3e c5 d5 c6 be c2 15 1e 3f
       -0.47712153 0.3476842 -0.38834968 0.6175195
000130 ca 24 43 be fc 7d 2a 3e eb ab ad 3f 9c 2c 0b bf
       -0.19057003 0.16649622 1.356809 -0.54364944
000140 4e 17 3d be 6a 1b a1 3d fb 58 be bd 00 68 4d bf
       -0.18465921 0.07866557 -0.092943154 -0.80236816
000150 95 e7 8f 3e a0 5c dd be a9 a3 a7 bd 53 5d e7 3e
       0.2810637 -0.4323473 -0.081855126 0.45188388
000160 0b d9 b9 3e 2a 4c 5c be 0b 79 00 bf c8 11 64 3f
       0.36298403 -0.2151343 -0.50184697 0.8908963
000170 b7 0b 72 3e 83 e3 03 3f 51 6c 28 bf ec 46 ae bf
       0.23637281 0.5151903 -0.6579028 -1.3615394
000180 23 52 86 3f f9 04 10 3f b4 ce 11 3f 44 5a fe be
       1.0493816 0.5625759 0.5695603 -0.49678242
000190 16 f6 f1 3e a4 78 ea bd 0c d6 ab 3e f0 b7 53 3f
       0.4725806 -0.114487916 0.33561742 0.8270254
0001a0 5e 91 00 bf 4c c7 99 be 48 0f e3 3f 78 40 80 bf
       -0.5022181 -0.30034864 1.7739038 -1.0019674
0001b0 56 e4 19 3f 01 38 c5 be 9a 05 db be f8 96 02 bf
       0.6011404 -0.3851929 -0.4277771 -0.5101161
0001c0 63 2a c4 be 3f 82 f2 3e 46 a4 41 bf 8f 2e 70 bf
       -0.38313589 0.47364995 -0.75641286 -0.9382104
0001d0 ad 0b 4c 3f a4 58 f1 3e 0e 05 8b be 38 9b 28 bf
       0.79705316 0.4713794 -0.27152294 -0.65861845
0001e0 10 d7 54 be 26 43 5b be cb 0e e2 3f 9e f0 57 bf
       -0.20785165 -0.21412334 1.7660764 -0.8435153
0001f0 32 1a a7 be e0 a5 25 bf c6 a6 c8 be 85 28 14 3f
       -0.32637173 -0.6470623 -0.39189738 0.5787433
000200 d7 cc 2b 3f 46 65 bf 3d 35 ac a6 be aa f8 2f 3f
       0.67109436 0.09345488 -0.3255326 0.68738806
000210 73 a4 88 3e 58 10 9c be ee 9e 37 be 80 39 05 bd
       0.26687965 -0.3048122 -0.1793172 -0.03252554
000220 19 15 34 3f 31 f0 d6 3e be 05 b2 3f c4 49 ba bc
       0.7034469 0.41980127 1.3908002 -0.022740252
000230 a7 e9 7d 3f 76 ca 31 be 41 d0 2e bf bd f3 6f bf
       0.9918465 -0.17362389 -0.6828652 -0.9373129
000240 5b fa 13 bf 91 82 dd be 29 9f 11 bf c6 0c 9a bc
       -0.5780389 -0.43263677 -0.56883484 -0.018804919
000250 60 af b4 3d 80 bf 50 be e3 5a 21 bf b3 7f 2b 3f
       0.088225126 -0.20385551 -0.6302931 0.6699173
000260 c4 9f 19 be 9d 31 aa 3e 5b 85 af 3e f1 d9 c1 be
       -0.15002352 0.33240977 0.3428143 -0.3786159
000270 82 00 b5 bd 38 69 e6 3e 0d 93 8e 3f 4a 01 73 bd
       -0.088379875 0.4500215 1.1138626 -0.0593274
000280 a4 d3 1e 3f 5b ca 02 bf 60 8b d8 be df 6c f9 3e
       0.6204169 -0.5109002 -0.42293835 0.48715875
000290 f7 3f d2 bd 6b 92 3e 3f 26 de 13 3e fe c9 a3 be
       -0.102661066 0.74442166 0.14440212 -0.31990045
0002a0 3d 73 84 3f f9 cd 2f 3f 20 6b 8e be d4 ea d3 be
       1.0347668 0.68673664 -0.27816105 -0.41390097
0002b0 5f f1 55 3c 9a d6 19 bf 47 e1 8c 3f 10 a3 af 3d
       0.013058036 -0.6009308 1.1006249 0.085760236
0002c0 db ae 3b 3e 17 66 db 3e 4e e9 c5 3d eb 96 b7 be
       0.18328421 0.42851326 0.0966364 -0.3585733
0002d0 04 5c 4a 3f 1c aa 4e 3f 11 df 0f bf ab 72 1d 3f
       0.79046655 0.80728316 -0.5619975 0.61503094
0002e0 d2 b2 79 3e dc b2 8a bd c3 83 07 bf 6f 4d fc be
       0.24384621 -0.06772396 -0.5293543 -0.49277827
0002f0 89 29 74 bf 32 c3 52 3f ab 6f 7d 3f 3e 32 54 3d
       -0.9537588 0.82329094 0.98998517 0.051805727
000300 63 38 51 3f 28 ac 4a be a8 f3 a6 be 26 a4 fd be
       0.81726664 -0.19792235 -0.3260777 -0.49539298
000310 7d 99 4b 3c ca f1 9d 3e a1 a9 55 3f e7 41 97 3d
       0.012426731 0.30848533 0.8346196 0.07385617
000320 4d 50 cf be fe a4 f3 3e a3 4d 41 3f de 25 b4 3e
       -0.40490952 0.47586817 0.7550909 0.3518514
000330 16 b3 95 be 44 f6 62 3e 53 90 9e be 13 09 2f 3f
       -0.29238194 0.22164255 -0.30969486 0.6837322
000340 d6 a3 73 3d b0 d3 c4 3d b6 f4 4c 3e b6 7e ba 3e
       0.059482418 0.09610689 0.20015225 0.36424798
000350 61 56 55 be 0a ba 13 3f ca 77 34 3f 99 1b 1e bf
       -0.20833732 0.5770575 0.70495284 -0.6176086
000360 d7 b6 76 3e c4 11 0c bf 80 b9 09 bf fd d2 84 3e
       0.24093185 -0.5471461 -0.53798676 0.2594222
000370 bf 76 9c 3e b0 26 82 3d 91 62 6d 3f 78 37 c2 be
       0.30559346 0.06355035 0.92728525 -0.37932944
000380 98 28 08 bf d5 6a a7 be a5 46 59 be 08 1e 33 3e
       -0.5318694 -0.32698694 -0.21218355 0.17491925
000390 27 3d 3f 3f 84 6a cc be d1 9f a2 be 10 dd 98 3e
       0.74702686 -0.39925015 -0.31762555 0.29856157
0003a0 b6 af 11 3f 91 c4 3c 3e b9 e6 94 3e 5b 0c e6 3b
       0.5690874 0.18434359 0.29082277 0.007020516
0003b0 b5 6d 3e 3f 2d 8c 06 3f 7f a5 b7 3f 4c 5c ea bd
       0.7438615 0.5255764 1.434738 -0.114433855
0003c0 30 ce 26 bf 5e 29 b1 be cf fb 1f 3f c0 7f 29 3f
       -0.6515837 -0.34601873 0.62493604 0.66210556
0003d0 bd d5 86 be c7 11 04 3f a4 89 80 3e c9 8d f6 3c
       -0.26334944 0.51589626 0.2510501 0.030096905
0003e0 a8 41 41 bc ca 99 ca bd 65 0b 3c 3f d9 4a 60 3e
       -0.011795439 -0.09892614 0.73454887 0.21903552
0003f0 a5 18 90 3f 68 7b 84 bf bb f4 91 bc 20 34 c4 bc
       1.1257521 -1.0350161 -0.017816892 -0.023950636

layers.0.bias f4 [256]
000000 f1 9f 2c bf 96 24 b9 be f2 a2 84 be ae 8a 7c 3e
       -0.6743155 -0.36160725 -0.25905567 0.24662277
000010 5f cf 2e bf 3f e1 2b bf c8 e5 02 be b6 44 93 be
       -0.68285173 -0.67140573 -0.12782967 -0.2876336
000020 ef 8b a4 3e d0 61 b8 3e 17 90 97 3e 9f 61 63 be
       0.3213801 0.36012125 0.2960212 -0.22205208
000030 ae 48 27 3e c5 5c a1 bd 53 61 af 3e 50 d9 34 3f
       0.16336319 -0.078790225 0.3425394 0.7064409
000040 a3 0e e2 be b0 96 e5 be 3f 10 d5 3e fa 4d 24 bf
       -0.44151792 -0.44841528 0.41613957 -0.6418148
000050 2d 53 02 3f 0d 77 16 3f 29 1a 62 3d c1 69 0b 3e
       0.50908166 0.5877541 0.05520073 0.1361456
000060 88 95 58 3e fc f4 0e bf a7 1d 5c be 22 7a 3f 3f
       0.21150792 -0.55842566 -0.21495686 0.74795735
000070 82 0a 1f bf 52 01 2d bf d1 3c cc bd 24 4f 6c 3e
       -0.6212541 -0.6758014 -0.09972537 0.23077065
000080 bf 46 07 3e c4 0b 0f bf 29 52 9c 3e ae a7 68 be
       0.13210581 -0.5587733 0.30531433 -0.22720215
000090 1f e9 43 3f ea 64 1e 3f 49 56 f5 3e 14 b8 2f 3c
       0.7652759 0.6187273 0.47917393 0.01072504
0000a0 5e 81 1d 3f 74 a5 11 bf 6d e8 0a 3f b3 24 af be
       0.61525524 -0.56893086 0.54260904 -0.34207687
0000b0 f9 a4 34 3f 69 c9 2f bf 49 de a5 3e e4 6b 29 bf
       0.7056423 -0.686667 0.32396153 -0.66180253
0000c0 fc 9c 08 3f 6f 11 88 3e 53 b0 52 3f ad 65 22 bf
       0.5336454 0.265758 0.823003 -0.63436395
0000d0 93 0c 30 3f 2c 61 0d bf 1e 71 c2 be 38 c2 6a 3e
       0.68769187 -0.552264 -0.37976927 0.22925651
0000e0 91 00 be be a5 4f 22 bf 2b 6e 17 bf 43 8f 07 3e
       -0.37109807 -0.6340278 -0.5915248 0.13238244
0000f0 f9 bb cb 3e f7 93 30 3f 26 ea 3f 3f 1b 6e a6 be
       0.3979185 0.68975776 0.7496666 -0.3250588
000100 bb 15 02 bf 22 dd 1a bf 37 53 2c 3f 42 5c f8 be
       -0.5081441 -0.6049367 0.67314476 -0.48507887
000110 5b 64 31 be 35 b9 17 bf 63 05 0d bf c3 d9 96 3e
       -0.17323439 -0.5926698 -0.55086344 0.29463014
000120 14 d4 ab be f9 bb a3 3e 7a 31 1f 3e af 70 34 3e
       -0.3356024 0.3197935 0.15546218 0.1762111
000130 09 ce b3 be 29 b0 83 bd 99 c0 07 3f a7 cd f1 3e
       -0.3511813 -0.06430084 0.53028256 0.47227213
000140 85 ac 47 3f bd 3f 11 bf 28 83 5a be 11 44 37 3d
       0.7799762 -0.5673788 -0.21339095 0.044742648
000150 9c f5 fc 3d 2a f7 ed 3e 5e d3 44 3f d4 03 ee 3d
       0.12351534 0.46477634 0.7688502 0.11621824
000160 cf 75 13 bf 76 57 9c 3c f9 30 0c 3f 71 4d e3 3d
       -0.57601637 0.019084673 0.54762226 0.11098755
000170 b2 0c 23 bf df 71 b7 be 71 91 03 bf 51 2a 9f be
       -0.63691247 -0.35829064 -0.513938 -0.31086972
000180 31 b9 f3 3e 1e 6c e7 be b6 e1 3e 3f 97 ba 06 bf
       0.47602227 -0.45199674 0.7456316 -0.52628464
000190 f4 a6 1b 3f 61 b2 f4 3e 63 fd 22 3f b4 62 da 3e
       0.60801625 0.47792342 0.6366789 0.4265343
0001a0 96 d7 83 3e 72 28 18 be e2 70 0d bf de 96 0d bf
       0.25750417 -0.14859179 -0.5525037 -0.5530833
0001b0 e9 bb 46 3f b3 41 c5 3e d7 b0 7b 3d aa b6 0d bf
       0.7763048 0.38526687 0.061447944 -0.5535685
0001c0 a6 7a 64 3e c6 38 45 be c5 61 0b bf ab e4 be 3e
       0.22312412 -0.19259939 -0.5444606 0.37283835
0001d0 9a ab 3e bf 29 90 b0 be 6e 2f 1b bf 21 c6 11 3f
       -0.74480593 -0.34484985 -0.60619247 0.56942946
0001e0 20 56 1f bf 4f ca bf 3e a2 e4 dc 3e 03 9a 2a bf
       -0.6224079 0.37459037 0.43143183 -0.66641253
0001f0 55 ab 16 3f 0b 94 3b 3f fc df ea be b7 a8 39 3e
       0.5885518 0.7327277 -0.45874012 0.18130766
000200 9f cf b8 3e 58 16 33 3f 3b b9 27 3f ec e6 1f bf
       0.36095902 0.6995597 0.65517014 -0.62461734
000210 3c 6b 30 bf 00 5e 1a bf 2e ec cf bd 5c 83 d2 be
       -0.68913627 -0.6029968 -0.101524696 -0.41115844
000220 d1 96 3e be d0 90 0f 3f 0d 5a f8 be d1 c7 0b bf
       -0.1861222 0.5608034 -0.48506203 -0.5460177
000230 27 9f 14 bf ef b9 f0 be e7 12 53 3f 34 0d 69 3c
       -0.5805535 -0.47016856 0.8245072 0.014224339
000240 b2 fa 4e 3d c7 6a 70 be 84 43 12 bf 37 dd 32 be
       0.05053205 -0.23478232 -0.5713427 -0.174672
000250 23 b9 e8 3e 38 7e 22 3f db 21 40 3f 48 e6 33 3e
       0.45453748 0.63473845 0.7505166 0.17568314
000260 52 2b d1 be 65 cd 04 bf 2b 81 68 3f b2 0a 22 bf
       -0.40853363 -0.5187591 0.90822095 -0.6329757
000270 95 c0 57 3e e9 c6 29 be a3 93 37 3f 66 58 e8 3e
       0.21069558 -0.16579784 0.7170965 0.45379943
000280 f5 34 66 be 4f e9 23 bf 92 c0 16 3c 99 26 fe be
       -0.22481139 -0.64027876 0.009201186 -0.49638823
000290 18 6d 37 3e 12 db 91 3e cc 21 28 3f 82 06 ac be
       0.1791271 0.2848745 0.6567657 -0.33598715
0002a0 6d 5d ec be 3b 1f 2f bf c8 42 36 bf 4f e8 c5 3e
       -0.46165028 -0.6840703 -0.7119565 0.386538
0002b0 8b e2 e7 be 94 9b 32 3d e2 aa a8 be 0e 46 f3 be
       -0.45290026 0.043605402 -0.32942873 -0.47514385
0002c0 6f e8 0c 3f e6 ee cb 3e 3a 5b 20 3f 15 0e 51 3f
       0.55042166 0.39830703 0.626392 0.8166211
0002d0 92 71 16 bf bb 08 c3 be 03 91 2b bf a2 e0 2b 3f
       -0.58767045 -0.38092598 -0.67018145 0.6713964
0002e0 1b fc fb 3e 84 b2 1c 3f 88 14 23 bf 4b 3e 06 bf
       0.4921578 0.61209893 -0.63703203 -0.524388
0002f0 9d 0f 4c 3f 24 1a b7 be e9 44 39 bf 12 58 c5 3e
       0.79711324 -0.3576213 -0.72370774 0.38543755
000300 26 f2 21 bf 66 a1 f1 bd 02 ab 0e 3f c5 34 2f 3f
       -0.63260114 -0.117983624 0.5572969 0.68439895
000310 2f 74 8b be 8a 77 24 bf 93 2c fa 3e 17 d1 4d 3f
       -0.2723708 -0.642449 0.48862132 0.8039717
000320 e3 e3 1d bf 13 aa c7 3c 6a e6 f3 be 9f 28 0e bf
       -0.6167585 0.02437309 -0.4763673 -0.5553073
000330 81 ba cf 3e 9f d4 eb 3e 07 55 1c 3f 2c bd 36 bf
       0.4057198 0.46060655 0.6106724 -0.71382403
000340 da 04 04 bf de 2b 1b 3f cf c4 38 3e f5 8b 26 be
       -0.515699 0.6061381 0.18043827 -0.16264327
000350 eb 74 74 be 2e ad 67 3f 95 1a 29 bf 23 29 ec be
       -0.23872726 0.90498626 -0.66056186 -0.46125135
000360 8b e9 1c 3f 2f ba 0a bf 8c e9 15 3f 1a 0f d9 bd
       0.6129386 -0.54190344 0.5855949 -0.105985835
000370 50 99 c0 be 1e 7a 5a 3d d0 65 29 3f fc 6d 05 3f
       -0.37616968 0.053339116 0.6617098 0.5212095
000380 aa 91 4a 3e 3a a4 88 bd 57 7a c9 be 91 56 0d bf
       0.19782129 -0.06671949 -0.3935115 -0.55210215
000390 ba 3e 30 3e 70 23 e6 3e a0 85 b2 bd e7 a3 56 3f
       0.17211428 0.44948912 -0.08716893 0.83843845
0003a0 87 a6 91 3e 4f ba 2e be 16 ce ac be 32 cf c4 3e
       0.28447363 -0.17063259 -0.3375098 0.38439327
0003b0 1d 28 3b bf 90 4d ee 3d 24 13 e3 3e 75 90 3c 3e
       -0.73108083 0.116358876 0.4435054 0.18414481
0003c0 f5 d1 12 3f 76 bf a9 3e c2 0b 88 be 0e 6c 19 bf
       0.5735162 0.33153886 -0.2657147 -0.59930503
0003d0 62 48 26 bf aa fe 1c 3f 68 67 1b 3f 5e 6f fa be
       -0.649542 0.61326087 0.6070466 -0.4891309
0003e0 d9 77 85 3e 09 21 52 be 5b 85 45 3f dc 8e 73 be
       0.26068 -0.20520414 0.7715661 -0.23784965
0003f0 6c fc 65 3f ec 50 31 3f 58 6b e0 3e e1 d5 33 3f
       0.8983829 0.692641 0.43831897 0.7024823

layers.2.weight f4 [32, 256]
000000 cd 4d b0 bc b4 97 1c 3e b5 e0 41 bd 65 a4 c2 3d
       -0.021521473 0.15292245 -0.047333438 0.09504012
000010 3b 4a a9 bd 65 90 d4 bc 29 8a f8 be 2d 0d 4d 3e
       -0.082661115 -0.025947759 -0.48542908 0.20024557
000020 f6 f8 89 3e 57 87 ae 3e 87 9d 19 3e 49 08 6c be
       0.26947755 0.3408763 0.15001498 -0.23050036
000030 1a b0 82 3d 2f d3 55 3d 42 14 e6 3d 9c 48 2c 3e
       0.06381245 0.052203353 0.112343326 0.16824573
000040 dc 67 50 3e 37 75 5a be 0c f2 ee 3d 8a 81 89 be
       0.20352119 -0.21333776 0.116672605 -0.26856643
000050 8f 14 a2 3c 9e 35 82 bc 28 a3 6d bd 29 d3 38 3e
       0.019785194 -0.015894707 -0.058016926 0.18049301
000060 0b 9f fd bd 7a 7a ff bc df 98 61 be 73 eb 1f 3e
       -0.12383851 -0.031186331 -0.22030972 0.1561716
000070 91 be 0c be 53 3e 59 3e 40 88 b5 be 9f c3 bb bc
       -0.1374457 0.21215181 -0.35455513 -0.022920428
000080 21 a4 64 3d 6b 26 48 bd 40 ab f9 be aa d4 de 3e
       0.055820588 -0.048864763 -0.48763466 0.43521625
000090 78 1e b1 3d a1 98 70 3c a1 f4 13 be cd 86 8f be
       0.086483896 0.014684827 -0.14448787 -0.28032532
0000a0 ab c4 25 3b 9f 71 63 be fa d0 3e 3e d1 d6 46 bd
       0.0025294225 -0.22211312 0.18634406 -0.04854471
0000b0 a2 eb a8 bc 52 2e a4 bc ce ab 60 3e 90 ee af bd
       -0.020620171 -0.020041618 0.21940538 -0.08590424
0000c0 71 22 3b 3e e2 8b 3e be 54 fa f4 3d 39 69 49 bd
       0.18274857 -0.18608049 0.11961809 -0.049172614
0000d0 f6 e0 22 3c aa 06 bc be b6 19 0b be 6f 94 60 be
       0.00994133 -0.36723834 -0.13584027 -0.21931623
0000e0 b0 6f 93 3d 14 59 ce bd 0f 08 b2 bd 7b b1 07 bf
       0.07199037 -0.10075584 -0.08692943 -0.5300519
0000f0 a1 bd 4c 3e a1 59 b7 3d 6e b9 87 3d 5d c3 ac 3d
       0.19994213 0.08952642 0.06627165 0.084357
000100 5a 21 e9 3d a4 58 8f be 92 25 a3 3d bf 6f 0b be
       0.113833144 -0.27997315 0.0796615 -0.13616847
000110 f8 fa 01 3e 3a 53 ea bd ff 36 a5 3d 43 6c 54 3d
       0.12693393 -0.114416555 0.0806713 0.05186106
000120 24 35 19 3c a6 66 b3 3e 96 b1 27 3e 18 49 e2 3d
       0.009351049 0.35039252 0.16376337 0.11049098
000130 c8 3b 16 be 7d 78 3a bd 2f cd b3 3d 97 e4 08 3d
       -0.14671242 -0.045525063 0.0877937 0.033421125
000140 89 1d cd 3d a6 72 40 be 87 0a db 3e f5 68 62 be
       0.10015399 -0.18793735 0.4278147 -0.2211035
000150 83 ce c4 3e 9f 04 2f 3e 8e 88 a0 3c 8f bb 29 3e
       0.38438806 0.17091607 0.019596364 0.16575454
000160 ee 50 da 3d a5 59 2f 3e f0 fd bd bc 82 86 ee 3d
       0.10659967 0.1712404 -0.023192376 0.11646749
000170 3a 20 e8 bd 2a c9 65 be 26 50 e1 3a de 7f 2f be
       -0.11334272 -0.22440019 0.0017190024 -0.17138621
000180 a2 9e 8a 3d 4f 2c 22 3e fe 9c 80 3d 25 56 b8 bd
       0.06768538 0.15837215 0.06279944 -0.09000806
000190 b4 92 35 3d c3 dd 96 bb bc ff e0 3d 2c 4d 1c 3e
       0.04432936 -0.004604073 0.109862775 0.15263814
0001a0 1d 7b 23 3d ea ad 3b be 53 e1 60 be b1 9e 7f bd
       0.03991233 -0.18328062 -0.21960954 -0.0624072
0001b0 12 4c 06 3e 81 fb d1 bd 24 65 58 be 95 98 f8 bd
       0.13114956 -0.10253049 -0.21132332 -0.12138478
0001c0 8e 4c 2e 3e 79 4d 04 be 26 b6 97 be aa ee 42 3c
       0.17021391 -0.12920178 -0.29631156 0.011897722
0001d0 3e 99 bb bd 18 2c 12 be ed 26 dd bd 57 55 a0 3d
       -0.09160088 -0.14274633 -0.1079844 0.07828777
0001e0 08 a2 bb bd de dd 5c be f5 0e 54 3d 48 6b 0e 3d
       -0.091617644 -0.2156901 0.051772077 0.03477028
0001f0 64 44 cc 3d af ab a6 3d 9c f2 72 be 5e f9 5e bd
       0.09973982 0.08138215 -0.2372536 -0.054437034
000200 df 58 19 3e 1d fe 97 3c 71 a0 cb 3d f6 64 73 be
       0.14975308 0.018553788 0.09942711 -0.23768982
000210 eb 01 ba bd 7f f1 b6 3d fb 31 8a be 65 ac 54 bd
       -0.09082397 0.089327805 -0.26991257 -0.05192222
000220 0b fe 23 be 6f 64 b8 3d af 62 49 be df 0f 51 bd
       -0.16014878 0.09003531 -0.19666551 -0.051040526
000230 3c 75 85 3d 01 3d 94 3b 56 79 0a 3e 91 be 8b bd
       0.06516501 0.004523874 0.13522848 -0.06823457
000240 78 d1 d8 3e 22 cd 78 bd e5 81 05 be 3b 91 c0 be
       0.42347312 -0.060742505 -0.13037832 -0.37610802
000250 dd b7 32 3c 6c d3 8e 3d da f1 09 3e 4a df 3e 3e
       0.010908094 0.06973919 0.13471165 0.18639866
000260 72 f5 3a be 75 bc 9d 3b 4f 3f b5 ba 06 55 25 bd
       -0.18257692 0.0048137256 -0.0013828072 -0.040364288
000270 af 42 db 3a 71 fe b0 3b fa ee 08 3d a2 9a 63 3d
       0.0016728247 0.0054014255 0.03343103 0.05556739
000280 be c9 ca 3d fe b8 39 be be 33 47 bd 7e 81 82 be
       0.099017605 -0.18136975 -0.04863333 -0.2548942
000290 69 54 29 3e c1 74 59 3d e9 46 70 bd 6f 9c 64 bd
       0.16536106 0.05308986 -0.058661375 -0.05581325
0002a0 9e fb ea bd 2f a3 0c bd 5e 9c d7 bd 67 0a 8b 3e
       -0.114737734 -0.03433531 -0.105278715 0.27156374
0002b0 32 a2 01 be d7 38 5a bd 54 7a 9b be 65 28 1b bd
       -0.12659529 -0.053276863 -0.30366766 -0.03788032
0002c0 46 4e 75 3b 35 92 c3 3d 7e 64 84 bb 04 dd 1b 3d
       0.0037430688 0.09549371 -0.0040403 0.038052574
0002d0 72 aa e3 bd 01 84 94 3e ba 3f 53 be 89 2b c8 3d
       -0.11116494 0.2900696 -0.20629779 0.09773929
0002e0 ef 58 81 bc 11 be db 3d ba 72 da bd 0d 71 b1 bd
       -0.015789477 0.10729612 -0.106664136 -0.08664141
0002f0 04 2c b7 3d f9 39 20 be 95 9a 38 bb 19 34 4e 3e
       0.08943942 -0.15647115 -0.002816831 0.20137061
000300 4b ee 09 3d 46 1e 4b 3e b1 ce a9 3c 58 bd b6 3d
       0.03367452 0.19835767 0.020728441 0.08922833
000310 bd a3 a8 be 56 13 a9 bd 8f 33 d1 3d 65 ee f9 3a
       -0.32937422 -0.08255641 0.10214912 0.001906824
000320 04 56 74 be 67 19 9a bd ed e0 46 bd 12 d6 bf 3b
       -0.23860937 -0.07524376 -0.04855435 0.0058543766
000330 04 48 7e 3d 21 29 2a 3e 24 5f 0d bc a6 82 a3 be
       0.0620804 0.16617252 -0.00862864 -0.31935614
000340 b8 46 73 3c 00 ea ca bd f7 7b ac 3e 96 31 b9 3e
       0.014848404 -0.09907913 0.33688328 0.36170644
000350 4e b3 d6 bd 59 42 48 3e 43 fe c5 3a 0f d9 70 be
       -0.104834184 0.1955656 0.0015105683 -0.23520301
000360 a3 cd f2 3c 1a e9 20 be 9b 4b 91 3d 13 29 c3 3d
       0.02963907 -0.15713921 0.07094499 0.09529319
000370 12 97 47 3d 3a 85 81 3e 00 52 70 3d de cd c7 3d
       0.048728056 0.25296956 0.05867195 0.09756063
000380 13 c1 a2 3e 97 26 43 be 46 ea 66 3e fa b8 f4 bd
       0.3178793 -0.1905769 0.22550306 -0.11949344
000390 ad ae f1 3d de 6f 97 3d 1d c1 df 3d 25 43 56 3d
       0.11800895 0.07394384 0.10925505 0.052310128
0003a0 69 13 1a 3e 32 38 d2 3d 92 7c 8d be f1 cb 0b 3e
       0.15046467 0.10264625 -0.27634102 0.13652016
0003b0 33 d0 2e be 0d 43 91 be cd aa 73 3e de 8b eb 3c
       -0.17071609 -0.28371468 0.23795624 0.028753217
0003c0 5b 7b 31 3e f6 fa 1a 3e 84 2d 24 be 43 95 95 bd
       0.17332213 0.15134797 -0.16032988 -0.0730386
0003d0 14 a6 4b be 45 46 33 bd 1f 0e 0e bc 75 4b 1c bd
       -0.19887573 -0.043768186 -0.008670359 -0.0381579
0003e0 72 fe 4c 3d 84 c9 81 be e2 04 b1 3c 34 5c 15 be
       0.050047345 -0.25349057 0.021608774 -0.14585954
0003f0 67 87 a9 3d 69 ff 2c 3e 19 2d 39 3b 01 31 2a 3c
       0.08277779 0.16894306 0.002825564 0.01038766

layers.2.bias f4 [32]
000000 98 ec 94 3c 61 57 0d 3e 08 df 4b 3e f4 f3 c3 3e
       0.018179223 0.13802864 0.19909298 0.3827206
000010 d4 30 77 bd d0 3b 28 bc 0d 68 8b 3e 6d 86 aa be
       -0.0603493 -0.010268167 0.27227822 -0.33305684
000020 54 da b8 3d e3 e9 3a 3e 96 b6 99 3e a5 90 42 be
       0.09026018 0.18253283 0.30022115 -0.1900049
000030 1d 37 10 be 56 e5 37 be e6 3b 84 3e fd 41 43 3e
       -0.14083524 -0.17958578 0.2582695 0.19068141
000040 48 c1 6a 3e 2d 22 47 bd 30 43 a0 3d 8a 34 d8 be
       0.22925293 -0.048616577 0.07825315 -0.42227584
000050 a4 c1 ac bd e1 7c 90 bd 86 5b 35 bd f8 64 3f be
       -0.084353715 -0.07055069 -0.044276737 -0.1869086
000060 70 55 60 be 50 7c b7 be 3a 36 ad be 8d c3 ad 3e
       -0.21907592 -0.3583703 -0.33830434 0.33938256
000070 d2 3a 43 be 67 99 9e be eb ee 98 be fd 7e a4 be
       -0.19065407 -0.30976412 -0.2986978 -0.32128134

layers.4.weight f4 [1172, 32]
000000 38 d1 d4 be a5 32 8c be 75 f3 81 3e 61 6a f7 ba
       -0.4156587 -0.2738239 0.25381055 -0.0018876308
000010 ea fc 69 3e 9d ac 97 be ae 55 07 3e 22 88 f5 3d
       0.22850385 -0.2962388 0.13216278 0.11988856
000020 41 ed f3 3c 32 bc 1b bf 17 3a fe be c6 ff 49 bf
       0.029776217 -0.6083404 -0.49653694 -0.78905904
000030 0f eb 0a 3e 80 ab 8f 3e f1 27 95 bf 8d fa bc 3d
       0.1356623 0.28060532 -1.1652814 0.09227476
000040 1e 7f f1 3d 99 b0 99 be 32 7d d5 3d 52 08 84 3e
       0.11791824 -0.30017546 0.1042427 0.25787598
000050 1b 79 c6 3c f4 70 90 3e 42 dd 67 be e8 fb 12 3e
       0.02422767 0.28211176 -0.22642997 0.14353907
000060 eb 65 1a bd 6b 12 a4 3d fb 5c 42 be 0a 92 28 bf
       -0.037694853 0.080113254 -0.18980782 -0.6584784
000070 4a 22 2d bf 8d 85 44 be 36 0c 50 be 08 7f 5e 3e
       -0.67630446 -0.1919157 -0.20317158 0.21728146
000080 00 69 54 3e 8b 30 81 3e 28 8b 3b 3e eb 7e 68 be
       0.2074318 0.25232348 0.18314803 -0.22704665
000090 93 47 ec be fe 88 23 3e e8 b4 58 3e 4a 9d 2d 3e
       -0.46148357 0.15970227 0.2116276 0.16954532
0000a0 cd d2 1b be fc 0a bb 3e 46 f1 43 3e 4b 43 61 bf
       -0.15217133 0.36531818 0.19135007 -0.87993306
0000b0 c5 04 2f 3e 39 1d 89 be 98 95 ca bd d2 61 97 be
       0.17091663 -0.26780108 -0.09891814 -0.29566818
0000c0 e3 fd 58 bd 10 89 b7 b9 34 7d 29 3e 2f 9e 66 be
       -0.0529765 -0.000350066 0.16551667 -0.2252128
0000d0 5e 94 8f be fe 02 65 3e 7b 17 61 3e 55 e8 2f bd
       -0.28042883 0.22364423 0.21981613 -0.04294618
0000e0 fa 9e c3 bd 38 e3 f6 be 1f 2d 41 3e ad 98 37 3e
       -0.09551807 -0.4822023 0.18864869 0.17929335
0000f0 39 0d 83 bf 52 37 0e be f0 24 49 3d dd 6f 8d 3d
       -1.023841 -0.1388829 0.049107492 0.06906102
000100 08 d7 40 3e fe 66 5f be 4a be 0a 3d 65 a6 42 3d
       0.18832028 -0.21816632 0.03387288 0.047521967
000110 82 45 87 3e b8 19 65 bd 87 79 53 be 4b 60 07 3f
       0.26420218 -0.05593273 -0.20651828 0.52881306
000120 44 19 37 bd a4 ac 2c 3e 0c 11 29 3e 8b 4a c9 bc
       -0.04470183 0.16862732 0.16510409 -0.024571678
000130 73 7e b4 be 2f 7d 97 bf bd 49 00 3c 5f b8 99 bc
       -0.35252723 -1.1835078 0.007830081 -0.018764673
000140 7e 0d a2 be 81 96 b5 3e f9 c8 43 3d b4 c4 9c bf
       -0.3165092 0.35466388 0.047799084 -1.2247529
000150 38 cb 27 3f 2a 12 00 3f 51 e9 ba 3d 9a 26 1a 3f
       0.6554446 0.50027716 0.09126533 0.6021515
000160 1e 22 bc 3e a6 4e 9d bf fe 46 31 bf 46 83 e2 be
       0.3674478 -1.2289627 -0.6924895 -0.4424078
000170 22 ae 06 be 69 9e a2 3c 5a 24 98 bf 7f fb 64 3d
       -0.13152364 0.019850926 -1.1886094 0.055903908
000180 5b ac 14 3e 31 c4 43 3e 85 7d 3a 3c fd 0e 8b 3d
       0.14518873 0.1911781 0.011382465 0.06789968
000190 7e 5e 92 3e 9b 83 35 be a2 91 8b bd 7a 63 80 3e
       0.28587717 -0.17725985 -0.06814887 0.25075895
0001a0 90 10 fa 3d 25 f6 0a bd 9f e2 4b 3e e2 db 59 3e
       0.1221019 -0.033926148 0.19910668 0.21275285
0001b0 e5 09 09 bc ae 61 33 bd 7d e5 52 3e b7 46 1f 3e
       -0.008364175 -0.043794326 0.20595355 0.1555432
0001c0 1a 24 8a bd 4f 4c 54 be 3b 82 ab 3c b1 e0 de be
       -0.06745167 -0.20732234 0.020936122 -0.435308
0001d0 52 93 95 be 59 e2 49 bf 2a 54 2a 3e 77 51 13 be
       -0.2921396 -0.78861004 0.16633669 -0.14386545
0001e0 6f 3b 07 3e 63 03 29 be 2c c6 fc bd ac b7 c6 3d
       0.13206266 -0.16505198 -0.12342486 0.097030014
0001f0 6a 65 10 3e 8e 75 1d 3d b6 a2 ca bd a2 66 a9 bd
       0.14101186 0.038442187 -0.09894316 -0.08271529
000200 b0 e6 01 3e 74 88 5f 3e f8 55 e5 3d 70 58 3f 3c
       0.12685657 0.21829396 0.11198038 0.0116788
000210 d8 f7 9a be 2c 6e 4f bc 31 a5 aa bd cf 67 47 3e
       -0.30267215 -0.012660544 -0.08332289 0.19473194
000220 49 f3 b5 3d f3 9a 29 bc 66 5c 1d 3e 1b 79 34 bc
       0.088842936 -0.010351884 0.15367278 -0.011015202
000230 36 4d f4 3d cf 1c b3 3c 25 29 90 3e 5a ea 8d 3d
       0.11928789 0.021864323 0.2815639 0.06929465
000240 4e ac 8f 3d ce ae 4d 3d 73 15 8a bc 5a ab 7b 3d
       0.070152864 0.050215535 -0.01685593 0.06144271
000250 fb dd 74 be 05 76 14 bf 44 b3 16 3e e8 3f 31 bc
       -0.23912804 -0.57992584 0.14716822 -0.010818459
000260 fd c1 c1 3d 29 d7 89 3c 9b 24 ea bd 2d 38 2d 3d
       0.094608285 0.01682623 -0.11432763 0.0422899
000270 09 7d 62 3d ba 43 86 3d a8 e9 c8 bd 00 ce 56 bd
       0.055295024 0.065558866 -0.098101914 -0.05244255
000280 34 71 1b 3e b1 cc 24 bd 34 52 39 3d 3b 7e cb 3e
       0.15179902 -0.04023427 0.04524441 0.39744744
000290 73 4b 80 bd 43 16 91 3c f3 71 05 3d 5e 76 8f be
       -0.06264391 0.01771081 0.032579374 -0.28019994
0002a0 de bf 95 bd 4e 96 79 bf ed 95 11 3e 37 30 61 bf
       -0.073119864 -0.9749497 0.14217348 -0.87964195
0002b0 98 cc 67 3e f1 80 87 3e 55 cd 80 3d 4d 54 e3 be
       0.2263664 0.26465562 0.06289164 -0.44400254
0002c0 d0 ae 41 bd b1 76 69 bf 8c 38 b3 3d a3 be 8e 3d
       -0.047285855 -0.91196734 0.0875102 0.06969955
0002d0 ed 70 0e be cc db 37 3e d9 cf 03 be 6b ce a0 3e
       -0.13910265 0.1795494 -0.12872256 0.31407484
0002e0 66 87 32 bf f1 2b 81 3e b0 a3 e5 be 7a 4e 10 bf
       -0.6973785 0.25228837 -0.44851446 -0.56369746
0002f0 7e 72 74 bf d2 e0 9f 3e a7 6f 0c bf f5 4d 1b be
       -0.954872 0.31226212 -0.5485787 -0.15166457
000300 4a 7f f2 bd 8f 8d b2 be 75 87 7b 3e 3f 88 ac 3e
       -0.11840685 -0.34873626 0.24563392 0.33697698
000310 01 4e 47 3d 6c 25 90 bd 08 cc 99 3d 26 82 bc bf
       0.048658375 -0.07038388 0.07509619 -1.4727218
000320 59 86 ca bd 9a b1 3c bf f9 95 64 bf 8d 04 19 be
       -0.09888906 -0.737085 -0.8929134 -0.14943142
000330 e1 53 6e be ce 45 b9 3c 3a 9d 8e 3e 91 c0 e1 3e
       -0.23274185 0.022616293 0.2785433 0.4409223
000340 85 a0 40 3d 43 7a c9 bd 2f 02 a4 bc 0f c3 b7 3d
       0.047028083 -0.09837773 -0.020020572 0.08972751
000350 18 5d 79 3d 4c 50 08 3e e3 d0 74 be e6 0e 2a be
       0.060879797 0.13311881 -0.23907809 -0.16607246
000360 04 39 bb 3e b6 1c 41 be 0f 92 f5 be 0a 38 99 bf
       0.36566937 -0.18858609 -0.47962996 -1.1970227
000370 6c cc c3 3d ff b5 af be 89 d9 8b be df 41 8b 3e
       0.09560475 -0.3431854 -0.27314404 0.27198693
000380 62 d9 6d be 4e b9 b7 be 7e 2e 24 bf f5 89 a0 bf
       -0.23227456 -0.35883564 -0.6413344 -1.2542101
000390 d4 67 12 3d d3 f5 9e be 13 57 d7 be d7 ed 9a be
       0.03574355 -0.31046924 -0.4205862 -0.30259582
0003a0 60 ec 6b 3d c3 cf b8 3e 00 fc 9f bd 11 ad 4a bf
       0.05759847 0.3609601 -0.07811737 -0.7917033
0003b0 66 f2 ad bf e8 39 6a 3e 50 3c f1 3d a6 be ad 3e
       -1.3589599 0.22873652 0.11779082 0.33934516
0003c0 b3 88 21 bf 7e 4a 9f 3e bf 35 f4 bd a0 cf 37 3e
       -0.6309921 0.3111152 -0.11924314 0.17950296
0003d0 5e 78 a2 3c 87 89 bf 3e 09 15 e8 be e8 42 a1 3b
       0.019832786 0.37409613 -0.4532855 0.004921306
0003e0 10 19 c7 3e 7f 8b 96 bf 93 30 7a be ac ad 5d be
       0.3888631 -1.1761321 -0.24432592 -0.21648282
0003f0 a8 91 c3 3e 84 60 88 be e1 92 a8 3e 35 dc 9d 3e
       0.38197064 -0.26636136 0.3292456 0.30832067

layers.4.bias f4 [1172]
000000 3e 32 6d 3b 86 c0 a1 3e f9 0b af be 38 f1 90 bd
       0.0036193277 0.31592196 -0.34188822 -0.07077259
000010 8e 48 62 3e df d4 fb bd 53 c3 7e 3d 33 ae 8d bd
       0.2209799 -0.12296461 0.062197994 -0.069179915
000020 43 63 ef bd 2a 3b 54 be 69 ba b7 bc 48 02 0f be
       -0.116888545 -0.20725694 -0.022427754 -0.13965714
000030 77 08 c2 bd de 76 20 3c 75 8a fd 3d 56 28 88 3d
       -0.09474271 0.009793965 0.12379924 0.066483185
000040 0d d2 a5 bd 75 6b 9d 3d 79 55 e2 3d 09 2a 24 3d
       -0.08096705 0.076865114 0.11051459 0.04007915
000050 8c 80 44 be f4 ab 43 bc 6a 72 49 3e 34 f8 0f be
       -0.19189662 -0.011942852 0.19672552 -0.14059526
000060 2b f6 10 3e b7 c4 58 bd f6 e4 b1 bd 80 9b 4c be
       0.14156406 -0.052921977 -0.08686249 -0.19981194
000070 c1 fb 60 be fa 2e 12 be ef 33 9a bd 06 eb 83 3d
       -0.21971036 -0.14275733 -0.07529437 0.064413115
000080 58 ce 3b be 0f 18 6e be 37 97 67 bc c5 d6 a4 3d
       -0.18340433 -0.23251365 -0.0141351735 0.080487765
000090 46 a5 59 bd 4e a7 40 be 94 ea d4 bc 48 5f 23 bd
       -0.053136133 -0.18813822 -0.025990762 -0.03988579
0000a0 33 42 f6 3c a6 e5 c7 bd f3 db 41 bc 7a c7 7b be
       0.030060863 -0.09760599 -0.011832225 -0.24587813
0000b0 79 48 0b be 13 e0 70 bd 8e 11 79 be 58 cf 75 be
       -0.13601865 -0.058807444 -0.24323103 -0.24004877
0000c0 df 2a aa bd b5 d3 d3 bb 93 65 b3 3e 74 ac 0f be
       -0.08308958 -0.0064644464 0.35038432 -0.1403063
0000d0 97 4e 6f 3d 27 a1 ac be 3b ef 57 bd 88 cd ba 3c
       0.05842456 -0.337167 -0.052718382 0.022803083
0000e0 c4 93 50 3d ed de 06 3b 2c e0 af bd 90 59 1e be
       0.05092217 0.0020579651 -0.08587679 -0.15463853
0000f0 28 3e 10 be 31 8e ed bd 57 03 3a 3d 7e af 05 3d
       -0.1408621 -0.115993865 0.04541334 0.032638066
000100 2f 14 dd 3d 49 8c 0f be ad 88 8e be b0 b9 a1 bd
       0.10794865 -0.14018358 -0.2783865 -0.07896745
000110 28 60 e5 3b 62 95 c6 3c 7e c3 dc bc 55 c9 26 be
       0.006999988 0.024241153 -0.026948687 -0.1628774
000120 d1 3f 4a be 3c 68 54 be 48 66 3a be 5a 5a b0 be
       -0.19750907 -0.20742887 -0.1820308 -0.34443933
000130 36 88 ec bd 9f e0 8c 3e 45 f0 07 3e b2 2f f1 bd
       -0.11549418 0.27515122 0.1327525 -0.11776675
000140 a8 2b 4a be df ae af bd 8d 7a 48 be b9 5b a2 bd
       -0.19743216 -0.08578276 -0.19578 -0.07927651
000150 59 be 62 3e 21 04 d1 bd 47 45 07 bd fe 27 33 be
       0.22142924 -0.10205866 -0.033025052 -0.17495725
000160 9a ee 92 3d b4 cd 0e bd 71 11 02 be 91 74 ae bc
       0.07174416 -0.034864143 -0.12701966 -0.021295818
000170 e0 83 b8 be 25 f5 90 bd 17 c9 4a bd 18 32 5d be
       -0.36038113 -0.070780076 -0.04950818 -0.2160114
000180 a8 03 52 3d 18 3d 81 bc a6 47 29 3c 60 cb 63 3d
       0.051273018 -0.015776202 0.010332024 0.055613875
000190 f5 2c 44 be 98 d5 f8 bd 71 d7 36 be 43 05 45 3e
       -0.19157775 -0.12150115 -0.17855622 0.19240288
0001a0 4e 4d 0c 3e dd e9 36 bd 10 18 51 be 04 67 88 be
       0.13701364 -0.044656623 -0.20419335 -0.26641095
0001b0 3e bb 99 3e ce 93 83 be 36 28 eb bd 8a fb 79 be
       0.30025667 -0.25698704 -0.11482279 -0.24412361
0001c0 fd c7 68 bc f5 74 7f 3e 30 d2 a5 3c 46 1c b6 bd
       -0.014207837 0.2494696 0.020241827 -0.088921115
0001d0 1f 69 ce 3d 7b 52 3a be 69 65 93 3d 95 58 7c 3e
       0.10078644 -0.18195526 0.07197077 0.24643166
0001e0 33 d7 1e bd 7c cf 85 bd b3 c4 8d bd 0f 05 86 3d
       -0.03877945 -0.06533715 -0.06922283 0.065439336
0001f0 f5 85 7e bd 3e 15 8d bd 4b e2 88 be 59 7f cd bd
       -0.06213947 -0.06888817 -0.26735148 -0.10034055
000200 0a 42 d9 bd ce a7 48 be d4 87 1a ba 86 32 a5 be
       -0.10608299 -0.19595262 -0.0005894874 -0.3226511
000210 b3 14 82 be 71 01 c6 bd 99 68 38 bd 7c 2b 92 be
       -0.25406417 -0.09668244 -0.045021627 -0.285488
000220 40 34 55 3d 8a 3d a1 be b1 e9 47 bd 6c 9a 92 bd
       0.052051783 -0.31492263 -0.04880685 -0.0715836
000230 7c 79 74 be 9c d0 86 3e d3 0c 98 be 48 e5 16 bd
       -0.23874468 0.2633103 -0.29697284 -0.036839753
000240 b7 e8 0f 3e 05 b8 6f be e9 a8 19 3d d3 15 7d bd
       0.14053617 -0.23410042 0.0375146 -0.06178839
000250 03 d9 43 bd 13 ef 2e bd 2c fa 6f be 83 23 cb bd
       -0.04781438 -0.042708468 -0.23435277 -0.09918883
000260 6b ca 08 3e 92 f5 33 be fa d4 77 be b8 2d f7 bd
       0.13358466 -0.17574146 -0.24202338 -0.12069267
000270 9d f8 15 bb 89 d7 42 3b 74 ed e0 3d 50 6d 81 be
       -0.002288378 0.002973052 0.109827906 -0.2527871
000280 cf 83 4c 3c 38 4c 25 bd ad 16 2e bd 6b 89 98 be
       0.0124825975 -0.04035589 -0.042502094 -0.29792342
000290 ba e7 8d 3c cd 33 63 be c5 29 e4 3b e3 8e 69 be
       0.01732241 -0.22187729 0.006962987 -0.22808413
0002a0 d9 a2 7b be 29 60 24 3d f7 09 93 be cf da a9 be
       -0.2457384 0.040130768 -0.2871854 -0.3317475
0002b0 32 91 08 3e a5 b5 fa bd 36 ed 6e bc 7d ef 02 be
       0.13336638 -0.12241677 -0.014582923 -0.1278667
0002c0 df c9 b6 be 23 a4 dc bd fd bc b2 bd c0 d7 82 bc
       -0.3570089 -0.10773494 -0.08727453 -0.015972018
0002d0 b6 cb f0 3c b7 94 02 3e 1e bd 44 bd ba c5 8c be
       0.029394012 0.12752043 -0.04803192 -0.27494603
0002e0 6b 72 30 bd b1 75 f5 3b b7 c2 0e 3b 6e 33 80 be
       -0.043077867 0.0074908365 0.002178354 -0.25039238
0002f0 1d 57 f9 bd 8d c4 80 3d 2a fd b4 bd 16 46 84 be
       -0.12174819 0.06287489 -0.0883735 -0.2583472
000300 ce b3 f9 bd aa cf 8c be 86 df 79 3c 14 98 d8 bc
       -0.12192498 -0.27502185 0.015251046 -0.026439704
000310 9b f7 26 be b4 15 4b be 98 1c 9f be ae 51 54 bd
       -0.16305391 -0.19832498 -0.31076503 -0.05183571
000320 70 02 a6 bb d1 66 70 be a7 08 c5 bd 13 eb f8 3b
       -0.0050662085 -0.23476721 -0.09620791 0.0075963824
000330 6f 54 36 be a7 2c 84 be 3f af 6e be 76 48 85 bd
       -0.17805646 -0.25815317 -0.23309039 -0.065079615
000340 1f e2 83 be 92 19 84 be be 7f d4 bd d8 a8 85 bd
       -0.25758454 -0.2580076 -0.103759274 -0.06526345
000350 85 eb 9d 3d 7c 53 1a be e6 47 09 be 79 00 6c 3c
       0.077109374 -0.1507091 -0.13406333 0.01440441
000360 8e d0 24 be ee df 47 3d 11 1a 51 be df 08 92 bd
       -0.16095182 0.04879754 -0.204201 -0.07130598
000370 ae 65 d6 3c 04 5d 71 3d 5a 2a b7 bd 92 40 59 bc
       0.026171532 0.058926597 -0.08943625 -0.013260024
000380 34 03 ab bd 62 4b 22 be d7 b0 90 bd a9 2b 98 3c
       -0.0835022 -0.15849069 -0.070649795 0.018575506
000390 f6 cf a9 bd fa a6 7b bd a6 7a b0 be 21 e7 8c 3c
       -0.082916185 -0.061438538 -0.34468573 0.017200055
0003a0 32 78 c8 be 05 13 06 be f0 77 59 be 59 e6 f1 3d
       -0.39154202 -0.13093193 -0.21237159 0.118115135
0003b0 ca 53 06 be b9 bc 7c be 5d c0 cc 3d 08 24 6f bd
       -0.131179 -0.24681367 0.09997628 -0.05838397
0003c0 2c 03 64 3d ea 0b fa bd 4a 29 2c 3c 89 ab 39 be
       0.055667087 -0.12209304 0.010507891 -0.18131842
0003d0 7e da 18 3e 63 f6 fa 3d a0 27 9d bd 8b 0f 5c bd
       0.14927098 0.12254026 -0.076735735 -0.05372576
0003e0 8f d2 77 bd 53 2b cd bb f7 2b 9b 3c c0 c0 70 bd
       -0.06050354 -0.006261268 0.018941863 -0.05877757
0003f0 8e df 06 be 12 f5 f1 bd 45 98 d5 bc 6d 3a e9 bd
       -0.13171217 -0.118143216 -0.026073584 -0.11388097
