Models/LSTM_Start-ups_16_8.pth (torch, 360456 bytes, 7 tensors)

embeddings.0.weight f4 [1172, 8]
2.3285947 1.101858 0.0009005921 -1.2777749 0.7353898 -2.0000627 -0.22339483 -0.9506953
-1.5070145 2.791613 -0.5681001 -2.41869 -1.3143616 -1.2944876 -1.6253031 1.4807063
2.535966 -0.7112103 -0.8987154 1.133992 0.0058402596 0.7247032 -0.44025886 1.4204886
1.7631295 1.9533212 0.8054244 2.5026827 0.4396925 -0.35736236 -1.0030774 1.3569806
-2.4716172 -0.9835869 -0.2509289 3.0238807 1.1699898 -1.126687 0.8779277 -0.6995995
-1.2644587 0.03452011 -1.5722315 -0.45775965 -0.93708825 2.5291035 -1.4802644 -1.247489
-1.6545823 -1.0978978 -0.2485577 0.8399412 -1.3962724 0.59983337 0.08998006 -0.768296
-1.0116317 0.53063035 -0.20962754 0.3412354 -0.13143337 0.95422345 -1.6361709 1.3967185
2.154371 1.489445 2.9596522 0.07597758 0.04966477 -1.1580825 -1.5627291 1.5491966
0.395395 0.010375226 0.46342313 0.5211142 0.74241173 -0.10429356 -1.6470385 -0.5177715
-1.3504902 -0.65930146 -1.6809055 0.24944502 0.24392039 -0.3787068 1.2013958 0.15970118
0.44168577 -1.6510379 -1.933415 0.086607516 -2.4829888 -1.2638493 1.7699263 -0.4094155
-3.0565474 0.48436004 0.7156377 -1.0417242 -0.16414364 1.5004947 0.28249076 -0.87829655
0.2861915 0.0032113383 0.38798487 -0.239707 0.24789563 1.4490521 -0.4640935 0.26957175
-0.6041431 -0.7323073 -1.3735048 0.8348462 0.9955598 -0.05926534 -1.6347134 -0.18571642
0.16993284 -0.38469002 -0.01052349 1.999434 1.3866656 0.16425124 0.5045963 0.41776335
1.4715466 0.79095185 -2.589013 -0.989347 -0.18133268 1.4218708 -0.40101707 0.9254605
0.3771439 0.8276853 -1.912531 0.90694016 0.5103835 1.1564248 -0.46469265 0.70780355
-1.0289727 0.40186328 1.6136526 2.0525017 0.5758364 -0.71032554 -1.7467763 -0.62120175
0.27855277 0.036427315 -0.32440126 1.4743326 -2.6259606 -0.9628481 -1.612381 0.19814014
-2.8345566 -0.03706564 -0.9093588 -0.49015126 1.0580262 0.009651048 0.3158348 -1.9008797
-2.2593853 0.64284724 1.9727317 0.19217804 -0.7603075 1.6056279 0.4976701 2.2684984
-0.012872307 -0.11035241 -1.6599504 -0.1753032 -1.3749509 -2.7604244 -2.1999605 -1.1236213
-0.69509363 -1.8694597 -2.4946287 0.20298196 0.68372834 -0.22697507 -0.23046622 0.6377978
2.4861815 -1.594036 2.0058322 -1.3896004 -1.6417829 -0.022683444 0.94154537 1.1365659
-0.07492156 2.9284055 -1.12423 -1.3429008 0.79942113 1.6197078 1.542761 -0.22011454
-0.66908413 -1.1931026 -1.0568206 -0.24786359 0.07142136 0.586508 -0.7815441 -2.1270568
-0.9200735 1.1559349 -1.1099056 1.7433562 0.7735917 -1.0784032 1.909648 2.2224746
-0.67741996 2.6562607 0.41598108 -1.2081429 -0.7323706 -0.56306094 -0.30073062 2.7208009
-0.033315286 -0.17054985 -2.996777 -0.71783465 -0.64502525 1.024857 0.6850108 -0.1120552
-0.22051974 -0.18293971 -1.6586248 1.1688007 -0.42976323 0.20376806 0.041550018 1.6874117
0.5908841 -1.3558538 -0.41196808 0.96108997 -0.6073869 1.3373929 -0.10189406 0.90432847
00000000: b207 1540 af09 8d3f b615 6c3a 218e a3bf
00000010: 8242 3c3f 0701 00c0 9dc1 64be c460 73bf
00000020: dae5 c0bf caa9 3240 026f 11bf d1cb 1ac0
00000030: 003d a8bf c5b1 a5bf ef09 d0bf c987 bd3f
00000040: 444d 2240 e111 36bf 3612 66bf a626 913f
00000050: a65f bf3b 2686 393f 9c69 e1be 92d2 b53f
00000060: 3aae e13f 6e06 fa3f 4b30 4e3f f42b 2040
00000070: 601f e13e 33f8 b6be d764 80bf 8ab1 ad3f
00000080: fa2e 1ec0 5acc 7bbf c179 80be 4387 4140
00000090: 3ac2 953f 4837 90bf dfbf 603f f418 33bf
000000a0: c8d9 a1bf f564 0d3d e23e c9bf 795f eabe
000000b0: 04e5 6fbf d5dc 2140 4e79 bdbf b8ad 9fbf
000000c0: 5ac9 d3bf ea87 8cbf e985 7ebe 6306 573f
000000d0: 0eb9 b2bf ae8e 193f 7747 b83d 0caf 44bf
000000e0: 267d 81bf 64d7 073f 9aa8 56be 68b6 ae3e
000000f0: 7896 06be fd47 743f 0c6e d1bf acc7 b23f
00000100: 37e1 0940 22a6 be3f f16a 3d40 229a 9b3d
00000110: 496d 4b3d 0c3c 94bf 8207 c8bf 134c c63f
00000120: 3771 ca3e dafc 293c cc45 ed3e bd67 053f
00000130: b20e 3e3f dd97 d5bd 28d2 d2bf ac8c 04bf
00000140: dddc acbf fbc7 28bf e927 d7bf 846e 7f3e
00000150: 44c6 793e dce5 c1be 56c7 993f b588 233e
00000160: a324 e23e 3655 d3bf 257a f7bf 485f b13d
00000170: 4ae9 1ec0 d0c5 a1bf f28c e23f e99e d1be
00000180: 799e 43c0 0afe f73e 0834 373f 3857 85bf
00000190: 4515 28be 3610 c03f a1a2 903e 0bd8 60bf
000001a0: b187 923e 5175 523b f4a5 c63e c075 75be
000001b0: 5ad8 7d3e 8a7a b93f aa9d edbe 4f05 8a3e
000001c0: 1fa9 1abf 7e78 3bbf 01cf afbf 7bb8 553f
000001d0: 02dd 7e3f 37c0 72bd 4a3e d1bf 722c 3ebe
000001e0: e002 2e3e 17f6 c4be b76a 2cbc 74ed ff3f
000001f0: 427e b13f 7a31 283e 392d 013f 14e5 d53e
00000200: a45b bc3f d27b 4a3f 64b2 25c0 d845 7dbf
00000210: 46af 39be ddff b53f 1c52 cdbe fbea 6c3f
00000220: 0119 c13e 2fe3 533f d1cd f4bf 3b2d 683f
00000230: 7ea8 023f ba05 943f 32ec edbe 9d32 353f
00000240: 61b5 83bf 06c1 cd3e 2b8c ce3f 305c 0340
00000250: 046a 133f e5d7 35bf 5e96 dfbf 1407 1fbf
00000260: 789e 8e3e cf34 153d ec17 a6be eeb6 bc3f
00000270: bd0f 28c0 377d 76bf 8062 cebf 40e5 4a3e
00000280: 6069 35c0 24d2 17bd bdcb 68bf 1bf5 fabe
00000290: 676d 873f 6e1f 1e3c 19b5 a13e 0750 f3bf
000002a0: c599 10c0 a391 243f 7982 fc3f 52ca 443e
000002b0: 83a3 42bf 3785 cd3f 9ece fe3e 142f 1140
000002c0: 5ee6 52bc 7200 e2bd 4179 d4bf af82 33be
000002d0: 64fe afbf cbaa 30c0 27cc 0cc0 d3d2 8fbf
000002e0: a8f1 31bf 754a efbf ffa7 1fc0 81da 4f3e
000002f0: d208 2f3f 276c 68be 56ff 6bbe b746 233f
00000300: 991d 1f40 5f09 ccbf 8e5f 0040 6dde b1bf
00000310: f125 d2bf a1d2 b9bc 1e09 713f fe7a 913f
00000320: 7a70 99bd ff6a 3b40 c5e6 8fbf 2ce4 abbf
00000330: dda6 4c3f 9652 cf3f 3179 c53f b565 61be
00000340: 1949 2bbf 96b7 98bf e645 87bf f4cf 7dbe
00000350: 5d45 923d 6325 163f 4613 48bf b321 08c0
00000360: f089 6bbf adf5 933f 6311 8ebf 4c26 df3f
00000370: 1b0a 463f 1e09 8abf 586f f43f 063d 0e40
00000380: 656b 2dbf 2d00 2a40 79fb d43e 6da4 9abf
00000390: a47c 3bbf c324 10bf 5df9 99be 9a21 2e40
000003a0: 9c75 08bd 9fa4 2ebe 32cb 3fc0 03c4 37bf
000003b0: 6020 25bf 842e 833f de5c 2f3f 327d e5bd
000003c0: edcf 61be 8c54 3bbe d14d d4bf 439b 953f
000003d0: ed09 dcbe 93a8 503e 5a30 2a3d 1bfd d73f
000003e0: 2e44 173f 9e8c adbf 7bed d2be fe09 763f
000003f0: b57d 1bbf b12f ab3f d5ad d0bd 1282 673f

layers.0.weight f4 [256, 128]
-0.027002186 0.417992 -0.025555635 -0.27544463 -0.1947291 0.13963541 -0.14716795 0.0796576
-0.24265356 -0.036136042 0.20092653 -0.15338416 0.07091049 0.015157377 0.08524575 -0.15719853
0.10095368 0.089391485 -0.24369341 -0.03184808 -0.36012107 -0.32690474 0.19937879 0.25297925
0.29488584 0.45735162 0.12071549 -0.66825783 0.20411655 0.10186212 0.5128557 -0.081925295
-0.118943505 -0.2639838 -0.13197944 -0.102325045 0.081017055 0.09056799 0.05416618 -0.02293137
0.5314945 0.06518493 -0.31081966 -0.4196543 -0.1920396 -0.32155073 -0.16629907 0.31414533
-0.07638894 -0.08353361 -0.025217626 -0.23102964 -0.033953458 0.056980845 -0.31021738 -0.23798296
0.41738316 -0.29148954 0.20843408 -0.014512949 -0.19494306 0.39504743 0.1237142 -0.30561823
-0.20810622 -0.32724786 -0.37369788 -0.3556221 0.5880255 0.034680914 0.19078328 -0.1498668
0.018897464 0.0048433784 0.09484315 0.1831839 0.33374304 0.15528429 -0.22386216 0.3027687
-0.13192828 -0.18145181 0.36113253 -0.14710347 0.34781605 -0.19567998 -0.027412279 -0.26771027
0.34140196 -0.0031793835 0.1390218 -0.27503616 0.53328085 -0.03151978 0.42470613 0.20143954
0.07263011 0.13542148 -0.1491436 0.081664965 0.09028942 0.05040803 0.047079165 -0.67609185
0.09385915 0.018308448 -0.48922566 0.0518325 -0.35173884 0.2518531 -0.5257394 0.41631463
0.077029414 0.4048013 0.53723127 -0.24847908 -0.3239028 0.0693652 0.42558688 -0.6823658
-0.17309403 0.16437651 -0.12526958 0.01127187 -0.7313291 -0.19040288 -0.7018277 0.6062044
0.14875613 0.09908185 0.014464476 -0.105724774 -0.05582386 0.8174808 0.39630115 0.37231812
-0.23454092 -0.57081956 -0.02400645 -0.12175995 0.4324047 -0.43042725 -0.6300618 0.045780417
0.36959636 0.25277475 0.18985933 0.30567634 -0.15990378 -0.27442056 0.35579267 -0.3459612
-0.14593476 -0.1443704 0.31242394 -0.12298342 -0.22528367 -0.12786372 -0.25366604 0.042324062
-0.18717593 -0.008839553 0.0763668 0.14653784 0.118495755 -0.018869253 -0.09293901 -0.35040808
0.0122249955 -0.0035103962 0.5031372 -0.2141991 0.09311097 0.26549163 0.2286541 -0.59185445
-0.018352304 0.39493155 0.21728644 -0.45377278 0.3364352 -0.52718925 0.0306765 0.10941404
0.39021322 -0.19201313 0.15090637 -0.15464544 0.0029705192 0.077883296 0.037321568 -0.41740444
0.30461597 0.34786236 -0.10874334 -0.5682421 0.31967276 0.17308974 0.01792633 0.2024615
-0.45919317 -0.10666663 0.35969794 -0.23669909 -0.44144857 -0.36342907 -0.30384114 0.24852026
-0.07188693 -0.23739748 0.24276428 0.2583415 -0.2819732 -0.19386294 -0.21442348 0.018876541
-0.31754857 -0.2855504 0.1508222 -0.21300608 0.27984154 0.05502015 0.09951138 -0.28438857
-0.39701387 0.39002916 -0.36498427 -0.2382254 0.1127853 0.6035639 0.26678243 0.19026878
0.14966601 -0.12858516 0.3302707 -0.44262785 0.52153224 -0.35107318 0.13483553 0.34146684
-0.25809836 -0.17726155 0.10333373 -0.05085556 -0.052804895 -0.41074726 -0.21818537 0.46333307
-0.31896544 0.0008573481 -0.21699435 -0.05194141 0.7332334 -0.071283795 -0.049819753 0.10704674
00000000: b033 ddbc 0c03 d63e 0d5a d1bc 1407 8dbe
00000010: 1167 47be 96fc 0e3e 32b3 16be 8623 a33d
00000020: 2d7a 78be 6303 14bd afbf 4d3e bd10 1dbe
00000030: 8539 913d a656 783c 5395 ae3d a7f8 20be
00000040: cec0 ce3d e212 b73d c48a 79be 2273 02bd
00000050: ca61 b8be 0f60 a7be f429 4c3e 7f86 813e
00000060: 47fb 963e fe29 ea3e af39 f73d f212 2bbf
00000070: ee03 513e 169d d03d 834a 033f 73c8 a7bd
00000080: a798 f3bd e228 87be 9e25 07be cb8f d1bd
00000090: 45ec a53d b67b b93d 5bdd 5d3d 92da bbbc
000000a0: 0610 083f ad7f 853d c123 9fbe eedc d6be
000000b0: 07a6 44be 4ca2 a4be 4e4a 2abe a8d7 a03e
000000c0: ce71 9cbd ab13 abbd 3295 cebc 0993 6cbe
000000d0: c812 0bbd bf64 693d d0d4 9ebe ceb1 73be
000000e0: 3fb3 d53e 1e3e 95be be6f 553e b8c7 6dbc
000000f0: 279f 47be a843 ca3e df5d fd3d fe79 9cbe
00000100: cc19 55be 088d a7be 5455 bfbe 1a14 b6be
00000110: d788 163f 930d 0e3d b15c 433e af76 19be
00000120: dbce 9a3c 34b5 9e3b 203d c23d 8f94 3b3e
00000130: 5ee0 aa3e d802 1f3e 1f3c 65be 8004 9b3e
00000140: 3518 07be 81ce 39be 5de6 b83e 4ba2 16be
00000150: f214 b23e 5560 48be b78f e0bc 5211 89be
00000160: 3dcc ae3e 345d 50bb bb5b 0e3e 8ad1 8cbe
00000170: 1885 083f e31a 01bd 1573 d93e 2b46 4e3e
00000180: 18bf 943d eeab 0a3e 1ab9 18be f63f a73d
00000190: a9e9 b83d a778 4e3d 15d6 403d 5b14 2dbf
000001a0: 3a39 c03d 99fb 953c c97b fabe 514e 543d
000001b0: 1d17 b4be e4f2 803e db96 06bf 3127 d53e
000001c0: 99c1 9d3d 1e42 cf3e fd87 093f 4d71 7ebe
000001d0: 96d6 a5be 580f 8e3d 86e6 d93e 86af 2ebf
000001e0: 903f 31be 5152 283e ab46 00be a6ad 383c
000001f0: 6238 3bbf f9f8 42be fbaa 33bf 3630 1b3f
00000200: 8753 183e 6deb ca3d 69fc 6c3c 3b86 d8bd
00000210: 8fa7 64bd 6c46 513f fce7 ca3e 7ba0 be3e
00000220: 7f2b 70be 3b21 12bf 2da9 c4bc 485d f9bd
00000230: 2664 dd3e f660 dcbe bb4b 21bf 3f84 3b3d
00000240: bc3b bd3e b16b 813e 7c6a 423e 9c81 9c3e
00000250: d1bd 23be da80 8cbe 752a b63e d421 b1be
00000260: ec6f 15be d6d5 13be 08f6 9f3e bbde fbbd
00000270: c3b0 66be b5ee 02be 84e0 81be ff5b 2d3d
00000280: 0cab 3fbe c6d3 10bc 3266 9c3d 040e 163e
00000290: e7ad f23d b193 9abc cf56 bebd b068 b3be
000002a0: 594b 483c ad0e 66bb 99cd 003f 0257 5bbe
000002b0: f7b0 be3d 85ee 873e 4d24 6a3e c683 17bf
000002c0: 9257 96bc 7834 ca3e 5680 5e3e e854 e8be
000002d0: 3c41 ac3e e0f5 06bf 494d fb3c 7814 e03d
000002e0: 07ca c73e 179f 44be 3387 1a3e 605b 1ebe
000002f0: 0bad 423b 4781 9f3d 80de 183d 09b6 d5be
00000300: a0f6 9b3e 041b b23e d4b4 debd 5078 11bf
00000310: 26ac a33e 703e 313e 3dda 923c 1152 4f3e
00000320: 5e1b ebbe 0974 dabd 542a b83e 3f61 72be
00000330: 8c05 e2be 6013 babe 1191 9bbe 187c 7e3e
00000340: 7439 93bd 5318 73be 3397 783e 5645 843e
00000350: cb5e 90be 0284 46be d491 5bbe faa2 9a3c
00000360: ba95 a2be a933 92be 2371 1a3e 441e 5abe
00000370: 6447 8f3e cf5c 613d 9fcc cb3d 619b 91be
00000380: 6745 cbbe e7b1 c73e 38df babe 5cf1 73be
00000390: fbfb e63d 2a83 1a3f b597 883e d2d5 423e
000003a0: 0c42 193e d4ab 03be 3e19 a93e 1ea0 e2be
000003b0: 2383 053f ddbf b3be 5312 0a3e bed4 ae3e
000003c0: 7825 84be 0d84 35be a2a0 d33d eb4d 50bd
000003d0: f249 58bd 774d d2be fc6b 5fbe fe39 ed3e
000003e0: 704f a3be a8bf 603a c433 5ebe 84c0 54bd
000003f0: 2fb5 3b3f 3dfd 91bd cc0f 4cbd 523b db3d

layers.0.bias f4 [256]
0.04866488 -0.026580494 0.046583932 0.1329691 -0.07332747 0.007869007 0.12571326 -0.12118554
-0.17830467 0.06636982 0.08829956 -0.04435872 -0.09378308 -0.02809024 -0.10987058 -0.06840235
0.070417546 0.03453527 0.020724379 0.10769953 0.05697079 0.039459325 -0.032342143 -0.22032212
-0.15275724 -0.13839519 -0.20187712 -0.022072064 -0.06682039 -0.257705 -0.0125354435 -0.056629162
0.014599032 -0.015242123 -0.059625305 0.12055666 -0.034957625 0.08636111 0.0011535732 -0.021224067
-0.21673404 0.021593804 -0.072137296 0.18163542 0.035881974 -0.15519632 0.06820941 -0.13462189
-0.1516411 0.11666626 -0.0062457654 -0.06030737 -0.119498536 0.08817685 -0.17431337 -0.10010058
0.036599077 0.07700416 0.0022648335 0.029744983 -0.05170621 0.0797957 0.018129267 -0.003322863
-0.031173388 -0.08792181 0.026533734 0.029367285 0.0070344666 0.004055813 0.013092947 0.0024296409
-0.0912068 -0.0037797422 0.02176796 -0.07421466 -0.08751856 0.05199755 -0.012322224 -0.006831078
0.20063764 -0.036746524 0.16998018 0.06689878 -0.060996007 0.015381169 -0.036095943 -0.105405554
0.07196994 0.058532733 -0.09180757 -0.092514805 0.0056970567 0.0051703583 -0.06538966 -0.043834444
0.03270907 0.04135491 0.0785563 -0.120558046 0.12238441 0.14165981 -0.0238751 -0.07488118
-0.043319225 0.18259758 0.0025488597 0.044006906 -0.05404729 0.03662931 0.05164301 -0.17581953
-0.18734232 0.04213205 0.084289946 -0.100029714 0.040147364 -0.0063263453 -0.041273363 0.032609154
0.09233106 -0.10752878 0.07445801 -0.13066076 0.08295992 0.10191516 0.12806219 0.13329937
0.07234543 0.050471216 0.1456601 -0.017193532 -0.11825755 0.04795739 0.037549403 0.01684487
0.09379807 -0.066028714 -0.06876272 -0.1909118 -0.011940896 0.015024654 0.0030328776 0.048908755
0.076893985 -0.19038473 0.22784865 -0.13810612 0.053804807 -0.22787192 -0.004812577 -0.2685914
-0.047513496 -0.09190687 -0.0031837223 -0.029479247 0.11795247 -0.12522745 -0.025220852 0.08740391
-0.21639736 -0.005094131 -0.1050793 0.04192721 -0.05275056 0.001998579 0.17078142 0.075690575
0.07236057 -0.03000255 -0.117071636 -0.023740463 -0.08123734 0.019186506 0.03136949 0.0058992077
0.017168006 -0.28273588 -0.029952344 0.026762666 -0.008899203 0.035596106 0.060921747 0.05856293
-0.1977152 -0.21869859 -0.10863147 -0.06585221 -0.07140679 0.131312 0.030217985 3.906244e-05
0.03342817 0.0011704012 0.019724367 0.03756364 -0.01971326 0.05688694 -0.06055983 0.039571207
0.016398685 0.04332568 -0.049317036 0.09824013 0.13388978 -0.05440005 -0.034926545 -0.06822249
0.03934521 -0.10283683 0.0032016465 -0.15965475 0.09816751 0.103860654 0.16009586 0.12585136
-0.057550307 0.048973735 -0.032940425 -0.036070075 -0.17431872 -0.14782162 0.0035165122 -0.08097941
-0.15155008 0.118214816 -0.08911886 -0.010284926 -0.1127122 -0.17835596 -0.12995681 -0.110976525
-0.07731142 -0.009956757 -0.098747 0.16673738 0.13788463 -0.040650833 0.12122732 0.01194135
0.119775206 -0.095213845 -0.14181495 0.2019616 0.10590797 -0.018616786 -0.029026167 -0.10486717
0.012412034 -0.15413404 0.13707693 -0.048535336 0.05094604 0.00064142013 0.1517924 0.019757928
00000000: d354 473d 56bf d9bc cbce 3e3d 0d29 083e
00000010: b62c 96bd 02ed 003c faba 003e 2030 f8bd
00000020: 8095 36be e6ec 873d 66d6 b43d 7db1 35bd
00000030: 5811 c0bd 811d e6bc d403 e1bd 8816 8cbd
00000040: 1337 903d db74 0d3d 2cc6 a93c 9291 dc3d
00000050: 345a 693d 1aa0 213d 3279 04bd 1f9c 61be
00000060: 656c 1cbe 78b7 0dbe e0b8 4ebe 79d0 b4bc
00000070: 21d9 88bd e9f1 83be 7661 4dbc fbf3 67bd
00000080: c730 6f3c 19ba 79bc aa39 74bd 69e6 f63d
00000090: ba2f 0fbd 18de b03d 7e33 973a 18de adbc
000000a0: 87ef 5dbe 7de5 b03c b8bc 93bd a3fe 393e
000000b0: faf8 123d c9eb 1ebe 60b1 8b3d 52da 09be
000000c0: ce47 1bbe b8ee ee3d 47a9 ccbb dc04 77bd
000000d0: a6bb f4bd 1096 b43d 347f 32be 8801 cdbd
000000e0: eae8 153d 5bb4 9d3d 9a6d 143b c0ab f33c
000000f0: e4c9 53bd ee6b a33d d483 943c 64c4 59bb
00000100: 555f ffbc 5a10 b4bd 465d d93c a993 f03c
00000110: 6281 e63b a0e6 843b cd83 563c 9c3a 1f3b
00000120: a1ca babd 8db5 77bb b952 b23c dbfd 97bd
00000130: ee3c b3bd 62fb 543d 27e3 49bc 3cd7 dfbb
00000140: f473 4d3e 8683 16bd 490f 2e3e 3a02 893d
00000150: f3d6 79bd 4c01 7c3c 57d9 13bd dede d7bd
00000160: fa64 933d 05c0 6f3d 9b05 bcbd 6778 bdbd
00000170: 60ae ba3b 1c6c a93b 04eb 85bd bf8b 33bd
00000180: f2f9 053d c463 293d 20e2 a03d 23e7 f6bd
00000190: ada4 fa3d 450f 113e b795 c3bc 4e5b 99bd
000001a0: 806f 31bd dcfa 3a3e c50a 273b 9640 343d
000001b0: b160 5dbd 9e08 163d 9f87 533d 090a 34be
000001c0: aad6 3fbe a892 2c3d 35a0 ac3d 61dc ccbd
000001d0: 9071 243d 3b4d cfbb 420e 29bd 2d91 053d
000001e0: 1118 bd3d 0d38 dcbd 717d 983d efcb 05be
000001f0: e4e6 a93d e5b8 d03d bc22 033e a17f 083e
00000200: d729 943d e8ba 4e3d ec27 153e 73d9 8cbc
00000210: 0431 f2bd f86e 443d 67cd 193d 41fe 893c
00000220: 3419 c03d 103a 87bd 78d3 8cbd 627e 43be
00000230: bfa3 43bc f729 763c 3ec3 463b 8c54 483d
00000240: 987a 9d3d 37f4 42be 2851 693e b16b 0dbe
00000250: 6e62 5c3d 4257 69be d2b2 9dbb d084 89be
00000260: 839d 42bd ab39 bcbd ffa5 50bb 767e f1bc
00000270: 1191 f13d a03b 00be f69b cebc d200 b33d
00000280: 4597 5dbe abec a6bb d133 d7bd debb 2b3d
00000290: f910 58bd 97fa 023b 53e1 2e3e a903 9b3d
000002a0: c731 943d e8c7 f5bc 41c3 efbd 5c7b c2bc
000002b0: c35f a6bd 052d 9d3c 4b7d 003d 244e c13b
000002c0: eba3 8c3c c2c2 90be 9e5e f5bc 613d db3c
000002d0: f6cd 11bc 39cd 113d 1589 793d afdf 6f3d
000002e0: da75 4abe 86f2 5fbe 2d7a debd 86dd 86bd
000002f0: b93d 92bd a776 063e b58b f73c fad6 2338
00000300: faeb 083d 2668 993a ff94 a13c 55dc 193d
00000310: b47d a1bc 4802 693d 960d 78bd 6b15 223d
00000320: 8956 863c 4576 313d a900 4abd 1f32 c93d
00000330: 671a 093e 96d2 5ebd 230f 0fbd 3cb8 8bbd
00000340: 7128 213d 1e9c d2bd b7d2 513b 897c 23be
00000350: 0c0c c93d e5b4 d43d 2bf0 233e 2edf 003e
00000360: dfb9 6bbd af98 483d 8aec 06bd 37be 13bd
00000370: 9b80 32be 8d5e 17be 4975 663b 88d8 a5bd
00000380: f22f 1bbe 9c1a f23d f383 b6bd 1b82 28bc
00000390: a7d5 e6bd f2a2 36be 6613 05be a947 e3bd
000003a0: 7355 9ebd aa21 23bc de3b cabd 34bd 2a3e
000003b0: a131 0d3e 7d81 26bd 0746 f83d a7a5 433c
000003c0: b44c f53d 7aff c2bd f037 11be 06cf 4e3e
000003d0: 47e6 d83d 3b82 98bc 49c8 edbc 99c4 d6bd
000003e0: d85b 4b3c 50d5 1dbe e55d 0c3e fdcc 46bd
000003f0: cbac 503d fa24 283a 786f 1b3e 61db a13c

layers.2.weight f4 [32, 256]
-0.04947762 0.10465681 -0.21073924 0.09962563 0.07772746 0.2070497 0.18276754 -0.035766806
0.55532974 0.18578547 -0.3131186 0.15139565 -0.35779855 -0.037703507 0.4690491 0.21781988
-0.1734657 -0.09389125 0.061554726 0.3804543 -0.014022259 0.04074698 0.07022709 0.18229151
0.016135842 0.3765042 -0.37144807 0.1836962 -0.3049103 -0.15695684 0.043157134 -0.28471172
-0.086193636 0.1227773 0.57924896 0.07741092 0.34327805 -0.16881745 -0.036122154 0.20719759
0.197511 -0.5420364 -0.43067038 0.25442797 0.19738463 -0.010751792 0.13581002 0.22497274
-0.48362562 0.03692401 -0.078190826 -0.23047017 0.35362303 0.59374934 -0.27623126 0.31500417
-0.19479465 0.25694725 0.2549267 0.29742697 -0.4515594 -0.06247217 0.08710325 -0.13576742
0.1882171 -0.10382451 -0.08495081 0.34281114 -0.00060748047 0.43914565 0.11053853 0.08124657
0.078751236 0.047890082 -0.012659033 -0.3981718 -0.48416138 -0.25021857 -0.38506845 0.2132189
-0.114139885 -0.2967945 -0.17857149 -0.58961695 0.34541115 -0.17033671 -0.6465228 -0.38369372
0.2584928 -0.069188446 0.76174 -0.7031265 0.24006438 -0.172727 -0.2885615 0.33598772
0.096063085 0.25501764 0.11168356 -0.38342825 0.40874374 -0.11530954 0.15474932 -0.124399155
0.18851285 -0.38420632 0.40167725 0.3533168 -0.062152598 0.061728466 -0.028028922 -0.110293694
-0.62597126 0.06364398 -0.488544 -0.18668422 0.40716824 0.34629196 0.2766775 -0.16567029
0.12619045 0.15661503 0.17356817 0.082044624 -0.21602105 0.37501144 0.056858387 -0.22493112
0.2696332 -0.01852488 0.3660131 0.21631275 -0.15579368 -0.017935734 -0.3289102 0.2757369
-0.11253565 -0.12697831 -0.00623839 -0.08084232 0.12654577 0.4459684 0.09668208 0.39148358
-0.26773545 -0.7033446 -0.368668 0.1916799 0.5139902 -0.4997376 0.1333568 -0.5178845
-0.21007274 -0.4846229 -0.17675325 0.015795175 -0.16241774 -0.26640996 -0.1738917 -0.059309185
0.30646 -0.17550215 -0.121339045 0.117716104 -0.29864368 0.30485794 0.1924984 -0.20663527
0.37627319 0.5805713 0.38056237 0.08270518 -0.111604415 -0.07752771 -0.43744978 0.16196977
-0.11729611 -0.122658975 0.32906675 0.3629934 0.23916274 0.10372186 0.036173746 -0.012189493
0.335022 -0.3580172 -0.21988818 0.46373713 0.21946669 -0.28414753 0.035373285 0.032338314
0.003790489 -0.070174515 -0.37703875 0.22513628 -0.040223222 0.3493613 -0.3116387 0.18747796
0.42163873 -0.13674456 0.2143403 0.06580215 0.47817442 0.32515717 0.49505758 -0.01749788
0.05310057 0.058263816 -0.043158945 0.31462663 0.542679 -0.3475361 0.026571214 -0.1861209
0.53218514 -0.4668263 0.30644837 0.33908948 -0.110089295 -0.39284647 0.1942373 0.48925465
0.3723525 -0.13898352 -0.2802495 0.14808482 0.42702723 0.07213571 0.38230434 0.6107699
-0.15120715 -0.3704129 0.502178 -0.032348353 -0.37485924 -0.023458527 -0.3707133 0.4052283
-0.30751184 0.4882302 0.5519588 -0.33627373 0.17870906 -0.027926555 -0.10321508 -0.16034663
-0.26231295 0.72374773 0.021467438 -0.010469403 -0.5268792 0.7150582 -0.14251679 0.16616043
00000000: 0ba9 4abd 4f56 d63d 07cc 57be 8608 cc3d
00000010: 932f 9f3d d604 543e 6a27 3b3e 3780 12bd
00000020: 172a 0e3f 8c3e 3e3e 1551 a0be 7607 1b3e
00000030: 5f31 b7be fe6e 1abd 3427 f03e 2d0c 5f3e
00000040: fea0 31be 0e4a c0bd cf20 7c3d e8ca c23e
00000050: 9ebd 65bc 4ee6 263d 38d3 8f3d a0aa 3a3e
00000060: 502f 843c 29c5 c03e 712e bebe db1a 3c3e
00000070: 341d 9cbe 4bb9 20be 89c5 303d bcc5 91be
00000080: 4a86 b0bd aa72 fb3d a949 143f 9e89 9e3d
00000090: 24c2 af3e 7bde 2cbe d3f4 13bd 9b2b 543e
000000a0: 5340 4a3e e6c2 0abf d480 dcbe 6244 823e
000000b0: 321f 4a3e 4928 30bc c811 0b3e 415f 663e
000000c0: c79d f7be a13d 173d 8322 a0bd 5f00 6cbe
000000d0: 140e b53e f5ff 173f 2f6e 8dbe 3a48 a13e
000000e0: 4078 47be 978e 833e c185 823e 5948 983e
000000f0: cb32 e7be d1e2 7fbd 3063 b23d 9d06 0bbe
00000100: fcbb 403e f2a1 d4bd b1fa adbd f184 af3e
00000110: 533f 1fba b3d7 e03e 0662 e23d 9a64 a63d
00000120: 5448 a13d 6428 443d d567 4fbc 2ddd cbbe
00000130: 00e4 f7be a61c 80be b127 c5be 0e56 5a3e
00000140: 2cc2 e9bd 73f5 97be 72db 36be 23f1 16bf
00000150: bbd9 b03e bf6c 2ebe 8582 25bf 8173 c4be
00000160: 2b59 843e acb2 8dbd 6501 433f 1900 34bf
00000170: 70d3 753e 59df 30be 55be 93be 9506 ac3e
00000180: b9bc c43d ac91 823e 5aba e43d b550 c4be
00000190: dc46 d13e 6827 ecbd 9b76 1e3e fcc4 febd
000001a0: 8309 413e b1b6 c4be a4a8 cd3e f1e5 b43e
000001b0: b993 7ebd fdd6 7c3d e99c e5bc a9e1 e1bd
000001c0: a73f 20bf c657 823d 7022 fabe 262a 3fbe
000001d0: 5b78 d03e 2e4d b13e aca8 8d3e 79a5 29be
000001e0: 1238 013e b15f 203e dbbb 313e 0307 a83d
000001f0: 9f34 5dbe 8001 c03e 57e4 683d 5854 66be
00000200: 5d0d 8a3e 7dc1 97bc 1266 bb3e 1781 5d3e
00000210: 6188 1fbe f6ed 92bc eb66 a8be 632d 8d3e
00000220: 1779 e6bd 9a06 02be 696b ccbb a990 a5bd
00000230: 3795 013e f855 e43e 4101 c63d 8970 c83e
00000240: 9f14 89be 640e 34bf 0dc2 bcbe bc47 443e
00000250: dd94 033f 9bdd ffbe af8e 083e 1494 04bf
00000260: 4f1d 57be 7e20 f8be cefe 34be e264 813c
00000270: d650 26be e366 88be aa10 32be 30ee 72bd
00000280: 53e8 9c3e d6b6 33be 9b80 f8bd 2415 f13d
00000290: d3e7 98be 5716 9c3e 4d1e 453e 3298 53be
000002a0: e1a6 c03e 52a0 143f 12d9 c23e 5561 a93d
000002b0: db90 e4bd d9c6 9ebd 6bf9 dfbe 67db 253e
000002c0: f138 f0bd a134 fbbd 707b a83e 45da b93e
000002d0: 14e7 743e 206c d43d ec2a 143d 70b6 47bc
000002e0: 0188 ab3e 084e b7be 5e2a 61be f46e ed3e
000002f0: e0bb 603e c97b 91be 94e3 103d 2e75 043d
00000300: da69 783b a8b7 8fbd 390b c1be 208a 663e
00000310: 1bc1 24bd 7cdf b23e 1c8f 9fbe 39fa 3f3e
00000320: 08e1 d73e c406 0cbe 067c 5b3e 47c3 863d
00000330: 47d3 f43e 007b a63e 3078 fd3e b757 8fbc
00000340: fc7f 593d 0aa6 6e3d 6fc7 30bd be16 a13e
00000350: 03ed 0a3f 40f0 b1be e0ab d93c 7a96 3ebe
00000360: 493d 083f db03 efbe cde6 9c3e 239d ad3e
00000370: 7f76 e1bd 2c23 c9be 25e6 463e 967f fa3e
00000380: fda4 be3e b251 0ebe dd7c 8fbe 8ca3 173e
00000390: 50a3 da3e e3bb 933d 65bd c33e 6b5b 1c3f
000003a0: 0cd6 1abe c2a6 bdbe bd8e 003f b57f 04bd
000003b0: 8ded bfbe 192c c0bc 22ce bdbe 157a cf3e
000003c0: 3172 9dbe 4ff9 f93e 2c4d 0d3f 122c acbe
000003d0: 82ff 363e 3bc6 e4bc 6e62 d3bd e831 24be
000003e0: e24d 86be 8847 393f 7bdc af3c dc87 2bbc
000003f0: 8ee1 06bf 0e0e 373f ecef 11be f625 2a3e

layers.2.bias f4 [32]
0.017810257 0.05749076 0.10771232 0.013346715 0.049872663 -0.06806103 0.012782925 0.11652228
0.092112966 0.12920228 0.1094284 0.031605206 0.14835969 -0.1957788 -0.1584203 0.056329638
0.077817716 -0.03806365 0.09244825 0.0891496 -0.09899886 0.13068643 0.13003695 0.06453462
0.0029647923 0.020768682 0.062328745 0.030237151 -0.12664902 0.17153794 0.16113442 0.054086465
00000000: d1e6 913c 6e7b 6b3d 4798 dc3d 2eac 5a3c
00000010: 4747 4c3d 9563 8bbd 796f 513c 3ca3 ee3d
00000020: b9a5 bc3d 9a4d 043e ff1b e03d 7674 013d
00000030: 9aeb 173e 3d7a 48be ee38 22be e8b9 663d
00000040: e55e 9f3d a1e8 1bbd 8255 bd3d 1194 b63d
00000050: eabf cabd aad2 053e 6828 053e ba2a 843d
00000060: f64c 423b 1523 aa3c 6d4c 7f3d e7b3 f73c
00000070: 48b0 01be a4a7 2f3e 6c00 253e c589 5d3d

layers.4.weight f4 [1172, 32]
-0.2970523 -0.11278828 0.03851158 -0.3576405 -0.17265232 0.18964192 0.23129039 0.18194257
0.29142585 -0.3402822 0.13818538 0.24408345 -0.26808348 -0.03888646 0.08922099 -0.057467163
-0.14948837 0.20346256 -0.53806037 0.20773159 0.17647682 -0.07499946 -0.40302914 -0.13912089
0.31279537 -0.52208626 0.24558549 -0.15231033 -0.19306426 -0.284269 -0.36331102 0.35822293
0.0074004037 -0.018284505 -0.53219193 0.13399744 0.2304957 -0.12278162 0.36847475 0.14597434
-0.41480333 -0.22664553 -0.032696683 -0.1085097 -0.44420403 -0.14034325 -0.16191068 0.27306125
0.27611205 -0.14647938 -0.07254526 -0.013623727 -0.09591558 -0.27327034 -0.29521295 -0.059599508
-0.9578146 0.21676911 0.41380268 0.24921563 -0.10795264 -0.2570131 -0.0031693357 0.15070021
0.12156827 -0.17424496 -0.36597058 -0.17600705 -0.020830499 0.10906309 -0.16720998 0.47975227
-0.10533198 -0.082904264 -0.5120797 0.08101523 -0.3736836 -0.057447683 0.1695281 0.09526161
-0.7379854 -0.016175423 0.40491936 0.07331163 4.759632e-05 0.047256414 -0.2481747 0.5307291
0.07426519 -0.32468498 0.39741296 -0.29853132 0.26809296 -0.23158555 -0.3709699 0.019262569
0.023198577 0.011592455 0.16630787 0.21759328 0.2225325 -0.013901244 0.18300253 0.11890281
-0.476066 0.27263555 -0.046108756 0.25809023 -0.39558223 -0.30732927 -0.15043738 0.4163055
0.009747648 -0.02900024 -0.6151627 0.014638285 -0.22521096 -0.21220772 -0.045715753 0.042053614
-0.60635084 -0.35250506 -0.052899975 -0.029891856 -0.36912593 0.311258 0.12638204 0.1194626
0.20889187 -0.34453666 0.059545193 -0.29819754 0.3125633 -0.19525686 0.19359232 0.21258448
-0.098550856 0.036081765 -0.1977984 0.5091343 -0.47691157 -0.14210066 -0.12837346 0.06981285
0.26701894 -0.25970358 0.0459323 0.11296761 -0.04634109 -0.4231639 0.18864848 0.36674848
-0.11068681 -0.31242758 0.056012534 0.08924937 -0.09106623 -0.034842175 -0.07376634 -0.4160929
-0.12165841 -1.0071344 0.10738477 0.44669312 0.41480902 0.052530814 -0.17686528 -0.7789042
0.26825005 -0.039781976 -0.9867995 -0.16756211 0.27137297 0.115289964 0.23904666 0.18423407
0.03668765 -0.0796393 0.08036699 -0.2638618 0.20312974 0.26032028 0.026790781 -0.34745297
0.18712127 -0.056807484 -0.6264281 -0.18830694 0.016231207 -0.25931647 -0.21299908 0.083065584
-0.11829287 0.11896222 -0.030629912 -0.09083208 0.2298513 0.14132795 -0.034289602 -0.38930562
-0.48362884 -0.15821001 -0.7466644 -0.21682623 -0.7423157 -0.008525346 0.21031131 0.10876335
0.21183579 0.14552507 0.13374883 0.05989533 -0.061249115 0.090644985 -0.36198166 -0.11567262
0.1674308 0.33157524 -0.6637359 -0.06760136 -0.005983273 0.0026178446 -0.4764383 0.32640597
-0.13220564 -0.6109083 -0.38126394 0.026585316 -0.13567136 0.032777335 0.06104313 -0.46873647
-0.10446729 -0.6009731 0.188802 -0.15554057 0.38556522 0.30240113 0.15338962 -0.46717253
-0.18613872 -0.022391018 -0.46635014 0.24366887 0.24041633 0.19979678 0.18737844 -0.566269
0.39814043 0.19844182 -0.3877346 -0.21003337 0.09473194 -0.4120425 0.07888068 0.22166309
00000000: 3d17 98be 8bfd e6bd 52be 1d3d a81c b7be
00000010: c5cb 30be 7e31 423e 63d7 6c3e 274f 3a3e
00000020: c535 953e 7839 aebe 7880 0d3e 03f1 793e
00000030: 3d42 89be 6947 1fbd 7fb9 b63d b062 6bbd
00000040: 7b13 19be 7d58 503e 53be 09bf 97b7 543e
00000050: 57b6 343e 5199 99bd d659 cebe b575 0ebe
00000060: b726 a03e 72a7 05bf c37a 7b3e 3df7 1bbe
00000070: a3b2 45be b58b 91be e703 babe ff68 b73e
00000080: 167f f23b 63c9 95bc bb3d 08bf a036 093e
00000090: 1107 6c3e ee74 fbbd b9a8 bc3e 4c7a 153e
000000a0: 1a61 d4be c415 68be f5ec 05bd 553a debd
000000b0: b66e e3be 24b6 0fbe eacb 25be afce 8b3e
000000c0: 8f5e 8d3e b1fe 15be 9c92 94bd 0d36 5fbc
000000d0: 636f c4bd 17ea 8bbe 2726 97be 9d1e 74bd
000000e0: 5633 75bf b9f8 5d3e f2dd d33e 6232 7f3e
000000f0: 4616 ddbd 3997 83be a1b4 4fbb 2851 1a3e
00000100: c9f8 f83d 456d 32be 7f60 bbbe 313b 34be
00000110: b9a4 aabc 785c df3d 1839 2bbe 17a2 f53e
00000120: 4bb8 d7bd b6c9 a9bd a817 03bf 50eb a53d
00000130: 7553 bfbe 434e 6bbd c698 2d3e 8518 c33d
00000140: 9cec 3cbf 5282 84bc 9751 cf3e 6824 963d
00000150: 29a2 4738 f18f 413d 8221 7ebe dddd 073f
00000160: 5918 983d 1c3d a6be b679 cb3e 19d9 98be
00000170: 7b43 893e c324 6dbe c4ef bdbe 89cc 9d3c
00000180: f10a be3c 48ee 3d3c 9c4c 2a3e c6d0 5e3e
00000190: 8fdf 633e 0bc2 63bc 0465 3b3e 5183 f33d
000001a0: ecbe f3be e396 8b3e 89dc 3cbd 6724 843e
000001b0: c189 cabe 435a 9dbe 420c 1abe ff25 d53e
000001c0: 99b4 1f3c e991 edbc 4d7b 1dbf 6bd5 6f3c
000001d0: b49d 66be fb4c 59be 7140 3bbd 6940 2c3d
000001e0: cf39 1bbf 8b7b b4be a5ad 58bd c4df f4bc
000001f0: 13fe bcbe 355d 9f3e 4b6a 013e cfa8 f43d
00000200: c0e7 553e 1c67 b0be a9e5 733d 59ad 98be
00000210: 4c08 a03e 6af1 47be 113d 463e bfaf 593e
00000220: 08d5 c9bd 79ca 133d aa8b 4abe a056 023f
00000230: c12d f4be d682 11be 5574 03be 0afa 8e3d
00000240: b5b6 883e def7 84be 8223 3c3d 905b e73d
00000250: 28d0 3dbd f0a8 d8be 112d 413e 75c6 bb3e
00000260: c4af e2bd 82f6 9fbe 666d 653d 60c8 b63d
00000270: ee80 babd abb6 0ebd cf12 97bd 210a d5be
00000280: 0b28 f9bd c8e9 80bf 8cec db3d f6b4 e43e
00000290: d961 d43e 8d2a 573d 2c1c 35be 4466 47bf
000002a0: 1258 893e 6df2 22bd e49e 7cbf 6795 2bbe
000002b0: 66f1 8a3e 251d ec3d a6c8 743e dba7 3c3e
000002c0: ca45 163d ee19 a3bd 7397 a43d e518 87be
000002d0: 3e01 503e b348 853e 5778 db3c 5be5 b1be
000002e0: b89c 3f3e f7ae 68bd 985d 20bf 89d3 40be
000002f0: 4ff7 843c 21c5 84be 6e1c 5abe 4a1e aa3d
00000300: 8843 f2bd 77a2 f33d 95eb fabc 2b06 babd
00000310: 245e 6b3e 46b8 103e 4173 0cbd 1153 c7be
00000320: 339e f7be ce01 22be 6625 3fbf b207 5ebe
00000330: 6708 3ebf e5ad 0bbc d95b 573e 52bf de3d
00000340: 7beb 583e 8604 153e 74f5 083e ce54 753d
00000350: 5ae0 7abd 14a4 b93d a955 b9be c4e5 ecbd
00000360: fb72 2b3e 3bc4 a93e 99ea 29bf 9572 8abd
00000370: 550f c4bb 2590 2b3b b9ef f3be af1e a73e
00000380: ea60 07be 7d64 1cbf 0735 c3be 73c9 d93c
00000390: 6fed 0abe 8741 063d 5c08 7a3d 3afe efbe
000003a0: f2f2 d5bd 60d9 19bf 5055 413e 0746 1fbe
000003b0: ce68 c53e 52d4 9a3e 2b12 1d3e 3d31 efbe
000003c0: 269b 3ebe 5e6d b7bc 72c5 eebe 5584 793e
000003d0: b32f 763e 8797 4c3e 22e0 3f3e 01f7 10bf
000003e0: 10d9 cb3e 5534 4b3e 2685 c6be fd12 57be
000003f0: d202 c23d 3cf7 d2be 328c a13d a6fb 623e

layers.4.bias f4 [1172]
-0.22892351 -0.14930044 -0.0035526166 0.027751708 -0.1779183 -0.08487693 -0.04434877 -0.031812906
-0.22229609 -0.012099273 0.15758398 -0.14085466 0.039642233 -0.3012915 -0.14988524 -0.10080788
0.03334411 -0.12999701 -0.19650204 -0.31790984 -0.02828489 -0.13159963 0.08162168 -0.19432132
-0.18317291 0.06082553 -0.2855343 -0.06547783 -0.28746888 -0.1605387 0.006827497 0.031728074
-0.15489987 0.10037089 -0.28424236 -0.3149201 -0.013826161 -0.11686332 -0.18562588 -0.25452638
-0.18388858 -0.14343937 -0.2551547 -0.14209452 -0.05606899 -0.1760063 -0.058907412 -0.07248442
0.05903612 -0.0011769923 0.18971288 0.040178888 0.14319065 0.060886543 0.043364763 -0.02104693
0.317193 -0.11414938 -0.11445728 -0.017451625 0.24326022 -0.0975473 0.18631734 -0.12680088
-0.10781004 -0.15729734 0.027960068 0.02399458 -0.19060972 -0.06967386 -0.047830254 0.05829177
-0.113589324 -0.22207637 -0.20843142 0.08679475 -0.12650517 0.30702513 -0.07028918 -0.00073115935
0.044879857 -0.02393132 0.16044442 0.14539358 -0.062136773 0.057665113 -0.08556155 -0.18398699
-0.014265264 0.038667396 -0.16737379 -0.15559164 0.050914183 -0.2461375 -0.17792818 -0.23804797
0.1566085 -0.08312421 0.10733261 -0.37809378 -0.06324879 -0.1954016 -0.06894348 0.29754108
-0.09087069 -0.08944274 -0.11359307 0.0043203705 0.0274293 -0.06526834 -0.18036586 0.035586815
-0.3032808 0.24464391 0.07691434 -0.14931436 0.38531655 0.15071057 0.1295384 0.17912592
0.07516747 0.2691861 -0.24820347 -0.031735297 -0.11223361 -0.102097735 -0.22107626 0.0916972
-0.27430648 -0.043504506 -0.19729301 -0.075846896 -0.048422147 -0.17160735 -0.15093952 -0.15739107
-0.12999053 -0.099888854 -0.010683543 -0.27151754 -0.05112102 0.010642232 -0.29056555 -0.037751626
-0.19491734 -0.28446817 -0.112099245 0.027543705 -0.31248027 -0.2516279 -0.023106817 -0.0766833
-0.29486224 -0.109759785 -0.11391841 0.0014743819 0.03398941 -0.13983606 -0.32238084 -0.09636408
0.003499039 -0.027901473 -0.07771021 -0.07329933 -0.006617877 -0.32091215 0.077540874 -0.20881213
-0.18771496 -0.15157442 -0.024223698 0.07974954 -0.011801694 -0.015338275 -0.2763629 0.021504855
-0.25970003 -0.006849319 -0.24015172 -0.32248917 0.09072396 0.29963195 -0.11861907 -0.15394513
-0.17972076 -0.30318093 -0.14312242 -0.016137969 -0.11694364 -0.10812862 -0.170646 -0.0576321
-0.18655853 0.06650709 -0.017402876 -0.2018728 -0.08351534 -0.11406046 -0.119717255 -0.3048097
-0.2439714 -0.109165564 -0.09702461 -0.22912005 -0.08997689 -0.03223932 0.09892425 0.01246526
0.07728836 0.052023333 0.017160546 -0.035872225 0.10001863 -0.15768814 -0.050466124 -0.0043710065
-0.28851816 -0.13687932 0.15601134 -0.22511448 0.09648348 -0.14217265 0.07728854 -0.05329546
0.12031373 -0.11018989 -0.17338184 0.101928376 -0.100730404 -0.048844624 -0.16750117 -0.25702953
0.03270745 -0.1336308 -0.035064377 -0.012537004 -0.024356052 -0.24969041 -0.14377837 0.00648211
-0.09453402 -0.17349173 0.09324065 0.027968766 -0.24897902 0.06287599 -0.02306399 -0.0691094
-0.12277187 -0.095828734 -0.13114846 0.14091046 -0.009155676 -0.0572966 -0.108799435 -0.23280135
00000000: ed6a 6abe 37e2 18be 04d3 68bb 8d57 e33c
00000010: 3730 36be f5d3 adbd 0ea7 35bd 404e 02bd
00000020: 96a1 63be 073c 46bc b25d 213e 343c 10be
00000030: e55f 223d e142 9abe 847b 19be 5d74 cebd
00000040: d593 083d f01d 05be d537 49be 14c5 a2be
00000050: b7b5 e7bc 0ec2 06be 4429 a73d 2bfc 46be
00000060: ae91 3bbe 3124 793d 8d31 92be 3e19 86bd
00000070: 1f2f 93be 4264 24be 32b9 df3b 4cf5 013d
00000080: 129e 1ebe 418f cd3d 3788 91be 353d a1be
00000090: 1f87 62bc 0956 efbd b614 3ebe 4851 82be
000000a0: 4a4d 3cbe c5e1 12be a3a3 82be 3a81 11be
000000b0: 99a8 65bd ff3a 34be e648 71bd b672 94bd
000000c0: dccf 713d 4f45 9aba 1844 423e 9e92 243d
000000d0: 92a0 123e 2b64 793d 409f 313d 9d6a acbc
000000e0: 1f67 a23e 26c7 e9bd 9468 eabd b6f6 8ebc
000000f0: 3519 793e e1c6 c7bd f9c9 3e3e 17d8 01be
00000100: 83cb dcbd 8e12 21be 830c e53c 4890 c43c
00000110: 322f 43be 2bb1 8ebd a8e9 43bd 5ac3 6e3d
00000120: 85a1 e8bd fd67 63be 0c6f 55be 72c1 b13d
00000130: 928a 01be 6632 9d3e c6f3 8fbd 46ab 3fba
00000140: f1d3 373d 9e0b c4bc 8b4b 243e 0ee2 143e
00000150: 2183 7ebd 4132 6c3d e53a afbd 1667 3cbe
00000160: dbb8 69bc b461 1e3d 0964 2bbe 6a53 1fbe
00000170: 648b 503d 780b 7cbe ce32 36be d9c2 73be
00000180: fb5d 203e 073d aabd 33d1 db3d 8295 c1be
00000190: 9588 81bd 5b17 48be 3d32 8dbd 4e57 983e
000001a0: 6a1a babd c12d b7bd 7ca3 e8bd e591 8d3b
000001b0: 69b3 e03c 68ab 85bd d4b1 38be 7bc3 113d
000001c0: 9f47 9bbe ef83 7a3e 4485 9d3d dde5 18be
000001d0: 3648 c53e df53 1a3e b7a5 043e c96c 373e
000001e0: 67f1 993d c3d2 893e 0d29 7ebe dffc 01bd
000001f0: bcda e5bd 9e18 d1bd d161 62be becb bb3d
00000200: e671 8cbe c831 32bd 2e07 4abe 9e55 9bbd
00000210: 4d56 46bd d6b9 2fbe e48f 1abe 202b 21be
00000220: 3d1c 05be 8792 ccbd 070a 2fbc 5904 8bbe
00000230: 4664 51bd c25c 2e3c 02c5 94be 73a1 1abd
00000240: 6998 47be d0a5 91be 4a94 e5bd 56a3 e13c
00000250: 6afd 9fbe 5fd5 80be 824a bdbc 220c 9dbd
00000260: 2ff8 96be bdc9 e0bd 0e4e e9bd 0c40 c13a
00000270: 7b38 0b3d 2f31 0fbe 1a0f a5be 885a c5bd
00000280: 2250 653b a191 e4bc 8826 9fbd f61d 96bd
00000290: c7da d8bb 994e a4be c0cd 9e3d d9d2 55be
000002a0: 5a38 40be 5336 1bbe c770 c6bc ba53 a33d
000002b0: e45b 41bc 634d 7bbc 707f 8dbe f32a b03c
000002c0: 67f7 84be 4170 e0bb 55ea 75be 4d1d a5be
000002d0: 7ccd b93d 5c69 993e 8eee f2bd cba3 1dbe
000002e0: b808 38be 883a 9bbe af8e 12be c633 84bc
000002f0: 2680 efbd 8a72 ddbd d3bd 2ebe a30f 6cbd
00000300: 3309 3fbe df34 883d 7a90 8ebc beb7 4ebe
00000310: 170a abbd 8898 e9bd 522e f5bd 0410 9cbe
00000320: a4d3 79be 3292 dfbd d7b4 c6bd 729e 6abe
00000330: ce45 b8bd 610d 04bd cc98 ca3d 173b 4c3c
00000340: 5c49 9e3d 6b16 553d 4694 8c3c c1ee 12bd
00000350: 91d6 cc3d 0079 21be 91b5 4ebd a93a 8fbb
00000360: a7b8 93be 182a 0cbe 70c1 1f3e 6984 66be
00000370: 2199 c53d b595 11be 7449 9e3d 574c 5abd
00000380: 0b67 f63d 3dab e1bd 028b 31be d3bf d03d
00000390: be4b cebd 4d11 48bd 6d85 2bbe 6099 83be
000003a0: 3ff8 053d 83d6 08be aa9f 0fbd 0268 4dbc
000003b0: 5886 c7bc d8ae 7fbe a33a 13be e167 d43b
000003c0: 0d9b c1bd d1a7 31be f4f4 be3d c11e e53c
000003d0: 5bf4 7ebe 21c5 803d b1f0 bcbc 3b89 8dbd
000003e0: d16f fbbd db41 c4bd c84b 06be d54a 103e
000003f0: b001 16bc d7af 6abd 3dd2 debd 7a63 6ebe
