Models/LSTM_Start-ups_16_4.pth (torch, 276232 bytes, 7 tensors)

embeddings.0.weight f4 [1172, 4]
000000 60 cb 07 40 c7 62 b2 3f 52 25 ab 3f f6 a6 17 bf
       2.121788 1.3936394 1.3370764 -0.5923914
000010 49 2b f8 3f c7 fe 28 c0 27 d0 51 be 67 8b 4d c0
       1.938821 -2.6405504 -0.2048956 -3.2116334
000020 fa ac 33 bf 58 98 0f 40 02 6c 5d bc d0 24 66 bf
       -0.70185816 2.2436733 -0.013514521 -0.8989992
000030 37 50 17 bf 5f 3b ef bf 2c 68 d8 bf ba 1b 07 40
       -0.59106773 -1.8689994 -1.6906791 2.1110673
000040 e3 43 37 40 7d 2a 57 bf 96 ec 08 bf c8 83 db 3f
       2.8635185 -0.84049207 -0.53486 1.7149591
000050 27 cf a1 bf 60 4e c1 3f 45 da e3 3f 00 0b 67 3f
       -1.2641343 1.5102043 1.7800986 0.9025116
000060 d7 3c d5 3f da 06 0b 40 ac 52 ba 3f 38 86 1e bf
       1.6659192 2.1722932 1.455648 -0.6192355
000070 61 ec e1 be 93 7d 07 40 79 24 e4 3e f4 90 b4 3f
       -0.44125655 2.1170394 0.44559076 1.4106736
000080 8e bd a6 bf 53 93 b6 bf 93 1c 35 3f 90 57 27 40
       -1.3026597 -1.426371 0.70746726 2.6147194
000090 1c a5 82 3f e2 b7 fc 3e 4a 44 4b 3d e3 fa 9b bf
       1.0206637 0.4935904 0.049625672 -1.218594
0000a0 45 c7 07 c0 f7 35 96 3f 11 48 e8 bf 00 1a 63 bf
       -2.1215374 1.1735219 -1.8146993 -0.8871155
0000b0 0b c2 38 3e b9 1c 40 40 da ba ea bf 7f 26 bb be
       0.18042772 3.001753 -1.8338273 -0.36552808
0000c0 76 83 b2 bf f7 ad ad 3e e5 be 3d 3f be 73 52 bf
       -1.3946369 0.33921787 0.74119407 -0.8220786
0000d0 1a 5a 40 bf 64 50 f0 3f a0 95 c9 bf df e0 2d c0
       -0.75137484 1.8774533 -1.5748787 -2.71685
0000e0 48 c5 b4 bf a8 6d e8 bf 99 a5 41 bf f3 59 55 bf
       -1.4122705 -1.8158464 -0.75643307 -0.83340377
0000f0 14 0e 9c 3e d1 d9 80 3f 10 4e ff bf 52 e2 13 40
       0.3047949 1.0066472 -1.9945698 2.3106885
000100 44 c0 fb 3f af fb 7a 3f 4c 60 37 40 c4 29 69 3f
       1.966805 0.9804029 2.8652525 0.91079354
000110 8f c8 6a 3f 2f 0b af be 73 3b 0b c0 93 b7 c0 3f
       0.9171228 -0.3418822 -2.1755035 1.5056022
000120 3c d3 bc 3f f0 40 e1 3e 80 03 6a bf f4 d0 a5 3f
       1.4751964 0.43994856 -0.9141159 1.2954392
000130 92 28 ca 3e 67 06 de be 9d 1f 78 c0 3a f4 d7 bf
       0.39484078 -0.4336426 -3.8769295 -1.6871407
000140 53 96 3c 3f d2 14 15 3f 12 ab 54 c0 57 7d 59 3f
       0.73666877 0.58234894 -3.3229413 0.8495688
000150 00 28 ef 3f ed 44 a4 3f fd 92 30 3e 32 9d 00 3f
       1.8684082 1.2833534 0.17243572 0.5023986
000160 a5 f9 ce 3f 41 5e 83 bf 1e 7a 03 c0 21 80 31 bf
       1.6169935 -1.0263139 -2.0543284 -0.69336134
000170 da 03 1a c0 64 e6 b5 bf 63 a7 e7 3f 46 25 25 bf
       -2.406485 -1.4210935 1.8097957 -0.6451
000180 ea b5 20 c0 50 86 a1 be 4c 6a 85 3f 97 b7 31 3f
       -2.5111032 -0.31547785 1.0423064 0.6942076
000190 c6 53 14 40 85 e5 39 3f 28 df 5d 3f 08 0a bb be
       2.3176131 0.72615844 0.86668634 -0.3653109
0001a0 3b c7 0e bf fd d1 07 3f b2 1d e4 bf ed 0d 5b bf
       -0.5577275 0.5305479 -1.7821562 -0.85568124
0001b0 98 ce ed 3f 4c 2a af 3c 55 4f 60 bf 53 4d b0 3f
       1.8578672 0.021382473 -0.8762105 1.3773597
0001c0 c8 fb ec bf 19 b9 dc be 56 3a 0f bf bf a6 2a bf
       -1.8514338 -0.43109968 -0.5594839 -0.66660684
0001d0 9b 78 62 3f 6b 4b 05 3f 19 8d 0b bf e4 70 c4 3f
       0.8846528 0.52068204 -0.5451217 1.5346951
0001e0 f1 ca 6f bf 3f 70 6f bf 9a 61 d4 3f de df 30 3f
       -0.9366904 -0.9353065 1.6592286 0.69091594
0001f0 6a b0 0b 3f 55 cd dd 3f ab 46 af 3e d7 3a 83 3f
       0.5456606 1.7328287 0.34233603 1.0252331
000200 5e 92 33 40 01 9c 70 3f 06 46 c8 be 1c eb 97 bf
       2.8058085 0.93988043 -0.39115924 -1.1868625
000210 96 b4 b4 bd 72 33 1d 40 05 c2 b7 3f 88 d7 c2 3f
       -0.088235065 2.456265 1.4356085 1.5222025
000220 31 08 26 40 f5 8e ff be a2 5c ae bf 56 87 97 3f
       2.59425 -0.49913755 -1.3622019 1.1838176
000230 db f5 9d 3f 93 19 b8 3d d8 82 13 c0 57 e6 37 3e
       1.2340654 0.08989253 -2.304861 0.17958961
000240 a5 bc 55 bf 97 a4 6b 3f bf 53 a5 3f 00 19 63 40
       -0.83490974 0.9204802 1.2916182 3.5484009
000250 df 55 1c 3f 03 4d fb be ef ec 9b be 6d ba c1 3f
       0.6106853 -0.49082193 -0.30454203 1.5135018
000260 37 39 2c 40 15 33 de 3f 05 8b 94 bf 08 30 1b 40
       2.690992 1.7359339 -1.1604925 2.4248066
000270 f8 18 1c c0 64 a7 6c bf 6e d9 25 c0 ad 3d 29 3f
       -2.439024 -0.9244292 -2.5913959 0.66109735
000280 67 df 9a bf df 90 87 bd 91 1a a5 3d 16 66 8c bd
       -1.2099427 -0.06619429 0.08061708 -0.06855409
000290 68 f9 09 bf 04 83 85 bf ef d7 26 3f fc 5c 18 c0
       -0.5389619 -1.0430608 0.6517324 -2.3806753
0002a0 79 52 20 bf 0c 46 25 3f 68 5c 94 3f 0e 33 4f be
       -0.62625843 0.6456001 1.15907 -0.2023432
0002b0 25 1a 1e c0 ea 51 3e 3f 6c 6f ab be fa 90 1d 40
       -2.4703457 0.7434374 -0.33483446 2.4619737
0002c0 74 18 cb 3e 4e 41 8f bf e3 35 1b c0 4a 77 1a 3f
       0.39667094 -1.1191804 -2.425164 0.6033827
0002d0 6c 52 0c c0 a0 64 af bf e0 dc ba be 6e 91 4b 3d
       -2.1925306 -1.3702583 -0.3649664 0.04969924
0002e0 53 d7 d4 bf a9 63 51 bf 3f 40 f5 bf 1f 35 26 bd
       -1.6628212 -0.81792694 -1.9160231 -0.040578004
0002f0 76 f2 b3 3f 76 a4 77 bf 7a 04 c5 3f fc ad 3d bf
       1.4058368 -0.9673532 1.5391991 -0.74093604
000300 59 03 5a 40 42 86 5f 3f 0a 30 6d bd 9a 81 af bf
       3.4064543 0.87314236 -0.05790714 -1.3711426
000310 9e 9e 60 3f 3c 00 b7 bf ea 52 02 40 77 df 7f 3f
       0.8774203 -1.4296947 2.0363107 0.99950355
000320 db fb b5 3f d7 88 f8 3f de b8 92 3c cf f3 28 bf
       1.4217485 1.941676 0.017910417 -0.6599702
000330 e2 69 4e 3e 84 81 0f 40 0f ab 27 40 b5 03 9b be
       0.20157579 2.24228 2.6198156 -0.30276266
000340 49 ac 94 bf f4 aa 93 be 36 49 ec bf 11 ab dd be
       -1.1615077 -0.28841364 -1.8459842 -0.43294576
000350 1c 97 37 3f 9c 33 db 3f 87 fc 6b be 25 74 e3 bf
       0.7171495 1.7125125 -0.2304555 -1.776982
000360 d2 26 42 be bf 4b 09 3f 43 60 12 c0 20 0b b6 3f
       -0.18960121 0.53631204 -2.2871253 1.4222145
000370 3e 60 b3 3f 68 3c 31 3f bd 45 58 3e e5 80 1e 40
       1.4013746 0.692328 0.21120353 2.476617
000380 3f db e3 3e 1c 9d 61 40 44 66 de 3d 48 73 c6 bf
       0.4450321 3.5252142 0.10859349 -1.5503931
000390 b2 89 89 bf f5 0a 5c 3e e1 db 3a bf 06 e8 47 40
       -1.0745146 0.21488555 -0.7299176 3.1235366
0003a0 ba 85 65 bf 76 e9 c1 bf 02 ca 3f c0 76 ef 16 c0
       -0.89657176 -1.5149372 -2.9967046 -2.3583655
0003b0 2c 03 00 3e c5 bb 1d 3f f2 5c b7 be 8e c5 19 3f
       0.1250121 0.6161464 -0.358131 0.6006707
0003c0 c6 a4 b8 bf 37 09 bc 3e 26 b8 40 bf 89 42 de 3c
       -1.4425285 0.3672578 -0.7528099 0.027131336
0003d0 cf 0a 0f c0 81 69 91 bf c4 62 59 3f 29 9e 96 3e
       -2.2350347 -1.1360322 0.8491633 0.29417542
0003e0 17 68 00 40 ff 16 43 bf a4 90 50 bd d6 1b 9a bf
       2.0063531 -0.76206964 -0.05091919 -1.2039745
0003f0 99 20 04 40 c5 e0 f9 3e ac 6e a4 be 59 26 49 3f
       2.0644896 0.48804298 -0.32115686 0.7857414

layers.0.weight f4 [256, 64]
000000 8d ba e5 be 22 4c 65 be 86 b7 9e bd ae 7c 8e 3e
       -0.4486889 -0.22392324 -0.07749848 0.27829498
000010 b5 6c 32 3e 1e 31 2e 3e 5f 2f 78 3e 20 fc ad 3e
       0.17424281 0.17010924 0.2423682 0.3398142
000020 02 7b 0c 3e d1 34 cb be d8 1e 39 3e de dd 31 3f
       0.13718799 -0.39688733 0.18078172 0.6947917
000030 7d 58 5b 3e 6f a9 99 be 8f 7d ac 3e 7f 8a ae 3d
       0.21420474 -0.3001208 0.33689544 0.0852251
000040 55 7a d8 3e d0 0d d6 3d 4c 2d e0 be db de a3 3e
       0.42280832 0.10451853 -0.4378456 0.32005963
000050 f0 ad ed 3e 95 2a d7 3e a0 56 31 3e 3a e9 10 3e
       0.46421766 0.42024675 0.17318201 0.14151469
000060 c7 03 85 bd cc f7 a7 bd 16 65 70 be dc 8c a0 3d
       -0.06494861 -0.082015604 -0.23476061 0.07839367
000070 ee 4a b4 3e 09 b7 06 bd ee fc 22 3f b3 e1 bb 3d
       0.35213417 -0.0328894 0.6366719 0.09173908
000080 27 35 c5 3e 6a 56 14 3d b6 2a a3 bd b0 e1 58 be
       0.38517115 0.036215223 -0.07967131 -0.21179843
000090 8e 52 3e 3e be 82 07 3f 7d f1 85 3d dd 2f 01 be
       0.1858618 0.5293387 0.06540201 -0.12615915
0000a0 af 3d c7 bd f6 1a 88 bd be 8a 36 bf fb 80 8e bc
       -0.09728562 -0.066457674 -0.71305454 -0.017395487
0000b0 22 8d 29 be 19 a7 e8 bd b2 e6 ce be f5 db fb 3d
       -0.16557744 -0.11359996 -0.40410382 0.12297813
0000c0 99 c6 0c 3f de e7 9e bc 33 b3 bb 3e 98 bd 15 bf
       0.54990536 -0.019397672 0.36660156 -0.5849242
0000d0 9c 13 1d 3e e3 02 d0 be ee 24 21 3e 1d 6e ce be
       0.15339512 -0.40627202 0.15736744 -0.40318385
0000e0 e1 40 77 3e 10 2e 28 bf 2b 2b 33 bf 5b 13 d1 be
       0.24145843 -0.65695286 -0.69987744 -0.4083508
0000f0 6a 75 20 be e3 25 5f 3f 14 57 8c 3d 0d 73 b2 3e
       -0.1566979 0.87167186 0.06852546 0.34853402
000100 be c2 0c 3f f4 de 04 bd 90 aa f7 3e 0a 18 77 be
       0.54984653 -0.032439187 0.48372316 -0.24130264
000110 ac e1 f9 be 70 8e 6c 3e 24 b4 99 bd 95 29 5d be
       -0.48804986 0.2310121 -0.07505062 -0.21597894
000120 cc c1 ca 3e b8 5b 19 bf 0b cb eb 3d d5 a7 bc 3e
       0.3960098 -0.59905577 0.11513337 0.36846796
000130 24 77 c8 be 38 25 98 bd c0 44 b6 3c 6d 04 3c 3e
       -0.39153397 -0.07428974 0.02224958 0.18361063
000140 7b d2 a4 3d 61 de 85 3d 54 b6 50 ba 63 b0 ce 3d
       0.080479585 0.06536556 -0.00079617393 0.10092237
000150 ce 9b 3c be 4b 6d 25 3d 8f 9f 1c 3e 06 c8 97 bd
       -0.1841881 0.040387433 0.15295242 -0.07411198
000160 82 d6 19 3f a0 a8 a9 3e 2d d6 51 be 7a 6c e9 3c
       0.6009294 0.33136463 -0.20491858 0.028494108
000170 fe b1 43 be 33 a2 9e 3d 5e 67 5e 3c 2c e1 05 bd
       -0.19110867 0.07745781 0.013574449 -0.032685444
000180 ac ba 03 bf 16 64 ce bd 20 32 ed be 30 00 92 be
       -0.51456714 -0.10077684 -0.46327305 -0.28515768
000190 f2 62 d6 3e c7 be ae be a8 0e e5 bd 44 ba a4 be
       0.41872364 -0.34129927 -0.11184436 -0.3217336
0001a0 20 57 82 be 7d 94 aa bd 60 96 81 3e 1a b7 9f be
       -0.25457096 -0.08329103 0.2531004 -0.31194383
0001b0 09 68 21 bf 39 2f 2a bf 72 c3 db be 5c a7 e5 3e
       -0.6304937 -0.66478306 -0.4292255 0.44854248
0001c0 34 d2 36 bf ca 3d 23 3d bb 83 b9 be 91 3b 95 3e
       -0.71414495 0.03985385 -0.36233315 0.29147008
0001d0 39 35 c3 be 43 06 e8 be 58 b6 a9 3e c3 f6 e7 3e
       -0.38126543 -0.45317277 0.3314693 0.45305452
0001e0 da ae 8f 3d 5e 17 46 3f bd 35 7e 3c a3 f5 27 3e
       0.07015772 0.77379405 0.015515742 0.16402297
0001f0 dc fe 08 bf f2 61 a3 3d b7 b9 d5 3e 68 13 c7 3e
       -0.53513885 0.07977666 0.41743252 0.38881993
000200 ea c4 9c 3e b2 d3 01 bd ef 9b 3a be b8 eb d3 3c
       0.30618984 -0.03169603 -0.18223546 0.025869235
000210 d1 43 88 3d a8 44 4a be c7 f5 91 3e 1a ed b3 be
       0.0665356 -0.19752753 0.28507826 -0.35141832
000220 ac d8 78 3d ae 42 eb be 76 fb 80 3e d4 32 6d be
       0.06075351 -0.4594931 0.2519185 -0.2316392
000230 a2 d1 cf 3e a2 29 8f bc cb 2c de 3e a6 bf 5f be
       0.40589625 -0.017475907 0.4339355 -0.21850452
000240 f5 1a 48 bf 6f 2b a2 3d 9a fa 04 be 3f af a5 3e
       -0.78166133 0.079184406 -0.12986222 0.32360265
000250 f6 0e 9e 3e 49 d8 fe bd d9 6f be 3d 91 d9 e3 3d
       0.3087079 -0.12443597 0.09298677 0.11125482
000260 ab 3a 29 bd 83 94 9c 3e d7 24 ac bd 41 5e 86 be
       -0.041315716 0.30582055 -0.08405464 -0.26243785
000270 8d e6 8b 3e f8 68 cc bd 32 aa 1a be 43 75 64 3b
       0.27324334 -0.09980959 -0.15103987 0.0034859932
000280 33 6d 9b 3d 08 03 47 bf 1a 2d e9 3e 37 f6 1a 3f
       0.075891875 -0.77739 0.45542222 0.60531944
000290 2a 8f 3a 3f c7 a0 91 be 7d dd 09 3f 4d 1f e1 3e
       0.728747 -0.28442976 0.5385359 0.43969193
0002a0 d4 e7 95 bc 6e 78 92 be 2f 75 07 bf 2d da a7 3e
       -0.01829902 -0.28607506 -0.5291318 0.32783642
0002b0 1a 97 95 b8 d4 66 39 be 4b da 5d be 3a dd 0f bd
       -7.1330185e-05 -0.18105632 -0.21665303 -0.035123087
0002c0 74 1e 4c 3e c7 20 cb bd 7b e1 6a 3e 74 d2 3c be
       0.19933492 -0.09918361 0.22937576 -0.18439656
0002d0 b2 c0 98 be 1c e6 fd 3e 4a ac 4b be 38 3e a0 3e
       -0.29834515 0.49589622 -0.19889942 0.3129747
0002e0 ac 91 6d 3f 13 ae 23 bf 63 91 e2 3e db 40 d4 be
       0.928004 -0.6393749 0.44251546 -0.4145573
0002f0 05 3f 69 3f 95 30 79 3e 41 0c ca be 2f f5 51 bf
       0.91111785 0.24334939 -0.39462474 -0.82014745
000300 97 c6 25 be 4f 28 50 3e 48 ba b4 3d 53 70 2c be
       -0.16189037 0.20327877 0.08824593 -0.16839723
000310 6c 18 39 bf 9b 39 03 bd 07 64 16 bf ad 36 b2 be
       -0.7230289 -0.03203736 -0.5874638 -0.3480734
000320 8c 9c e0 be 1b 37 db be 60 74 dc 3c 82 73 db 3d
       -0.43869436 -0.4281548 0.02691096 0.10715391
000330 95 2d 02 3e f1 96 34 3e 4d a5 51 3d 15 ce 15 3f
       0.127127 0.17635705 0.051183034 0.5851758
000340 f6 cc b1 3e 5f 0b bc 3d ba e3 b2 3e 1e 09 a4 3d
       0.34726685 0.09181856 0.34939367 0.080095515
000350 b1 36 87 bd 21 18 9e be 33 24 b3 3d 84 60 19 3f
       -0.066022284 -0.30877784 0.08747139 0.59912896
000360 f2 4d 98 be e9 18 52 bd 79 8e 57 3e 74 93 df bd
       -0.29746968 -0.051293287 0.21050443 -0.10916796
000370 34 cb 46 3e 92 67 29 3f db 87 30 3f 33 b6 80 be
       0.19413453 0.6617366 0.689573 -0.25139007
000380 ef 16 65 3e 34 90 13 bd 2a 41 3c be 24 18 f8 3e
       0.2237203 -0.036026195 -0.18384233 0.48455918
000390 3c 72 9f be c4 ee f7 be 98 c8 87 3f a0 ea 99 be
       -0.3114184 -0.4842435 1.0608091 -0.30061817
0003a0 e8 1c 02 bb 0c 27 c5 be 0b 01 29 3e 37 5f e3 3e
       -0.0019853655 -0.38506353 0.16504304 0.4440858
0003b0 1f e0 8c be b6 b2 1c bc f6 17 86 3e ea 2b a2 3c
       -0.2751474 -0.009564092 0.26190156 0.01979633
0003c0 9d 4d e4 3e ee 0c 94 3d b1 8e 0c bf 89 dd 64 be
       0.44590464 0.07229029 -0.5490523 -0.22350134
0003d0 c6 17 6d be 7b dd ff 3e 7a 2f 2f bc 3e 52 41 be
       -0.231536 0.49973664 -0.010692472 -0.18879029
0003e0 ac 03 88 3e 87 0e 88 bd c3 52 bd bd 3e 28 c3 be
       0.265653 -0.06643396 -0.09244301 -0.3811664
0003f0 d3 c3 b3 3e 04 ea 74 3e fb 11 12 bd de b1 d7 3e
       0.3511034 0.23917395 -0.03566168 0.4212789

layers.0.bias f4 [256]
000000 85 44 4a 3d 24 a7 01 bd 47 a9 a3 be 47 14 3d 3c
       0.04938175 -0.03165354 -0.31965086 0.011540479
000010 00 05 dd bd f5 07 8e 3d 28 16 c2 3d a6 fe 37 bc
       -0.10791969 0.069351114 0.09476882 -0.0112301465
000020 08 15 68 3e ef db d6 3c b5 03 46 3e 70 cd 0a bd
       0.22664273 0.02622792 0.19337352 -0.033887327
000030 d5 e2 be 3d 12 0b e8 3c 54 ac 0f 3e f6 dc e6 3d
       0.093206085 0.028325591 0.14030582 0.11272614
000040 29 92 1a 3e d8 17 87 be 70 09 b8 bc 5f b2 b9 3d
       0.15094818 -0.2638538 -0.022465438 0.09067225
000050 f8 c2 99 be f3 79 4d 3c 68 04 fe bd 3c 75 3f 3e
       -0.30031562 0.012541282 -0.12403184 0.18697065
000060 92 73 ba 3c cc f4 a8 be ac 6d 84 3c be aa 1a bd
       0.022760186 -0.32999265 0.016165577 -0.03776049
000070 15 1d 85 bc ae 7b 84 be bb 19 7e 3d 15 13 88 3d
       -0.016249219 -0.2587561 0.062036257 0.066442646
000080 6d a6 bc bd 6c 7d dd 3d a2 03 1d be cf a1 07 be
       -0.09211431 0.10814938 -0.15333417 -0.13245319
000090 d0 83 ac 3e 8b d1 20 3d 3d 85 15 3e 34 fa 1f 3e
       0.33694315 0.039262336 0.14601608 0.15622789
0000a0 7e e4 f4 3d da 14 47 be 8b 0f c8 3c 53 69 b3 bb
       0.11957644 -0.19441548 0.024421474 -0.005475202
0000b0 71 c7 4c bd 8a aa cb 3d f6 99 63 3e 51 49 2c be
       -0.04999489 0.09944637 0.222267 -0.16824843
0000c0 33 7d 48 be 58 8e c5 be ac 81 40 bd 07 4f 4c 3b
       -0.1957901 -0.38585162 -0.046998665 0.0031175034
0000d0 c2 8f 72 be 07 8f 9a 3d 68 1a 80 be a3 18 ac bd
       -0.23687652 0.075468116 -0.25020146 -0.084031366
0000e0 f5 db a5 3d 4c 92 c1 bd 1b 80 45 be e4 e3 14 3d
       0.08098594 -0.09451732 -0.1928715 0.036350146
0000f0 81 1e 1e be 5a 36 7a bd cd 3f 90 be f4 b1 4f 3e
       -0.15441324 -0.06108699 -0.28173676 0.20282727
000100 6d e8 26 3d cb f4 83 be fb 90 e2 be d5 fa 0f be
       0.040749002 -0.257727 -0.44251236 -0.14060529
000110 b6 a1 c8 be 54 94 31 3e 2e b5 3c bd d6 43 0c be
       -0.39185876 0.17341739 -0.046071224 -0.13697752
000120 a9 24 1c bc 51 82 ab 3d df c6 75 3e 31 ff 2c 3d
       -0.009530225 0.08374465 0.24001645 0.042235557
000130 e9 b4 29 3e df 15 a0 3d 54 d8 56 3d d7 e2 5c be
       0.16572918 0.078166716 0.0524524 -0.21570908
000140 5e 1c 14 3c d4 89 e6 3b d3 32 51 3c c8 53 ca bd
       0.009039966 0.0070354734 0.012768465 -0.09879261
000150 27 50 29 3d c0 f2 1b be c1 51 8d bd 23 0d dc be
       0.041336205 -0.1522932 -0.06900359 -0.42978773
000160 60 11 87 3e db 6c 8c 3d 10 d8 84 3d 8e 02 c7 bc
       0.26380444 0.068567 0.06486523 -0.02429321
000170 ce 0f 6d 3e 8d d3 22 3d 2d 5c 2d 3e a4 15 c0 3c
       0.2315056 0.03975253 0.16929694 0.023447819
000180 5c 2e 63 3c 2c 81 aa be 50 2e 79 be f4 de 73 3d
       0.013866033 -0.33301675 -0.24334073 0.059538797
000190 15 48 09 bf 85 0f 1e be 81 d4 df be 1b 54 46 be
       -0.53625613 -0.15435608 -0.43716815 -0.19368021
0001a0 b5 19 0b be ef 7c 8c bd 77 d5 61 3d cb e6 11 3d
       -0.13584025 -0.06859767 0.055135217 0.035620492
0001b0 1f 1d 0e 3e 9f 94 f6 be 35 42 99 bd 18 92 98 3d
       0.13878296 -0.48160264 -0.07483331 0.0744974
0001c0 4e e0 a3 3e b5 d6 6f bd a8 a1 d7 bc af 2c 9f 3c
       0.32007068 -0.05855437 -0.0263222 0.019430486
0001d0 6e 0e 14 3d d0 9a fb 3d 8b 26 7d bd 24 1c 8b bd
       0.036146574 0.122853875 -0.061804336 -0.06792477
0001e0 27 68 b2 3c 8d 35 b0 be b9 0e 1a be de bc 07 bd
       0.02177818 -0.34415856 -0.15044679 -0.033139102
0001f0 67 78 72 be 57 92 a1 3d b7 72 2c be 18 52 00 3d
       -0.23678742 0.0788924 -0.16840635 0.03132829
000200 8a 69 25 bd 64 8c b1 3c 56 a2 d8 bd 5e 5c 16 3c
       -0.040383853 0.021673389 -0.10577838 0.0091772955
000210 ef 1f 39 3d 31 22 36 3e b2 ae 90 be 1b 14 8d bc
       0.04519647 0.1778648 -0.28258282 -0.017221501
000220 79 aa 5d bd 66 40 6d be bc bd 28 3c 69 e7 b9 3c
       -0.054117654 -0.23169097 0.010299142 0.022693353
000230 06 3c d4 be cf 4c 56 be 69 ac de bd f6 f2 08 be
       -0.41452044 -0.20927738 -0.108727284 -0.13373932
000240 93 70 38 be bd 1f 6e be 75 da 80 bd 2e fe 23 3e
       -0.18011694 -0.23254295 -0.06291667 0.1601493
000250 75 e2 e4 bc b3 17 80 3c 73 3e dd 3d 57 ef bf 3c
       -0.027940014 0.0156363 0.10802927 0.023429556
000260 9e 02 e5 3c ce 80 26 be d2 75 3d be 18 4e d0 be
       0.02795535 -0.16260073 -0.18501976 -0.4068458
000270 e1 f1 1a be 80 ed 49 bd e6 ab 92 3e ff d6 b8 3d
       -0.15131332 -0.049298763 0.28646773 0.09025382
000280 7a de e4 3c 4d 48 ee bd 49 a4 84 be 5e 78 d2 bc
       0.027938116 -0.11634884 -0.2590659 -0.025692161
000290 52 23 87 bd 79 37 f9 3d c3 76 85 be fd e5 b4 bd
       -0.06598534 0.12168784 -0.2606717 -0.08832929
0002a0 e7 aa c5 bd 96 48 c9 bc 0c d4 91 bd a4 b0 7a 3d
       -0.09651738 -0.024570744 -0.07120523 0.061203614
0002b0 ad 41 6c be 88 90 4f bc e9 9f a2 bd 80 c6 db 3c
       -0.23071928 -0.012668736 -0.07940657 0.02682805
0002c0 11 74 06 bf c7 eb 5a 3e f6 ff ac be 3c 92 b2 3d
       -0.52520853 0.21379004 -0.33789033 0.08719298
0002d0 c7 9f 91 3d 30 a3 93 3e e7 d8 02 be e6 0e d8 be
       0.07110553 0.2883544 -0.12778054 -0.42198867
0002e0 76 66 94 bd 37 e8 f4 bd 23 91 4b be 92 ec 34 3e
       -0.072461054 -0.11958354 -0.19879584 0.1766837
0002f0 97 c9 4a 3e 5b 6e 57 bc 95 7c 28 be 55 8c 00 3e
       0.19803463 -0.013148869 -0.16453774 0.12553532
000300 9e 75 a7 3d f0 11 a4 3d a7 7b 9b bd 9f 90 4c 3e
       0.081767306 0.08011234 -0.07591944 0.19977044
000310 33 84 27 be 20 50 a8 3d 39 61 98 3d 18 dc 15 3e
       -0.16359024 0.08218408 0.07440419 0.1463474
000320 90 81 d0 bd 78 e8 55 bd 8c a2 fb bd f0 57 9e bd
       -0.10180962 -0.052223653 -0.12286863 -0.077316165
000330 dd 6e 15 bf 65 55 41 3e ad 62 ec 3d 74 24 0a be
       -0.5837229 0.18880232 0.115422584 -0.13490468
000340 60 9d 44 bd be 0a 85 bd 97 0b f5 3d 97 3e 6e be
       -0.048001647 -0.064961895 0.11965101 -0.23266064
000350 53 2f 07 be 73 aa 96 bd df 3d 46 bd 21 e7 fa bd
       -0.13201647 -0.07356729 -0.04839885 -0.122511156
000360 05 85 59 3d be 5d b9 3c 2b ee 98 bd 51 62 a2 bd
       0.053105373 0.022627708 -0.07467302 -0.079289086
000370 ad 53 d7 bc 8d 9d bb bd db 33 01 be c2 89 87 3d
       -0.026285017 -0.0916091 -0.12617438 0.06618072
000380 8e 7a 43 be 10 40 98 3d ba 94 ac bd 4e 30 5a bd
       -0.1908972 0.07434094 -0.08426805 -0.053268723
000390 5f 2c fd 3d 5b 17 78 3b 63 ba 34 bd e5 f6 2a 3e
       0.12361979 0.0037855718 -0.044123065 0.16695745
0003a0 aa e0 16 be 12 4d 88 be 78 a7 a3 3c 8a 48 25 be
       -0.1473414 -0.266213 0.019977316 -0.16140953
0003b0 6c a2 71 3e d2 a6 9d be 34 b0 8a be 37 db 11 be
       0.23597115 -0.30791336 -0.27087557 -0.1424378
0003c0 34 bd 60 3d 33 ab 45 3e 7e c5 0c 3e ee d2 eb be
       0.05486794 0.19303589 0.13747212 -0.46059364
0003d0 7a 59 48 3c 91 13 a3 bd bd e2 0e 3e 61 64 1c be
       0.012228364 -0.07962716 0.13953681 -0.15272667
0003e0 55 6a 42 bd 15 4b 2c 3e a2 99 2b 3e b6 c7 cf 3d
       -0.047464687 0.16825517 0.16757825 0.10145514
0003f0 69 a0 b2 3d b6 df 54 3d eb b7 fb bd 8a 09 ad be
       0.08722002 0.05197116 -0.12290939 -0.3379634

layers.2.weight f4 [32, 256]
000000 ab aa 23 bd da e0 8d be a1 56 8a 3d 78 26 6b 3e
       -0.039957684 -0.2771061 0.067548044 0.22963893
000010 62 a1 be 3d ea c9 2a bf f4 18 14 3f 1b 16 0d be
       0.09308125 -0.66714346 0.57850575 -0.13777964
000020 9b c8 59 3e a5 be 09 3f 16 40 c6 be 45 e4 0f bf
       0.21267931 0.53806525 -0.3872077 -0.56207687
000030 4f 8f 64 be 42 3d 8e be 38 06 0e bf 1a 74 ef be
       -0.22320293 -0.2778111 -0.5547824 -0.46768266
000040 83 6c d8 be 96 ae 4a 3f eb a7 09 3e 5e 5d fd bc
       -0.42270288 0.79172647 0.13442962 -0.03092831
000050 12 42 d1 3e 75 f2 a3 3e 24 a4 9f bd 3c df 45 3e
       0.4087072 0.32020918 -0.07794979 0.19323438
000060 f3 26 73 3e dc d5 8b 3d 28 61 a0 3e 13 06 03 be
       0.23745327 0.068279 0.31324124 -0.12795286
000070 58 f5 33 bf 89 1f b5 be 65 23 f5 bd 90 d7 e1 bd
       -0.7029624 -0.35375622 -0.119696416 -0.110274434
000080 d7 d5 72 bd dc be 92 3e 2c a8 5b 3d dd f9 90 bd
       -0.059285965 0.2866124 0.053627178 -0.07078908
000090 e9 d5 c7 3e 55 83 2c 3f 06 9f 8d bd 57 9d a8 3e
       0.39030388 0.67387897 -0.06915097 0.3293254
0000a0 86 6f 03 be ad 52 46 3e 73 ca e7 3e 75 00 32 bf
       -0.12835512 0.19367476 0.45271644 -0.6953195
0000b0 ba 71 d5 3e 16 12 1a 3f 9e c2 0e 3f 69 e8 05 be
       0.4168833 0.60183847 0.5576571 -0.13076939
0000c0 2f 8a b2 3d 1b 48 3e 3f 8b 83 34 bd 8c 2f 89 3d
       0.08717763 0.74328774 -0.04407076 0.06698522
0000d0 2d 07 07 3d 39 1a 9f 3d 2b 6d 01 be 62 17 cd 3e
       0.032965828 0.077686734 -0.126393 0.40056902
0000e0 56 dd 4d be 09 da 01 bf 15 4e 2f 3f 70 91 89 3d
       -0.20103964 -0.5072332 0.6847852 0.06717193
0000f0 a6 1a e2 3e 1e 66 26 3f 4e 4b f8 3d 09 2f 13 3e
       0.44160956 0.6499957 0.12123738 0.14373411
000100 87 bc 21 3f 99 9b 08 be 05 1a 55 3f 87 9a 30 bc
       0.63178295 -0.13340606 0.8324283 -0.01077903
000110 26 fe ab 3e f2 ec e3 be da 35 43 3e ff c9 aa be
       0.33592337 -0.44516712 0.19063511 -0.33357236
000120 67 d3 17 3d 82 b6 4b 3e c1 ff 85 bf d2 6e db be
       0.037066843 0.1989384 -1.0468675 -0.42857987
000130 d6 67 04 be df f1 e3 3e 92 5b 8d 3e ac 69 e9 bd
       -0.12930235 0.4452047 0.27608925 -0.113971084
000140 ef 59 70 3e f1 41 36 3e 83 60 01 3f d7 28 84 bf
       0.23471807 0.17798592 0.5053789 -1.0324963
000150 20 6f d0 bb f9 ec 39 3d 2f ce 3a 3e 4a c3 b4 be
       -0.0063609034 0.04539201 0.18242715 -0.35305244
000160 81 1b 70 bc 66 77 26 bf 8f 7d de 3c 37 7f d9 3e
       -0.014654995 -0.6502594 0.02715948 0.4247987
000170 b4 e3 75 be be 7d d1 be 2e 9b a3 be 90 29 95 3e
       -0.24012643 -0.40916246 -0.3195433 0.29133272
000180 67 91 d1 bd 36 e9 b6 bc 48 21 f4 bd f1 6f e4 3e
       -0.102328114 -0.022328 -0.119204104 0.44616655
000190 75 7b be 3e 5d 32 61 bd 3a 72 75 bc 9d 98 a8 bd
       0.37203565 -0.05497967 -0.014980847 -0.08232234
0001a0 69 4a a0 3e cb e1 82 be 6f f9 91 be 07 4f 8d be
       0.3130677 -0.2556289 -0.28510615 -0.27599356
0001b0 12 bf df bd a9 ec e6 3e a5 39 58 bd f2 f4 3b 3c
       -0.10925116 0.45102432 -0.05278935 0.011471974
0001c0 4d 05 aa 3e 12 4e ad 3d 7b 86 3f 3d d3 5f 91 3c
       0.3320717 0.08462156 0.04675911 0.017745888
0001d0 61 df f7 3e d7 30 d7 be 51 2e cd be 3c 4a 89 bd
       0.48412612 -0.4202945 -0.400744 -0.06703612
0001e0 87 5f c5 3b 7b 3e 82 3e c2 ef 16 be 39 63 de be
       0.0060233506 0.25438294 -0.14739898 -0.43435076
0001f0 90 d9 06 bf 5f e0 8d 3d 27 f8 64 be 8e cf 45 3c
       -0.52675724 0.06927561 -0.22360288 0.012073411
000200 a1 6d 4c 3b a5 e4 9b bd 1c c6 83 3e 07 d3 c7 bd
       0.0031193274 -0.0761197 0.25737083 -0.09757047
000210 a6 28 17 bf a2 a7 ca bd 3e 32 18 bf 03 f3 cb 3e
       -0.590464 -0.09895255 -0.59451663 0.3983384
000220 dc 84 ce be 2e 5a 07 be e2 f4 fd 3d 00 bb b0 3e
       -0.4033574 -0.13217995 0.12400223 0.3451767
000230 39 89 e3 3c 2c 19 99 3d a3 cc ea bd 5e 13 24 3f
       0.027775394 0.07475504 -0.114648126 0.6409205
000240 8e cd a4 3e b7 2a 6c 3d c5 4b 6c be 5a 5c b1 be
       0.32188076 0.057657924 -0.23075779 -0.3464077
000250 97 e2 8d 3e 22 d1 02 be af 96 32 bd 2a 80 e5 bc
       0.27711937 -0.1277509 -0.043600734 -0.028015215
000260 f7 bb 86 be 74 5d bf 3d 5c 6c 17 be 23 0a a5 bd
       -0.2631528 0.09343997 -0.1478743 -0.08058574
000270 35 bd a7 3e df 69 6a 3e db b0 3c be b9 63 53 3e
       0.3276154 0.22891949 -0.1842684 0.2064351
000280 68 d8 15 be de 6a 7f be 5e 22 81 3c 6b ca a7 be
       -0.14633334 -0.2494311 0.015763458 -0.3277162
000290 92 3f c7 3e 7e 6c e6 3e 91 8f dd 3e 92 cf 09 3f
       0.38915688 0.45004648 0.43273595 0.5383235
0002a0 34 cb 03 3e 43 25 4f be 7d f5 07 3f 42 e1 7c bd
       0.12870485 -0.20229058 0.5310896 -0.06173826
0002b0 51 64 f1 bd 95 ec 82 3e 9e b9 9e be 20 95 71 3e
       -0.11786712 0.25571123 -0.3100099 0.23592043
0002c0 eb c0 f8 3e 98 ea 8e be 14 14 09 3f 9a 2c fa 3e
       0.48584685 -0.27913356 0.5354626 0.48862153
0002d0 0e 71 61 3e b8 4d ca 3e b4 de 73 3e f1 59 b7 3e
       0.22015783 0.3951242 0.23815423 0.35810807
0002e0 44 6f a4 be 30 96 33 be 57 b7 8e 3e ae 95 1b 3f
       -0.3211614 -0.1753776 0.27874252 0.6077527
0002f0 ba ec 36 be 39 8a 69 bc 37 f0 1f 3f 47 aa 6f 3e
       -0.17863742 -0.014254146 0.62475914 0.234048
000300 2e 8f 6c be 54 47 4f be a0 73 01 bf 4a bc 85 3e
       -0.23101494 -0.20242053 -0.50567055 0.26120216
000310 9b 25 0b bd 9f 79 cc bc 62 73 61 be 79 b1 de bd
       -0.03397141 -0.024960337 -0.22016671 -0.10873694
000320 bb ff 2f 3e 89 ac aa 3e c8 50 f1 3e 4c 5c 1b be
       0.17187397 0.3333476 0.47131944 -0.15171927
000330 54 2c 24 3f ad ad 04 bf f6 1e 6c 3e 10 ba 52 3e
       0.6413014 -0.5182751 0.23058686 0.2057879
000340 4f 47 c6 ba 72 92 88 be d9 2e 96 3e 75 e2 96 3e
       -0.0015127453 -0.2667423 0.29332617 0.29469648
000350 e1 45 1c 3d 9a 19 90 bd 67 bb 77 3e d9 1f d2 be
       0.03815258 -0.07036133 0.24192582 -0.41039923
000360 15 d5 8c 3d 38 3f 75 3e a2 93 6f be 86 d4 49 3e
       0.0687658 0.23949897 -0.23396161 0.19709978
000370 82 5a 02 3e ec e0 d8 be d0 1f a9 be 2a b6 05 3f
       0.12729838 -0.42359102 -0.33032084 0.52231085
000380 cf 80 3a bf 17 5a 87 be b4 2c 87 3e 09 a6 57 bd
       -0.72852796 -0.2643592 0.26401293 -0.052648578
000390 cb 1d 3f be 86 e4 22 be 0e 4d e0 3e 76 6c 8f be
       -0.18663709 -0.15907487 0.43808788 -0.28012437
0003a0 66 c8 b1 3d de 97 31 3e e2 3f 29 3e 79 38 b4 3e
       0.08680801 0.17343089 0.16528276 0.35199335
0003b0 02 43 15 3f ae 43 2b bd 29 68 88 be ee 35 31 bf
       0.5830537 -0.04181259 -0.26641968 -0.69222915
0003c0 bd 4b f6 3c ef 24 29 3b 7f c5 e5 3e 5c 40 66 bd
       0.030065412 0.0025809368 0.4487724 -0.05621372
0003d0 ff b0 9f be 6b e3 ae 3d 5d 9f 6a be 4f 63 82 be
       -0.31189725 0.0853947 -0.22912355 -0.2546639
0003e0 79 07 2a bf 4a 8b a4 3e 5b eb cf 3e d6 b3 e7 3e
       -0.6641765 0.3213752 0.4060925 0.4525439
0003f0 51 10 e4 be 2e 1a a8 bd 18 de e0 bc ba a6 9d be
       -0.44543698 -0.082081184 -0.027449653 -0.30791265

layers.2.bias f4 [32]
000000 08 54 9f 3d ce 40 84 bd 2b 02 a4 3d 54 00 c6 3d
       0.077796996 -0.06457673 0.08008226 0.09668031
000010 de 4b 1f 3e 3e 65 c1 bc fc cb 3d 3d 6e 0d 3c 3e
       0.15556285 -0.023607846 0.046337113 0.18364498
000020 7e 1a 9b bd 0d 9b 6b bd e1 75 67 be dc b9 4a 3e
       -0.07573412 -0.057520915 -0.22603561 0.19797462
000030 02 72 16 bd 41 5c 94 3d 4e a0 7f bd e9 43 cf bc
       -0.03672982 0.072441585 -0.062408738 -0.025300937
000040 41 f6 c8 bc af 10 26 3d 53 fb cf 3d 8a 09 f4 bc
       -0.024531486 0.040543254 0.10155358 -0.029789705
000050 93 c8 10 be f0 6c d6 3d 6a 50 36 3e 4f cc ce 3d
       -0.14139013 0.10469997 0.17804113 0.100975625
000060 d0 5a ef 3c b1 f1 08 3e a7 2b 05 bb d0 2d 29 3e
       0.029218107 0.13373448 -0.0020320208 0.16521382
000070 82 69 1b 3e b0 2d 1c bd 51 60 fd 37 b7 40 16 3e
       0.15176967 -0.03812951 3.0204801e-05 0.14673124

layers.4.weight f4 [1172, 32]
000000 5f a6 e0 3d 99 b7 01 3f 37 5f 0f bf 26 4c d3 3d
       0.10969233 0.5067077 -0.5600466 0.103172585
000010 04 a5 73 3e e1 f5 1d 3e ca f8 9b 3d d9 fb e9 bd
       0.23793417 0.15425827 0.07615812 -0.11424989
000020 af 72 9f 3d 51 13 79 3a 22 43 8c bd c4 bb 9e be
       0.07785546 0.00095014746 -0.06848742 -0.3100263
000030 3c b7 05 3e 13 b7 28 be 65 ec 03 3e 41 f4 27 be
       0.1305818 -0.16476087 0.12883146 -0.16401769
000040 42 2e 76 3e bf 23 93 be f8 75 20 bf 6f d9 00 3e
       0.24041083 -0.2873821 -0.62680006 0.12582944
000050 c0 47 16 bf 3c 57 27 be 33 80 91 bc 49 a7 14 be
       -0.5870323 -0.16341871 -0.017761325 -0.14516939
000060 fe 22 9a 3d fa 36 d7 be 2f e4 8f bc 97 66 25 bf
       0.075262055 -0.4203413 -0.017564861 -0.64609665
000070 9c 41 72 be c7 ea f5 be 35 43 0d bd 32 54 68 3e
       -0.2365784 -0.48030683 -0.03448792 0.22688368
000080 cb 0a cd be 4e 30 9e bf 49 fd 69 bd a6 c0 1d be
       -0.40047297 -1.2358491 -0.057126317 -0.15405521
000090 d4 d2 61 3e 0d fa 45 bf 41 9e 91 be 82 11 b9 3d
       0.22053081 -0.7733467 -0.2844105 0.090365425
0000a0 3a 83 58 be 6b be b0 bd ad ae be 3a 9f 80 a2 3e
       -0.21143809 -0.08630069 0.0014547907 0.31738755
0000b0 b7 7e 2d bf b9 42 90 3e 71 9e df bd 30 21 ad 3e
       -0.67771477 0.28175905 -0.10918892 0.33814383
0000c0 59 be 16 bf a4 73 da bd 61 65 d5 bc de a5 02 3e
       -0.588842 -0.10666588 -0.026049318 0.12758586
0000d0 70 e7 aa 3d 27 67 ab 3d 13 e2 3c 3e 2f d7 68 bf
       0.083449244 0.08369284 0.18445615 -0.90953344
0000e0 a1 aa aa bf 79 90 71 3e 3d 4c 89 3e 5d d1 12 3e
       -1.3333322 0.23590268 0.26815978 0.14337678
0000f0 8a 79 61 be a6 51 0e 3e 50 a4 10 3e 29 27 65 3d
       -0.2201902 0.13898334 0.1412518 0.05594555
000100 1c f4 b9 be ee ae 10 3e 21 f1 b0 3d eb b0 8c 3e
       -0.36319053 0.1412923 0.08639742 0.27478728
000110 2f b7 06 3e 7b ad 5f bf bc 17 2e 3e d8 91 64 bf
       0.13155816 -0.87374085 0.17001241 -0.8928504
000120 07 00 52 be 79 9c b4 bd 8f f2 f2 be 2f ff 42 3e
       -0.20507823 -0.08818907 -0.47450683 0.19042657
000130 6a b2 17 3f 86 96 53 3e ea 99 98 be 11 b1 a4 be
       0.59256613 0.20662889 -0.29804927 -0.3216634
000140 f6 be 18 3e f4 56 8a 3e 6d d8 0c be 55 0e b5 3c
       0.14916596 0.27019465 -0.13754435 0.02210156
000150 34 c5 87 bf 0b 78 1b bf a3 10 79 bd 55 aa e0 be
       -1.0607057 -0.60730046 -0.06080688 -0.43879953
000160 4e ad b3 3e 16 29 43 be 0f 72 58 be 99 88 9a 3d
       0.35093158 -0.19058642 -0.2113726 0.07545585
000170 52 db a0 bd 42 88 03 3e 16 8d 60 bd 83 c5 56 3e
       -0.07854332 0.12844947 -0.05482205 0.20973782
000180 a3 cd 05 3e 9b 6a 8a bd 9b 21 fa 3d 59 4b 62 be
       0.13066725 -0.06758615 0.12213441 -0.22099055
000190 76 98 3a 3e 6b 36 a1 bf 37 90 f4 be 15 f8 5e 3e
       0.18222222 -1.2594732 -0.47766277 0.21774323
0001a0 56 87 f4 be 71 05 15 be 16 3e 1e bf 88 be 14 3e
       -0.47759503 -0.14552857 -0.61813486 0.14525807
0001b0 36 1b 18 bf 62 2e b6 bc 88 47 1a bf 13 cd 15 3e
       -0.5941652 -0.022238914 -0.602654 0.14629011
0001c0 f3 e1 e9 be b3 60 6d 3e db 54 13 bd 39 82 c2 bf
       -0.45680198 0.23181419 -0.035969596 -1.5195991
0001d0 fb 78 96 bd dd ee 91 3d 8d 6b 78 3e ed d3 26 bf
       -0.07347294 0.07125638 0.24259777 -0.65167123
0001e0 54 bb 66 3e e1 09 9e bd c7 76 d6 be 4a b2 2c 3e
       0.22532398 -0.07716728 -0.41887495 0.16864887
0001f0 d4 eb 55 3e 2f 98 5a be db ae 82 3d bf 79 46 3e
       0.20890743 -0.21347116 0.06381007 0.1938238
000200 87 1f e3 bd 40 49 15 bd f8 66 39 3e 89 a0 2a be
       -0.11089998 -0.03644681 0.18105686 -0.16662802
000210 b5 75 3d 3e 3a b9 9c bf 9d 00 0e 3f f3 d5 e0 be
       0.18501933 -1.2244027 0.55469686 -0.4391323
000220 b8 52 4a be c9 4f e1 3d 13 5c 6b bf 03 15 ed 3b
       -0.19758117 0.11001546 -0.9193737 0.007235171
000230 10 a9 46 bf 0f ec e1 bc 10 72 36 bf 5f de 37 bf
       -0.7760172 -0.027578382 -0.71267796 -0.71823686
000240 ee 03 81 bf 2c e7 b2 3e b9 ee 68 be 6a c0 59 bf
       -1.0079324 0.34941995 -0.22747315 -0.85059226
000250 c9 7b 11 3e 28 36 a8 3e 9b 4f 05 3f 76 4d a9 bf
       0.14207377 0.32853818 0.52074593 -1.3226764
000260 30 eb dd be e5 f0 41 3e 72 9a 67 bf 0e 1f 01 bb
       -0.43343496 0.1893955 -0.9047004 -0.0019702348
000270 65 a5 f8 3d f9 94 c1 be 50 63 b7 3d ae 15 06 be
       0.121409215 -0.3780897 0.08954489 -0.13094208
000280 00 2b e4 3d d4 c2 39 be ed 29 50 bf 1e 72 09 3e
       0.11141014 -0.18140727 -0.81313974 0.13422439
000290 2b 12 b3 bd 40 46 13 3e 85 5e 49 3f 34 42 3e 3d
       -0.087437 0.14382267 0.7865985 0.046449855
0002a0 d2 84 7d 3f 1c b2 90 be 0f 63 b5 3e 70 f3 6e bf
       0.9903079 -0.28260887 0.35427138 -0.93340206
0002b0 ba 46 9e be 5e ef e1 be c3 d1 1c 3e a4 0b a8 be
       -0.30913335 -0.44127935 0.15314393 -0.3282138
0002c0 1c 30 b0 be 8e e8 5a bd ae e5 20 be ae b0 88 bd
       -0.34411705 -0.053444438 -0.15712616 -0.06674324
0002d0 1f 42 af be 7f 22 ca bc 65 8e 9e 3d 32 26 44 be
       -0.34230134 -0.024674652 0.07742003 -0.19155195
0002e0 a5 68 4d 3f ce c9 39 3e ca b2 0f bc 27 b2 2b 3e
       0.802378 0.18143389 -0.008770654 0.16767178
0002f0 27 5e 68 3d c5 33 40 3d 2f ca ab 3e 28 4a 82 be
       0.056730416 0.04692437 0.3355269 -0.25447202
000300 eb 10 26 bf 6c be 1f bf 67 2c 31 be b9 4c 82 bf
       -0.64869565 -0.62399936 -0.17302094 -1.0179664
000310 48 c3 be bd 68 2c 35 be 82 67 17 3c 4e 88 84 3e
       -0.09314591 -0.17692721 0.009240987 0.25885242
000320 e0 a1 50 3d ee 36 d4 3e 64 24 ab be 5f f3 8d bc
       0.050935626 0.41448158 -0.334262 -0.017327962
000330 93 81 59 3e 81 e0 6c 3e 0e 67 82 3e e0 f2 66 3e
       0.21240835 0.23132516 0.2546925 0.22553587
000340 c4 f7 4b 3e c3 95 16 be b1 b3 6a 3e 76 fd 53 bb
       0.19918734 -0.14705567 0.2292011 -0.003234712
000350 ae e4 db 3e 18 af 78 be 4f 5f b7 be 4b 46 c9 3c
       0.42947906 -0.24285543 -0.35814902 0.024569651
000360 36 d3 5e 3e 5a 93 c5 3d dd e0 ed 3d 9f db 37 bf
       0.21760258 0.09647246 0.11615155 -0.7181949
000370 e2 85 bf 3d 1d ea 46 bf 85 e6 b8 bd 9d ae 90 3e
       0.09351708 -0.7770098 -0.09028343 0.2825822
000380 4b 96 3d bf d2 7a 9e 3e d8 cc 1f 3e 78 5e 5e be
       -0.74057454 0.3095308 0.15605485 -0.21715724
000390 ef c3 95 3e 5a 66 2a 3e 39 42 49 3d 06 34 b7 3d
       0.29251048 0.16640607 0.04913542 0.089454696
0003a0 93 ba 76 3e 31 bd 56 bf 82 2f 8d bd 4b d5 2c 3e
       0.2409461 -0.83882433 -0.06893827 0.1687824
0003b0 77 39 a1 3d 43 39 34 bc 94 38 29 3e 5b b8 03 3f
       0.07872289 -0.01099998 0.16525489 0.5145318
0003c0 78 ec 4e 3e b3 99 fc bd e0 a0 2d bf d0 2a 85 bc
       0.20207393 -0.12334003 -0.678236 -0.016255766
0003d0 c0 3e 82 bd 5d 53 07 bf f2 5a 44 bf b4 50 69 be
       -0.06359625 -0.5286158 -0.7670127 -0.22784692
0003e0 bd b2 92 3d 00 51 b4 be 45 7b 6d bd 3b fd 36 bf
       0.07162998 -0.35218048 -0.057978887 -0.7148015
0003f0 1f e3 03 be 3e 64 2a bf 5a 8c 9c 3e 2f f2 aa 3e
       -0.12879609 -0.6655921 0.3057583 0.33387896

layers.4.bias f4 [1172]
000000 49 02 96 be d6 56 ee b6 61 19 be be a3 c3 2b 3e
       -0.29298618 -7.1030618e-06 -0.37128738 0.16773848
000010 58 05 28 3e de 28 b6 be b9 3e d2 3b 61 7b 83 bd
       0.16408288 -0.35578054 0.0064161685 -0.06420017
000020 28 ed 19 be 87 41 3e be 18 ec b9 be c2 21 dd 3c
       -0.15031874 -0.18579684 -0.36312938 0.026993636
000030 ad 08 b1 be 8d 39 bc 3d 27 05 3c be fc 67 bd bd
       -0.34576932 0.091906644 -0.1836134 -0.09248349
000040 19 f5 08 bd fa 46 28 be 0f 4e 20 be 57 d1 0d bc
       -0.03343687 -0.16433325 -0.15654777 -0.008655868
000050 c3 26 de 3d 38 eb ab bd 44 25 24 3e db 8a bd bc
       0.10847237 -0.08394474 0.1602984 -0.0231375
000060 4a 33 88 3e 19 63 16 3e e3 6e c0 bd 79 78 b2 be
       0.2660163 0.1468624 -0.0939615 -0.34857538
000070 7f 9b ae be d6 4b 79 3c 89 7b ff bd 80 b6 98 be
       -0.3410301 0.015215835 -0.12474734 -0.29826736
000080 08 62 61 be a6 04 9b 3d 5a 9e 44 bd c1 b1 84 be
       -0.22010052 0.07569246 -0.04800258 -0.25916865
000090 e2 00 01 3e 02 f6 ff 3c fc 4a 10 be 60 6c 0a bd
       0.12597993 0.031245235 -0.14091104 -0.03379476
0000a0 39 a9 a9 3d 6a 08 50 bc 8d 6b 0e be 78 41 56 be
       0.0828423 -0.012697319 -0.13908215 -0.20923412
0000b0 22 95 6b be e8 6e 7b bd 57 d7 e5 bc 73 d4 c4 bc
       -0.23006108 -0.061385065 -0.028056784 -0.024027085
0000c0 83 4f 2a be 8b dc eb 3b 83 cd 81 3e ff 5f 35 be
       -0.16631894 0.0071979216 0.25352105 -0.17712401
0000d0 1d bb 00 be f2 63 aa be 3a d5 7c be fa c4 12 3d
       -0.12571378 -0.33279377 -0.24690714 0.035832383
0000e0 9a 61 c1 bd 25 09 05 bd 42 a3 9f bd e3 2e ac 3d
       -0.09442444 -0.032479424 -0.07794811 0.084073804
0000f0 79 66 77 3d 49 04 f6 bd 00 91 b8 3e 7d f5 c9 3d
       0.06040046 -0.12012536 0.36048126 0.09861276
000100 92 d1 eb bd 68 b3 d7 3d 14 ab 9b be ca 3a 83 be
       -0.11514582 0.10532266 -0.3040396 -0.2563079
000110 30 1b 28 be 07 71 d1 3c c3 b6 8b bd 64 85 6b be
       -0.16416621 0.025566591 -0.068219684 -0.23000103
000120 83 5e 8b bc 1e 70 a5 bd 11 d3 12 be 7d 08 53 be
       -0.01701284 -0.08078025 -0.14338328 -0.20608707
000130 c7 73 97 bd 8a 30 2a 3e 46 7e a3 3d b1 ee e7 3c
       -0.0739513 0.16620079 0.07983069 0.02831206
000140 6f df bf bc 38 65 3a be d5 48 7b be 5a 5e ba 3e
       -0.023421971 -0.18202674 -0.24539502 0.3640011
000150 68 8d e3 be 69 9d f5 bc df d5 37 3d 9c a4 cc be
       -0.44443822 -0.029982286 0.044881698 -0.39969337
000160 57 bb c0 3e f2 4e cc bd 44 34 c0 bd 8e 6e ca 3d
       0.3764293 -0.09975995 -0.09384969 0.09884368
000170 cb 13 88 bd 3c 4c a1 bd 98 4b 7d bc 74 85 30 be
       -0.066444 -0.07875869 -0.0154599175 -0.17238408
000180 07 6d 3e be 57 2d c0 bd 62 59 a9 3e f6 89 3a be
       -0.18596278 -0.09383648 0.33076006 -0.1821669
000190 e8 04 b1 bc fb 51 37 be e2 a7 f9 bd 78 a6 2c 3e
       -0.021608785 -0.17902367 -0.12190224 0.16860378
0001a0 e2 f3 ba 3e da 72 30 3e 75 0b 2e be ce 6f 9a be
       0.36514193 0.17231312 -0.16996558 -0.30163425
0001b0 54 66 b0 3e 15 6e 3c be 90 d2 b6 bc 85 7b a0 be
       0.3445307 -0.18401368 -0.0223172 -0.31344238
0001c0 45 52 8f be 43 f4 ed 3b a2 ae 85 be 72 82 0a bd
       -0.27992454 0.0072617843 -0.26109797 -0.03381581
0001d0 44 ff c0 bc 4c ac 90 3c b1 38 02 3a ff 2d 03 3e
       -0.02355922 0.017660283 0.0004967554 0.12810515
0001e0 d0 bd 13 be 3b 79 7d be e8 7a 1a be d6 64 1a bc
       -0.14427876 -0.24753277 -0.15085948 -0.009423455
0001f0 51 af 1b be 9d 0c 27 bd c5 83 01 3d 41 ca 7b 3c
       -0.15203597 -0.040783513 0.031619806 0.015368045
000200 ac a4 ac be e7 05 aa be 5e ab 13 be b9 ef 88 3d
       -0.33719385 -0.33207628 -0.1442084 0.066863485
000210 c6 f4 22 bd 5a 2a 7f be 3b 1e a9 be 76 43 35 be
       -0.039784215 -0.249185 -0.33030877 -0.17701516
000220 b1 3c 6d bb bd 4b 0a bd 31 e6 8c 3c 4d 02 27 be
       -0.0036199505 -0.033763636 0.017199608 -0.16309471
000230 6e 8d 71 be 5c b3 af 3d 21 e7 90 bd f9 81 ea 3d
       -0.23589107 0.08579132 -0.07075334 0.114505716
000240 53 ed 9a 3c 88 6d 10 bd 21 ef ab bd cc 5f 1c be
       0.018911993 -0.035260707 -0.083952196 -0.15270919
000250 6a cd 22 3b a6 14 98 3d 43 55 c9 bd 8a 57 3f be
       0.0024841675 0.074258134 -0.098307155 -0.18685737
000260 86 35 62 be 77 5d c4 be a9 7f aa 3c c5 62 18 3e
       -0.2209073 -0.38352558 0.020812826 0.14881428
000270 e1 a9 41 3d a1 0a ae bb 48 23 ea bd e0 8b f2 3d
       0.04728115 -0.0053113257 -0.114325106 0.11843085
000280 9a 88 44 be 26 f9 2f 3e e0 46 f1 bc e8 7c f4 bd
       -0.19192734 0.17184886 -0.029452741 -0.119378865
000290 b5 a0 fb b8 a9 9d a7 bc 06 f7 84 be 8d c1 1c be
       -0.00011998547 -0.02046092 -0.25969714 -0.15308209
0002a0 b2 6a 46 be 6e 49 68 3c 81 33 e7 bd a0 fb 8d be
       -0.19376639 0.014177663 -0.112891205 -0.27731037
0002b0 c1 f7 53 3a ef 59 fc bd 70 3a fb bc 76 97 80 be
       0.00080859294 -0.12321841 -0.030667514 -0.25115556
0002c0 bf 73 21 be ed 17 a4 bd 4c e5 ac 3d cb 0f cc bd
       -0.1576681 -0.08012376 0.084421724 -0.0996395
0002d0 9c 07 5e 3e bf e7 aa 3c 90 05 72 be fd f7 d0 bd
       0.2168259 0.020862458 -0.23634934 -0.1020355
0002e0 5e d1 8f bb 7b 72 64 bc 92 9d 3d be 3b a8 85 be
       -0.004388972 -0.01394331 -0.1851714 -0.26104912
0002f0 3d 31 a5 3b 78 0e 37 bd 0b 99 08 3d ef 9b d0 bd
       0.00504127 -0.044691533 0.03334908 -0.10185992
000300 41 cd 1c be ed d4 00 bd e1 a9 9f be 6b 31 f2 bc
       -0.15312673 -0.03145306 -0.31184295 -0.02956458
000310 2e 87 2b be ce be a7 be bf 6e ba be 94 9b 28 be
       -0.16750786 -0.3276276 -0.36412618 -0.16465598
000320 5f 72 30 3d e4 65 98 be b8 29 96 3d c0 9e 8e 3d
       0.043077823 -0.29765236 0.07332176 0.06963873
000330 aa 0e 33 3e d6 40 01 be 6c 24 55 bd 9a 81 ea 3d
       0.17486063 -0.12622389 -0.052036688 0.11450501
000340 32 a0 c5 bc be 22 c2 3d dc 96 ac bd 13 c8 af bd
       -0.024124239 0.09479283 -0.08427212 -0.08583083
000350 6a 7e a7 be 4c 8f 2c be 63 d8 d4 be 2c f9 43 bb
       -0.32713634 -0.16851538 -0.4157134 -0.0029903157
000360 a2 cf 0b bd b9 b1 98 be a1 61 0b 3e 64 be 33 be
       -0.03413356 -0.29823092 0.13611461 -0.17553097
000370 39 8d 2e be 5b 63 8d be 20 92 fd bd 22 d6 82 3e
       -0.1704606 -0.27614865 -0.12381387 0.25553995
000380 04 b5 1a bd e9 34 e4 bd 74 24 4b be f8 bd 20 be
       -0.037770286 -0.11142904 -0.19838125 -0.15697467
000390 c3 e9 4a be 5f d9 28 be 7b 5a 1b bd 1d 50 72 be
       -0.19815736 -0.1648917 -0.037928086 -0.23663373
0003a0 67 a8 75 bc 56 bd bf bd 89 e2 a2 bd 89 28 c1 bd
       -0.0149937635 -0.09362285 -0.079533644 -0.094315596
0003b0 b4 ed 32 be ab 0e c7 bc f9 86 7d bd f4 e6 95 3e
       -0.17473489 -0.024298986 -0.061896298 0.29277766
0003c0 c6 ae d6 3d c9 87 f5 be c8 a2 ec ba ba f9 1f ba
       0.10482554 -0.47955158 -0.0018053884 -0.0006102581
0003d0 01 b7 13 be 5f 52 a6 be 73 fc cf 3d bf 04 84 be
       -0.14425279 -0.3248472 0.10155573 -0.2578487
0003e0 7e 41 a5 3d e2 0e 7c be 9d 7d 9e bd 97 ff 06 bd
       0.08069132 -0.24615052 -0.077388026 -0.032958593
0003f0 0c 55 51 3d 86 71 73 be 5d ec a0 be cf 5b 47 be
       0.051106498 -0.23773775 -0.3143033 -0.19468616
