Models/LSTM_Start-ups_8_8.pth (torch, 294973 bytes, 7 tensors)

embeddings.0.weight f4 [1172, 8]
00000000: c48c 2740 1429 ce3f 667c 303f 941e 84bf
00000010: d857 babe 5e8e 0fc0 2d8b f2be ab3a 36c0
00000020: 2f21 d0bf d38f 2b40 5131 9dbe f0d1 27c0
00000030: d7c2 cdbf aa37 9dbf 33df b8bf 5e84 a03f
00000040: 06f2 9f3f e690 d7bf ccb2 21be e57f 1c40
00000050: c423 46bf a550 983f bb84 b6be 67a6 4e3f
00000060: f351 0940 7b3e cf3f bd24 363f b19c 3540
00000070: 7eda 1e3f e184 fcbe 77ec 84be fcfe 9c3f
00000080: 2a71 14c0 2fe4 c1bf a97e b3be 7a0f 5740
00000090: ab0d c63e 5da9 8ebf 6075 7f3f 0c12 79bf
000000a0: 7cac c3bf 6f76 4e3f 15ed 31bf b86e 32bf
000000b0: f2b6 00c0 ef5d 3d3f 9514 c0bf 0a86 00c0
000000c0: dbdb 9fbe 4d51 02c0 3748 943f e7f7 59bf
000000d0: 3dff d43e 21f2 ce3f 88e0 bdbf 126a dcbf
000000e0: 3ed2 36bf fb64 eb3e 102e 8a3f b8dd c23f
000000f0: 23e7 113f 2a24 f13f 5516 143f f47f 7d3f
00000100: 1691 2d40 81e7 c33f 4667 5340 1dc1 95be
00000110: 42ab 823f 119a 033f 2ce4 ebbe 40ca f13d
00000120: 526e 54bf d5b6 c23f 7cd7 2b3d 7d51 0c40
00000130: b61b 343f dfb5 2abf 09b3 8cbf 500a bfbf
00000140: 5ef3 883f 4599 39bf 863c 8bbf 5b7b b3be
00000150: 8829 1e40 cbd9 2f3f a0f5 87bd f516 85bf
00000160: 54c5 22bd 07a8 473f 6247 1ac0 a085 383f
00000170: fe39 6bbf 26c6 373f 4be0 8e3f 8825 3abf
00000180: 810d b1bf 9531 2dbd 1bff 32bf 61f6 5bbe
00000190: 36ce 80bd 818e 823f 6df4 903f 6ed0 e63e
000001a0: 1752 6d3f a46d ddbd 296b 4a3f 967b ab3d
000001b0: 097f a03e aef1 883f ee23 b3bf 1421 d7bf
000001c0: 21e5 8dbf d9f6 2fbf 77d0 fb3e 988a c0be
000001d0: 8ebc a43f 734d d8be 3bba f9bf 3a65 4cbe
000001e0: 4377 05bf d1b4 a4bf d1b5 42bf 0f91 813f
000001f0: a61e b33f 1dfa 71be 7425 0340 cfe5 c6bc
00000200: 428c 3040 c745 893f f52e 35c0 5c60 12c0
00000210: 61e6 783f 282f b93f 336f 31bd 2906 253f
00000220: b087 89be ba2e 50bf 93f7 e2bf 1409 dc3f
00000230: 97ed 773f 8cbe 963f 5468 adbf fae3 113f
00000240: 0b6d 233e 3eec 7fbd ab7a 9f3e 8f90 1d40
00000250: 5ec7 5cbe 1683 55bf 7a62 f7be 37c1 ab3e
00000260: c4da 213f e920 9a3e b320 82bd 541a b13f
00000270: b12a 71c0 f9af 12bf 1ca6 08c0 81bd 9a3f
00000280: bc60 4bc0 509f c43f 8520 a2be 941a 9abf
00000290: b69e 6b3f 5ff6 063f b63d 81be 3e0f a6bf
000002a0: 581c 33c0 bcc4 233f 5d44 9a3e fc68 58bd
000002b0: aa72 34c0 ef88 8e3f 80ba 53bf 1301 a63f
000002c0: b108 b93e 8b98 283e 0c50 e9bf c542 93be
000002d0: ba7d 9fbf 7fb8 28c0 c025 16c0 d74c 50bf
000002e0: b7f4 27c0 7653 8bbf 1fd3 98bf 81a1 ad3d
000002f0: 4e28 053f 2b1c 433e 9772 123f e62c 863f
00000300: 9b0e f73f 0e53 83bf ad50 d93f 31bd eabf
00000310: 47cd 04c0 c315 b73f 9d63 fb3d 3412 ed3f
00000320: 8660 b7bd ff05 2440 551c eabf 94ae ddbf
00000330: 40a1 b7be a9de b43f 1a9b 213f 6094 d13c
00000340: 4b35 c8bf eaff 73bf a06f 273e 340a 90bf
00000350: 0de1 c4bb a1e9 26bf 0175 a1be 650d ebbf
00000360: 975b 10bf 6d6c eb3f 3054 12c0 392e e33f
00000370: 873b 2ebf f463 993f 2604 9f3f b885 ebbd
00000380: adfa 8d3f 3627 1640 c945 673f bf62 ddbf
00000390: 4ebe dfbf eaf1 92bf dd4c 5b3f ff49 963f
000003a0: 8145 be3f 73e0 9fbf 0a7d cdbf 5086 1bc0
000003b0: b713 c3bf e68f 573f 21d5 a63f 4f8e b8be
000003c0: 8e5d 2fbc 6b44 0f40 32d7 d63e a47f db3f
000003d0: 9ce6 a63e 743f 0bc0 dfb1 8cbf 8235 dc3e
000003e0: 8bdf 3d3e b3aa 0abf f010 31bd ef65 ed3e
000003f0: 2dd7 933f 6b4b fc3f 216c 46bf abf2 b23f
2.6179667 1.6106286 0.68939817 -1.0321832 -0.36395144 -2.2430644 -0.47371808 -2.8473308
-1.6260127 2.6806533 -0.30701688 -2.6221886 -1.6075085 -1.2282612 -1.4443115 1.2540395
1.2495735 -1.6841094 -0.15790862 2.445306 -0.77398324 1.1899611 -0.3564814 0.8072266
2.1456268 1.6190943 0.7114981 2.8376887 0.6205214 -0.4932013 -0.25961658 1.2265315
-2.319407 -1.5147761 -0.35057572 3.3603196 0.38682303 -1.1145436 0.99788475 -0.9729316
-1.5287013 0.80649465 -0.69502383 -0.69700193 -2.011166 0.73971456 -1.5006281 -2.008181
-0.31222424 -2.0362122 1.1584538 -0.85143894 0.4160098 1.6167642 -1.4834146 -1.721987
-0.71414554 0.4597548 1.0795307 1.5223913 0.5699331 1.8839161 0.57846576 0.99023366
2.7119803 1.5305024 3.3031783 -0.29248896 1.0208514 0.5140696 -0.4607252 0.11806154
-0.82980835 1.5212046 0.04195355 2.1924736 0.70354784 -0.66683763 -1.0992137 -1.4925022
1.069927 -0.72499496 -1.0877845 -0.3505505 2.4712849 0.686917 -0.06638646 -1.0397631
-0.039738968 0.77990764 -2.4106069 0.72078896 -0.91885364 0.71786726 1.1162199 -0.7271352
-1.3832246 -0.042283613 -0.6992051 -0.21480705 -0.062893316 1.0199739 1.1324593 0.45080894
0.92703384 -0.10811928 0.79069763 0.083731815 0.3134692 1.0698755 -1.399534 -1.680697
-1.108555 -0.68736035 0.49182484 -0.3760574 1.2870042 -0.4224659 -1.9509958 -0.1996049
-0.52135104 -1.2867681 -0.7605868 1.0122393 1.3993728 -0.23630567 2.049161 -0.024279503
2.7585607 1.0724419 -2.830991 -2.2871313 0.9722653 1.4467516 -0.04331894 0.64462525
-0.26861334 -0.813213 -1.7731804 1.719027 0.9684691 1.17769 -1.3547463 0.5698849
0.15959565 -0.062481157 0.31148276 2.4619482 -0.21560428 -0.83403146 -0.4831732 0.3354585
0.63224435 0.30103233 -0.06353893 1.383616 -3.7682307 -0.5729976 -2.1351385 1.2089082
-3.1777792 1.5361118 -0.31665435 -1.2039361 0.9203905 0.5271968 -0.25242394 -1.2973402
-2.798605 0.6397207 0.30130282 -0.052834496 -2.8194985 1.1135539 -0.8270645 1.2969078
0.36139444 0.1646444 -1.8227553 -0.2876188 -1.2460244 -2.6362607 -2.346054 -0.8136725
-2.6243112 -1.0884845 -1.1939429 0.0847807 0.52014625 0.19053714 0.572061 1.0482452
1.9301332 -1.0259721 1.6977745 -1.8338987 -2.0750291 1.4303516 0.12274859 1.852118
-0.08953957 2.562866 -1.8289896 -1.7318902 -0.3586521 1.413045 0.6312729 0.025583446
-1.5641264 -0.9531237 0.16351175 -1.1253114 -0.0060082735 -0.6520024 -0.3153458 -1.8363463
-0.56389755 1.8392464 -2.2863884 1.7748481 -0.6805958 1.1983628 1.2423141 -0.11500114
1.1092125 2.3461432 0.9034086 -1.729576 -1.7479951 -1.1480076 0.8566416 1.1741332
1.4864961 -1.2490371 -1.6053784 -2.4300728 -1.5240391 0.84203947 1.3033792 -0.36046073
-0.0107034575 2.238551 0.41961056 1.7148328 0.32597816 -2.1757479 -1.0991782 0.43009573
0.18542306 -0.54166716 -0.043229043 0.46366832 1.1550041 1.9710516 -0.7750874 1.3980306

layers.0.weight f4 [256, 64]
00000000: 8fb7 fabe efeb 4b3e 4eb4 d23e b014 cb3e
00000010: 84ad c13e 9622 41be 9cdb 22be 23ca 02be
00000020: 7545 a1be 0107 563e 9e73 183e 238c 5e3d
00000030: e8e8 953e 01bc 0d3f c957 983e f77f 033f
00000040: 076b 74be ee5a abbd b7e3 0c3f 554e 73be
00000050: f832 e1be 9a20 05be 971a 0e3f c829 d93e
00000060: 9ac4 043f 3abb 7c3e 90f3 66be 88b5 a83e
00000070: 2006 9dbe 05aa f93c 3148 94be 14dd 003f
00000080: 3eb3 ddbe c6dd 163f 6bf5 8fbe ff71 063f
00000090: 58a0 d33e c96a b3be e94e 37bf c312 363e
000000a0: 93e1 2d3f dc56 f4be 7bfc 2a3e 1666 91be
000000b0: 8b6c 93be bab5 053d f1cb b43e fe38 693e
000000c0: eacc 6e3e 173e 063f fb9e 70be 6e03 c5be
000000d0: 701e a13e e15f 7b3e 2245 86bd 9280 36be
000000e0: dbaf 23bf c4a9 363f bc0b b73e 8538 e0be
000000f0: fef0 22be 7069 28be cddb dfbe 1c05 e8bd
00000100: 1c17 263e 13e1 593e 8f2d 323e 5e1f cebe
00000110: c061 e7bd 6a13 9a3e b29f 1abf cea1 d13e
00000120: 0ac8 5dbe 8cdf 5cbe b65c 9ebe b96f b7bd
00000130: dfc1 533e 9fe5 44bf 0b89 863e 0732 8abe
00000140: e0d7 90bd 9bb7 4e3e 5e08 103d 51ce e6be
00000150: 7424 963e 28ba 6d3e 6b1c 47be 7567 a53e
00000160: 2d53 0d3e de31 37be 7628 6d3f efd5 24bf
00000170: fb4e 55be 5bca b83d 3549 88be 200a 293e
00000180: 78de 183f 8053 fa3e 61f0 a53d bdc5 b7bd
00000190: bd37 af3e aa13 62be d3d2 f5be aba5 863e
000001a0: d699 143f 106b 49bf f876 d23e 5afa 22be
000001b0: b048 94be d7aa 4b3f b6ee 403e 58db adbe
000001c0: f829 d7be c6d5 adbe 9a67 c93e 5d0a 3abf
000001d0: dfc1 19be 12ba d4be 6b28 b4be a8f3 fc3c
000001e0: f93a ddbe 859c 0dbf 6217 93be 69d4 edbe
000001f0: bd76 23bf 4809 02bf 02c2 e5be e4d2 403e
00000200: 5a49 a0bc e43b 0a3e 4903 febc 9a8a 193e
00000210: b4db b03e e403 263f 25e5 033e 5b2c 91bd
00000220: 9dae b2bd b887 843e d93e d5be d816 8c3e
00000230: 55c5 013f 97dc 54be b238 21bf 7a7f febe
00000240: 01d7 2dbe 8c31 53be 5387 20be f915 293f
00000250: 69bf 653e 8b8c c6bd ebf9 053e 1251 9cbe
00000260: cefb 4f3d 38a6 0a3e 82b4 4c3f 4fe2 a7be
00000270: 4564 f3bb 40ff 9f3e 0dfb c43e 2974 d2bd
00000280: bb59 2f3e caf0 a03e 90c6 803d e887 653d
00000290: 4f3b 51be 5e9b 88bd 30ed 0cbf 8e29 b8be
000002a0: c021 94be 20c0 0ebe f1b6 383f af04 113f
000002b0: 002f b5be 6625 76be 1515 203f d593 4739
000002c0: 4885 853e 03a7 9b3d 9738 d83e 1e36 b9bc
000002d0: 52ac c53d f09d 41be 6acf 113f 98b3 c8be
000002e0: 0880 babd 2495 b23e 25ca c43e 8327 213d
000002f0: 15ff 03bf f065 9a3e f334 fa3e 16d8 acbe
00000300: 82ca 253e 6bf3 8a3e 7b51 493e e057 05bf
00000310: 0f34 a3be 64ce cfbe 961a 80bd 2427 493d
00000320: 1382 14be 3ff8 ab3e 35cd 293f 1900 54bd
00000330: 10a7 b03e 3639 63bf b256 dbbe 3314 cd3e
00000340: f7dd ccbe ca30 9dbe 6fec a13d 2a74 483e
00000350: 79e9 0f3e b5a0 8fbd b394 cabe 89a5 de3d
00000360: 94b8 fa3e 3fa0 75bd 20fc 7ebe 4099 f1be
00000370: d9f3 b9be efad 9a3e 0d56 da3d e8d8 1f3d
00000380: f21c 1f3e 17e3 1dbe 53d4 0dbf 4c85 edbd
00000390: e00a 833e 68f9 7e3f 5aae 65be 4e79 c73d
000003a0: 29e6 a93d aada 00be 38ac 2dbe 702a 843e
000003b0: 604e 5bbe 26ef 15bf 0253 26bf 92e1 2f3e
000003c0: 2e3b 46bd 75fa 873d ea3b 08bf 478a 3dbe
000003d0: 765a 9ebe fd52 f93c 51b1 52be b2fc b2bb
000003e0: dffe 27bd df0b 1dbd e600 9b3d 20bb 7fbe
000003f0: 85c3 ab3e 5236 1a3f 3bb7 41be 9093 783e
-0.4896817 0.1991422 0.41153187 0.3966422 0.37827694 -0.1886085 -0.15904087 -0.12772422
-0.31498304 0.2090111 0.14887854 0.054332864 0.29279256 0.55364996 0.29754475 0.51367134
-0.23868953 -0.08366953 0.55034965 -0.2376035 -0.439842 -0.13000718 0.5550932 0.4241469
0.5186249 0.24680796 -0.22553849 0.32950997 -0.30668736 0.03047658 -0.28961328 0.5033734
-0.43300813 0.5893215 -0.28116927 0.52517694 0.4133327 -0.35042408 -0.7160478 0.17780595
0.67922324 -0.47722518 0.16697876 -0.28398198 -0.2879375 0.03264401 0.35311845 0.22775647
0.23320356 0.5243849 -0.23498146 -0.3847918 0.31468534 0.24548294 -0.06556155 -0.17822483
-0.6394021 0.7135279 0.3575114 -0.4379312 -0.15912244 -0.16446471 -0.43722382 -0.113290995
0.16219753 0.21277265 0.17400192 -0.40258306 -0.11297941 0.30092937 -0.60399926 0.4094376
-0.2165834 -0.21569651 -0.30930108 -0.08956856 0.20679425 -0.76912874 0.2627643 -0.26991293
-0.07072425 0.20187227 0.03516423 -0.45079282 0.29324687 0.23215544 -0.19444434 0.32305494
0.1380126 -0.17890117 0.92639863 -0.64388937 -0.2083091 0.09022971 -0.26618353 0.16507769
0.5971446 0.4889183 0.08102489 -0.089732625 0.34222212 -0.22077814 -0.4801241 0.2629827
0.58047235 -0.7867899 0.4110639 -0.15915814 -0.28961706 0.79557556 0.18841061 -0.33956409
-0.42024207 -0.3395216 0.39336854 -0.72672063 -0.15015362 -0.4154821 -0.35187086 0.030877903
-0.43209055 -0.55316955 -0.28728777 -0.4645112 -0.63853055 -0.5079541 -0.4487458 0.18830448
-0.019566227 0.13499409 -0.031007426 0.14994279 0.3454262 0.64849687 0.1288038 -0.07088538
-0.08724711 0.25884795 -0.4164951 0.27361178 0.5069173 -0.20787273 -0.62977135 -0.49706632
-0.16976549 -0.2062437 -0.15676622 0.6604915 0.22436298 -0.09694775 0.13083617 -0.30530602
0.05077725 0.1353997 0.79962933 -0.32789847 -0.0074277245 0.31249428 0.38472787 -0.10276062
0.17124073 0.31433707 0.06287873 0.056037813 -0.2043278 -0.06670259 -0.5504942 -0.35969204
-0.28932 -0.13940477 0.72154146 0.5664777 -0.3538742 -0.24037704 0.6253217 0.0001903319
0.26078248 0.07600214 0.42230675 -0.022608813 0.09652008 -0.18907905 0.56957114 -0.3919952
-0.09106451 0.3487941 0.38435474 0.039344322 -0.515611 0.30155897 0.48868522 -0.3375861
0.16190532 0.27138838 0.19659989 -0.5208721 -0.31875655 -0.4058715 -0.06255071 0.049109593
-0.14502744 0.33587834 0.66328746 -0.051757906 0.3450246 -0.8875917 -0.4283958 0.40054473
-0.40013096 -0.30701286 0.07906424 0.19575563 0.14053907 -0.07013074 -0.39566574 0.10871417
0.48968947 -0.059967276 -0.24900866 -0.47187233 -0.36318853 0.30210826 0.10660944 0.039025217
0.15538386 -0.15418659 -0.55402106 -0.1159769 0.25594234 0.99599314 -0.22429791 0.09739934
0.08295853 -0.12583414 -0.16960227 0.25813627 -0.21416616 -0.58568037 -0.6497041 0.17175892
-0.048396282 0.06639568 -0.5321642 -0.1850978 -0.3092839 0.03043508 -0.20575453 -0.0054622525
-0.04101455 -0.0383414 0.07568531 -0.24973726 0.33547607 0.60239136 -0.18917553 0.2427504

layers.0.bias f4 [256]
00000000: e6de b83d ec7b 163e 5ffc 093d 1718 953e
00000010: 7d51 b73d d34a 4dbe a964 2fbe 3143 63be
00000020: 1b3b e3bd 0d58 00be e7c8 ecbd 7199 4f3d
00000030: 629e 473d 4eb7 ea3d 932f 7abd 6180 0cbe
00000040: 73fd 83be b635 18be 6340 aebc a392 0f3e
00000050: 2f44 1a3e 792b ccbc ff0c 103c bbf6 0cbe
00000060: dc5f 483e 9883 57be 6b02 69bd d04a ff3b
00000070: 2804 68be 9e40 8cbd 9c7c e8bc 8d01 aebd
00000080: c122 393d bac2 e9bd f082 4f3d 98c8 b0be
00000090: 421e 4cbe 907f 5ebd f8a5 7f3d 6cbe c53d
000000a0: 27ee 0d3e 9104 37be a05b a8bd eb2f 21be
000000b0: 3567 8e3e 17b1 c13c cce7 a9be 6ea6 a3bc
000000c0: f38b 3ebe ba00 36bd bd11 9dbd 7159 bdbd
000000d0: 42c9 cabd 65ea 27bd 632a 8fbd 7c73 a23d
000000e0: 6c80 06be 3861 533d 0db1 4b3d b5d6 42bd
000000f0: f03e e8bd e04b 6dbe 44fd e63d b8fe b83d
00000100: df9e 40be 8825 743e bffb acbd 6d04 363c
00000110: e7f1 91be 9c30 0c3e 35ac 6dbd 1e79 e33d
00000120: 323b d3bd 5254 9dbd 66ad 003e abf2 273d
00000130: 4f1b 0b3d 0d34 16bd 26a1 f1bd 8e98 263e
00000140: 30b3 683c c629 d3bc a048 6f3e e831 ad3d
00000150: 8bda 50be 3b1f 90be e922 2f3e aa2a 32be
00000160: 5355 343c c6d4 143e 0bea ea3d c0bb 4f3d
00000170: f88b 573e e7d1 a63c bdc2 4e3e 7f65 6dbe
00000180: ff4d 003e 8e71 85be fd6a 0e3d ecaa 22bb
00000190: edf9 963d a4c6 b73e a38e 163d 42f6 cabd
000001a0: 8330 053e ae18 f93d 316d 0e3e cccb 803e
000001b0: 1b59 e5bd 1045 febd d480 d7bc 0053 a13d
000001c0: 0a85 1c3e cbff 1abe 0cdc 97bc 6996 143e
000001d0: d58c 8a3d 778e 4f3e 20c1 66be ba35 5f3d
000001e0: eb68 483d 39bd 48bd 1bc3 4d3d db43 293e
000001f0: 5b32 b53c ec73 0c3d 27cc 04be 8d7e 5d3b
00000200: dc0b 073e b476 5bbe 8fd9 80bd 718b ed3c
00000210: d6ed fcbd 6d91 67bd 106c 03be 0f18 543c
00000220: 718a 013e e133 ffbd ae0c b43d 5d0a 0cbd
00000230: 683c a53e 7264 f0bd f948 dbbd d7c4 533d
00000240: 68a2 a4bd 530d 053e 48ba 49bb 0c5b 92bd
00000250: 8b25 a53d 4ff0 c23d 3301 95bd 889a 14be
00000260: 453b 19be 01dc a23d 51b5 0bbe dc69 433d
00000270: b6d4 fe3c 23c1 32be 00fd cdbd 150b 813e
00000280: ba31 733e 76a6 433e 85ff cdbe dac3 90bd
00000290: fbf4 b2be 813e cabc 7b87 7ebe a69f 863d
000002a0: e694 fabd ca3f 253e 15ba d5bd 6d38 c73d
000002b0: 0636 303e 8623 a8be 3fdb 493e cf94 7ebd
000002c0: b648 53bd d63e a23d a925 453e c5d0 06be
000002d0: cbc6 543d c7a4 72be b61b 5abe ab9a 1bbe
000002e0: 3823 4cbd d130 a2be 455f 003e b831 27be
000002f0: bb75 9abe 3e9c 0c39 5a45 cd3b bfb5 413d
00000300: 16e4 f63d 348f 8e3e 6cc8 b1be c554 f6bd
00000310: f387 0b3e 4979 67be af9f 7bbe 4cbe 1f3e
00000320: 0400 4cbe d097 283e 18f1 d1bd 3d3f 2b3e
00000330: 163f 80be 2ae1 f5bc 5225 703b cc59 1d3d
00000340: 55b7 eabb 01a0 103e 6af4 6abc 3d76 c1be
00000350: 7c8d 493e 94ac b63c 265a 9d3d f00b fdbd
00000360: 9d7e 703b b910 b5bd fbb4 88be 4733 94be
00000370: fb7d a83c 196e 09be 30f5 183e b5ba 77be
00000380: 8fca 0bbf 27ee 823d e12e 02bd f892 95bc
00000390: 9b7b ccbd a15d 98bd 8a32 913e 0d04 0c3e
000003a0: 6049 8ebd c106 99bd 6d95 83be 47c7 87be
000003b0: 9cb1 153d 84e4 7c3d 4d37 31be 9ea6 d7bd
000003c0: a471 ef3d 41fa 8ebd 1fc0 a3be 199d 04bd
000003d0: 26f7 53be 9bc2 dd3d 534b 313e a97a e33b
000003e0: 98eb 9dbd ff75 04bd e152 1a3b b5bf 903d
000003f0: 6aa3 40be 3695 3d3d 117c 033e a323 2dbe
0.090268895 0.1469571 0.033687945 0.29119942 0.089510895 -0.20048074 -0.17128243 -0.221936
-0.11095258 -0.12533589 -0.115617566 0.050683443 0.04873503 0.11460744 -0.061080527 -0.13720848
-0.25779304 -0.14864239 -0.021270936 0.14020781 0.15065072 -0.024923073 0.008792161 -0.13765995
0.19567817 -0.21046293 -0.05688707 0.0077909008 -0.22657835 -0.06848262 -0.02837973 -0.084963895
0.04519916 -0.11414094 0.05066198 -0.3452804 -0.19933417 -0.05432087 0.06241414 0.09655461
0.13860379 -0.17872836 -0.08220601 -0.15740936 0.27813116 0.023644013 -0.3318466 -0.01997682
-0.18608074 -0.044434287 -0.07669399 -0.09245575 -0.09901668 -0.04099502 -0.069905065 0.07932183
-0.13134927 0.051606387 0.049729396 -0.04756804 -0.113401294 -0.23173475 0.11278775 0.09032959
-0.18810605 0.23842442 -0.08446454 0.011109454 -0.2850487 0.13690418 -0.058025558 0.11107086
-0.10314025 -0.076820984 0.12566146 0.04100291 0.03396159 -0.036670733 -0.11798315 0.16269132
0.014202878 -0.025776755 0.23367548 0.084567845 -0.20395868 -0.28148827 0.17103161 -0.17399088
0.011006671 0.14534292 0.114704214 0.05071616 0.21049488 0.020363761 0.20191474 -0.23183249
0.12529753 -0.26063198 0.03477 -0.0024821116 0.07371888 0.35893738 0.036757123 -0.09910251
0.13006787 0.121629104 0.1390884 0.25155485 -0.11198636 -0.124155164 -0.026306547 0.07877159
0.15285125 -0.1513664 -0.018537544 0.14510502 0.06765143 0.2026919 -0.22534609 0.054494597
0.048928183 -0.04900858 0.050234895 0.16529791 0.022118738 0.03429024 -0.12968503 0.0033797354
0.13188118 -0.21432 -0.06291496 0.028997155 -0.12350051 -0.056535173 -0.12834191 0.012945189
0.12650467 -0.12461067 0.08791481 -0.03418957 0.3227265 -0.117379084 -0.10707278 0.051701393
-0.08038789 0.12993364 -0.0030781198 -0.07146272 0.080638014 0.095184915 -0.07275619 -0.14512074
-0.14964016 0.07952119 -0.13643385 0.047708377 0.031107288 -0.17456488 -0.100580215 0.25203767
0.23749438 0.19106469 -0.40234008 -0.07068606 -0.3495253 -0.024688007 -0.24856369 0.06573419
-0.122354314 0.16137615 -0.10435883 0.09727559 0.17208108 -0.32839602 0.19712542 -0.062153634
-0.051583014 0.07922141 0.19252647 -0.13165577 0.051947396 -0.2369567 -0.21299633 -0.1519572
-0.049838275 -0.3167787 0.12536342 -0.1632756 -0.30167946 0.00013409645 0.006264371 0.047292467
0.12055223 0.2784363 -0.34723222 -0.12027887 0.1362608 -0.2260486 -0.24572633 0.15599936
-0.19921881 0.16464162 -0.10251063 0.16723342 -0.2504813 -0.030014593 0.0036643338 0.038415715
-0.007162968 0.14123537 -0.014340499 -0.3778552 0.19682878 0.022299089 0.0768321 -0.123557925
0.003669656 -0.0884108 -0.26700577 -0.28945372 0.020567885 -0.13420905 0.14937282 -0.24192317
-0.54605955 0.0639308 -0.03178299 -0.018258557 -0.09984513 -0.07439733 0.2835887 0.1367342
-0.06947589 -0.07471991 -0.2569994 -0.26519224 0.036546335 0.061741367 -0.17306252 -0.105298266
0.11691597 -0.06981326 -0.31982514 -0.032376382 -0.20699748 0.10828134 0.1731389 0.0069421125
-0.077109516 -0.032339092 0.0023547935 0.07067815 -0.18812338 0.046284877 0.12840296 -0.16908126

layers.2.weight f4 [32, 256]
00000000: ebc2 0ebd a18c 913d a1f0 35bd b545 54be
00000010: 5a88 d43e 3fdb 4ebf fc72 50bf 4704 b73e
00000020: 6458 bb3e a046 81be 8d54 cbbe c304 6fbe
00000030: 64f3 a83e 0dd8 893d 90d4 cc3e 7117 fa3e
00000040: 4eb8 583f 5289 3fbe 6b92 f2bd ced2 003f
00000050: 1a92 51be cc6e cc3e d7c4 3dbf 86d0 153f
00000060: 36fc f73d eed2 a83d 805a 153f 5cb9 76be
00000070: e4d1 adbd 7efb 12be da9d d83e 0d15 113f
00000080: 2f47 50bd 7669 103f 678b 89bb 561b 033f
00000090: 7703 80be a5eb 25be 2337 5e3e 4027 8a3e
000000a0: befe 2b3f f970 f7bd 86e6 19bf f2d9 95be
000000b0: 7596 1dbf 467c 053f 9e54 f7be b76d 99bd
000000c0: e3da c43e a02a 57be 2045 493d b4d2 babe
000000d0: 2266 443e 1a5a f5bd 053c b83d 76ce a53e
000000e0: 85fc db3b 3887 0abf 82e0 1a3d eb6d 9b3e
000000f0: fcc9 64be 0275 fe3e 7a16 663e 6619 693e
00000100: 3e3f e6be 2f0a 003e 171d a33d edf6 af3e
00000110: 871d 24bf 6f84 d73e 07e6 873e 983e 9bbd
00000120: 2962 e53e f1e9 8cbd 6c44 9c3e 37bc 3b3f
00000130: 1eb8 033f c97d 95be 6fad c8bd 4d62 2f3e
00000140: 9d38 b63e cfb0 7a3e f012 e2bd 8039 e6be
00000150: c1ec df3e 3263 a6be 3ddf 02bf 14bf 14bc
00000160: da38 f33e 9243 ccbe 93a0 d0be c405 4e3f
00000170: a195 e53e c117 57bf f3b0 0dbe c69c 553e
00000180: a01b e8bd 1059 373f ffb0 a7be 466c 3bbe
00000190: 4a3d 60be 5763 4e3e 3475 103f 7bad 8d3e
000001a0: ff31 3b3d 8504 8c3e 2b07 8fbe e319 87be
000001b0: 28cd 67be b654 84be aac6 e2bd f628 1a3d
000001c0: 7a0e ec3e 8724 b8bd 2289 233e b625 2c3c
000001d0: 47fa 89be 1da2 08be b845 c93e 8a30 1e3e
000001e0: dd40 0fbd 66e2 dabd e543 303f 8077 323c
000001f0: 5277 ca3e b97f 54bd 7403 363f 64cd c73e
00000200: 335d 2a3d 7c4e 1dbd bc09 90bd a60c 00bf
00000210: 0073 c4be b013 a13d ee21 a1bc 83a8 613e
00000220: 982c 7fbe 8188 36be 1ca6 40be 99e3 35be
00000230: f814 db3e 242e a73e 5ef5 b4be 10b6 c2be
00000240: 8bc3 aa3e 1b67 3c3e 702d 6ebe c00d bebd
00000250: c5d9 9bbd 12aa adbd e38a fbbd 0a17 f2be
00000260: 2b18 aabe 89d2 cebe 1a47 0cbe 454b d7bd
00000270: af2f 383e ec72 ec3e cdff 863d bd3b b9bd
00000280: fef3 353e 1c94 b23d e914 99be 40b2 21bf
00000290: f74f 6b3f 38b5 b83d 70b5 623d e641 3e3e
000002a0: 401b 12be 957f 8a3e bf75 84be 6e77 9cbc
000002b0: 67ee 78be 8f5b 403d d004 df3b e98a 723e
000002c0: 02c6 d6be 8785 e83d 8501 c4be 9262 3bbf
000002d0: 8b6a b8be a574 f3bd 4d23 80be 95b3 15bf
000002e0: 5fee 803e 545b 813e 4abe 663e ab1b 9c3e
000002f0: e5b2 04be 11fa 01be f916 e1be 03a5 063f
00000300: 1891 7fbe 4ec9 513f b82f 42be c208 653e
00000310: 76e6 f3be 940c 48be 2791 313f c805 ed3d
00000320: be54 9fbe 056f b6bd 088b 203e 97e6 5abd
00000330: 341c b5bd e250 fabc 05c4 a83e 82ad 2d3e
00000340: 9e5e cdbe 8a6e 96bd 4b3a c63e f1da b83d
00000350: d22c 2c3f 1cb8 4dbe f575 ca3e 52b0 dabe
00000360: d1e1 2d3e a329 0cbf 7ea2 8a3e b919 5a3f
00000370: 367f 513d 31e4 adbe d19c c03e 575b e63b
00000380: 0126 473e 32fb 8f3e 30a0 9fbe f4ca d2be
00000390: 7a05 a7bf 9ba2 8abe 50dd 18be 29e0 94be
000003a0: cb6a 343f 254e 273f 50d0 2a3e f7e4 a73e
000003b0: f8af 8b3d 3dac 083e 2290 af3e 5810 873e
000003c0: 0716 b03c 8ed0 453e adf6 693f 90c5 dabd
000003d0: c65f 943e 359a 063f 4cae ea3d 84d2 bb3d
000003e0: b146 9cbd 8943 f93e 8f2e 58be ec17 00bf
000003f0: 587b bdbe 3c0a 873e 7382 823c e13d b63e
-0.034853857 0.07106901 -0.044418935 -0.20729716 0.41510278 -0.80803293 -0.8142545 0.3574545
0.36590874 -0.25249195 -0.39712945 -0.2334166 0.32998192 0.067306615 0.40005922 0.4884601
0.84656227 -0.18704727 -0.11844333 0.5032166 -0.2046589 0.3992828 -0.7412848 0.58521307
0.12108652 0.08243357 0.5834122 -0.24094146 -0.08487299 -0.14353749 0.4230793 0.56672746
-0.050849136 0.5641092 -0.0041975263 0.51213586 -0.25002643 -0.16203173 0.2170072 0.2698307
0.6718558 -0.12082095 -0.60117376 -0.29267842 -0.61557704 0.5214275 -0.48306745 -0.074916296
0.38448247 -0.21012354 0.04913819 -0.3648888 0.19179586 -0.11980076 0.08995823 0.3238408
0.0067134523 -0.5411258 0.037811764 0.30357298 -0.22342676 0.49698645 0.22469512 0.22763595
-0.44970125 0.12503885 0.07964533 0.34368077 -0.64107555 0.42093226 0.26542684 -0.07580298
0.44801453 -0.06880558 0.30520952 0.7333407 0.51452816 -0.2919753 -0.09798705 0.17127343
0.35590068 0.2448151 -0.11038768 -0.44965744 0.43735316 -0.32497555 -0.51121885 -0.00907876
0.47504312 -0.39895302 -0.40747508 0.8047755 0.4484072 -0.8402062 -0.13837032 0.20860586
-0.11333394 0.71620274 -0.32752225 -0.18303022 -0.2189838 0.20155083 0.5642884 0.27671418
0.045701977 0.27347198 -0.27935156 -0.26386937 -0.22636855 -0.2584588 -0.110730484 0.03763672
0.46104795 -0.08991342 0.15970281 0.010507038 -0.2694876 -0.13343091 0.39311004 0.15448204
-0.034973968 -0.10687713 0.688536 0.010892749 0.3954416 -0.05187962 0.7109902 0.39023888
0.041592788 -0.038404927 -0.07033107 -0.500193 -0.38368988 0.07865083 -0.0196695 0.22036938
-0.24919355 -0.1782551 -0.18813366 -0.17762603 0.42789435 0.3265239 -0.3534345 -0.38029528
0.33352312 0.18398707 -0.2325952 -0.09279966 -0.076098956 -0.08479704 -0.1228235 -0.47283202
-0.33221564 -0.40395 -0.13698998 -0.105124034 0.1798694 0.46181428 0.06591759 -0.09044597
0.17768857 0.08719656 -0.29898766 -0.6316261 0.9191889 0.0901894 0.055348814 0.18579826
-0.14268208 0.27050462 -0.25871083 -0.019099917 -0.24309693 0.046962317 0.0068059936 0.23685803
-0.41947943 0.11353593 -0.3828241 -0.7319728 -0.36018786 -0.118874826 -0.25026932 -0.58477145
0.25181863 0.2526499 0.22533527 0.3048986 -0.12958868 -0.12693049 -0.4396284 0.5259554
-0.24957693 0.8194779 -0.18963516 0.22366622 -0.47636765 -0.19536048 0.6936211 0.11573368
-0.3111934 -0.08907894 0.15678036 -0.053442564 -0.0884327 -0.030556146 0.3296205 0.16960719
-0.4011125 -0.073453024 0.3871635 0.09026135 0.6725589 -0.20089763 0.3954312 -0.42712647
0.16980673 -0.5475103 0.27077097 0.851955 0.05114671 -0.3396316 0.3761964 0.0070299315
0.19448091 0.28121334 -0.311769 -0.41170466 -1.3048546 -0.27077183 -0.14928174 -0.2907727
0.70475453 0.65353614 0.16681027 0.32791874 0.06820673 0.13346954 0.34289652 0.26379657
0.021494878 0.19317839 0.9139202 -0.10682213 0.2897932 0.5257905 0.11459026 0.09171012
-0.07630671 0.48684338 -0.2111151 -0.500365 -0.37008166 0.26374996 0.015931344 0.35594085

layers.2.bias f4 [32]
00000000: 574c b83d 2537 8bbd 7a6c 083e 90e8 033e
00000010: 5bf0 303e a78f 133e b10f 2c3e 7e94 203e
00000020: 36f4 25be f36e 9fbd 963c acbd aa72 b73d
00000030: 38cd 4a3e 3e86 343e aded 9e3d e463 40bd
00000040: 0c17 b4bd e883 63bc 7e43 293e aa96 5d3d
00000050: 1a7a 53bd 8235 b5bd 560c 353e b3be 2f3b
00000060: b620 e33d 7177 71bb 0ef5 4abd 4a86 86bd
00000070: 8256 cdbd 1b6a 34bd 5577 ff3d 4600 e83d
0.08998936 -0.06797627 0.1332263 0.12881684 0.17279188 0.14410268 0.16802861 0.15681645
-0.1620644 -0.07784834 -0.08409993 0.08957417 0.19804847 0.17629334 0.07760177 -0.046970263
-0.08793458 -0.013886429 0.16529652 0.054098763 -0.051630117 -0.088480964 0.17680487 0.0026816546
0.110902235 -0.0036844874 -0.04955011 -0.06568582 -0.10026266 -0.044046503 0.12473933 0.11328177

layers.4.weight f4 [1172, 32]
00000000: 6865 45bf be3e 0e3e 0958 c5be 7b7d 06bf
00000010: 4155 59be f39d e1be 39b3 303e 636e 2d3e
00000020: 2372 b53e f497 b13e 2459 693e 5ae6 0f3f
00000030: 232f 25be 4f83 d53d e71b 9abe 3a52 ba3e
00000040: 47dc 0e3f a190 e7bd 609f b8bc bfc9 31be
00000050: eb1d 223e 61be c33e 333d 94be 8d0e 273e
00000060: 3608 423d c41c 183e b0b0 933e 0602 833e
00000070: 13f3 a13e b35d 3a3e 3e2d eabe 7219 8e3d
00000080: dd78 1abf fde9 83be f19f 013f 9365 bcbe
00000090: f1ef 15bf 2125 773e 2e5a eb3c 331d 19be
000000a0: caf4 82be 5072 03be 6959 04be d707 5f3e
000000b0: 272c 943b 9408 023d 0fd9 633e 6dbb ce3d
000000c0: 7450 7d3d e511 35bf 93cf 4fbf 3918 c13d
000000d0: 1cfd 57be 7026 833d d506 033f daa4 f73d
000000e0: b9b1 51bf 57ec 1ebe f9eb ac3d a6eb a73e
000000f0: 354e adbd 45c8 fbbd 8fc2 a5be c831 5bbf
00000100: ff9f 5a3d 2953 ccbe a017 9ebf dff8 c5be
00000110: e874 17be e213 973d ddff 133f 64c3 843d
00000120: e9ad c43d 6422 34be 52c7 b3be 568a 9d3e
00000130: 3d71 a4be 63e8 72bc f0e8 293e d4f9 ddbe
00000140: 6cbd 86bf bfca babe 5940 84bf 362e 003e
00000150: 93dd d4be c3fa 76bf 01eb aabe 096c 1abe
00000160: 3ac3 873e 8cba 17be 37e2 53bf eb36 9bbf
00000170: 0ca3 a5bf d240 823f 54ff 5b3d e98e 73bf
00000180: de0a b4bd 8a30 92be fb69 e2bb f725 97bf
00000190: 655b ff3d 4ea9 8a3e 1594 f3bd f936 443e
000001a0: 60b5 98be 4f1a 43bf b4a9 87bd 1de6 c43d
000001b0: 60c5 8fbe 8647 383d c8bc 333d 6281 ebbe
000001c0: dacc 993e af0c 593d 9647 09be c89a 173e
000001d0: 00c5 783d bcf8 863e 5f50 333c deab be3e
000001e0: 8ef1 5f3e b5a9 29bf a293 34bd d651 b53d
000001f0: 967e 95be 9f90 253e 0cb0 04bf ac77 15bf
00000200: 7388 6a3e 0fbf 43bf 6059 d53d 7576 11be
00000210: b1c5 803d a24a 483c da17 bf3e a4c0 e33d
00000220: 9716 83be 5513 be3e 17fc f5bd 3e1a 8abc
00000230: 46ed c4be cdd3 f33b c55b 2b3e 3f6d 18bf
00000240: ff75 dfbe ae12 b7bd cdd5 83bf 8aa4 063e
00000250: ff52 88bf 597d 5abf 39db 1b3e ca2a 2f3e
00000260: 87dc ef3d cbb7 f33e 20fb 3cbf 2420 533e
00000270: 4532 74bf 9816 e63e ac02 60be 55ef 4fbe
00000280: 2ab3 af3d 909b 8e3e 3da9 6abf d31a 8b3e
00000290: de57 0e3e 71e4 b03c a7f5 723e cd0d a7be
000002a0: b310 75bc d898 0fbe d624 c6bd 23d2 4dbf
000002b0: 90fd afbe e34d 77bd f7ef c33e 01a8 853e
000002c0: 5d27 913e ed4d 203e d5b8 90be 6096 ddbd
000002d0: db8e 34bf 6934 99be 0b27 8fbf 08b2 a53d
000002e0: d714 59be bb2a 71bc 8ed8 ed3d 3ef7 74bf
000002f0: b394 1d3d f1a3 b0bd 88b7 b43e 34f2 36be
00000300: c655 d23e 77e2 ab3c 8297 bf3e 60f4 19bf
00000310: 5c1f a2be 4884 1ebf fac8 023f a080 6c3d
00000320: 0549 9b3e a832 0bbe 63a5 7a3e ab83 eebd
00000330: e1d5 aabe fc06 81bf 4147 e53d f3c3 923e
00000340: 2137 983e 5bf3 16bf 8c53 7abe 48a7 97bd
00000350: 22f5 573e 9080 1abd 7219 22bc 15a8 833e
00000360: d07d b0be 4d5f bebe c74a c73d a0c1 bc3d
00000370: 9c5a f23d 82aa 493e 3e96 ca3e 19cd 54bf
00000380: 7658 e7be fba9 713e 2774 e03d 2c80 f8bd
00000390: 12fa 6dbf 464b b0be 7339 ea3d 5304 73be
000003a0: 63ac 983d 1858 a13d 7df1 513e 0db8 83be
000003b0: 1ba1 6c3e 46c1 e1be 6425 b4bd 9aa4 753e
000003c0: 2e6d 0e3e c899 e93d a007 cfbe a749 823e
000003d0: 99dd e23c d17d 9c3e 819e fdbe a7c9 053e
000003e0: 2096 9cbf cafe 493e a6b3 753d 4bac fbbe
000003f0: 8762 573e a6ef 903e 2648 e73e 2667 003f
-0.7710786 0.13891122 -0.38543728 -0.5253522 -0.21223928 -0.44065818 0.17255868 0.1693664
0.35438642 0.34686244 0.2278791 0.56210864 -0.16131262 0.10425436 -0.30099413 0.3639086
0.55804867 -0.11306883 -0.022536933 -0.17362116 0.15831725 0.38231185 -0.2895294 0.16314144
0.04737111 0.14854723 0.2884574 0.2558748 0.31630763 0.18199806 -0.45737642 0.06938447
-0.6034067 -0.25764456 0.50634676 -0.36796245 -0.58569247 0.24135257 0.028729524 -0.14952545
-0.25577384 -0.12836576 -0.12924732 0.21780334 0.004521865 0.031746462 0.2225077 0.100943424
0.061844304 -0.7073043 -0.8117611 0.09428448 -0.21092647 0.06403816 0.511823 0.1209199
-0.8191181 -0.15519844 0.08443446 0.32796973 -0.084621824 -0.12294058 -0.32375 -0.85622835
0.05337524 -0.39907196 -1.235096 -0.38666436 -0.1479069 0.07376839 0.5781229 0.0648258
0.09603483 -0.17591244 -0.35113007 0.30769604 -0.32117644 -0.014825913 0.16592765 -0.43354666
-1.0526557 -0.36482808 -1.0332137 0.12517628 -0.41575298 -0.9647638 -0.3338242 -0.15080275
0.26516134 -0.14817256 -0.8276705 -1.2126135 -1.2940383 1.0176032 0.053710297 -0.9513994
-0.08791135 -0.28552657 -0.0069096065 -1.1808461 0.12468604 0.27082294 -0.11893479 0.19161595
-0.29825878 -0.7621202 -0.06624165 0.09614203 -0.28080273 0.044990085 0.043881208 -0.4599715
0.30039102 0.05299061 -0.13406214 0.14805138 0.06073475 0.26361644 0.010944455 0.372405
0.2186949 -0.6627458 -0.044086106 0.088534996 -0.2919814 0.1616845 -0.51831126 -0.5838573
0.22903614 -0.7646341 0.104174376 -0.14205344 0.06287707 0.012224825 0.37322885 0.11120728
-0.25603172 0.37124124 -0.12010973 -0.016858216 -0.38462275 0.00744102 0.16734226 -0.59541696
-0.4364471 -0.0893911 -1.0299622 0.13148704 -1.0650328 -0.85347515 0.15220346 0.17106166
0.11711984 0.4760116 -0.73820686 0.2061773 -0.95389205 0.44939113 -0.21876019 -0.20306142
0.08579095 0.2785306 -0.9166449 0.27168903 0.13900706 0.021593304 0.23726521 -0.32627717
-0.014957595 -0.14023149 -0.09674995 -0.8039877 -0.3437314 -0.060377013 0.38269016 0.2610474
0.28350344 0.15654726 -0.28266016 -0.108196974 -0.7053048 -0.29922798 -1.118379 0.080905974
-0.21199356 -0.01471966 0.1161357 -0.9568976 0.03847189 -0.08625019 0.35296273 -0.1786583
0.41081065 0.02098201 0.3742028 -0.6013851 -0.3166455 -0.61920595 0.51087916 0.057739854
0.30329147 -0.13593543 0.24477153 -0.116462074 -0.33366302 -1.0080256 0.11195231 0.28665122
0.2972956 -0.5896508 -0.24445933 -0.07404953 0.21089604 -0.037720263 -0.009893762 0.25714174
-0.34470987 -0.37182084 0.097310595 0.092166185 0.118336886 0.1969395 0.3956775 -0.83125454
-0.45184678 0.23599999 0.10959654 -0.12133822 -0.929597 -0.3443243 0.11436739 -0.23732118
0.07454755 0.07878131 0.20502277 -0.25726357 0.23108332 -0.44092768 -0.08796194 0.23988572
0.13908836 0.114062846 -0.40435505 0.25446817 0.027693557 0.3056474 -0.4953499 0.13065206
-1.2233315 0.197261 0.05998578 -0.49154887 0.21033679 0.28307837 0.45172232 0.5015739

layers.4.bias f4 [1172]
00000000: b116 a7be 3627 89be f8ea 4e3d bfac c5bd
00000010: 44d7 b2bd 91f6 253a ec8a 7a3a c734 87bd
00000020: 5139 e6bd b8de cd3d 28bc 983d 233d 22be
00000030: 83c4 a2bd 55ed 51be 5cce 8fbe 410a cabe
00000040: fffc 21bd 8341 d7be 43c6 e93c f90d 7bbe
00000050: 341a c0be 5ee7 d3bd c441 d63d b88f a4bd
00000060: cb19 58be 2aad 85bd 477c 63bc 79cc 26bd
00000070: 213f c5bd 4cb9 2dbe 0a45 43be 8e88 6dbe
00000080: d422 b03d 657d e3bd 34f1 fdbd b758 25be
00000090: 0721 a0be 8865 42be 1955 a8be 9aa7 053e
000000a0: b88e e2be feaf 7bbd 8e6c c4bd ae3b 3b3c
000000b0: dfc9 85be 3730 3bbe a9c1 4cbe ef2a 56be
000000c0: 6514 42be fa75 883d 8bbc 343e 1c40 10be
000000d0: b599 2fbe 2368 293e 9d37 d63e c4d1 acbd
000000e0: 4e49 393e c642 8d3e 8cdf 2b3d 70c1 1ebc
000000f0: 3c73 943d 8324 05be fb18 9bbd 4ae2 f03d
00000100: a555 2bbe 42ad 1bbe 1c3a 1abe 0a62 d9bd
00000110: 6810 2a3e b6f1 dabd f08f 16be 245d 973d
00000120: 21d1 3dbe bcb4 8ebc fe42 dfbd 7d0b 7a3e
00000130: ec43 acbd 62d2 c93a df23 14bd b3c7 273d
00000140: 7dfa f3bd 9472 d1bd 476a a0bd 419c 803d
00000150: e962 543c c80f bb3d 7731 66bd e4b5 37be
00000160: 62fa 6c3e f358 88be ba5b 75be 3b14 a1be
00000170: d319 bebd aa16 a4be 2d43 95bd 84da 573d
00000180: 8645 a8bb b958 38be 0e42 ed3c 701f a1be
00000190: 23c1 80bd 8399 b3bd 90cd a73c d1b3 803e
000001a0: 11d1 3a3e 315b 27be 52d6 a63d e630 90bd
000001b0: 2f7f 753e 77d1 68be 4185 413d 9a52 1ebd
000001c0: fc51 5b3d 1cb3 7f3e 2b8e eb3d c72d 20be
000001d0: 6082 cb3e 602f 803e 108f 9e3d b341 873e
000001e0: e6f4 213e dcdd 643e 9ab5 8ebe 9b21 68bd
000001f0: e14a 363c ac8f 1bbe 97d7 ad3d 3a9e e0bc
00000200: 55a2 32be d4d6 5d3d 408c 193d d5e4 b2bd
00000210: b4f4 3ebc d4c8 643e f662 06be cfe6 f8bc
00000220: 1a43 843d ce44 9fbc 05ba edbd 225f aabe
00000230: 9297 d5be 6242 f43d f0c2 8ebe 2677 76bd
00000240: f760 f63d 27a4 0bbe 133a b5bc dbc5 55bd
00000250: ee1b e4bd 5d47 93be e938 51bd 8e21 7cbd
00000260: 6daf bebd 2161 213e 63e0 6fbe 0793 083d
00000270: 78fa 9cbb 9d17 a3be 9ff4 e33b 5947 3fbe
00000280: 9611 b7be 0d21 aebd bbe8 babd ddcd 60be
00000290: ddee 5ebd 6de1 91be 6e0f 10bd f21e ecbd
000002a0: 2483 d9bd 6f57 053d 5d57 cabe e6fd c8bd
000002b0: 7540 bbbd b8c2 a3bd 552a 34be 702c 4abe
000002c0: 2b52 69bb 1f40 063e e810 8dbd eff3 b1be
000002d0: de40 903d 6f96 17be d05e 233d 7150 8dbd
000002e0: 06ab 47bd 81b3 62be 3b89 8bbe f728 eeba
000002f0: 2b48 afbe 17c8 87bc 9ddf 25be 2b5c 01be
00000300: d078 a0bd 7f4f 80be 55a5 e4bd 6d1f 1dbd
00000310: 9630 9fbd 648a dfbd eca2 ccbe 6641 7fbe
00000320: cf7c f63d 34f6 48bc bf67 ccbe bbd6 34be
00000330: e3f1 163b b020 c7bd 2464 87be ee8b 3bbe
00000340: f4cc 6f3e d1a5 0abe 420b 49be 00f8 d1bd
00000350: 5709 8fbd a538 a0be 391c 81bd 4207 cd39
00000360: a4f7 97bd 5546 d23d 71c9 a0bc 2b92 21be
00000370: 868d 7fbd 2b83 0cbc 7bc2 1ebd 6e16 14bb
00000380: cf1e 5bbe fdc9 6fbe 2314 5cbe c6ec d23d
00000390: e657 77be cdb3 cabd b40b 1ebd 2a7a 82be
000003a0: f0bb 2cbe 4af6 f3bd b654 56be 2f71 053e
000003b0: cd53 6d3d 74cb 153e 779b 7cbe e1be 2ebe
000003c0: 5c18 23be 6bbc 033e 437f 91be 06c0 003d
000003d0: cd77 18be 16eb ef3e 4ffc 8dbe 51c3 b0be
000003e0: 2007 3e3d 6797 91be 5d72 e4be aa6b c2bd
000003f0: e070 caba 1401 debc c505 32be 6035 a0bd
-0.326345 -0.26787728 0.050517052 -0.09652089 -0.08732465 0.0006330992 0.0009557444 -0.06601863
-0.11241401 0.10052246 0.07457763 -0.15843634 -0.07947638 -0.20500691 -0.28087127 -0.39460948
-0.039547917 -0.4204217 0.028536921 -0.24517049 -0.3751999 -0.10346864 0.104617625 -0.08035225
-0.21103589 -0.06527169 -0.0138846105 -0.040722344 -0.096311815 -0.16965216 -0.19069305 -0.23196623
0.08600393 -0.111079015 -0.123995215 -0.16147123 -0.31275198 -0.18984044 -0.32877424 0.13052216
-0.4424951 -0.061447136 -0.09591018 0.011427803 -0.26130578 -0.18280111 -0.1999575 -0.20914815
-0.18953092 0.06663127 0.17650048 -0.14086956 -0.17148478 0.16543631 0.41839305 -0.08438447
0.1809437 0.27590007 0.041961238 -0.009689674 0.07248542 -0.1300221 -0.07573124 0.11761911
-0.1673189 -0.15202811 -0.1506123 -0.106144026 0.16607821 -0.10690634 -0.14703345 0.07390812
-0.18536808 -0.017420165 -0.109014496 0.24418445 -0.084113926 0.0015397782 -0.03616702 0.040961932
-0.11913011 -0.10226932 -0.07832771 0.06279803 0.012963035 0.091338694 -0.056199517 -0.1794048
0.23142388 -0.26630363 -0.23960772 -0.31460747 -0.09282269 -0.3204854 -0.072882034 0.052698627
-0.005135241 -0.18002595 0.028962161 -0.31469297 -0.06286838 -0.087695144 0.020483762 0.2513719
0.18243815 -0.1634338 0.08146347 -0.07040577 0.23974298 -0.22736154 0.04724622 -0.038652994
0.053544983 0.24970669 0.11501726 -0.15642463 0.39747906 0.25036144 0.07742131 0.26417312
0.15816078 0.22350258 -0.27872926 -0.056672674 0.011126251 -0.15191525 0.08488386 -0.027419198
-0.17444737 0.054159954 0.03748727 -0.087350525 -0.011655021 0.22342235 -0.13123688 -0.030383496
0.06458111 -0.019441988 -0.11607746 -0.33275706 -0.417172 0.11926724 -0.278831 -0.060172223
0.12030213 -0.13636838 -0.022122419 -0.052190643 -0.1113814 -0.28765383 -0.051079664 -0.061555438
-0.093108036 0.15759708 -0.2342544 0.03334334 -0.0047906004 -0.31853953 0.0069566513 -0.1867956
-0.35755605 -0.08502398 -0.09126421 -0.2195353 -0.054427017 -0.284923 -0.035170965 -0.1152934
-0.10620716 0.032554086 -0.39519778 -0.09814052 -0.091431536 -0.07996124 -0.17594273 -0.19743514
-0.0035601954 0.13110398 -0.0688799 -0.3475642 0.070436224 -0.1480348 0.039885342 -0.069001086
-0.048747085 -0.22138788 -0.27253136 -0.0018170167 -0.34234747 -0.016574902 -0.16198583 -0.12632816
-0.07835543 -0.2506065 -0.11164347 -0.038360048 -0.07772939 -0.10915068 -0.3996805 -0.24927291
0.12035524 -0.012265731 -0.39922902 -0.17660038 0.002303236 -0.097230315 -0.2644359 -0.18315098
0.23418027 -0.13539816 -0.19633201 -0.1025238 -0.06984203 -0.31293216 -0.06304211 0.00039106054
-0.074202806 0.10267321 -0.019627305 -0.15778415 -0.062390827 -0.008576195 -0.03875969 -0.0022596377
-0.21398471 -0.23416896 -0.21492057 0.10299067 -0.24154624 -0.098975755 -0.03858538 -0.2548383
-0.16868567 -0.1191221 -0.20930752 0.13031457 0.057941247 0.14628392 -0.2466868 -0.17065002
-0.15927261 0.12864845 -0.28417405 0.031433128 -0.1488945 0.46859044 -0.2773156 -0.34524015
0.046393514 -0.28435823 -0.44618502 -0.094931915 -0.0015445016 -0.027100123 -0.17385013 -0.078226805
