Models/LSTM_Start-ups_2_32.pth (torch, 407496 bytes, 7 tensors)

embeddings.0.weight f4 [1172, 32]
000000 9b 71 fe 3f 1b d2 26 40 c7 93 01 40 3f cf dc bf
       1.987842 2.6065738 2.0246446 -1.7250746
000010 04 b6 85 be 32 59 83 bf 77 e1 87 3f 3d a6 42 bf
       -0.2611543 -1.0261595 1.0615681 -0.7603491
000020 4a 6b 4e 3e c0 e5 e8 3f 87 33 20 3f a3 f2 f4 be
       0.20158115 1.8195114 0.62578624 -0.47841367
000030 c7 b8 9b bf b8 aa b5 3e b3 ba 03 c0 52 51 00 40
       -1.2165765 0.3548181 -2.0582702 2.0049634
000040 2f 5f 22 3f b2 c7 29 bf f9 6c 47 3f e0 a8 91 3e
       0.6342649 -0.66320336 0.77900654 0.28449154
000050 4b ae 62 bf f8 83 a8 3f 0f 9d c3 be 5f 4b 23 40
       -0.885472 1.3165274 -0.38205764 2.5514753
000060 45 1c 91 3f 9a 78 89 3e 75 ba 41 3f 6d 2e 86 3f
       1.1336752 0.26849824 0.75675136 1.0482918
000070 fb 96 ad bf fd ea 5a bf e8 83 7e bf 95 21 e1 3f
       -1.35617 -0.85514814 -0.9942002 1.7588373
000080 77 bc 9b bf 93 9d 18 bf 7b 86 1e be f0 4e b7 3f
       -1.216689 -0.5961544 -0.15480988 1.4320965
000090 f4 5f 77 3e 77 0e e5 be 75 2b aa 3e 77 66 05 bf
       0.24157697 -0.44737598 0.3323628 -0.52109474
0000a0 45 79 c8 bf 14 3d 38 3f 0c 1e 7b bf d5 ab 09 bf
       -1.5662009 0.719682 -0.9809272 -0.5377782
0000b0 d6 b0 81 bf c0 4e 0c 40 fa fd 92 bf 91 47 16 bf
       -1.0132091 2.1923065 -1.1483757 -0.5870295
0000c0 eb 64 4a bf 73 35 d9 be 62 1f 63 be d6 71 20 3f
       -0.7906024 -0.4242359 -0.2217994 0.626737
0000d0 23 8f 01 bf 22 a3 5b 3f 5c 79 64 bf f1 fd 34 bf
       -0.50609034 0.85795796 -0.8924768 -0.70699984
0000e0 01 98 68 bf 67 76 e2 3d 6b 2f 43 be ed a8 09 3f
       -0.9085694 0.1105774 -0.19061057 0.53773385
0000f0 85 43 a5 bd 00 b9 b5 3f c6 82 8f bf af 39 9d 3f
       -0.08069519 1.4197083 -1.1211784 1.2283229
000100 cb e0 7e 3f 1d e0 f3 3f ee c9 d9 3f 18 4b c0 3f
       0.99561757 1.9052769 1.7014749 1.5022917
000110 46 3c 51 3f b0 a3 b6 be 73 5e ae bf 4e 29 e1 3f
       0.81732595 -0.3567176 -1.3622574 1.759073
000120 18 6e b2 bf 9d ea ea 3f bf d0 07 bf 0c 9c 40 3f
       -1.3939848 1.8352848 -0.53052896 0.7523811
000130 74 37 10 3f e5 6c 4d 3e a2 53 c2 bf 16 4d 23 bf
       0.56334615 0.20061071 -1.5181773 -0.637895
000140 db d8 67 3f 99 71 b3 3d d6 d5 cf bf 0d 83 63 bf
       0.9056527 0.087619014 -1.6237133 -0.8887184
000150 c8 1f ee 3d 6c b8 12 bf 2b ca 9a 3f 6f 2d 03 3f
       0.116271555 -0.57312655 1.2092947 0.512412
000160 17 d4 bd 3f c1 7d ac bf 47 42 9b bf 00 8a 93 3e
       1.483035 -1.3475877 -1.2129601 0.28816223
000170 47 2f 17 bf 1a 5d 1b c0 07 4b ff 3f 35 08 39 bd
       -0.59056515 -2.4275575 1.9944772 -0.045173842
000180 b6 2b 31 c0 a8 4b 3a 3f b8 8e 20 3f 71 38 6e be
       -2.768293 0.7277169 0.6271777 -0.23263718
000190 90 6e e6 3e 7c 0b 7d 3f b8 03 ab 3f f3 ee 18 bf
       0.45006227 0.9884565 1.336051 -0.5973961
0001a0 d8 ca f0 bd ef 34 5a 3f e9 51 e1 3d 93 b7 f7 3e
       -0.117574394 0.8523702 0.11001951 0.48382244
0001b0 4b 0d 9f 3e d7 ca c2 3f 26 dd 4e be 08 86 1e bf
       0.3106483 1.5218152 -0.20201549 -0.61923265
0001c0 76 7c ed bf 0f a4 f0 bb 18 b9 2e bf c8 91 8c 3f
       -1.8553607 -0.007343776 -0.6825118 1.0981989
0001d0 50 ea 80 3f 33 8a 9b 3e 3d e9 26 bf 00 f4 e0 3e
       1.0071507 0.30378875 -0.65199643 0.43936157
0001e0 6c b4 af bd a2 b4 da bd 68 81 0b bf c9 98 87 3f
       -0.085793346 -0.10678984 -0.54494333 1.0593501
0001f0 99 b3 bb 3f 27 41 1e 3f 4e de 8b 3f 44 1c 7c 3f
       1.4664184 0.61818165 1.0927217 0.9848063
000200 60 af f9 3f 02 da 76 3f fa 05 9f bf e6 77 75 bf
       1.9506645 0.96426404 -1.2423699 -0.95886075
000210 64 e9 2e be b7 5c c2 3f 4d 3c 2f 3f bf 3d 1e 3f
       -0.17081219 1.5184544 0.68451387 0.6181297
000220 b8 af 9f 3f 55 7d be 3c 68 63 c9 bf 2f f3 81 3f
       1.24755 0.023253122 -1.5733461 1.0152339
000230 9d 54 4e be 35 5f a7 3f d7 82 1e bf d4 b0 29 3f
       -0.20149465 1.307593 -0.61918396 0.66285443
000240 d8 83 80 bf f6 75 6a 3f 94 18 b4 3f d5 ee dc 3f
       -1.0040236 0.91586244 1.4070001 1.7260386
000250 e8 00 9a 3e 29 dc 25 be f9 b6 66 bf da bd ce 3d
       0.30078816 -0.16197266 -0.90122944 0.10094805
000260 4d 5f e3 3e 14 88 81 3f b6 cc ac be 8d 29 b9 3f
       0.44408646 1.0119653 -0.33749932 1.4465805
000270 f9 ab 1f c0 80 92 24 bf c8 bd a0 bf ca 86 90 3f
       -2.4948714 -0.6428604 -1.2557917 1.1291134
000280 0c 23 55 bf 62 8c 11 bf 66 c1 ba be 1d d3 02 3f
       -0.832566 -0.5685483 -0.36475676 0.51103383
000290 4b e2 9b 3e 6c 2b af be dd 1c 84 3e fe 22 13 bf
       0.30446085 -0.34212816 0.2580327 -0.5747527
0002a0 99 b0 13 bf 8a 17 ae 3f 88 b5 59 3f 1b d1 5a bf
       -0.5769134 1.3600934 0.8504262 -0.8547532
0002b0 9a 69 e9 bf 5f ba 41 be 47 34 84 3f 27 08 7b 3f
       -1.8235352 -0.18918751 1.0328454 0.98059314
0002c0 f1 e2 82 3f f9 84 db be 4c fe 6c bf c1 dd ea be
       1.0225507 -0.42874888 -0.92575526 -0.4587231
0002d0 8e fa b0 be bf 1a 8c bf 68 38 bb bf 95 19 52 bf
       -0.34566158 -1.0945662 -1.4626589 -0.82070285
0002e0 69 ce ec 3e a8 c1 b3 bf a0 cf 24 c0 3f ad b5 be
       0.46251228 -1.4043474 -2.5751724 -0.3548374
0002f0 98 15 80 3f 8e 45 2a bd 3d d1 2f 3f fa 74 45 3f
       1.000659 -0.04157024 0.6867865 0.7713162
000300 1d 03 11 40 67 92 c6 bf 9d f2 08 3f c8 db 35 3e
       2.265815 -1.5513428 0.534952 0.17759621
000310 ce 0b 0f bf cc a9 fc bd 26 42 6f 3e 97 89 a0 3f
       -0.5587739 -0.12337074 0.23365077 1.2541989
000320 80 eb 29 3f fb 6e ec 3f 68 dc 85 bd cb 31 89 be
       0.6637497 1.8471369 -0.0653618 -0.26795802
000330 3e 2b db be bb 35 e1 3e 08 02 71 3f 15 e7 2e 3f
       -0.4280643 0.43986306 0.94143724 0.68321353
000340 ca b7 e1 be 78 e1 5f bf f9 04 0a bf 6b 8f ae be
       -0.44085532 -0.87453413 -0.5391384 -0.34093794
000350 cb 88 f4 be 8d c5 69 3e f5 28 59 3f cf 93 23 c0
       -0.47760615 0.22829266 0.8482812 -2.5558965
000360 40 e5 6a be e8 25 05 3f e4 c9 03 c0 4e 8b 39 3f
       -0.22939014 0.52010965 -2.0591974 0.7247819
000370 78 8e 3f 3f 15 e0 9c 3e b0 ea 1e 3f 84 44 bf 3f
       0.74826765 0.3063971 0.62076855 1.4942784
000380 93 07 1f bf f1 7d 1a 40 68 47 8e 3f 75 b8 31 bf
       -0.6212093 2.4139369 1.1115541 -0.69422084
000390 21 7b 18 be 63 28 5a 3e 9b 04 8b be a0 35 32 40
       -0.1489072 0.21304469 -0.2715195 2.784523
0003a0 d2 44 dd 3d c1 37 65 bf e8 d4 b5 bf db c7 27 bf
       0.10804142 -0.895382 -1.4205599 -0.6553933
0003b0 1a d8 57 3f ae 54 f0 3e 8b f0 19 3f a1 83 7e 3f
       0.8431412 0.46939605 0.60132664 0.994196
0003c0 f4 55 09 bf 2e d5 b1 3f 92 ee 84 be 34 0f d6 3e
       -0.5364678 1.3893182 -0.25963265 0.41808474
0003d0 d0 3d e8 bf 30 88 30 be ac 14 90 bf 59 56 a5 3f
       -1.8143864 -0.17239451 -1.1256309 1.2916976
0003e0 58 81 2a 40 88 76 c0 bf 4a f4 f7 3f 22 91 c9 3f
       2.6641445 -1.5036173 1.9371426 1.5747416
0003f0 92 4b ae 3f 7a 91 d3 3f cc 37 c4 3e 8c 6b 8d be
       1.3616812 1.6528771 0.3832382 -0.27621114

layers.0.weight f4 [256, 64]
000000 0a ea b1 3e ba 17 18 3f d3 86 65 bd 24 b5 ab 3e
       0.3474887 0.59411204 -0.05603678 0.33536637
000010 cd cb 5c be d7 47 49 bd ac 2d c1 be 78 d2 d5 3e
       -0.21562119 -0.049140777 -0.37730157 0.41762137
000020 d0 ca da be 5f 06 16 3e 6a 52 77 3e 2e 1f b4 3d
       -0.4273286 0.14650868 0.24152532 0.087950096
000030 46 3e 10 bf 15 f0 85 3d c6 70 87 3e 7b 40 fb be
       -0.5634502 0.06539933 0.26453227 -0.49072632
000040 2e ef a8 bd 21 23 e7 3e 39 7c fa 3e 57 22 d4 be
       -0.08248745 0.4514399 0.489229 -0.4143245
000050 48 f2 f7 3e b1 84 3f 3e 73 2e b7 3e 34 4a 71 3e
       0.48427033 0.18702962 0.35777625 0.23563462
000060 49 c9 69 be ba 99 ea be ec 1c 50 3e 41 6e 02 be
       -0.2283069 -0.4582041 0.20323533 -0.12737371
000070 09 70 08 3c 62 b4 65 be 1f 5c 5c 3d b2 3b d0 3e
       0.0083274925 -0.22432092 0.05379879 0.40670544
000080 6f 4f ac be 38 20 b7 3e a8 2f bd 3d c5 2b cf 3d
       -0.33654353 0.35766768 0.09237605 0.1011577
000090 46 a3 ff be 80 db 81 bd 1c 7a 6c bd 54 f8 c0 bd
       -0.49929255 -0.063406944 -0.05773364 -0.09422365
0000a0 be 91 4a 3d 98 b0 e3 3e b8 8a 7c be 7b aa 29 3e
       0.049455397 0.44470668 -0.24662292 0.1656894
0000b0 0b 01 a3 3e 3a 46 0f 3e 38 b6 32 3c 9a e6 a7 be
       0.31836733 0.13991633 0.010907702 -0.32793123
0000c0 0c ba 2d 3e 54 67 b6 be 24 f7 e7 bc 40 da d8 bc
       0.16965503 -0.35625708 -0.028316088 -0.026471257
0000d0 28 8f a7 3e a2 6d 1f 3f 5b 85 cc bc d6 00 b3 3e
       0.32726407 0.6227666 -0.024965933 0.34961575
0000e0 19 40 b9 be 19 a4 7b 3e 33 c9 1c be 38 69 af be
       -0.36181715 0.24574317 -0.15311126 -0.34259963
0000f0 2e 72 2f 3e 2d fe 0c be 58 c1 39 3e a3 ab 2b 3e
       0.171334 -0.13768835 0.18140161 0.16764693
000100 ba 81 c4 3e cc 7f 7a be 99 2c ee 3e 59 54 e1 3e
       0.38380224 -0.24462813 0.465184 0.44009665
000110 b5 a6 ce 3e c4 c6 fa bc 51 52 d9 bd ae ae b0 be
       0.40361562 -0.030612357 -0.10611404 -0.3450827
000120 b6 85 2e 3d 29 b6 62 3d 6a 56 ed 3e 9c 09 58 bf
       0.042607985 0.055349503 0.4635499 -0.8438966
000130 da f4 94 bd 9a c3 c4 be 0e 0b 33 3f ad 2b 0d bf
       -0.07273264 -0.38430482 0.69938743 -0.5514477
000140 4e 74 0a be b3 ef 4e 3e 6b 7f 5e 3b f4 3c 18 3e
       -0.13520929 0.20208625 0.0033950459 0.14867002
000150 6c dd ef be 35 d9 ea be 5e 67 1c 3e 09 85 9f 3d
       -0.4684862 -0.4586884 0.15273806 0.07789046
000160 d2 ed 1f 3e d8 51 f7 be f9 00 99 bc 3b ca 06 3f
       0.15618065 -0.4830463 -0.018677222 0.5265233
000170 62 f3 40 3e 5f 85 12 3e ac 61 e2 be 2e b0 cf 3e
       0.18842843 0.1430869 -0.44215143 0.40564102
000180 ff 3d 9b be ba 74 89 be 34 90 2e 3d 8f 43 25 bf
       -0.30320737 -0.26846868 0.04261799 -0.6455621
000190 5b 87 ae 3d ff 1a b3 be b3 b4 56 3d 23 b8 08 3e
       0.08521911 -0.34981534 0.052418422 0.13351493
0001a0 fe b6 bd bd 8b 62 e5 bd 35 5d 97 3d 0e cf 84 3e
       -0.092634186 -0.11200436 0.07390825 0.2593922
0001b0 f4 ac 33 be 9d af b6 3d 2f ef 1b be 8b 7f 2a 3f
       -0.17546445 0.08920214 -0.1522796 0.66600865
0001c0 37 70 0c 3d d1 23 14 be 91 08 b9 3d 04 2c 8e be
       0.034286704 -0.14466788 0.09034837 -0.27767956
0001d0 54 3f 4c be 8a 65 22 bf 7f a4 5f 3d fc 0d 12 bf
       -0.19946033 -0.63436186 0.054600235 -0.5705259
0001e0 c3 5f b2 3e b9 da a0 3e 66 a6 4a bf d9 bf 13 3f
       0.34838685 0.31416872 -0.79160154 0.5771461
0001f0 c1 15 1b be 8f ec 2a 3e 80 c3 fb 3e 26 c0 b5 3d
       -0.15145017 0.16691802 0.49172592 0.0887454
000200 37 fa a0 be 98 b7 87 3d 34 c1 60 be 36 c4 d5 3d
       -0.314409 0.066268146 -0.21948701 0.10437815
000210 a9 7a 57 bd 61 f5 30 3f 4b a1 95 bd a6 da c2 bd
       -0.052607212 0.6912442 -0.07306155 -0.0951436
000220 cd 27 87 bd b7 45 b2 3e 98 e2 9d bc d3 a5 cc be
       -0.06599388 0.34818813 -0.019273087 -0.39970264
000230 1d db 17 bf 29 a2 00 bc 1b 39 66 be eb 45 61 be
       -0.59318715 -0.007851162 -0.22482722 -0.21999328
000240 71 26 b6 be 5b d3 94 be 4a 36 82 be 95 51 de be
       -0.35576203 -0.290675 -0.25432044 -0.43421617
000250 c5 18 72 3e ed 70 46 be 5b 6e 8a 3e b9 0a 03 3f
       0.23642261 -0.19379015 0.2703732 0.51188236
000260 cd d4 e3 3d c1 1c 4b be e4 36 82 3e c0 e9 0a 3f
       0.11124573 -0.19835187 0.25432503 0.54262924
000270 59 d7 93 bb 88 80 a8 bd 5e 83 9a 3d 83 26 92 bc
       -0.0045117554 -0.082276404 0.075445876 -0.01784063
000280 53 92 0d 3f 12 15 83 be 4d 6a 4f be 71 23 b2 be
       0.553014 -0.25602013 -0.20255394 -0.34792665
000290 ac a6 80 be 34 b1 21 3e 25 64 93 3e 77 43 e4 3d
       -0.2512716 0.15790254 0.28787342 0.111456804
0002a0 41 67 37 be 84 ce a8 bb fd 36 90 3e 43 51 7c bd
       -0.17910482 -0.0051515717 0.28166953 -0.061600935
0002b0 be df 88 3e 58 dd c8 3d 73 44 ba bd c4 8e 9c 3e
       0.26733202 0.09807843 -0.09095087 0.30577672
0002c0 c1 eb 3c be 3b a6 99 3e f9 23 a9 be cd ef 05 3e
       -0.18449308 0.30009636 -0.33035257 0.13079758
0002d0 7d 2e c0 3e 94 90 65 be bd 3b 96 be c8 41 d8 3e
       0.37535468 -0.22418433 -0.29342452 0.42237687
0002e0 08 8e e7 bc c1 7d 30 be a4 06 fb bc 90 a3 9b be
       -0.028265968 -0.17235471 -0.030642815 -0.30398226
0002f0 4b 92 ab bd 09 61 d9 3d 35 3a 0b 3d f2 23 3d 3e
       -0.083775125 0.10614211 0.033991057 0.18470743
000300 48 bc 26 be 9f 0c c1 3e 3f 41 45 3e e4 80 5e bc
       -0.16282761 0.37704942 0.1926317 -0.013580535
000310 7c ef da 3d 4a 2e 3c 3e 49 bd cb ba f1 2a b1 3d
       0.10690209 0.18377033 -0.0015544082 0.086507685
000320 1b c0 9f 3e 36 c0 a1 ba 5d cc 92 3e cf a2 6e 3e
       0.31201252 -0.0012340609 0.28671542 0.23304294
000330 be e0 ea be 7e 11 71 3d 11 e7 2a 3e 7c c0 59 bf
       -0.4587459 0.058854572 0.16689707 -0.8505933
000340 5d 65 b2 be 22 69 26 3e 99 70 d7 3e 88 bd 0c 3f
       -0.3484296 0.16251042 0.42078093 0.549767
000350 72 1b df bc 78 fe 89 bc 79 73 8d be 96 ba 00 3f
       -0.027234767 -0.016844973 -0.2762716 0.5028471
000360 3c 81 fe be 7a 35 0b 3b 1b 6d 17 be 87 19 d3 be
       -0.49707973 0.0021241591 -0.14787714 -0.41230413
000370 83 5b 89 be 73 e6 98 be 83 80 4f be d1 db 78 ba
       -0.2682763 -0.2986332 -0.20263867 -0.00094932044
000380 77 14 14 3f b3 48 41 3f 57 0c 2a bd 80 01 a5 3c
       0.57843727 0.75501555 -0.041515674 0.020142317
000390 5c 49 91 be b1 19 61 be b9 11 e7 be 8c 16 02 3f
       -0.2837628 -0.21982457 -0.4513071 0.50815654
0003a0 ac 37 10 3f cc 29 4b 3e 9b 1a 02 3f 6e 50 4b be
       0.5633495 0.19840163 0.50821847 -0.198549
0003b0 1b 8d c2 3d 2c 2a 0d be 23 2f dc 3a 3d d4 62 bc
       0.0949957 -0.13785619 0.0016798716 -0.013844547
0003c0 9e 81 37 3f bb b8 f9 bd ff 6a b6 be 96 c6 cc be
       0.71682155 -0.12193438 -0.35628507 -0.3999526
0003d0 21 21 9b be 67 30 66 3e f0 2d 4d 3e cb ef 6a be
       -0.30298713 0.22479402 0.20037055 -0.22943036
0003e0 f4 54 2d 3f 75 8a dc be 6c d3 29 3e b2 f7 3c be
       0.67707753 -0.43074384 0.16584557 -0.18453863
0003f0 47 b3 7c 3d ad 03 96 3d a7 3a ed bd ea e0 84 bc
       0.06169441 0.0732492 -0.11583453 -0.016220529

layers.0.bias f4 [256]
000000 1d 4e 82 bd 5c 39 f0 bd 3f 2c 99 bc a3 51 ef 3d
       -0.06362555 -0.117296904 -0.018697856 0.11685493
000010 0c c9 9b bc b6 96 0f 3c bb 19 03 3c 4b c8 47 3d
       -0.019016765 0.00876396 0.00800174 0.048775
000020 06 7f e8 bc 5f 54 80 3d 6f ee 0f be 14 b7 9e bd
       -0.028380882 0.062660925 -0.14055799 -0.07749763
000030 d4 8e 65 3d 74 0a 70 3c 62 47 1b be b2 59 0d 3e
       0.056044415 0.01465093 -0.15163949 0.13803747
000040 bf 56 a9 3d e6 b7 ec bb 76 ee 97 3b 25 e6 a0 bd
       0.08268499 -0.007224071 0.004636581 -0.078563966
000050 d2 72 26 3d 19 01 70 3e 10 20 b7 bd 5c 41 ef bd
       0.040636845 0.23437919 -0.08941662 -0.11682388
000060 86 c2 c6 3d f6 49 15 3e e1 46 c9 3d df 12 15 3c
       0.09705071 0.14578995 0.09827972 0.0090987375
000070 8c 88 98 3d 63 ce de bc 76 ba cd bc 7e 9d 49 3d
       0.07447919 -0.027198022 -0.025113326 0.049222462
000080 67 06 a9 3b 0b 0d ea bb c8 67 b4 3d 79 17 ce 3d
       0.005158234 -0.007142668 0.08808857 0.10063071
000090 c8 08 be 3d 94 c1 31 3b 2b 3f c3 3d da 1f 35 3e
       0.09279019 0.0027123438 0.09533533 0.17687932
0000a0 a9 ae b9 bc 46 bf c3 bc 43 b7 3b 3d d1 6f e9 3d
       -0.022666292 -0.023894917 0.04582907 0.113982804
0000b0 dd 74 fb 3d 97 c0 00 3b 76 34 b6 bc fe c9 56 be
       0.12278149 0.0019646042 -0.022241812 -0.20975491
0000c0 0f 5c 41 3e 83 75 c1 bd ad 50 20 3d c9 1a 57 3c
       0.18882774 -0.09446242 0.03913944 0.013128945
0000d0 2c 95 20 bd 89 bf fe 3c 69 7d ed bd 5d f4 c4 bc
       -0.03920476 0.03109719 -0.11596186 -0.024042303
0000e0 f5 3b 86 bc 5e d6 20 3d ad ef 6f be 46 f5 bf bc
       -0.016386012 0.039266936 -0.23431273 -0.023432385
0000f0 e1 fd 61 bd b2 f1 d2 bd c4 a9 c6 3e 96 61 95 3d
       -0.05517376 -0.10300006 0.38801396 0.07294004
000100 0a c4 13 3d e0 65 5a 3e 39 4e 91 3e 05 ac 74 bc
       0.03607563 0.21327925 0.28379992 -0.014933591
000110 92 ef 83 3c ef 4a 7d 3e cf cd 24 3d d8 d8 c7 bd
       0.016105447 0.24735616 0.040235337 -0.097581565
000120 d3 70 c5 bc b3 1e b1 3d 7a 92 86 3c 0c 41 aa 3d
       -0.02410165 0.086484335 0.016427267 0.08313188
000130 49 05 58 3d 8a 69 12 be 8d 40 94 bd 62 4c cb bd
       0.052739415 -0.14298072 -0.072388746 -0.09926678
000140 c5 f3 22 3d ce 00 4e bd aa 1e b5 bc be c9 b5 be
       0.039783258 -0.050293736 -0.022109348 -0.3550548
000150 ce ec a7 bc 2d e0 91 bb 96 30 ab bd 7e 5a e1 bd
       -0.02049866 -0.0044517727 -0.083588764 -0.11003588
000160 0d 28 df 3d 9d cc b3 bc 11 b5 2b be 67 50 e8 bc
       0.10896311 -0.021948153 -0.1676829 -0.028358651
000170 58 8b 12 be 82 4b ba bb ca 08 90 bd ee e4 8e 3d
       -0.14310968 -0.0056852708 -0.070329264 0.069772586
000180 10 99 94 bd 2b 49 2d bc 0f ba ef 3d aa a6 40 bc
       -0.07255757 -0.010576527 0.1170541 -0.011758486
000190 56 d2 12 3b 49 4c 03 3e 81 00 9a be 23 83 27 3c
       0.0022403202 0.12822069 -0.3007851 0.0102241365
0001a0 43 b0 b1 3d 6c bf cc 3d ca a6 da 3d b2 f9 04 bc
       0.086761974 0.09997448 0.10676344 -0.008116173
0001b0 e2 78 f7 bb 6b 0d 21 bd 2c 56 0c bd 6c 8c 83 3d
       -0.007552252 -0.039319437 -0.034261867 0.06423268
0001c0 63 ec d7 3d 39 d0 93 3e 41 5d e5 bd 54 27 61 bd
       0.10543134 0.288698 -0.111994274 -0.054969147
0001d0 28 62 3a 3d 6f a7 10 3c a9 5e 17 be c2 f2 d5 bd
       0.045503765 0.008828982 -0.14782204 -0.10446693
0001e0 df 3a 8a be 7d fe 24 3e d0 a4 91 bd 57 69 8d 3d
       -0.2699804 0.16112705 -0.071115136 0.069048576
0001f0 ff 5b 1f 3c af 77 8a 3d a8 e5 00 3e fe b4 13 3d
       0.009726523 0.06761109 0.12587607 0.03606128
000200 ef 73 9e bd 74 b6 7e bd 1c 19 81 bd d1 8b a9 3d
       -0.07736956 -0.06218572 -0.06303617 0.08278621
000210 ab 1a ba bd 76 47 f9 bd 85 0f 46 bc 84 f4 40 3d
       -0.09087118 -0.12171833 -0.012088661 0.04710819
000220 ea db 4e 3e 1d 60 33 be e6 de c8 ba 33 c0 b9 3d
       0.20201078 -0.17517133 -0.0015325218 0.09069862
000230 3c e0 89 3d 51 9d 8c bd 4f d4 07 be 5d ee 15 3d
       0.067322224 -0.06865943 -0.13264583 0.036604274
000240 d5 c4 0e 3e 4f 3d 4a bc ab f0 27 be b9 29 8f 3c
       0.13942273 -0.012343719 -0.16400401 0.01747595
000250 43 61 b3 be 45 23 e5 3c c7 b2 51 3e 65 43 fb bd
       -0.35035142 0.02797092 0.20478354 -0.12268714
000260 12 33 9b bc 30 12 0d 3e 99 1c a8 bc fb 60 14 bd
       -0.01894525 0.13776469 -0.020521449 -0.0362253
000270 be 8c f9 bd f7 3e 11 3d 20 63 80 bc ad ea 22 3e
       -0.121850476 0.03546044 -0.015672266 0.15909834
000280 e5 53 3c 3c 0c 51 2a 3e 03 83 08 3d 89 2e d3 ba
       0.011494611 0.1663248 0.033328068 -0.0016111891
000290 e3 2b 3e be 07 78 86 3d 54 a9 b6 be 20 13 e3 bd
       -0.18571429 0.06565862 -0.35676062 -0.11087632
0002a0 d7 cd 36 3d 9a fa 27 3e 14 3a 36 3d 5d 69 b0 3c
       0.044629898 0.1640419 0.04448898 0.021534616
0002b0 2b e0 5d 3b ba 7d ab bd 94 89 be bd 14 f2 51 be
       0.0033855538 -0.0837359 -0.09303585 -0.20502502
0002c0 1e d5 4c 3d 2e 5a 2c be 4b 88 7c 3d 7d b9 e2 bd
       0.050007932 -0.16831276 0.061653417 -0.11070535
0002d0 4b 4f f8 bb 70 1f 4f be c4 3c 51 bd a0 86 e3 bd
       -0.007577812 -0.20226836 -0.05108334 -0.11109662
0002e0 ff 14 74 bc fa a2 9c bc 5d 6b 9c bc f9 66 ae 3d
       -0.014897584 -0.019120682 -0.019094164 0.08515734
0002f0 08 cc d9 38 7c 97 93 3d 43 37 9b 3d 07 60 8b bd
       0.0001038537 0.07206628 0.075789 -0.06805425
000300 33 44 c1 3b 47 63 8d bd bd 75 2b 3d ff 34 dd be
       0.0058980226 -0.06903701 0.04186033 -0.43204495
000310 72 87 3d be 51 6c 6c bd cb a0 73 bb 45 7e 1a 3b
       -0.185087 -0.057720486 -0.0037174697 0.0023573798
000320 56 96 f7 3c c9 bc 0d bd a9 b7 d9 bb 1f e3 e3 bd
       0.030223053 -0.034603868 -0.0066442084 -0.11127304
000330 73 c5 af bd e5 3b e7 3d ed fd 5b 3d 99 59 51 3e
       -0.08582582 0.11290721 0.05370896 0.20444335
000340 00 32 bf bd c3 6c a6 3c 5c b7 3a bc fb 5e 2d 3e
       -0.093357086 0.020315534 -0.011396255 0.16930763
000350 74 ca 7a bc 79 59 1f 3d d7 28 13 3c 4c 75 73 bc
       -0.015307058 0.038903687 0.008981905 -0.014859509
000360 91 44 60 bc 6e 7c 46 bd 18 8a c0 bd 0f e0 43 be
       -0.0136882225 -0.04845851 -0.09401339 -0.1912844
000370 66 20 80 bd 82 0b 20 3c 2b 8f f0 3c f0 36 64 3d
       -0.062561795 0.009768369 0.029365143 0.055716455
000380 6b 80 39 3d 10 08 66 3e b4 ad 45 ba b9 fd d7 3d
       0.045288485 0.22464013 -0.00075408374 0.10546441
000390 c9 a1 1c be 69 41 73 bd d2 53 f5 3c 31 e8 68 be
       -0.15296091 -0.05938855 0.029947195 -0.22744824
0003a0 7f 49 11 bd ab e7 0e 3e 02 48 2b be 68 20 e3 bd
       -0.035470482 0.13955562 -0.16726688 -0.110901654
0003b0 75 e9 33 3c c5 7b 9a bd f0 f3 fa bd cc 3e bc bd
       0.010980953 -0.075431384 -0.12253559 -0.09191665
0003c0 fc 32 41 bc 2b 3a d9 bd 43 d6 b4 3d ee 0a 2e 3b
       -0.011791941 -0.10606798 0.0882993 0.0026556808
0003d0 bb 7b 2a be 06 da aa be 94 be 0d be 6f 86 1c be
       -0.16648762 -0.33369464 -0.13842231 -0.15285657
0003e0 fd 67 1f be 9d b3 0a bc 99 86 99 3c 2d 50 2d bd
       -0.15567012 -0.008465675 0.018740939 -0.04231279
0003f0 62 d4 68 3d 5a 6f 11 bd 12 fd 97 3d d3 4f e0 3d
       0.05684317 -0.035506584 0.07421316 0.10952725

layers.2.weight f4 [32, 256]
000000 f4 5f 9a 3d 59 53 0f be 36 a5 27 bd 13 6e 80 3e
       0.07537833 -0.13996638 -0.04092904 0.2508398
000010 33 ed 51 bd 17 6b 4e 3e bf 53 55 bb 36 ce a7 be
       -0.0512516 0.20158039 -0.0032551137 -0.32774514
000020 ef 47 c9 3e a2 92 da bc 2e a2 c0 be 25 85 b5 be
       0.39312693 -0.026681248 -0.37623733 -0.35453144
000030 bd 66 7b bd 39 d4 55 bc 1d 40 e6 3e f0 64 d8 bd
       -0.061377276 -0.013051086 0.4497079 -0.10566127
000040 b4 34 2e be 52 58 89 bd ac 20 ef 3d 9f 10 3c be
       -0.17012292 -0.06706299 0.116761535 -0.18365715
000050 da 30 e6 3e 59 1a 6f be b1 9b 23 3e 6d f0 79 be
       0.44959146 -0.23349895 0.1597736 -0.24408121
000060 e1 dd 8b 3e bc f2 9f bd f1 df ab bd bd be 1d 3e
       0.27317718 -0.0780997 -0.08392323 0.15404792
000070 95 d0 81 bb 74 8f 9d 3e 97 e5 29 3d 09 6f fc 3d
       -0.0039616325 0.3077351 0.04147872 0.12325866
000080 6d 8e 9f 3d e5 4b 90 be dd a3 d5 bd 82 ca e7 3e
       0.077908374 -0.28182903 -0.10431645 0.4527169
000090 f8 d5 63 3d c1 bf c4 3e 52 9e 76 be b3 60 82 3e
       0.05562398 0.38427547 -0.24083832 0.254644
0000a0 02 59 98 3e 21 de 04 3f c7 08 0f be d1 ff d1 bd
       0.29755408 0.5190144 -0.13968192 -0.10253871
0000b0 6b 95 30 bd ad 25 da 3d e3 b3 4d bd 18 60 ea be
       -0.043111246 0.10651717 -0.05022038 -0.4577644
0000c0 72 4b 5a be 82 1c 93 bd 44 5c bd 3e 80 f4 df be
       -0.21317843 -0.07183172 0.36984456 -0.43741226
0000d0 65 0b 8a 3d 8a 42 3c 3c 91 4a 21 3e 47 5f b8 3e
       0.067404546 0.0114904735 0.15751101 0.3601019
0000e0 91 50 eb bb f5 4e 96 3d 3c 7d ea 3e de 53 ff 3d
       -0.007181235 0.073392786 0.4579867 0.12467168
0000f0 8d d6 00 3e ac 6d bc bd 12 a4 5e bd f7 8c 39 3e
       0.12581845 -0.09200606 -0.05435569 0.1812018
000100 59 2c ef bd 2e 83 d0 3d 77 92 5c 3e e5 0d 83 3e
       -0.116783805 0.101812705 0.21540247 0.25596538
000110 7b 1c f0 3e 71 13 3b bc 53 aa 80 bc bd 03 42 3e
       0.4689673 -0.011418209 -0.015706217 0.18946739
000120 e5 b9 cd 3d c4 33 80 3e da 9c 49 3f c5 63 7f be
       0.10045222 0.25039494 0.7875496 -0.24940403
000130 f5 50 81 be f9 82 59 3e c9 bb e3 be 3d db 00 3f
       -0.25257078 0.21241368 -0.44479206 0.5033453
000140 28 f8 50 3e e5 17 d7 be c8 48 85 3e a0 b7 b1 be
       0.20407164 -0.42010418 0.2603209 -0.34710407
000150 af 45 68 3e 15 1d 5c bd 65 44 bc be f1 ad 8e 3e
       0.22682832 -0.053738672 -0.3677093 0.27867082
000160 4a 25 64 3e 63 1e 75 3d 1c 6e 3b 3d 65 e6 f8 bb
       0.2227985 0.059843432 0.045759305 -0.0075958245
000170 af 02 8a be c4 d7 bf 3d 08 b5 29 3d 6b a1 c9 3e
       -0.26955172 0.09367326 0.04143241 0.39380965
000180 8d 82 04 bd dc ff 8a 3e 18 42 6d be 5d c2 94 3e
       -0.032351065 0.2714833 -0.23169744 0.29054537
000190 ae 82 48 bc 59 5c 6b 3e 69 8b e5 be 8d 6e 53 3e
       -0.012238188 0.22984447 -0.44832924 0.2064764
0001a0 82 85 aa bc d0 21 e5 3d 78 ce 6a be 8b 6e 07 be
       -0.020815615 0.1118809 -0.22930324 -0.13225763
0001b0 06 70 74 3d 23 d9 a9 be 9d 12 6c bd 9f e6 60 3e
       0.059677146 -0.33173475 -0.05763494 0.21962975
0001c0 45 50 9d 3e 40 d5 f7 3e f3 df 5f bd b2 ce 17 3e
       0.30725303 0.48404884 -0.054656934 0.14824942
0001d0 56 a0 a0 be 9d cb 82 3d 44 40 92 3e 71 18 a5 be
       -0.31372327 0.063864924 0.28564656 -0.3224521
0001e0 6a c4 08 be 9c e6 53 3e cc b7 fa 3c 48 05 c9 bd
       -0.13356176 0.20693439 0.03060522 -0.098154604
0001f0 29 c5 cc 3e 98 1e 26 be c1 d6 7d 3e 60 18 9b be
       0.3999417 -0.16222608 0.24788953 -0.30292034
000200 5c a6 e7 bd a0 9e a8 3e 8e ed 92 3e d4 8c 5b be
       -0.113110274 0.3293352 0.28696865 -0.2144044
000210 db 2f df 3e 3a 60 bf 3e d8 f4 66 3e a9 40 61 3e
       0.43591198 0.37378103 0.22554338 0.21997322
000220 2d 66 2f 3e 7d 76 bc 3e 57 9d 3b 3e 48 d3 b0 be
       0.1712882 0.3680915 0.18321739 -0.34536195
000230 7b da 38 3e 70 fa a1 3e 3c 24 e3 3d 59 2e 4c bc
       0.18052094 0.3163638 0.110908955 -0.012462222
000240 9a 78 66 3e 2a ee 9a 3e 12 1b 6d 3e 29 a6 72 3d
       0.22506943 0.3025983 0.23154858 0.059240494
000250 61 2d 8c be 74 4a 58 3e ce 9e 8c 3e 43 a1 0b be
       -0.2737837 0.21122152 0.27464908 -0.13635735
000260 85 15 c1 bd 5d f6 27 3e 2a da 50 3c ca d0 9a 3c
       -0.09427933 0.16402574 0.012747327 0.018898387
000270 2b a4 8c be 26 6b 0c 3f ed 97 d4 3e 83 eb 06 be
       -0.27469 0.54850996 0.4152216 -0.13175778
000280 ca a2 44 be d7 79 e9 3e 62 6f 5a 3e 70 7d 20 bd
       -0.19202724 0.4560077 0.21331552 -0.039182127
000290 c1 02 a6 be 6a ba 36 3e 2d 86 e5 bd 17 d1 8d be
       -0.32423976 0.17844549 -0.112072326 -0.27698585
0002a0 71 3d c0 be ca f9 a5 3e 78 da e2 3e 5d 59 7e 3e
       -0.37546876 0.32417136 0.44307303 0.24838777
0002b0 0e cd 1d 3f 7b 1d f2 3e 24 be 94 bd a9 8b 9f be
       0.61641014 0.47288117 -0.07262829 -0.3116124
0002c0 b7 be af bc 81 5b 79 3e d0 a6 0d be f5 3f 41 be
       -0.021453245 0.24351312 -0.13833165 -0.18872054
0002d0 f4 90 1e bf 3a 9d 09 be c1 69 c7 be 91 70 08 3d
       -0.6193993 -0.13438883 -0.3894787 0.033310477
0002e0 7c d9 92 be 33 b1 62 be 21 2e e8 3e 1b c7 fd be
       -0.28681552 -0.22137909 0.45347694 -0.49565968
0002f0 f2 06 79 be c8 1e 5d 3e b2 a1 ba be 3a 76 27 3f
       -0.24319056 0.21593773 -0.3645149 0.65414774
000300 8e 98 8f bd d7 57 43 bd ae bc 89 be 7e 32 9c be
       -0.07011519 -0.047691192 -0.26901764 -0.30507272
000310 38 8a 93 3e 07 61 3e be d8 3f 23 be c7 34 92 3e
       0.2881639 -0.185917 -0.15942323 0.2855589
000320 25 36 f4 be 07 40 78 3e 9f bd 03 be 44 78 38 bd
       -0.4769756 0.24243174 -0.12865303 -0.04503657
000330 58 b0 6a bd 60 d2 8f 3e 76 be 42 3d 1c 38 f2 be
       -0.05729708 0.2809019 0.04754492 -0.47308433
000340 43 1e 76 be 43 38 08 3e 17 f0 69 3e 02 05 57 be
       -0.24034981 0.13302712 0.22845493 -0.20998004
000350 8f 0d b4 bd d4 bd f5 bc 6d 6d bf 3e a4 c4 82 bc
       -0.087916486 -0.029997744 0.37388173 -0.015962906
000360 07 09 ad 3e db b2 50 be 17 4e 4a be f0 87 92 3e
       0.3379595 -0.20380728 -0.19756351 0.28619337
000370 42 bd a9 be 3f 2d 23 bf 6c 6f 2e 3e b7 19 9b 3d
       -0.33152205 -0.63740915 0.17034692 0.07573264
000380 a1 5c e5 3e 69 b7 c6 bc 64 02 1d be 6c e1 f0 3e
       0.44797233 -0.024257379 -0.15332943 0.47046983
000390 16 ba 23 be 16 c2 64 3e 92 09 1a 3c 41 d4 fc 3e
       -0.15988955 0.22339663 0.009401696 0.49380687
0003a0 58 66 26 be 68 17 b2 3e db c8 4a bf 04 8e b4 3d
       -0.16249979 0.34783483 -0.7921273 0.0881615
0003b0 2b dc b9 3e 59 17 33 3e 93 9d 60 be 15 d1 10 3e
       0.36300787 0.17489375 -0.2193511 0.14142258
0003c0 19 2c 07 3e b9 29 00 3e 00 ea c5 3e c9 26 0a 3d
       0.13200416 0.12515916 0.3865509 0.033728395
0003d0 78 3e ff be 25 ef bb be 26 18 11 be 1e 8d 1e 3e
       -0.49852347 -0.3670589 -0.14169368 0.1548352
0003e0 06 f1 ff be ca 89 9a bd 59 13 34 3e b6 1a e1 be
       -0.49988574 -0.075458124 0.17585506 -0.4396569
0003f0 4a e3 7e 3d ad 82 7d 3e c4 d3 75 3e a3 10 40 3e
       0.06222848 0.2475688 0.24006563 0.18756346

layers.2.bias f4 [32]
000000 15 51 47 3e 55 97 64 3c d5 88 88 bd 8d 9a 70 3e
       0.19464524 0.013952096 -0.06666724 0.23496456
000010 77 d7 9d 3d 77 bc 01 be 2f 1f de 3d 93 1f 72 3d
       0.07707112 -0.1266955 0.108457915 0.059112143
000020 ee 6c c7 bc db 82 aa 3d aa 1a e0 3d 40 2a 87 3d
       -0.024343934 0.0832574 0.10942586 0.065998554
000030 ed a6 08 3e 97 c1 96 ba 4c e7 1b 3e bb 1d ca 3d
       0.13344927 -0.0011501786 0.15224952 0.09868952
000040 01 ae 00 3e c1 d0 3f 3e 6d bf 5f 3d b5 bd ca ba
       0.12566377 0.18731977 0.054625917 -0.0015467914
000050 d2 10 b2 3d 8c 70 bd 3d c9 62 10 3e 33 74 ee 3c
       0.086946145 0.09249982 0.14100184 0.029108142
000060 61 a8 f2 3d bb 2d ee 3c 74 0d f1 bd cb f7 c9 3d
       0.11848522 0.02907454 -0.11770144 0.09861716
000070 98 15 59 bc dd a7 d4 bd 1f a2 73 bc 29 42 a5 3d
       -0.013249777 -0.1038358 -0.014870196 0.0806926

layers.4.weight f4 [1172, 32]
000000 75 11 30 3e bd 50 0d be 31 d5 e0 bd 99 bb a0 3e
       0.1719416 -0.1380033 -0.10978163 0.31393126
000010 90 3b f5 be 89 c4 6b 3e 44 98 af be 8a d6 0c be
       -0.47897005 0.23024191 -0.34295857 -0.13753715
000020 d4 49 ad 3d 7e df 03 be 7d c4 4a bd 10 10 70 be
       0.08461347 -0.12878224 -0.049503792 -0.23443627
000030 9c aa 7f bd 24 83 b8 be 24 af b7 bc 18 f6 20 bf
       -0.062418565 -0.36037552 -0.02242238 -0.6287551
000040 84 4c de 3d 0f 99 a4 3e 0d 16 29 bf 8f e6 44 be
       0.10854438 0.32148024 -0.6604927 -0.19228576
000050 b4 53 3b be 9b 61 06 3e 53 89 08 bf 42 fd 63 bf
       -0.18293649 0.13123171 -0.5333454 -0.89058316
000060 2e 7d 98 3e 23 73 2c bf e4 4b 62 3e 18 6c 5e be
       0.29783005 -0.67363185 0.22099262 -0.21720922
000070 c1 dd 36 3e 03 1f 15 bf f6 9a c0 3d af fe fe be
       0.1785803 -0.58250445 0.094045565 -0.49803683
000080 8f 77 22 be f6 d4 7d be e3 8c 67 be 95 49 cf bd
       -0.1586592 -0.2478827 -0.22612338 -0.101214565
000090 61 43 94 3e 8a 68 6a be 46 a5 ad bd 0a 4b 67 3d
       0.28957656 -0.22891441 -0.08478789 0.056468047
0000a0 68 52 c9 be 1b d7 34 3e 40 70 32 3e f5 83 05 3e
       -0.39320683 0.17660181 0.17425632 0.13038619
0000b0 36 b1 1e 3e 20 be aa be e4 2f 0d be ae 46 7b 3e
       0.15497288 -0.3334818 -0.137878 0.24538681
0000c0 65 5c 62 be 50 bc 70 bd 0f ce de be 26 ee 31 be
       -0.22105558 -0.05877334 -0.43516585 -0.17376003
0000d0 90 52 64 3e d7 44 2c be ec fd db 3d e9 88 07 be
       0.2229712 -0.16823135 0.10741791 -0.13235821
0000e0 1a 27 05 bf 4b 66 24 3e e3 8f b1 bd cc 13 e5 3d
       -0.5201279 0.16054647 -0.08670022 0.111854166
0000f0 84 13 06 3e 95 ea a3 be 68 f4 b0 3d 08 68 50 3e
       0.13093382 -0.3201491 0.08640367 0.20352185
000100 6d b1 80 3d b5 1b 13 bf 7f 71 e5 3e 7e e1 0f 3e
       0.06283841 -0.5746415 0.44813153 0.14050862
000110 39 5a 97 bd e1 f0 ed 3e f3 e4 27 be b1 7f 97 3d
       -0.073902555 0.4647284 -0.16395931 0.07397402
000120 86 36 1a 3e 1e 8a 97 bd 90 e0 57 bd 5a 3e 82 bd
       0.15059862 -0.07399391 -0.052704394 -0.06359549
000130 18 33 a1 bd 40 a5 bd 3e b0 aa a5 bd 6e 1c 1c bf
       -0.078710735 0.37040138 -0.08089197 -0.6098088
000140 2e 9c 27 bd 5a 1e 5a be 51 d5 06 bf b3 3b 4f be
       -0.04092043 -0.2130064 -0.52669245 -0.20237617
000150 c0 35 f6 be f4 f0 d8 3e 63 7a b8 be e7 81 14 bf
       -0.48087883 0.42371333 -0.36030874 -0.58010715
000160 10 ae 15 be 2e c0 bb 3e 7e c5 4d 3e db 18 3e 3e
       -0.14617181 0.3667006 0.20094869 0.18564169
000170 b1 fc 94 bf a1 05 5f bf f2 68 43 be 73 cb e1 3d
       -1.1639615 -0.87117964 -0.19083002 0.11025133
000180 11 4e 57 be a9 df b1 3d 20 79 29 be 8c 5e d7 ba
       -0.21025874 0.08685238 -0.16550112 -0.0016431375
000190 11 6b 2f be 0f ae b7 be 98 58 4f bf 1b 7e 22 3e
       -0.17130686 -0.35874984 -0.8099456 0.15868418
0001a0 80 59 a1 be e5 08 8a 3d 81 87 c8 3e ca 62 37 3e
       -0.31513596 0.06739978 0.3916588 0.17908779
0001b0 da b8 a0 3e 97 68 e2 bd f8 19 88 3d d7 6f bc bc
       0.3139103 -0.11055105 0.06645578 -0.023002548
0001c0 98 d9 64 3e 85 eb 97 3e 38 7b ec be 0d c4 09 bf
       0.2234863 0.29671875 -0.46187758 -0.53814775
0001d0 c6 1e 92 3e 5e fe dc 3c ec de 70 3d 9f c9 8b be
       0.28539103 0.02697676 0.058806345 -0.27302262
0001e0 62 bc 7e 3e 0c f1 67 be 9f 84 c7 bd 98 fe a7 be
       0.2487655 -0.22650546 -0.09742092 -0.32811427
0001f0 dc 0a 19 bf fb 85 95 3e ff 6d e7 3e ea 8a 10 be
       -0.59782195 0.2920378 0.45201108 -0.14115492
000200 e4 77 16 3e 76 f1 84 3d 0d c7 2c bf 97 df 89 bd
       0.14694172 0.064913675 -0.6749123 -0.067320995
000210 15 3d e6 3c 71 51 04 bf 75 26 28 bf 06 87 8f 3d
       0.028105298 -0.5168677 -0.6568368 0.070081756
000220 94 d6 f2 be e1 96 65 bd 06 95 8d 3e 9d df 11 3e
       -0.47429335 -0.056052092 0.27652758 0.14245458
000230 89 de 4e 3e dc bd b2 be 7c 47 aa 3d 36 d8 88 3e
       0.20202078 -0.34910476 0.08314416 0.26727456
000240 e5 8c 51 3e 7c 28 9b 3e f3 88 1d bd ea 49 17 bf
       0.20463903 0.30304325 -0.038460683 -0.5909716
000250 33 8e af bc f2 dd 70 3d 1d 26 1b 3e 84 39 84 3e
       -0.02143011 0.058805414 0.15151258 0.2582513
000260 03 01 97 be ab e0 97 be 24 d5 4f be 62 7e a0 3d
       -0.2949296 -0.29663596 -0.2029615 0.078366056
000270 21 f6 74 bf 60 93 fc bd d1 aa e1 3d 28 79 b2 3e
       -0.9568806 -0.12332797 0.11018909 0.3485806
000280 6d 21 cf bd cc 59 75 be b5 e1 e0 3e 39 14 2f 3e
       -0.10113797 -0.23960036 0.439222 0.17097558
000290 cb 17 b5 be 36 60 6d 3d 94 b2 75 bf 2c d6 dc be
       -0.35369715 0.057953082 -0.95975614 -0.4313215
0002a0 a5 e3 21 3e a7 12 80 3d 96 dd a3 3e ca fd d4 3d
       0.15809496 0.06253558 0.32004994 0.10399969
0002b0 6f 1c bd bd a4 f1 a9 3d 97 d1 38 be c6 a7 ee 3d
       -0.09233939 0.082980424 -0.18048702 0.11653094
0002c0 dc ac d0 bd 1e 68 74 be 8e 68 63 bf 71 c9 f0 be
       -0.1018922 -0.23867843 -0.8883141 -0.47028688
0002d0 32 bd 66 be 9b 25 04 bf 4f 64 f9 be 6c 2b 23 3e
       -0.2253311 -0.5161988 -0.48709342 0.15934533
0002e0 e4 af 81 3e be 60 43 3d 7d 58 21 be a8 c5 c8 3e
       0.25329506 0.047699682 -0.15756412 0.392133
0002f0 16 8c 0c bf 36 bb f6 be 4e 1d 88 3d ec 8b ed be
       -0.54901254 -0.48189706 0.066462144 -0.46395814
000300 fc a2 8b bb 20 33 79 be 86 c0 de 3d dc 44 96 be
       -0.0042613726 -0.24335909 0.10876565 -0.2934941
000310 de de 03 bf 69 dd 5d 3d 41 71 13 be 96 b4 d7 3d
       -0.51511943 0.05416623 -0.14398672 0.10532491
000320 51 0c 64 3e 27 70 d6 3d 90 d3 64 3e 46 c9 0a bf
       0.22270323 0.1047061 0.2234633 -0.5421337
000330 a5 b6 b6 be 5e f5 fd 3e 76 e2 01 3e 4f c7 09 bf
       -0.35686222 0.49601263 0.12684044 -0.53819746
000340 7b 0a db 3d 4b 3d a9 be 8a a8 91 3c bc 7c 62 be
       0.10695358 -0.33054575 0.017780561 -0.22117895
000350 49 10 da 3c a1 67 82 3b 37 9a af be 8f 5a 2e 3c
       0.026619093 0.0039796387 -0.34297344 0.010641708
000360 96 0a 6d bf 5c 80 9f 3d 75 95 93 3e eb 31 91 be
       -0.9259428 0.077881545 0.28824964 -0.28358397
000370 36 f9 85 be be 48 9b be 4f a6 b6 3d 32 8d 11 3d
       -0.26166695 -0.30328935 0.089184396 0.035535045
000380 5d 00 25 3e a5 b0 19 3d fb d5 a4 3e d6 79 a1 be
       0.1611342 0.037521977 0.32194504 -0.31538266
000390 25 b6 be be f7 30 81 3e 70 98 f9 be ca e7 b2 be
       -0.3724834 0.2523267 -0.48749113 -0.34942466
0003a0 d2 b3 78 3e b4 ad 05 bf 0d a7 de 3d 92 c4 cb 3d
       0.24287346 -0.52218175 0.10871706 0.09949602
0003b0 7f 64 b4 bd dd fd 27 be 07 0d c7 be 45 dd 9a 3e
       -0.088082306 -0.16405435 -0.38877127 0.3024694
0003c0 76 b3 21 bf f7 a5 d6 3b 40 28 18 3e f4 d8 48 3d
       -0.6316446 0.0065505463 0.14859104 0.049035028
0003d0 a3 c0 a1 be 85 91 6c 3e d1 10 bf 3d bc f7 1e bf
       -0.31592283 0.23102386 0.09329379 -0.6209676
0003e0 b0 bd 8d 3d 0e 2b d8 bd ad b8 f5 3d 4b b3 e6 bc
       0.06920946 -0.10555087 0.11998115 -0.028161665
0003f0 ac 41 b7 3c 5f b8 f7 be d3 70 0d 3e 7e c2 12 bf
       0.022370182 -0.4838285 0.1381257 -0.5732802

layers.4.bias f4 [1172]
000000 1c 5c f9 3b 1b c1 35 3e 98 66 19 be 78 29 33 3e
       0.0076098572 0.17749445 -0.14980543 0.17496288
000010 76 94 80 3e c5 17 bf bd 27 e8 2b be 16 d9 9a be
       0.25113267 -0.093307056 -0.16787778 -0.30243748
000020 29 5d 94 be 00 02 40 be b5 4a 6d ba 28 4b 41 be
       -0.28977326 -0.18750763 -0.0009051965 -0.18876326
000030 6b 63 86 bd 52 5b 91 be 60 db 57 be ac 59 f9 bd
       -0.06561931 -0.28389984 -0.21079779 -0.12175307
000040 84 b5 a1 be 87 07 00 be c0 f0 29 be 2c 48 94 bd
       -0.31583798 -0.12502871 -0.16595745 -0.07240328
000050 f1 9a 0e be 59 61 5d be ad ec 51 3c fc 29 ea 3c
       -0.13926293 -0.21619166 0.012812776 0.028584473
000060 a5 62 2f bd 12 68 94 3d 93 b2 31 be c3 93 6c be
       -0.042818684 0.07246412 -0.17353277 -0.23103242
000070 28 fd 66 be 1f e5 12 be 2c 01 6a be a8 f2 55 bc
       -0.22557509 -0.14345215 -0.2285201 -0.013058342
000080 ca c1 60 be 0a 43 1a bd 51 cb ba 3c cc b0 f4 bd
       -0.21948925 -0.03766159 0.022802027 -0.11947784
000090 bd 8a be bd e2 6e 9e be 2c 31 e8 bd 2c 98 49 3d
       -0.09303806 -0.30943972 -0.11337504 0.049217388
0000a0 f4 a7 b3 bc 77 c0 53 be 58 ea 9b 3d dd 23 11 be
       -0.021930672 -0.20678888 0.07613057 -0.14173837
0000b0 ae 63 5c be 1a 0f 8e be 41 c0 ff bc 70 52 27 be
       -0.215224 -0.27745897 -0.031219603 -0.16340041
0000c0 70 d9 05 be 30 23 97 be fb 7f fc bc 4d cc a4 be
       -0.13071227 -0.29519033 -0.030822745 -0.3218712
0000d0 da e0 23 be da 06 0e be 2b 30 e2 3d 71 1f 47 3e
       -0.16003743 -0.13869801 0.110443436 0.19445588
0000e0 2f df ac 3d 61 af c1 3d f3 93 55 be a2 fb 9d 3c
       0.084410064 0.09457279 -0.2085722 0.019285027
0000f0 5e 5c 93 3d 2f 8c 4f bc 10 a4 78 3e 2e bd aa 3c
       0.07195352 -0.0126677 0.24281335 0.020842161
000100 46 0e f1 bd 51 d5 19 bc 38 57 1c be 9f d6 dd bd
       -0.117703006 -0.0093892375 -0.15267646 -0.10831951
000110 e4 e5 df bd a6 fa 87 3e ea d9 1c be f2 a0 ae be
       -0.1093252 0.26558417 -0.15317503 -0.34107167
000120 fa 81 62 bd 56 a0 54 be 0b 78 20 be 55 9f 61 3d
       -0.055299737 -0.20764288 -0.15670793 0.05508359
000130 a3 0e a2 be 4f 34 f2 3d a0 11 86 be b3 47 28 3c
       -0.31651792 0.11826383 -0.26185322 0.010271001
000140 5f d1 d6 bc a6 25 b5 3d 34 f2 c9 3b bf bc 3a 3e
       -0.026222883 0.088450715 0.006162906 0.18236063
000150 55 fe 49 be d6 7e cd 3c 11 64 02 3b 47 93 a3 bd
       -0.19725926 0.025084894 0.001989607 -0.07987075
000160 c5 59 22 3e a0 7e 35 bd 02 06 92 be 93 7c 20 3d
       0.15854557 -0.044310212 -0.2852021 0.039181303
000170 80 a8 8e be 8f ad cd 3c 20 29 12 be 40 f8 85 bd
       -0.2786293 0.025107173 -0.142735 -0.065414906
000180 a8 d2 19 be 00 c8 cc bb 61 d2 bc bd b7 35 11 be
       -0.15021765 -0.006249428 -0.09219814 -0.14180647
000190 97 62 a1 be cf 01 43 be 96 f6 a6 be fd 4d fe 3b
       -0.3152053 -0.19043659 -0.32610005 0.007760762
0001a0 dc 77 54 3d 01 f2 ca be 07 8e 65 bd cf 37 68 be
       0.05187212 -0.3963776 -0.05604365 -0.2267754
0001b0 23 7f 66 bd c1 e4 97 3d a9 8a 58 be a0 ca 27 bd
       -0.05627359 0.07416678 -0.21146645 -0.040964723
0001c0 0a 83 8c be 5f 66 b0 3e 40 4a 12 be dc 72 33 be
       -0.27443725 0.34453103 -0.14286137 -0.17524284
0001d0 f0 f3 68 3d ac f9 2a 3e 76 1a 2f be 8a 6b 17 3f
       0.056873262 0.16696805 -0.17099938 0.59148467
0001e0 0a 48 80 3d b6 e9 f4 bc 8e ec 60 bd 53 86 34 bb
       0.0626374 -0.029896598 -0.054913096 -0.0027545884
0001f0 a1 50 48 be e1 b1 46 be f6 2a e1 bd d4 dc 8a 3d
       -0.19562007 -0.19403793 -0.10994522 0.06780401
000200 ec 62 ed 3d cf ba 22 be 8d b2 f5 bd e9 c1 e6 bc
       0.115911335 -0.15891574 -0.119969465 -0.028168635
000210 2f 43 91 be 06 5f 89 be 08 33 bc bd 43 bd fe 3b
       -0.2837157 -0.2683031 -0.09189421 0.0077740266
000220 e9 14 13 be 5f ea 9a bd 04 3a c1 bc 58 36 2c 3d
       -0.14363445 -0.07564234 -0.023587234 0.042044014
000230 ec b3 17 be 33 7f 96 3d 4d a9 c0 bd 30 d4 82 be
       -0.14814728 0.0734848 -0.094072916 -0.2555251
000240 b7 bb a2 3d ad 79 03 be 40 bd 27 bd 28 d8 dc bd
       0.0794596 -0.12839384 -0.040951967 -0.10783416
000250 a4 cb 8a bd cc f6 03 be 15 fa b0 bd 70 b7 e6 3c
       -0.067771226 -0.12887114 -0.08641449 0.028163642
000260 1d e7 9f bc cf 1f 0e be 55 b6 5c bd 44 11 b1 bb
       -0.019519383 -0.13879322 -0.053884823 -0.0054036696
000270 46 2f 5e bc 51 eb 27 be 84 49 04 bd fb 08 80 bd
       -0.013561076 -0.1639836 -0.032296672 -0.06251713
000280 8c 8f c5 bd fe 48 1a be 6a c2 5a be eb 33 0b be
       -0.0964652 -0.15066907 -0.21363226 -0.13594024
000290 b4 68 c7 bd 07 db 15 be 81 61 a7 be d5 3f 20 be
       -0.097367674 -0.14634334 -0.32691577 -0.1564935
0002a0 28 e3 6b be 7a 22 62 be 63 eb 88 be 9d 3b b9 be
       -0.23035872 -0.22083464 -0.26742086 -0.36178294
0002b0 f3 1b 9c bd 85 a2 0a be 32 c5 a3 be 1e 85 31 be
       -0.076225184 -0.13538559 -0.31986386 -0.17335936
0002c0 c2 e3 c8 bd a4 83 14 be 15 10 0c be 1e 48 af bd
       -0.09809066 -0.14503342 -0.1367801 -0.08558677
0002d0 ed 9c 2f 3e 25 9a 22 3e 22 fe 02 be f8 be ed bc
       0.17149706 0.15879114 -0.12792256 -0.029021725
0002e0 fb 30 fa 3b c9 ab 23 be 85 01 38 be 52 59 3c be
       0.0076352335 -0.159835 -0.1796933 -0.18393448
0002f0 10 33 ab be 31 15 1d be 98 22 5d be 67 f6 5e be
       -0.33437395 -0.15340115 -0.21595228 -0.21773683
000300 75 42 49 be 38 64 42 be 33 2b 92 be dd 01 5b be
       -0.19654258 -0.18983543 -0.28548583 -0.2138743
000310 0c 7f 42 bd a6 b9 72 be f6 3f 0e be 8a d0 34 be
       -0.047484443 -0.23703632 -0.13891587 -0.17657676
000320 d9 c3 1a bc cd 14 8b 3d f4 a3 62 be ee c6 53 be
       -0.009446108 0.06791077 -0.22132856 -0.20681354
000330 eb e5 6d 3d 75 69 81 bd 9f dc 72 3c 59 5d 2e be
       0.058080595 -0.063189425 0.014823108 -0.17027797
000340 50 b6 6a be 13 5c 9a be 2b 75 69 be ed 63 87 be
       -0.22921109 -0.30148372 -0.22798602 -0.26443425
000350 a7 c7 b3 be e8 27 c2 be 30 21 0c 3d d4 5a ea bd
       -0.3511326 -0.3792107 0.034211338 -0.11443105
000360 86 56 48 be 39 17 d5 bd 76 14 08 be 8a cf 87 be
       -0.19564256 -0.1040482 -0.13289055 -0.26525527
000370 f8 73 5e bd 62 43 60 be 6e 1e 84 bd 42 5c 20 3b
       -0.054309815 -0.21900705 -0.064511165 0.0024469052
000380 1f c4 0f 3d 85 4f 0d be 6b ed 06 bd b3 4c 2c 3d
       0.035099145 -0.13799866 -0.032941263 0.042065334
000390 98 6a cb be 9f f8 1c be 5a 7f 41 bc 49 38 4c be
       -0.39729762 -0.15329216 -0.011810148 -0.19943346
0003a0 fd 8b 86 be dc 60 c4 bd 6f fb 25 3d 67 f9 30 bd
       -0.26278678 -0.09588787 0.04052299 -0.0432066
0003b0 90 35 1b be 16 cb b3 bc 10 8c 29 be 9e 88 f4 bd
       -0.15157151 -0.021947425 -0.16557336 -0.1194012
0003c0 63 23 51 be 81 c5 5f bd 8e a7 26 3e 22 37 fb bb
       -0.20423655 -0.054631714 0.16274855 -0.0076664845
0003d0 06 19 c9 bd 63 13 5f 3e 49 6c 8c bb 7a 44 de bd
       -0.09819226 0.21784739 -0.0042853695 -0.108529046
0003e0 ae 46 5d be 49 60 57 be 56 70 26 bd f3 ee 07 3c
       -0.21608993 -0.21032824 -0.040634476 0.008296716
0003f0 fa 74 55 be 87 85 e4 bd d2 e2 82 be 6c df f9 bd
       -0.20845404 -0.11158281 -0.25563675 -0.122008175
